Assets/Test/Config/results/CheeseWorld3/CheeseWorld3/CheeseWorld3-4245.pt (torch, 528988 bytes, 48 tensors)

discrete_act_size_vector f4 [1, 2]
10.0 10.0
00000000: 0000 2041 0000 2041

network_body.observation_encoder.processors.0.normalizer.running_mean f4 [24]
1.6408384 1.9705608 2.2373993 2.301224 2.0866685 2.45266 2.579841 2.6537917
2.5756009 2.9762123 2.9227505 3.0068297 3.0991516 3.563589 3.2673113 3.3648133
3.70702 4.178521 3.6222327 3.7362225 4.328779 4.877768 3.9828076 4.0784254
00000000: fe06 d23f 563b fc3f 8d31 0f40 4147 1340
00000010: fa8b 0540 62f8 1c40 1d1c 2540 b9d7 2940
00000020: a5d6 2440 437a 3e40 580e 3b40 e66f 4040
00000030: 8058 4640 d811 6440 a11b 5140 1a59 5740
00000040: d13f 6d40 72b6 8540 a9d2 6740 451e 6f40
00000050: 5c85 8a40 ad16 9c40 52e6 7e40 7682 8240

network_body.observation_encoder.processors.0.normalizer.running_variance f4 [24]
14840.281 17488.32 43827.7 41270.734 18707.104 21242.979 46175.434 43336.082
22214.223 24213.592 47067.676 44405.81 24638.264 26891.326 47058.61 44434.906
27306.533 27361.646 46071.07 43481.605 27212.03 27186.562 44162.754 41059.867
00000000: 20e1 6746 a4a0 8846 b333 2b47 bc36 2147
00000010: 3526 9246 f5f5 a546 6f5f 3447 1548 2947
00000020: 728c ad46 2f2b bd46 addb 3747 cf75 2d47
00000030: 877c c046 a716 d246 9cd2 3747 e892 2d47
00000040: 1155 d546 4bc3 d546 12f7 3347 9bd9 2947
00000050: 0f98 d446 2065 d446 c182 2c47 de63 2047

network_body.processors.0.normalizer.running_mean f4 [24]
1.6408384 1.9705608 2.2373993 2.301224 2.0866685 2.45266 2.579841 2.6537917
2.5756009 2.9762123 2.9227505 3.0068297 3.0991516 3.563589 3.2673113 3.3648133
3.70702 4.178521 3.6222327 3.7362225 4.328779 4.877768 3.9828076 4.0784254
00000000: fe06 d23f 563b fc3f 8d31 0f40 4147 1340
00000010: fa8b 0540 62f8 1c40 1d1c 2540 b9d7 2940
00000020: a5d6 2440 437a 3e40 580e 3b40 e66f 4040
00000030: 8058 4640 d811 6440 a11b 5140 1a59 5740
00000040: d13f 6d40 72b6 8540 a9d2 6740 451e 6f40
00000050: 5c85 8a40 ad16 9c40 52e6 7e40 7682 8240

network_body.processors.0.normalizer.running_variance f4 [24]
14840.281 17488.32 43827.7 41270.734 18707.104 21242.979 46175.434 43336.082
22214.223 24213.592 47067.676 44405.81 24638.264 26891.326 47058.61 44434.906
27306.533 27361.646 46071.07 43481.605 27212.03 27186.562 44162.754 41059.867
00000000: 20e1 6746 a4a0 8846 b333 2b47 bc36 2147
00000010: 3526 9246 f5f5 a546 6f5f 3447 1548 2947
00000020: 728c ad46 2f2b bd46 addb 3747 cf75 2d47
00000030: 877c c046 a716 d246 9cd2 3747 e892 2d47
00000040: 1155 d546 4bc3 d546 12f7 3347 9bd9 2947
00000050: 0f98 d446 2065 d446 c182 2c47 de63 2047

network_body._body_endoder.seq_layers.0.weight f4 [128, 24]
-0.005015142 -0.19709316 0.09058218 0.18535513 0.032979514 0.22715163 -0.108111225 0.2871592
0.0061333175 -0.18963933 0.025874097 -0.15833788 0.27109197 0.016608847 0.16356803 0.21694596
-0.18275821 0.015697144 -0.05064249 -0.19434117 0.14525867 -0.067846276 0.37975726 0.10116434
0.08896371 -0.2779692 0.15764387 -0.19098006 -0.028939454 0.23851576 -0.08318315 -0.29109076
0.06864438 0.07515493 0.22738451 0.11856729 0.23876925 -0.12131416 -0.22612393 0.25767848
-0.30127484 -0.23075135 0.12546605 -0.07492817 -0.35343957 -0.12729865 -0.17465737 -0.21317384
0.3390441 -0.5765379 -0.3768387 0.034456413 0.07747671 0.12438215 -0.3391842 -0.515673
-0.3670253 -0.17271948 -0.27805594 -0.20967798 -0.1255296 -0.1376591 -0.36662388 -0.18220112
-0.10401155 -0.18353005 -0.023567125 -0.17284185 0.32248184 0.19362627 -0.36826095 -0.30828238
-0.0150965275 0.10054887 -0.2525486 0.25024387 0.2489728 -0.1717141 -0.3561094 0.11296873
-0.35128683 0.60641533 0.016298903 0.03837804 -0.06650381 0.21993844 -0.08170115 0.18350644
0.19197154 -0.10197594 -0.04723532 -0.006429795 0.060556483 -0.04374408 0.1627918 0.059400693
-0.1784958 0.10610021 0.0203238 -0.18163125 0.3570681 -0.43397206 0.14805028 0.33526203
0.07454873 0.36450234 -0.17021263 0.29423994 -0.07893538 -0.19401665 0.15373728 0.3627011
-0.3326306 -0.15918957 -0.017513636 0.15276104 0.20288076 0.12643434 -0.23090494 0.10230285
-0.054219227 -0.098358445 0.11169588 -0.23870148 0.41591445 0.34305167 0.070503496 -0.18686965
0.18235892 -0.052038625 -0.19243836 -0.35776022 0.22726142 0.04463069 0.10247144 0.2920438
-0.2553279 0.17196639 0.25465506 0.1482876 -0.19715711 0.18068323 -0.13350138 0.13221003
-0.014283064 0.04079615 0.20675087 -0.14871149 -0.067726895 0.2155548 0.1008981 0.09605674
0.19833119 0.029035367 0.3399493 -0.02555671 -0.42895308 -0.05067153 -0.117388844 0.09223572
-0.100089 -0.10180946 -0.084341496 -0.014916314 -0.22546543 0.21197866 -0.23741484 0.07741848
-0.10387519 -0.0718602 -0.11596433 -0.12026882 -0.13196813 -0.18844214 0.23326536 -0.044639643
0.3814168 0.3309601 -0.21036074 0.21755457 -0.52558875 -0.08384683 -0.29258963 0.025269974
0.21331508 0.1802298 -0.011391608 0.138816 0.15540779 -0.25542587 -0.24992287 -0.04609165
-0.28889054 0.022289567 -0.022091435 0.060443122 0.418417 -0.26574522 0.22486718 0.026804315
-0.019887822 0.039471276 -0.2474328 0.16538543 -0.07581832 -0.05753995 0.049138904 0.12497
0.119308956 0.26575038 -0.10263282 0.22599043 0.04968413 0.3315657 0.004010212 -0.021750879
0.24113056 0.13358675 -0.22628956 -0.10749561 -0.20275633 -0.63089395 -0.33219168 -0.27368045
-0.38493767 -0.12251077 -0.11494188 0.26415932 0.027522532 -0.4003462 -0.2520325 0.0018825064
-0.10618454 0.22735772 -0.0958358 0.003109169 -0.00652099 -0.35100663 -0.19359021 -0.2515932
0.2912057 0.35987395 0.18172537 -0.09528833 0.11856958 -0.25187182 -0.031545665 -0.07274396
-0.03862391 -0.14841965 -0.23062298 0.30605382 0.057630174 -0.13560575 0.05651045 0.10613504
00000000: 0f56 a4bb cad2 49be 2683 b93d bccd 3d3e
00000010: 8715 073d 709a 683e 6b69 ddbd 8806 933e
00000020: fff9 c83b d030 42be eaf5 d33c 5323 22be
00000030: 91cc 8a3e 470f 883c 617e 273e 1527 5e3e
00000040: f824 3bbe 4c97 803c 806e 4fbd 5f01 47be
00000050: b0be 143e fdf2 8abd 8b6f c23e 402f cf3d
00000060: 9b32 b63d fb51 8ebe 656d 213e 4790 43be
00000070: 6f12 edbc 7a3d 743e ed5b aabd d909 95be
00000080: 6d95 8c3d d4ea 993d 7cd7 683e 68d3 f23d
00000090: ed7f 743e 8f73 f8bd 088d 67be 6fee 833e
000000a0: b240 9abe 154a 6cbe 2c7a 003e f173 99bd
000000b0: 08f6 b4be 945a 02be 62d9 32be 3e4a 5abe
000000c0: 3097 ad3e fd97 13bf 01f1 c0be 2b22 0d3d
000000d0: 1cac 9e3d 12bc fe3d 8da9 adbe 2503 04bf
000000e0: bdea bbbe 60dd 30be 595d 8ebe d3b5 56be
000000f0: d58a 00be 82f6 0cbe 20b6 bbbe ee92 3abe
00000100: 0204 d5bd 4def 3bbe d80f c1bc 74fd 30be
00000110: 571c a53e f745 463e b38c bcbe 30d7 9dbe
00000120: 6d57 77bc 91ec cd3d 0d4e 81be f71f 803e
00000130: baf2 7e3e d2d5 2fbe f953 b6be 265c e73d
00000140: dedb b3be 093e 1b3f 4785 853c 4b32 1d3d
00000150: 2633 88bd 8b37 613e ef52 a7bd 1de9 3b3e
00000160: 3094 443e c3d8 d0bd d379 41bd 08b1 d2bb
00000170: 130a 783d fe2c 33bd e5b2 263e 244e 733d
00000180: 9ac7 36be 114b d93d 197e a63c 8bfd 39be
00000190: a1d1 b63e 9631 debe 7e9a 173e 77a7 ab3e
000001a0: 01ad 983d 0da0 ba3e 384c 2ebe 9ea6 963e
000001b0: dfa8 a1bd 4dac 46be 4e6d 1d3e f5b3 b93e
000001c0: 8f4e aabe 9702 23be c278 8fbc 646d 1c3e
000001d0: f9bf 4f3e 0178 013e 5872 6cbe 2884 d13d
000001e0: fb14 5ebd 2770 c9bd cfc0 e43d 296e 74be
000001f0: bdf2 d43e 78a4 af3e 2364 903d c25a 3fbe
00000200: 4cbc 3a3e 7426 55bd 900e 45be 592c b7be
00000210: 38b7 683e acce 363d 8cdc d13d c486 953e
00000220: 57ba 82be f517 303e 2662 823e b4d8 173e
00000230: 8ee3 49be 0605 393e 96b4 08be 1162 073e
00000240: 8303 6abc dd19 273d 80b6 533e d347 18be
00000250: 66b4 8abd 66ba 5c3e aaa3 ce3d 65b9 c43d
00000260: 5517 4b3e 94db ed3c d60d ae3e 4e5c d1bc
00000270: bd9f dbbe f38c 4fbd 9069 f0bd 15e6 bc3d
00000280: 76fb ccbd 7a81 d0bd 3cbb acbd 8e63 74bc
00000290: 69e0 66be ef10 593e e01c 73be 948d 9e3d
000002a0: 84bc d4bd 712b 93bd b57e edbd 804f f6bd
000002b0: a722 07be faf6 40be 1ddd 6e3e 0fd8 36bd
000002c0: 1049 c33e 9a73 a93e ce68 57be a0c6 5e3e
000002d0: fc8c 06bf e3b7 abbd 4fce 95be fa02 cf3c
000002e0: 456f 5a3e 298e 383e dea3 3abc c825 0e3e
000002f0: 3823 1f3e 2ec7 82be c8eb 7fbe 99ca 3cbd
00000300: 76e9 93be 9c98 b63c 19f9 b4bc 3593 773d
00000310: c13a d63e c20f 88be 9543 663e b994 db3c
00000320: c9eb a2bc a2ac 213d 065f 7dbe cc5a 293e
00000330: a346 9bbd 03af 6bbd e045 493d 45f0 ff3d
00000340: 4158 f43d 6f10 883e 2831 d2bd 096a 673e
00000350: 9681 4b3d fbc2 a93e 1968 833b e62e b2bc
00000360: eeea 763e f7ca 083e 73b8 67be a926 dcbd
00000370: 5b9f 4fbe 4482 21bf 0715 aabe d81f 8cbe
00000380: 8d16 c5be ede6 fabd a666 ebbd e43f 873e
00000390: ef76 e13c 2dfa ccbe 670a 81be 6fbe f63a
000003a0: 4877 d9bd 76d0 683e 8f45 c4bd 33c3 4b3b
000003b0: 07ae d5bb 24b7 b3be 833c 46be d3d0 80be
000003c0: ea18 953e 6641 b83e 3716 3a3e 8726 c3bd
000003d0: 9cd4 f23d 58f5 80be 0736 01bd c9fa 94bd
000003e0: 1b34 1ebd 52fb 17be 6e28 6cbe 16b3 9c3e
000003f0: 9e0d 6c3d 3cdc 0abe 8077 673d 545d d93d

network_body._body_endoder.seq_layers.0.bias f4 [128]
0.005449203 0.0014683432 0.007461975 -0.0023562028 0.007842536 -0.0016531178 -0.0004772048 -0.009763678
-0.002839809 0.0010424104 0.0069247033 0.0029977353 0.00350215 5.281465e-05 -0.0015641244 0.005656648
-0.006603669 -0.0045653544 -0.004887851 -0.00026862358 -0.003739571 -0.0022678617 0.0023916618 -0.0050497036
0.0033074468 0.0021665213 0.0043873317 -0.0025060547 0.0032874753 0.000111276735 -0.004476137 0.0030573655
0.008504759 0.0021484648 -0.0007871827 0.0013335076 0.0025273783 0.0014782499 -0.00041358982 0.0019709251
0.004371981 0.006450659 -0.002104063 0.0037847324 -0.0038851753 -0.0012224643 0.0017075547 -0.0018655056
0.0068474133 0.0046897456 -0.0014688093 0.0011829623 0.008836887 0.004754234 -0.0008651911 0.003657562
1.3132541e-05 -0.0012966428 -0.0017570787 -0.0024108356 0.0042658043 0.006228224 0.005240604 0.0014335344
-0.00156464 0.0041178344 -0.00068557373 0.003671856 0.0023624988 0.006272653 -0.0074852696 0.0051229084
0.009403765 0.004406948 -0.0017785621 0.0052616326 -0.0010061692 0.0011234368 0.0043369243 0.006946947
0.0012028167 -0.00029079648 -0.004327452 -0.0036602668 0.0021357355 0.0014820123 0.0012921988 -0.0015113475
0.005500932 0.0041238274 -0.0048470288 -0.0017163871 0.0010105107 0.007030254 0.0036464543 -0.006297816
0.0014024497 -0.0006845085 0.0031681706 0.00211871 0.004607243 -0.0028268413 0.004652195 0.0024140675
0.0062676966 -0.0057692477 0.0005832442 0.00039562804 0.002534135 -0.0013970868 0.005067963 -0.0005999417
0.0026413095 -0.004321527 0.0026689605 0.0059366366 0.0039930707 -0.00050427014 -0.0018903837 0.004399728
0.0037656855 0.0027796659 -0.002601825 0.0004294932 0.0013022282 0.0018912227 -0.00021107236 0.0043897624
00000000: 3a8f b23b 6c75 c03a 9583 f43b 866a 1abb
00000010: fb7d 003c 6ead d8ba 5831 fab9 d5f7 1fbc
00000020: 171c 3abb 7da1 883a 9fe8 e23b a775 443b
00000030: 5484 653b 4c85 5d38 4e03 cdba 675b b93b
00000040: 9763 d8bb f898 95bb 442a a0bb 0cd6 8cb9
00000050: 9713 75bb 68a0 14bb 6dbd 1c3b fc77 a5bb
00000060: c0c1 583b 32fc 0d3b 9bc3 8f3b 9f3c 24bb
00000070: af72 573b 3e5d e938 8fac 92bb 155e 483b
00000080: 8b57 0b3c 42cd 0c3b f05a 4eba 17c9 ae3a
00000090: 5fa2 253b d6c1 c13a 16d7 d8b9 a32a 013b
000000a0: d642 8f3b 0d60 d33b 52e4 09bb 4609 783b
000000b0: 6d9e 7ebb 183b a0ba 07d0 df3a fb83 f4ba
000000c0: 4460 e03b 70ac 993b 1085 c0ba a10d 9b3a
000000d0: 97c8 103c 68c9 9b3b fecd 62ba b5b3 6f3b
000000e0: d653 5c37 1df4 a9ba c74d e6ba 1cff 1dbb
000000f0: 29c8 8b3b 2116 cc3b 5fb9 ab3b 6fe5 bb3a
00000100: 9b14 cdba e6ee 863b 13b8 33ba 85a3 703b
00000110: 27d4 1a3b d48a cd3b fe46 f5bb 12de a73b
00000120: 4012 1a3c 2968 903b a41e e9ba c669 ac3b
00000130: 70e1 83ba 4940 933a c21c 8e3b 37a3 e33b
00000140: d5a7 9d3a 0b76 98b9 4ccd 8dbb 16e1 6fbb
00000150: b2f7 0b3b 1540 c23a ff5e a93a 6818 c6ba
00000160: 2a41 b43b 2c21 873b d3d3 9ebb 65f8 e0ba
00000170: 1d73 843a 0c5e e63b 5af9 6e3b e95d cebb
00000180: 67d2 b73a 9670 33ba 15a1 4f3b 0eda 0a3b
00000190: 5bf8 963b 8742 39bb 7171 983b 5535 1e3b
000001a0: 4061 cd3b f50b bdbb dbe4 183a 4c6c cf39
000001b0: bb13 263b 741e b7ba 2811 a63b 6845 1dba
000001c0: d219 2d3b 999b 8dbb bae9 2e3b 1e88 c23b
000001d0: 4ed8 823b ff30 04ba c0c6 f7ba 982b 903b
000001e0: b8c9 763b 0e2b 363b 6183 2abb 9a2d e139
000001f0: 87af aa3a e7e2 f73a 4e53 5db9 ffd7 8f3b

network_body._body_endoder.seq_layers.2.weight f4 [128, 128]
0.02396518 0.19025555 0.0691974 0.0043242425 0.0039468915 -0.0382976 -0.054514613 0.08907724
0.035707176 0.1442008 -0.08708281 -0.0069156624 0.04466952 -0.01692927 -0.02421293 0.06055167
0.0599192 0.14544013 -0.07827379 -0.019348728 0.037117895 -0.08180499 -0.10745341 0.055951085
-0.083984375 -0.009551399 0.27030048 0.08661618 -0.07338506 0.003610047 0.012565918 0.01274353
-0.038375355 0.037932362 -0.063936085 0.0071071717 0.12442961 0.05402129 -0.05111177 0.06394401
0.2205192 -0.08369204 0.07245629 0.050340146 -0.0008690489 0.082218386 0.13020916 0.029086981
-0.024427423 -0.049613953 -0.053573243 0.06893259 0.0588169 -0.040948052 -0.062060725 0.04550656
0.15894654 -0.025097383 -0.16716234 -0.17172301 0.08204133 0.052434318 -0.028122004 -0.0038516084
0.14259483 -0.062071994 -0.056346714 0.026076866 -0.14739612 0.044578593 0.021210888 0.11442728
0.040280752 0.0027925915 -0.014798562 0.09527625 0.12541993 -0.16384026 -0.2243144 -0.109203465
0.037777655 -0.07938028 0.08176635 -0.03894219 -0.09057958 0.0649001 0.06957796 0.08571663
-0.16971087 0.08220399 0.07684604 0.0032810718 0.04539935 -0.016144957 -0.04197268 -0.020842606
-0.023568615 -0.09431346 -0.039236374 0.014403985 0.1364122 0.04230703 0.06720711 -0.091412045
0.108752854 -0.13852538 -0.011902114 -0.024678666 -0.05766415 0.056666397 -0.016359491 0.014105867
0.056744218 0.03185724 0.061453763 -0.089947276 0.057500634 -0.054358426 0.021089168 -0.035775762
-0.13679339 0.035556465 -0.021928068 -0.0019688532 0.018399868 0.102342084 0.08387673 0.017514445
0.007452418 0.05685769 0.062457718 -0.01437398 -0.05465184 -0.08275391 0.028935337 0.10981453
0.025219694 -0.079748034 -0.041194655 -0.117573485 -0.05217727 -0.075616606 0.12771702 -0.10547483
0.078307875 -0.17779405 0.17779016 0.06945518 0.03625575 0.14987502 0.09368614 -0.018288406
0.036449313 0.12496105 -0.07907788 0.09827172 0.24291977 -0.06998264 0.0058645657 -0.054911695
0.0556221 -0.13092102 -0.017220402 0.051036004 -0.05048928 0.22450668 -0.0743199 0.018708678
0.06143072 -0.040104438 0.18318082 -0.04841546 -0.07455417 0.07265094 0.06631047 0.15944736
0.016723763 -0.0054889102 -0.1246704 -0.021075793 0.042903967 0.122363046 -0.066147916 0.21563262
-0.048250753 -0.07815541 0.046217345 0.109591596 0.11313079 0.053606868 -0.03719298 0.028333122
0.01885545 0.06760898 -0.03818869 0.091046914 0.10567995 0.005732065 0.0708324 0.031340424
0.0478565 0.0070185335 0.0609793 0.1573091 0.04529882 0.09014204 0.05655897 -0.009386063
0.036482554 -0.040841047 -0.11779273 -0.06996683 -0.03133677 0.0862549 -0.036461156 -0.011930514
-0.15828277 -0.05991077 -0.054685894 -0.029442593 -0.09911492 -0.08507426 -0.07274858 -0.0646126
-0.10033114 -0.06739123 -0.017550476 0.051575404 0.17920199 -0.058013014 -0.07222299 0.14164908
0.06601972 -0.12069358 -0.047671035 0.15887552 -0.20065834 -0.09284024 -0.113282695 0.09441718
-0.016691577 -0.12555282 -0.043951552 0.07168042 0.071400635 -0.063169494 0.009389093 0.016360182
-0.008465684 -0.050305158 -0.03975752 0.025813492 -0.096940435 -0.0018479227 0.027576467 -0.021585276
00000000: a052 c43c 5ad2 423e 5eb7 8d3d 60b2 8d3b
00000010: ed54 813b f2dd 1cbd b74a 5fbd 216e b63d
00000020: b041 123d 60a9 133e 7958 b2bd c89c e2bb
00000030: 63f7 363d 41af 8abc 325a c6bc 0705 783d
00000040: d66d 753d 42ee 143e 024e a0bd 3981 9ebc
00000050: ef08 183d 6089 a7bd 8910 dcbd f72c 653d
00000060: 0000 acbd 797d 1cbc d364 8a3e d363 b13d
00000070: e84a 96bd 8a96 6c3b 48e1 4d3c 3dca 503c
00000080: 7a2f 1dbd f75e 1b3d ecf0 82bd 47e3 e83b
00000090: f4d4 fe3d 6e45 5d3d 935a 51bd 14f5 823d
000000a0: c9cf 613e bb66 abbd f763 943d 7831 4e3d
000000b0: e2d0 63ba 1d62 a83d 8d55 053e d247 ee3c
000000c0: 051c c8bc 0038 4bbd 9e6f 5bbd 882c 8d3d
000000d0: fde9 703d 25b9 27bd 6333 7ebd 1665 3a3d
000000e0: e2c2 223e 0799 cdbc 9b2c 2bbe 28d8 2fbe
000000f0: 4905 a83d 5ec5 563d 1e60 e6bc 446b 7cbb
00000100: 6104 123e 343f 7ebd d0cb 66bd 279f d53c
00000110: 02ef 16be 0b98 363d 75c2 ad3c da58 ea3d
00000120: 6efd 243d e903 373b ab75 72bc 3220 c33d
00000130: 156e 003e bec5 27be adb2 65be 11a6 dfbd
00000140: bebc 1a3d 2192 a2bd 1e75 a73d d981 1fbd
00000150: c981 b9bd 58ea 843d e47e 8e3d 338c af3d
00000160: b0c8 2dbe 915a a83d 7561 9d3d 4007 573b
00000170: abf4 393d 6e42 84bc 8beb 2bbd 1dbe aabc
00000180: f812 c1bc 6a27 c1bd 52b6 20bd b1fe 6b3c
00000190: a4af 0b3e 234a 2d3d e2a3 893d 3d36 bbbd
000001a0: d1b9 de3d 99d9 0dbe 1601 43bc ea2a cabc
000001b0: 3e31 6cbd 061b 683d 5704 86bc 4b1c 673c
000001c0: a06c 683d bd7c 023d f1b6 7b3d 4736 b8bd
000001d0: c985 6b3d f1a6 5ebd 31c3 ac3c 9b89 12bd
000001e0: 9113 0cbe a8a3 113d 7ea2 b3bc e007 01bb
000001f0: 52bb 963c ba98 d13d 90c7 ab3d 747a 8f3c
00000200: 6a33 f43b 9ce3 683d aad3 7f3d d880 6bbc
00000210: 9cda 5fbd e27a a9bd cd09 ed3c 71e6 e03d
00000220: 8899 ce3c f052 a3bd babb 28bd 5eca f0bd
00000230: d5b7 55bd e1dc 9abd 40c8 023e 3003 d8bd
00000240: e15f a03d a50f 36be a00e 363e 843e 8e3d
00000250: e980 143d d678 193e 85de bf3d 91d1 95bc
00000260: e04b 153d 94eb ff3d 95f3 a1bd af42 c93d
00000270: f6bf 783e 0f53 8fbd 8b2b c03b 16eb 60bd
00000280: 00d4 633d 2910 06be cd11 8dbc 210b 513d
00000290: d9cd 4ebd 14e5 653e 0835 98bd f142 993c
000002a0: c79e 7b3d 8d44 24bd c193 3b3e 4a4f 46bd
000002b0: dbaf 98bd 04ca 943d c9cd 873d 2b46 233e
000002c0: 4600 893c 51dc b3bb 3253 ffbd 24a7 acbc
000002d0: 12bc 2f3d 7a99 fa3d 8f78 87bd ccce 5c3e
000002e0: 95a2 45bd f20f a0bd 664e 3d3d 8f71 e03d
000002f0: 1eb1 e73d e092 5b3d ab57 18bd dd1a e83c
00000300: bf76 9a3c 9476 8a3d be6b 1cbd ce76 ba3d
00000310: bb6e d83d 0cd4 bb3b 9410 913d d15e 003d
00000320: 2d05 443d bafb e53b 6ec5 793d a315 213e
00000330: 418b 393d 649c b83d 61aa 673d 00c8 19bc
00000340: bb6e 153d f148 27bd 513d f1bd c54a 8fbd
00000350: fc5a 00bd 69a6 b03d 4b58 15bd 3478 43bc
00000360: e114 22be ff64 75bd 51fe 5fbd 9831 f1bc
00000370: c3fc cabd 6a3b aebd 35fd 94bd 9c53 84bd
00000380: 6a7a cdbd 6a04 8abd 04c6 8fbc bb40 533d
00000390: ba80 373e 0e9f 6dbd a6e9 93bd 750c 113e
000003a0: 5935 873d 322e f7bd b442 43bd 44b0 223e
000003b0: 6179 4dbe 0623 bebd c200 e8bd cb5d c13d
000003c0: c6bc 88bc eb90 00be 8b06 34bd 2fcd 923d
000003d0: 7f3a 923d 025f 81bd b6d4 193c ca05 863c
000003e0: a7b3 0abc c80c 4ebd c8d8 22bd d176 d33c
000003f0: b588 c6bd ff35 f2ba 0be8 e13c 9bd3 b0bc

network_body._body_endoder.seq_layers.2.bias f4 [128]
-4.535469e-05 -0.0024737793 -0.0038489287 0.0014023588 -0.0011375232 -0.0040750117 -0.0008344239 3.6243044e-05
-0.0032001918 0.009236253 0.0017682757 0.000801108 -0.0041330927 0.0014423933 0.004448671 0.0035842503
0.0011235566 0.002317368 0.0041401 -0.0023328238 0.00020617252 -0.0054221456 0.0054569896 0.0057006637
-0.003092405 -0.0015687171 0.006740616 -0.0019428119 -0.004164438 0.004858294 0.0028220308 -0.00278684
0.0028789616 0.0032282125 0.002488828 0.001581799 -0.0021736142 0.00015148404 0.00053171674 0.00058930385
-0.0001487916 0.0018163859 -0.0009080412 0.0035679305 -0.00055465347 0.0058074323 0.0030926513 0.0007425834
0.008029512 -0.0032569764 0.00016299436 0.0010344089 0.0062622824 2.9031375e-05 -0.0016311121 0.0060179518
0.00021794488 0.0011614367 0.003932417 -0.00082612416 -0.0043271817 -0.0023007467 0.008712026 6.2630097e-06
-0.0025368507 0.0009292873 -0.0008241483 -0.0026829508 -0.000913187 0.005045198 0.000999492 -0.0027386332
0.006174725 -0.0011069359 -0.0011585956 0.0010960109 -0.0031085878 -0.0047044307 -0.0050735627 0.003303115
5.5605142e-05 0.0042625708 -0.00083789416 0.0033991532 0.0007287855 0.0018783555 -0.004411331 0.005578847
-0.004015896 -0.0014317004 0.0055997227 0.00074098376 0.00262084 -0.00045018859 0.008434332 -0.0030503112
-0.0017820402 0.0026898538 -0.0034854596 0.006297959 0.0010917136 -0.0023520766 0.0010172435 0.0046830415
-0.004186065 -0.0002819323 0.0023191427 0.00023547017 -0.0027033333 -0.00079068955 0.00130058 -0.0002726827
0.0026569157 0.0072481064 -0.0047734245 0.003065523 0.0013483176 0.0021373397 -0.0022809645 -0.0029404606
0.0014021657 0.0002446708 -0.0063164756 -0.0025289345 0.0037708082 0.0027404586 -0.0051268185 -0.0018271534
00000000: 3a3b 3eb8 211f 22bb 4f3e 7cbb 5acf b73a
00000010: f218 95ba ad87 85bb 3dbd 5aba ac03 1838
00000020: 4fba 51bb a753 173c 7dc5 e73a 7301 523a
00000030: e56e 87bb b00e bd3a 28c6 913b bee5 6a3b
00000040: 4e44 933a fcde 173b ada9 873b 4ae2 18bb
00000050: 0430 5839 41ac b1bb 8cd0 b23b a2cc ba3b
00000060: f2a9 4abb 699d cdba 63e0 dc3b f3a5 feba
00000070: d775 88bb 5332 9f3b d2f1 383b 6ba3 36bb
00000080: f6ac 3c3b 6b90 533b 9b1b 233b 5e54 cf3a
00000090: 3273 0ebb b0d7 1e39 e862 0b3a 837b 1a3a
000000a0: f104 1cb9 cc13 ee3a 9d09 6eba f1d3 693b
000000b0: 2a66 11ba 464c be3b 14ae 4a3b eea9 423a
000000c0: 378e 033c ff72 55bb 77e9 2a39 0195 873a
000000d0: d533 cd3b 6788 f337 0acb d5ba 3d32 c53b
000000e0: 2288 6439 593b 983a 81db 803b 4190 58ba
000000f0: 08cb 8dbb 20c8 16bb e3bc 0e3c d826 d236
00000100: 4b41 26bb 6a9b 733a a80b 58ba 72d4 2fbb
00000110: f162 6fba 3052 a53b 6301 833a a47a 33bb
00000120: 5955 ca3b 9b16 91ba 04dc 97ba 06a8 8f3a
00000130: 73b9 4bbb a027 9abb 2140 a6bb 1379 583b
00000140: 9139 6938 09ad 8b3b 20a6 5bba 54c4 5e3b
00000150: f80b 3f3a 2733 f63a ed8c 90bb c3ce b63b
00000160: c797 83bb e5a7 bbba e17d b73b 943e 423a
00000170: 66c2 2b3b 4a07 ecb9 2730 0a3c bbe7 47bb
00000180: 5993 e9ba 4248 303b 4f6c 64bb 1c5f ce3b
00000190: d417 8f3a 4c25 1abb 0755 853a 3374 993b
000001a0: 422b 89bb 50d0 93b9 c2fc 173b 8be8 7639
000001b0: 682a 31bb 4746 4fba 3978 aa3a daf6 8eb9
000001c0: a61f 2e3b 8681 ed3b 636a 9cbb f1e6 483b
000001d0: 08ba b03a 9c12 0c3b 3c7c 15bb beb4 40bb
000001e0: e0c8 b73a 2947 8039 70fa cebb 7bbc 25bb
000001f0: aa1f 773b 4499 333b dffe a7bb 187d efba

action_model._discrete_distribution.branches.0.weight f4 [10, 128]
0.0037164425 -0.0019245443 0.005326029 -0.023920646 -0.016868746 -0.014267077 -0.016567662 -0.0041579334
-0.0028168056 -0.016332379 -0.0026160555 -0.00056936993 0.010829267 0.0022235394 -0.020435061 -0.005053483
-0.0037966596 -0.010314435 -0.010815417 0.0066893464 -0.002237002 -0.0014277009 -0.00012466894 -0.014218111
-0.0097192 -0.0028390721 0.007324228 0.0030161217 -0.006744149 0.005126021 0.003431047 -0.009872364
0.0071180025 -0.01333954 -0.005391824 -0.009495068 -0.0018543904 0.0061531863 -0.020941172 -0.00418959
-0.01667208 -0.0019809993 -0.008812178 0.0011050558 -0.012397828 -0.009758959 0.0034599523 0.000551347
-0.0067061596 -0.007488185 -0.0050784512 0.0073051304 -0.0022173086 -0.009929148 -0.0100337695 0.009554333
-0.006492754 0.01815779 -0.0042081447 0.0028960265 -0.0059643425 0.022133 0.0012653206 -0.0028403362
-0.010176427 -0.007998619 0.00067949994 -0.008602091 0.0053468416 -0.006943716 -0.007714021 -0.010121064
-0.012592955 0.00024693584 0.013915086 -0.017287318 -0.0036899191 0.0054174196 -0.0019484893 0.0028681336
0.015581179 0.008518856 0.00546589 -0.0039928495 0.010427566 -0.0036185517 0.011584262 0.005858515
0.0033987693 -0.0048548584 0.007657422 -0.0042091785 -0.005917418 0.001095171 -0.01092621 -0.0098528685
-0.007175903 -0.0026427975 -0.0013315425 -0.012806978 0.0012492241 0.004083368 0.003946957 -0.015962617
-0.0026324298 0.010805626 0.0035176813 0.0046984344 0.0040190364 0.00014717659 -0.004079613 0.0077369395
-0.0074016256 -0.0016645646 0.0006395529 0.006634301 -0.012140368 0.009519097 0.014629367 0.0044274093
-0.014108994 0.0014985771 -0.0084980605 -0.020388003 0.0030331824 0.006043316 -0.006229016 0.0054116575
-7.3514864e-05 -0.0047541596 0.016832313 -0.006616621 -0.011381762 0.008359071 -0.010462804 -0.009603878
-0.012678622 0.00969614 0.008916948 0.021885147 -0.005659898 -0.00048400054 -0.0051641166 0.0043960866
-0.013115578 0.0014294543 0.0067761573 0.014953006 -0.0064932364 0.005890906 -0.008249598 -0.009621502
-0.0046680216 -0.017729584 0.008287222 -0.0076007205 -0.0056804935 -0.011851056 0.0039704307 -0.00034805085
-0.0054575764 0.01448764 0.002689947 -0.0018765134 -0.0027292978 -0.0052537993 0.014164546 0.006850847
0.006962324 -0.0038923316 0.0034928992 -0.017970767 0.0023295227 0.01959985 -0.004437454 0.014357644
-0.003210749 0.005221227 -0.0052819424 0.02281957 0.016831562 -0.0070905075 -0.00973983 -0.009200239
-0.008499698 0.018535852 0.0039679664 0.0014508251 0.0050347615 -0.016873274 0.01388829 -0.010032444
-0.005872131 -0.0021905776 0.010882866 0.0047824048 0.007408421 -0.0010933671 0.0041165473 0.0025552798
-0.004113586 -0.0027848172 0.014139598 0.0037989707 -0.010527256 -0.0070542675 -0.00036942185 0.008802198
-0.010496995 0.0054430836 0.009754941 -0.006593905 -0.00019212207 0.0009337748 -0.020790054 0.015206001
-0.009607621 0.008386576 -0.010890041 0.020257 -0.013602568 0.0016193456 0.0028801176 0.00016143586
0.0040693493 0.003996109 0.0032213011 0.015642393 -0.0006425225 -0.009201667 -0.010877366 -0.002543419
-0.014981005 -0.0070916023 -0.00055008923 -0.024007782 0.0022819634 0.0024555079 -0.004999768 0.008704298
0.015873158 0.00027519336 -0.005102959 0.017162498 0.016037472 0.0071832794 -0.018914862 0.0031497802
0.012801929 0.005302179 0.00094473246 -0.0082092155 -0.0007908973 -0.0012503705 0.0065430976 -0.014607896
00000000: 8f8f 733b fe40 fcba f885 ae3b 3bf5 c3bc
00000010: 5330 8abc 75c0 69bc e8b8 87bc 463f 88bb
00000020: 289a 38bb 7bcb 85bc 2172 2bbb c541 15ba
00000030: 3d6d 313c cdb8 113b 6e67 a7bc b097 a5bb
00000040: 61d1 78bb e0fd 28bc 2633 31bc 4e32 db3b
00000050: aa9a 12bb b121 bbba 90b9 02b9 14f3 68bc
00000060: 483d 1fbc ba0f 3abb 1400 f03b 20aa 453b
00000070: 06fe dcbb 2ef8 a73b 6bdb 603b b2bf 21bc
00000080: 223e e93b 168e 5abc e6ad b0bb 3491 1bbc
00000090: 040f f3ba aba0 c93b d28c abbc d448 89bb
000000a0: e393 88bc a7d3 01bb f460 10bc 85d7 903a
000000b0: 4220 4bbc 0ae4 1fbc 5ec0 623b 4588 103a
000000c0: 58bf dbbb 735f f5bb 2369 a6bb e05f ef3b
000000d0: 4450 11bb ddad 22bc ae64 24bc c789 1c3c
000000e0: 2bc1 d4bb a5bf 943c 7ae4 89bb 43cb 3d3b
000000f0: 8870 c3bb 4450 b53c 1dd9 a53a ef24 3abb
00000100: 07bb 26bc a40c 03bc 7820 323a c9ef 0cbc
00000110: 8f34 af3b 1d88 e3bb e6c5 fcbb d2d2 25bc
00000120: ae52 4ebc 2b77 8139 1afc 633c 229e 8dbc
00000130: 92d2 71bb 9c84 b13b 7464 ffba 4cf7 3b3b
00000140: 3448 7f3c ac92 0b3c 351b b33b 73d6 82bb
00000150: 62d8 2a3c 3925 6dbb ebcb 3d3c c9f8 bf3b
00000160: e3bd 5e3b 8115 9fbb 1deb fa3b 26ed 89bb
00000170: e6e6 c1bb d78b 8f3a d903 33bc ed6d 21bc
00000180: d623 ebbb c932 2dbb 2787 aeba 5cd4 51bc
00000190: 01bd a33a c6cd 853b 7a55 813b 09c4 82bc
000001a0: d884 2cbb 150a 313c e688 663b 53f5 993b
000001b0: 1fb2 833b 6a53 1a39 46ae 85bb 2786 fd3b
000001c0: 5689 f2bb 852d daba aba7 273a 8d64 d93b
000001d0: 65e8 46bc fdf5 1b3c 03b0 6f3c cd13 913b
000001e0: 6929 67bc e76b c43a 733b 0bbc be04 a7bc
000001f0: 5bc8 463b 0207 c63b c61c ccbb 4654 b13b
00000200: fe2b 9ab8 c8c8 9bbb ebe3 893c 3dd0 d8bb
00000210: 927a 3abc 7cf4 083c 2e6c 2bbc 9559 1dbc
00000220: ffb9 4fbc 8fdc 1e3c 6418 123c 7b48 b33c
00000230: aa76 b9bb 74c1 fdb9 c037 a9bb 0c0d 903b
00000240: b9e2 56bc 875c bb3a 870a de3b 74fd 743c
00000250: 37c5 d4bb 8008 c13b 5229 07bc 81a3 1dbc
00000260: 34f6 98bb a23d 91bc 21c7 073c 770f f9bb
00000270: 6f23 babb ee2a 42bc 631a 823b 987a b6b9
00000280: 78d5 b2bb 915d 6d3c d249 303b 57f5 f5ba
00000290: 05de 32bb 1028 acbb 6912 683c 127d e03b
000002a0: 3524 e43b 7d16 7fbb 20e9 643b 6e37 93bc
000002b0: e8aa 183b dd8f a03c 1068 91bb 533c 6b3c
000002c0: 6e6b 52bb d416 ab3b 2514 adbb 1bf0 ba3c
000002d0: 58e2 893c 7d57 e8bb cf93 1fbc 99bc 16bc
000002e0: 5142 0bbc 80d8 973c b705 823b 9d29 be3a
000002f0: a4fa a43b d239 8abc b68b 633c 1f5f 24bc
00000300: 016b c0bb cb8f 0fbb 0c4e 323c b8b5 9c3b
00000310: 57c2 f23b 504f 8fba 1ae4 863b 7b76 273b
00000320: 43cb 86bb 7b81 36bb c6a9 673c 27f8 783b
00000330: 837a 2cbc 7c27 e7bb f6ae c1b9 1837 103c
00000340: 97fb 2bbc e55b b23b 30d3 1f3c af11 d8bb
00000350: 6074 49b9 91c8 743a e74f aabc 9722 793c
00000360: 4869 1dbc d967 093c 246c 32bc 02f2 a53c
00000370: 4edd 5ebc 3940 d43a 5bc0 3c3b 1c47 2939
00000380: 2d58 853b cbf1 823b 771c 533b 7a24 803c
00000390: f46e 28ba 97c2 16bc fb36 32bc 7daf 26bb
000003a0: e472 75bc ac60 e8bb dd33 10ba f8ab c4bc
000003b0: fe8c 153b 96ec 203b 18d5 a3bb 799c 0e3c
000003c0: 6d08 823c d447 9039 b936 a7bb 5e98 8c3c
000003d0: 0461 833c b761 eb3b 57f3 9abc 8b6c 4e3b
000003e0: 2fbf 513c e7bd ad3b eca7 773a f27f 06bc
000003f0: 3854 4fba 79e3 a3ba 7b67 d63b f555 6fbc

action_model._discrete_distribution.branches.0.bias f4 [10]
-0.0046878806 0.002998281 -0.006866189 0.005099026 0.00053229224 0.0029972373 0.00065388303 -0.0064608804
0.0037601155 -0.000562143
00000000: cb9c 99bb cf7e 443b c5fd e0bb bb15 a73b
00000010: 8789 0b3a 4c6d 443b 5969 2b3a cbb5 d3bb
00000020: 456c 763b c75c 13ba

action_model._discrete_distribution.branches.1.weight f4 [10, 128]
-0.0010496234 -0.0067133675 0.0051701968 0.0007916384 0.0070986743 0.008763518 0.0062210527 0.007858981
0.005307542 0.008274925 0.0040799123 0.004429922 0.0038738914 0.009065562 -0.008445781 -0.015249444
0.007911603 0.00590975 0.0025118352 -0.001314171 0.0042587225 0.005550018 -0.008083952 -0.01759584
-0.00394689 -0.0081941085 -0.0061147204 0.005867178 0.012772623 0.00076731364 -0.0050230646 0.003591263
-0.003243112 0.010435186 0.026514282 -0.019348102 0.002217158 -0.0029838167 -0.0038621554 -0.014637812
0.007063268 0.007385236 0.014434063 -0.005220815 -0.014667106 -0.012156915 0.0035759073 -0.006732376
-0.0058410447 0.012794503 0.011280427 0.02279953 -0.008253427 0.009060316 -0.0016552266 -0.015298536
0.013059304 0.014848135 -0.017420644 -0.0033180064 0.0033793587 0.016768988 -0.011476589 0.0002511577
0.020460518 -0.0028284392 0.0013270642 0.0037141251 -0.0060535544 0.0021715946 -0.008136381 0.017801901
0.0027824056 0.007886548 -0.003745778 0.014605511 0.017241063 0.023002015 -0.007566485 -0.0060671438
0.005529299 0.010064419 0.019135002 -0.0061159534 -0.009014619 0.00024375791 -0.0030365228 -0.0046311547
0.007336817 0.00565473 -0.014539995 0.0033259166 -0.0092278 -0.020368947 0.00041876227 -0.009740143
0.020755306 -0.0042836177 0.008470868 -0.013055579 -0.0011386065 0.0039477567 -0.005348596 -0.0108316075
0.0069351895 -0.009362317 0.01316183 -0.008473097 0.0019054218 0.000878392 -0.017183514 -0.008278143
-0.0039626393 -0.028719362 -0.005337129 0.011956017 -0.009565986 -0.010234049 -0.0030875194 -0.0024764128
0.0073293983 0.012670804 -0.0039729136 0.008484904 -0.014118564 0.0024380535 0.014764441 -0.00552994
0.0036120303 0.016650043 -0.0004173433 -0.0122340685 0.008909982 -0.003676244 0.02101101 -0.006247311
0.019229677 -0.014467391 -0.011005631 0.025459168 -0.0032746855 -0.01110739 -0.009049328 0.0037145275
-0.008851595 0.012514946 -0.018285315 0.0027136083 0.0061743357 -0.003628777 -0.002478871 -0.0118535925
0.0012046737 0.015427735 -0.0029250812 -0.0025074133 0.004592211 -0.0077646067 0.01646266 -0.005036757
0.014817821 0.0034826626 0.004591637 0.0058110594 -0.002275541 0.01869125 0.00020358057 0.016030453
-0.0151744485 0.0038567015 0.0060254023 -0.0089825345 -0.003344688 0.010586717 -0.010642373 -0.014382405
-0.01817562 0.009621373 -0.0040984605 0.001676997 0.012867764 -0.014792914 0.009999495 -0.004253848
-0.016863747 -0.010850298 3.655561e-05 -0.002025209 0.0005557935 -0.0065945038 0.010090608 0.01613522
0.013802079 -0.0021011052 0.0019469582 0.0066199913 -0.007392719 -0.0023061426 0.013148385 -0.0049437596
-0.008310963 0.017517092 0.0067904717 -0.01183676 -0.0005197086 -0.009432498 -0.0038595167 -0.0144129265
0.0081750285 1.4793091e-05 -0.014570572 -0.0010785187 0.007051912 0.014310192 0.0095186345 0.0092085
0.0023821932 0.004946845 0.0033067304 0.016419824 0.0037769063 0.018792093 -0.0028530085 -0.017451305
-0.007500308 -0.02205352 0.006415921 -0.0038662548 0.0137473475 0.011786392 -0.0107051665 -0.0027005337
5.4305543e-05 -0.011097128 -0.008237729 0.0020190636 0.0077180723 0.0053526447 -0.0035937878 0.0032397995
0.017593615 -0.0078960685 0.0054951482 0.015594081 -0.00035546522 -0.023664333 0.0033328084 -0.023562897
-0.007598379 -0.012101356 0.0065246695 0.002019278 0.009914352 -0.0070054713 0.0035014777 -0.013023144
00000000: 8493 89ba cffb dbbb c16a a93b f485 4f3a
00000010: ff9b e83b dc94 0f3c f9d9 cb3b f5c2 003c
00000020: e4ea ad3b 8d93 073c c9b0 853b e128 913b
00000030: 1de1 7d3b b987 143c 2c60 0abc ced8 79bc
00000040: ab9f 013c 93a6 c13b 9a9d 243b 4340 acba
00000050: c18c 8b3b eddc b53b 8d72 04bc 2725 90bc
00000060: ea54 81bb 9540 06bc fe5d c8bb 7541 c03b
00000070: 4444 513c 8c25 493a 8598 a4bb 655b 6b3b
00000080: 648a 54bb 58f8 2a3c 7b34 d93c e97f 9ebc
00000090: bd4d 113b 238c 43bb 371c 7dbb 6fd3 6fbc
000000a0: fd72 e73b daff f13b d97c 6c3c 5f13 abbb
000000b0: 4d4e 70bc cc2d 47bc c559 6a3b 439b dcbb
000000c0: 3c66 bfbb 09a0 513c 8ad1 383c 14c6 ba3c
000000d0: 6239 07bc b871 143c 30f4 d8ba b6a6 7abc
000000e0: b1f6 553c 9845 733c bdb5 8ebc e972 59bb
000000f0: 3b78 5d3b 1e5f 893c 4e08 3cbc d1ad 8339
00000100: d19c a73c 565d 39bb e3f0 ad3a ae68 733b
00000110: e55c c6bb 5051 0e3b 754e 05bc 4bd5 913c
00000120: 0559 363b 9436 013c ba7b 75bb f44b 6f3c
00000130: 213d 8d3c b96e bc3c 47f0 f7bb e4ce c6bb
00000140: 1f2f b53b 3ce5 243c 02c1 9c3c 5668 c8bb
00000150: 0db2 13bc 4499 7f39 6600 47bb f1c0 97bb
00000160: af69 f03b 504b b93b 2939 6ebc 9ff7 593b
00000170: 3330 17bc c7dc a6bc 528d db39 1f95 1fbc
00000180: 0807 aa3c 975d 8cbb 65c9 0a3c 11e7 55bc
00000190: 4b3d 95ba 2f5c 813b 4643 afbb 0e77 31bc
000001a0: 9640 e33b 6764 19bc b7a4 573c bfd2 0abc
000001b0: 59bf f93a e443 663a 71c4 8cbc 0ca1 07bc
000001c0: 07d9 81bb de44 ebbc 15e3 aebb 2ce3 433c
000001d0: a7ba 1cbc b6ac 27bc fb57 4abb 504b 22bb
000001e0: 732b f03b 3499 4f3c 372f 82bb 4404 0b3c
000001f0: 8d51 67bc c0c7 1f3b 8ee6 713c 8034 b5bb
00000200: d0b7 6c3b ac65 883c dfce dab9 6771 48bc
00000210: 2cfb 113c 24ed 70bb 481f ac3c 3eb6 ccbb
00000220: 8e87 9d3c a308 6dbc f650 34bc bf8f d03c
00000230: 1b9c 56bb c5fb 35bc a243 14bc 6e6f 733b
00000240: 4806 11bc 7d0b 4d3c 16cb 95bc cbd6 313b
00000250: 1552 ca3b c7d0 6dbb 8e74 22bb 9235 42bc
00000260: 24e6 9d3a 9cc4 7c3c b8b2 3fbb 6a53 24bb
00000270: 427a 963b 3e6e febb b3dc 863c 610b a5bb
00000280: 72c6 723c 623d 643b 7175 963b b36a be3b
00000290: 3e21 15bb 641e 993c 3e78 5539 4c52 833c
000002a0: 409e 78bc b7c0 7c3b bd70 c53b 7b2b 13bc
000002b0: 8e32 5bbb e973 2d3c 595d 2ebc 2ea4 6bbc
000002c0: 0ae5 94bc f7a2 1d3c 614c 86bb afce db3a
000002d0: 50d3 523c fa5d 72bc ecd4 233c dd63 8bbb
000002e0: d725 8abc 73c5 31bc 4a53 1938 5eb9 04bb
000002f0: acb2 113a b516 d8bb 1453 253c 022e 843c
00000300: 1d22 623c b2b2 09bb 1431 ff3a 83ec d83b
00000310: 9f3e f2bb a722 17bb 536c 573c 43ff a1bb
00000320: b52a 08bc 0180 8f3c 9b82 de3b f8ee 41bc
00000330: 0e3d 08ba c48a 1abc f2ef 7cbb 3224 6cbc
00000340: 8ef0 053c d82f 7837 69b9 6ebc 155d 8dba
00000350: ba13 e73b 4c75 6a3c 0cf4 1b3c 40df 163c
00000360: 921e 1c3b 2519 a23b bbb5 583b de82 863c
00000370: f985 773b e0f1 993c 8af9 3abb 0af6 8ebc
00000380: 25c5 f5bb 95a9 b4bc a53c d23b fe60 7dbb
00000390: 8e3c 613c b61b 413c b964 2fbc 70fb 30bb
000003a0: 22c6 6338 bad0 35bc 8af7 06bc 4452 043b
000003b0: e2e7 fc3b 3d65 af3b c185 6bbb d152 543b
000003c0: 7c20 903c 835e 01bc a510 b43b 517e 7f3c
000003d0: bc5d bab9 b4db c1bc 3f6b 5a3b fa06 c1bc
000003e0: d3fb f8bb c444 46bc e5cc d53b dd55 043b
000003f0: ce6f 223c 278e e5bb 0c79 653b 065f 55bc

action_model._discrete_distribution.branches.1.bias f4 [10]
-0.0059513533 -2.6537218e-05 -0.0031991384 0.0012187089 0.0010141494 -0.0004895529 0.0028707962 8.122837e-05
-0.0007982062 0.005212574
00000000: 9203 c3bb 3e9c deb7 a3a8 51bb 16bd 9f3a
00000010: 35ed 843a 5755 00ba f823 3c3b 2659 aa38
00000020: b63e 51ba 3dce aa3b

exp_avg f4 [128, 24]
-0.00015158592 -0.00015236769 -0.00018064943 -0.00018438109 -0.00015615093 -0.00014586202 -6.717939e-05 -0.00016243145
-0.00013636237 -0.00014277152 -3.7503924e-05 -5.6266363e-05 -0.00014543132 -0.00013037439 2.616767e-05 -0.00010672067
-0.00013272732 -0.00013536241 -3.1662363e-05 -0.000103268365 -0.0001297254 -0.0001355805 -0.00010898117 -7.378021e-05
3.9880153e-05 4.4277695e-05 4.435129e-05 2.4085106e-05 4.007748e-05 3.7348258e-05 6.833431e-05 2.7358663e-05
3.6991136e-05 3.7812653e-05 1.3044635e-05 -1.0576504e-05 3.3691227e-05 3.156864e-05 3.3980075e-05 6.7739034e-05
2.6413381e-05 2.8013557e-05 -2.8147004e-05 -4.827755e-06 2.8325003e-05 2.6694892e-05 3.078811e-05 -1.0365098e-05
7.712886e-05 8.64693e-05 5.5646407e-05 6.832898e-05 9.0616784e-05 9.112529e-05 7.800244e-05 6.709376e-05
9.1411595e-05 0.00011156183 4.2288004e-05 5.7500838e-05 0.00010971415 0.000122001074 0.00014323843 0.00014205823
0.000121586716 0.00013297725 0.00014018592 0.00010452745 0.0001414021 0.00014163637 0.000202004 6.56713e-05
-3.7948717e-05 -3.311351e-05 -6.116362e-05 -4.9680417e-05 -2.9523078e-05 -2.876875e-05 2.4902401e-05 -4.4469612e-05
-3.1566167e-05 -2.2376094e-05 -4.132311e-05 -6.697715e-05 -2.7059588e-05 -3.334719e-05 1.1884997e-05 2.0271176e-05
-2.6877908e-05 -2.417396e-05 -4.5064397e-05 4.694802e-06 -2.4237404e-05 -3.3631823e-05 3.463002e-05 -9.610204e-05
-0.00011815074 -0.00013817099 -4.4460183e-05 -4.7203794e-05 -0.00012565248 -0.000110958674 -0.00010269323 -0.00010570604
-0.00010561329 -0.0001221958 -6.0509e-05 -0.000114341165 -0.000108397 -0.00010808317 -4.059182e-06 -8.245421e-05
-0.00011854863 -0.00010873677 4.7290538e-05 -6.457617e-05 -0.00010864358 -0.00012767753 4.7754067e-05 -0.00011670617
-4.06236e-05 -3.0312483e-05 -3.150515e-05 5.7021375e-06 -3.0500505e-05 -3.8619455e-05 9.98468e-06 0.00010314632
-3.1683307e-05 -2.3292483e-05 -4.3162603e-05 5.7749785e-05 -2.944576e-05 -1.6586018e-05 -5.9530157e-05 -4.1544758e-05
-3.1043783e-06 -2.8549799e-05 -2.7037218e-05 -2.0565247e-05 -2.9605515e-05 -1.348176e-05 3.167161e-05 -2.0301046e-05
5.6074798e-05 7.929921e-05 3.3231878e-05 6.6225526e-05 7.815927e-05 6.0422353e-05 8.184819e-05 7.958203e-05
5.6949248e-05 7.666669e-05 4.8563197e-05 3.710609e-05 6.627226e-05 5.4491516e-05 -1.2372087e-05 -2.7733877e-06
6.1503306e-05 6.079865e-05 3.705616e-05 4.772615e-05 6.2053696e-05 6.266223e-05 1.238975e-05 4.9991766e-05
8.701183e-05 9.760182e-05 3.9371847e-05 5.1786912e-05 8.916128e-05 7.6138254e-05 6.314425e-05 3.4847297e-05
8.177711e-05 8.372491e-05 1.3087394e-05 2.7767275e-05 8.140851e-05 8.806665e-05 2.3066932e-05 2.0223964e-05
8.574641e-05 8.839645e-05 -1.3384745e-05 5.021768e-05 7.8277604e-05 8.9923175e-05 5.0739836e-05 2.755031e-05
-9.4659925e-05 -7.696922e-05 -0.00013091008 -0.00014080553 -8.338835e-05 -9.209641e-05 2.0391382e-05 -7.68707e-05
-8.314202e-05 -7.411679e-05 5.271076e-05 3.9719722e-05 -8.184225e-05 -7.028292e-05 -2.0591378e-06 -8.24613e-06
-6.116859e-05 -8.100521e-05 5.7826724e-06 -2.7326365e-05 -8.158454e-05 -6.88793e-05 -2.8081791e-05 5.3937794e-05
2.5174359e-06 -7.1213253e-07 1.8558243e-05 8.994579e-06 -5.3757685e-07 -1.4423294e-06 -8.728074e-06 -4.8138127e-06
-3.2563203e-06 -7.663532e-06 -9.268554e-06 -1.2394603e-05 -1.4933511e-05 -4.8291913e-06 -3.7042704e-05 2.5142528e-05
-1.13164715e-05 -1.9783958e-05 1.3696272e-05 -7.711971e-05 -1.1085299e-05 -6.069038e-06 1.7114477e-05 -9.522146e-07
-2.366985e-05 -6.9682274e-06 -5.0422535e-05 -0.000113121896 -1.0439792e-05 -1.5365322e-05 5.7601414e-05 6.6214205e-05
-1.0353908e-05 -7.5950584e-06 7.02197e-05 5.8696405e-06 -1.1038673e-05 -5.65545e-06 -3.5471945e-05 -3.37511e-05
00000000: 09f3 1eb9 e4c4 1fb9 b66c 3db9 6c56 41b9
00000010: 72bc 23b9 8af2 18b9 a9e2 8cb8 5c52 2ab9
00000020: 7ffc 0eb9 f0b4 15b9 884d 1db8 8cff 6bb8
00000030: ec7e 18b9 1cb5 08b9 a582 db37 39cf dfb8
00000040: b82c 0bb9 12f0 0db9 34cd 04b8 c891 d8b8
00000050: e606 08b9 9d2a 0eb9 d28c e4b8 73ba 9ab8
00000060: fd44 2738 d0b6 3938 d605 3a38 5f0a ca37
00000070: de18 2838 63a6 1c38 b44e 8f38 4880 e537
00000080: ee26 1b38 0799 1e38 48da 5a37 bd71 31b7
00000090: ae4f 0d38 9268 0438 d485 0e38 1e0f 8e38
000000a0: 4e92 dd37 a8fe ea37 3b1d ecb7 1afe a1b6
000000b0: 7b9b ed37 d8ee df37 7b22 0138 c2e5 2db7
000000c0: 3ec0 a138 da56 b538 e065 6938 d84b 8f38
000000d0: 8409 be38 841a bf38 3e95 a338 b0b4 8c38
000000e0: 3ab4 bf38 4df6 e938 665e 3138 0e2d 7138
000000f0: 5616 e638 d4da ff38 4632 1639 77f5 1439
00000100: 5ffc fe38 cf6f 0b39 dffe 1239 bf35 db38
00000110: 5645 1439 3984 1439 09d1 5339 03b9 8938
00000120: 202b 1fb8 5ce3 0ab8 f844 80b8 f15f 50b8
00000130: 54a8 f7b7 6c54 f1b7 80e5 d037 e284 3ab8
00000140: ea65 04b8 4cb4 bbb7 5a52 2db8 1576 8cb8
00000150: 06fe e2b7 46de 0bb8 ac65 4737 050c aa37
00000160: de77 e1b7 2fc9 cab7 8703 3db8 0b88 9d36
00000170: 6e51 cbb7 e50f 0db8 b33f 1138 648a c9b8
00000180: b2c7 f7b8 fee1 10b9 c27a 3ab8 b0fc 45b8
00000190: 95c1 03b9 7cb2 e8b8 025d d7b8 80ae ddb8
000001a0: b47c ddb8 af21 00b9 0bcb 7db8 72ca efb8
000001b0: 3253 e3b8 b6aa e2b8 1c34 88b6 44eb acb8
000001c0: 509d f8b8 9c09 e4b8 d459 4638 116d 87b8
000001d0: 94d7 e3b8 2de1 05b9 8a4b 4838 26c0 f4b8
000001e0: 4263 2ab8 9047 feb7 6624 04b8 fd54 bf36
000001f0: 56db ffb7 53fb 21b8 e083 2737 4250 d838
00000200: b1e3 04b8 3a64 c3b7 7e09 35b8 5c38 7238
00000210: 4a02 f7b7 3422 8bb7 05b0 79b8 5840 2eb8
00000220: d054 50b6 3a7e efb7 fccd e2b7 8883 acb7
00000230: 5c59 f8b7 b82f 62b7 22d7 0438 2a4c aab7
00000240: db31 6b38 704d a638 7562 0b38 8fe2 8a38
00000250: 70e9 a338 026e 7d38 eaa5 ab38 47e5 a638
00000260: cadc 6e38 1ec8 a038 56b0 4b38 5ca2 1b38
00000270: a6fb 8a38 d28d 6438 b691 4fb7 701e 3ab6
00000280: 56fb 8038 0e02 7f38 c06c 1b38 902d 4838
00000290: d322 8238 8769 8338 92dd 4f37 40ae 5138
000002a0: 1f7a b638 94af cc38 3323 2538 c635 5938
000002b0: 19fc ba38 6aac 9f38 506c 8438 0029 1238
000002c0: c07f ab38 7895 af38 ee91 5b37 c5ed e837
000002d0: dcb9 aa38 6cb0 b838 dc7f c137 a2a6 a937
000002e0: c1d2 b338 7c61 b938 0b8f 60b7 d3a0 5238
000002f0: f828 a438 2395 bc38 7cd1 5438 d71b e737
00000300: 2984 c6b8 896a a1b8 e844 09b9 32a5 13b9
00000310: c8e0 aeb8 e223 c1b8 290e ab37 a535 a1b8
00000320: 885c aeb8 266f 9bb8 bf15 5d38 ba98 2638
00000330: b9a2 abb8 db64 93b8 b82f 0ab6 dc58 0ab7
00000340: a347 80b8 57e1 a9b8 c708 c236 ec3a e5b7
00000350: 5e18 abb8 4b73 90b8 3091 ebb7 443b 6238
00000360: 38f1 2836 6029 3fb5 86ad 9b37 6ce7 1637
00000370: 004e 10b5 1096 c1b5 cb6e 12b7 5686 a1b6
00000380: 2887 5ab6 9f92 00b7 2380 1bb7 6af2 4fb7
00000390: f18a 7ab7 700a a2b6 4d5e 1bb8 2be9 d237
000003a0: e0db 3db7 baf5 a5b7 0ac9 6537 54bb a1b8
000003b0: fffa 39b7 a4a4 cbb6 0f91 8f37 b09b 7fb5
000003c0: 9e8e c6b7 9ed0 e9b6 c97c 53b8 db3b edb8
000003d0: 9126 2fb7 c7e4 80b7 0c99 7138 7bdc 8a38
000003e0: b2b5 2db7 0ed9 feb6 ea42 9338 d4f3 c436
000003f0: bd32 39b7 f2c3 bdb6 b6c7 14b8 f88f 0db8

exp_avg_sq f4 [128, 24]
8.604886e-09 8.1990486e-09 8.361273e-09 5.4470224e-09 7.524208e-09 7.3860176e-09 1.9065265e-09 6.5000663e-09
7.0329054e-09 6.7063723e-09 2.8894456e-09 4.5255146e-09 6.5948393e-09 6.8796213e-09 3.2812444e-09 4.6689794e-09
6.50545e-09 6.276125e-09 2.2754385e-09 2.455805e-09 6.108955e-09 6.4477503e-09 4.3872026e-09 3.714676e-09
1.4533338e-09 1.5818606e-09 1.3041659e-09 1.0897374e-09 1.6608485e-09 1.7336843e-09 1.4066504e-09 1.383294e-09
1.8101821e-09 1.9930313e-09 1.0901869e-09 1.2965631e-09 2.0031614e-09 2.2312678e-09 1.6186587e-09 1.8145304e-09
2.3058389e-09 2.6026434e-09 2.2732003e-09 1.3487135e-09 2.8317377e-09 2.4236277e-09 2.7824045e-09 1.7373083e-09
1.4848421e-09 1.777019e-09 1.0568538e-09 1.0513432e-09 1.887059e-09 2.0558923e-09 1.3394309e-09 1.3566084e-09
2.1707023e-09 2.4397773e-09 1.7048549e-09 1.5088625e-09 2.4810796e-09 2.706913e-09 2.2351356e-09 2.6977305e-09
2.7553504e-09 2.8311218e-09 3.1720766e-09 2.365315e-09 2.9289897e-09 2.9572083e-09 4.2507726e-09 2.451548e-09
2.8025688e-09 2.7937708e-09 1.2386847e-09 1.7814415e-09 2.5381321e-09 2.2559856e-09 1.608292e-09 1.4681322e-09
2.2776885e-09 2.1167241e-09 1.3821222e-09 1.1761849e-09 1.9569677e-09 2.008902e-09 7.760641e-10 1.5698649e-09
2.0814113e-09 1.866385e-09 1.1136917e-09 1.2949141e-09 1.8318549e-09 1.9951971e-09 1.4197393e-09 1.0329222e-09
4.2711386e-09 4.408225e-09 2.299522e-09 2.0989752e-09 3.9559636e-09 3.6086356e-09 2.5422167e-09 4.10709e-09
3.3039018e-09 3.480331e-09 1.2869688e-09 2.3219142e-09 3.3107286e-09 3.139498e-09 1.843955e-09 3.8642516e-09
3.3249299e-09 3.1679002e-09 2.021805e-09 1.8698834e-09 3.1147045e-09 3.43729e-09 1.6616042e-09 2.9785527e-09
6.8248176e-09 6.7796453e-09 3.9764765e-09 2.1167392e-09 6.2868724e-09 5.8259606e-09 6.7789987e-09 4.6437254e-09
5.7036798e-09 5.43182e-09 3.1285212e-09 2.5304312e-09 5.1624496e-09 5.1631277e-09 1.9472488e-09 2.0225992e-09
5.2410787e-09 4.7822857e-09 2.8897258e-09 2.8023308e-09 4.7832867e-09 5.142321e-09 3.781099e-09 2.8425742e-09
2.4441218e-09 2.5473903e-09 1.953064e-09 1.2708685e-09 2.4130888e-09 2.1041315e-09 1.6336473e-09 1.8832604e-09
2.054091e-09 2.11419e-09 1.5948153e-09 8.1946006e-10 2.0680053e-09 1.9701365e-09 1.1859516e-09 1.5335826e-09
2.0919837e-09 2.0188562e-09 1.0258908e-09 1.0742394e-09 2.1028512e-09 2.138545e-09 1.274362e-09 1.2358037e-09
4.7357034e-09 5.3445532e-09 1.0859201e-09 2.2702076e-09 4.794961e-09 4.0674695e-09 3.2157306e-09 2.264262e-09
4.0363304e-09 4.403442e-09 1.0008016e-09 1.5518616e-09 4.1675636e-09 4.5297703e-09 1.3702838e-09 1.8511446e-09
4.459013e-09 4.12268e-09 2.215757e-09 2.3651987e-09 3.7626076e-09 4.337859e-09 1.5922856e-09 2.002278e-09
4.9628155e-09 4.7543125e-09 2.8806468e-09 3.640565e-09 4.4510435e-09 4.2497788e-09 1.6245e-09 2.4314066e-09
4.055393e-09 3.9571777e-09 2.0581115e-09 2.8879112e-09 3.70954e-09 3.955397e-09 1.6712459e-09 2.0678914e-09
3.8288275e-09 3.4623837e-09 1.8049464e-09 2.0514157e-09 3.4488563e-09 3.7478185e-09 1.3158894e-09 1.8375714e-09
8.8329233e-10 1.056307e-09 8.487909e-10 7.04082e-10 1.1127589e-09 1.1525029e-09 1.3209538e-09 1.1594278e-09
1.245765e-09 1.4520973e-09 1.1518393e-09 1.2611184e-09 1.4991068e-09 1.6295196e-09 2.1268116e-09 1.7091228e-09
1.6990694e-09 1.9371853e-09 2.3886007e-09 2.6243918e-09 2.0906217e-09 1.7768229e-09 2.5013664e-09 2.1496935e-09
6.635706e-09 6.434597e-09 2.7382083e-09 3.566486e-09 5.83483e-09 5.4579226e-09 1.993163e-09 2.4972928e-09
5.3770606e-09 5.083562e-09 1.7205114e-09 1.9746873e-09 5.098839e-09 5.117087e-09 1.9215451e-09 2.7546805e-09
00000000: b0d4 1332 ccdb 0c32 44a5 0f32 8428 bb31
00000010: d143 0132 19c8 fd31 f803 0331 3057 df31
00000020: 17a6 f131 e06d e631 aa8f 4631 d97e 9b31
00000030: d298 e231 ca61 ec31 437c 6131 c76c a031
00000040: 8b86 df31 61a5 d731 f05d 1c31 fac2 2831
00000050: f0e6 d131 038b dd31 3ebe 9631 4545 7f31
00000060: a3be c730 c668 d930 423e b330 bac5 9530
00000070: e943 e430 9846 ee30 1c54 c130 551e be30
00000080: 1fca f830 c7f5 0831 8bd5 9530 c232 b230
00000090: fda7 0931 e154 1931 7d77 de30 1d63 f930
000000a0: bf74 1e31 30da 3231 9036 1c31 a35d b930
000000b0: 7598 4231 e98c 2631 9434 3f31 1ac6 ee30
000000c0: 3d13 cc30 4c3b f430 bd40 9130 da7e 9030
000000d0: 7ead 0131 a447 0d31 0917 b830 6a73 ba30
000000e0: 662b 1531 04a9 2731 4050 ea30 6160 cf30
000000f0: 9d7f 2a31 8404 3a31 ec98 1931 fa62 3931
00000100: a358 3d31 9f8d 4231 c3fb 5931 108b 2231
00000110: 5547 4931 c237 4b31 310e 9231 1778 2831
00000120: 5097 4031 89fc 3f31 583e aa30 e7d6 f430
00000130: 4b6b 2e31 b807 1b31 bf0a dd30 4fc7 c930
00000140: 8585 1c31 ce75 1131 1af5 bd30 54a7 a130
00000150: 577b 0631 fa0c 0a31 a852 5530 b6c2 d730
00000160: 9308 0f31 cb41 0031 8b10 9930 bdf8 b130
00000170: aac4 fb30 e11b 0931 a320 c330 b8f6 8d30
00000180: 55c1 9231 2877 9731 9e05 1e31 903d 1031
00000190: 06ed 8731 cafb 7731 26b3 2e31 581e 8d31
000001a0: db0a 6331 a12a 6f31 30e1 b030 8c8f 1f31
000001b0: f482 6331 a2be 5731 666e fd30 51c6 8431
000001c0: c97c 6431 4ab2 5931 f8ef 0a31 567f 0031
000001d0: 760a 5631 7235 6c31 805e e430 41af 4c31
000001e0: bb7f ea31 64f2 e831 75a1 8831 1276 1131
000001f0: ea03 d831 b12d c831 b4ec e831 a48e 9f31
00000200: 19fa c331 cba2 ba31 87fd 5631 d1e3 2d31
00000210: 6361 b131 5a67 b131 5dd0 0531 f1fd 0a31
00000220: 0415 b431 6e51 a431 9894 4631 2093 4031
00000230: 3c5a a431 55b0 b031 e6ea 8131 1857 4331
00000240: 72f5 2731 2a0e 2f31 aa36 0631 b6aa ae30
00000250: 82d3 2531 4698 1031 db86 e030 ab6a 0131
00000260: f327 0d31 3949 1131 9330 db30 6040 6130
00000270: bc1c 0e31 0263 0731 f6fe a230 24c6 d230
00000280: 91c2 0f31 18bc 0a31 53ff 8c30 70a4 9330
00000290: c081 1031 aef5 1231 a025 af30 fad8 a930
000002a0: b0b7 a231 30a3 b731 6b3f 9530 ea01 1c31
000002b0: ecc0 a431 d7c1 8b31 bbfb 5c31 5199 1b31
000002c0: f0af 8a31 164d 9731 938c 8930 4749 d530
000002d0: 4732 8f31 48a4 9b31 9354 bc30 5c6b fe30
000002e0: e535 9931 7aa7 8d31 0244 1831 0489 2231
000002f0: 3f48 8131 360c 9531 92d7 da30 7298 0931
00000300: 6385 aa31 605b a331 e0f4 4531 7f2d 7a31
00000310: cbef 9831 7305 9231 0345 df30 c215 2731
00000320: 9d57 8b31 b4f7 8731 ae6e 0d31 ac74 4631
00000330: ebea 7e31 0ae8 8731 bdb1 e530 bb1a 0e31
00000340: b98e 8331 e6ee 6d31 e811 f830 e3f8 0c31
00000350: ec00 6d31 29c6 8031 beda b430 cc8d fc30
00000360: 2ccc 7230 802d 9130 5a50 6930 5e89 4130
00000370: b9ef 9830 1766 9e30 ee8c b530 bd59 9f30
00000380: 7637 ab30 2293 c730 be4e 9e30 a953 ad30
00000390: 2209 ce30 a0f5 df30 4427 1231 6ae6 ea30
000003a0: b184 e930 531f 0531 b524 2431 ca58 3431
000003b0: 9baa 0f31 6634 f430 81e4 2b31 cfb9 1331
000003c0: 4a00 e431 5017 dd31 122b 3c31 4916 7531
000003d0: b57b c831 6588 bb31 18f8 0831 d79c 2b31
000003e0: 20c1 b831 7cab ae31 1d77 ec30 11b3 0731
000003f0: dd31 af31 60d2 af31 2e0c 0431 da4c 3d31
