Assets/Test/Config/results/CheeseWorld2/CheeseWorld2.onnx (onnx, 90751 bytes, 11 tensors)

discrete_act_size_vector f4 [1, 2]
00000000: 0000 2041 0000 2041
10.0 10.0

network_body.observation_encoder.processors.0.normalizer.running_mean f4 [12]
00000000: b6b3 0440 7963 0b40 a8bb 1c40 0ceb 2340
00000010: c6a2 3640 10a8 3e40 b6c0 5240 4554 5b40
00000020: 27cd 7040 2847 7a40 4090 8840 cb9d 8d40
2.0734687 2.1779463 2.4489536 2.5612211 2.853685 2.9790077 3.2930121 3.4270184
3.7625215 3.910593 4.2676086 4.425512

network_body._body_endoder.seq_layers.0.weight f4 [128, 12]
00000000: 66eb 55be 6c64 9cbe 93ff ab3e 0681 adbe
00000010: 3781 563d 699e c2bd 35e8 4ebc bb5e 813b
00000020: c9e8 783e eb8e 05bf f967 72be 4646 09be
00000030: 8920 a6be ae57 4dbe 3647 a4be 24c3 95bd
00000040: 8f78 14be 9027 86bd 4766 af3e 1607 f2be
00000050: ef0f 18be 0d1f 76be bbb0 88bc 7e96 d6bd
00000060: 8cb7 cb3e 2f18 15bf 722c e23e 1f92 2e3e
00000070: f21c 1a3f 12d8 8f3e 7efe 843b 5ed0 38be
00000080: f904 183e 18bd 3dbd d3f1 d5be e9b3 783a
00000090: 7a0b aa3d 996d 0cbd b409 e5be 67fd be3e
000000a0: 45ce eabd dc9b 723d 5509 eebe bd1b 393e
000000b0: 4cb6 4ebe a435 91bd bfb8 2cbd 0a4b 143d
000000c0: fb95 ecbe 5dcb 98be 8667 273d b518 4dbe
000000d0: 4878 33be b887 de3e d53d 953d 7d49 fdbc
000000e0: f30f bebd 2f61 aabd a905 563e ffaf a13e
000000f0: d0a0 723e 6e16 4b3e f25a 753e aeb8 fe3d
00000100: 3f5e 90be d453 adbd 5dd2 34be 891d de3e
00000110: f9bf 0cbe 4e34 ca3e d981 9f3e 1b6e 28bd
00000120: 548c 86be c95c 883d 0483 d83e abef 963e
00000130: aeb6 87b9 df34 a33d 529e 2a3e bc26 093e
00000140: 1b46 c33d bffe 783e 08ec 6dbd bda0 ce3e
00000150: fe3b 8bbc d3f5 10bf 2361 733d 0c38 80be
00000160: 2ab5 20be a21e 643e 2744 25bf 541e 08be
00000170: 6103 eb3e b8c0 32bf fc85 12bf 9f7c 99be
00000180: 2d9f d2be 70b9 70bd 1b1e 06bd 634c 8abd
00000190: 9148 e13e d264 d2bd 96df efbe b679 2e3e
000001a0: 46ff 703e 39a7 ddbd 514a 0cbf f165 c83e
000001b0: 4a42 6d3e e386 ebbe 9841 963e 18cf acbe
000001c0: a1fa de3d f5f1 7a3d 0dc9 163e 0ecc a83e
000001d0: 7e2f 453e 1d4d dbbd bfa3 cfbd d0d8 10bf
000001e0: d37c 9b3c bee3 273d 104c 2dbe d247 8bbd
000001f0: 7b9b bbbe dc21 133f 6a18 d63d 5c77 f03e
00000200: 4114 22bd d6c6 5bbe 9084 363f c7da 5e3e
00000210: f2f4 023e 73c2 843e 29ea 14be 43bd 8c3b
00000220: 5d2c b93d 39f5 8c3e d899 483e 53e7 8e3e
00000230: e411 513d 1814 a63e c44c 8fbd 39ed b7be
00000240: 48e7 823e 33a4 f03d 94f6 a33e fc6a da3e
00000250: 8aa5 233e a795 85bd ed0b 52bd be46 6b3c
00000260: fe7a 143e c185 743d 4a17 a6be 9e07 893e
00000270: d786 14bf ddb0 7b3e ad50 89be 7e0b 283e
00000280: 8211 ccbe eb95 84bd bbc3 d43e 8709 2ebe
00000290: 4341 b0be 65c2 323e 4b8e a33d c738 6bbe
000002a0: bf9f 93bc 8181 983e e734 06bf 77c7 28bd
000002b0: fd7e 27be 85a9 533e bc80 213d 411b 9abd
000002c0: 7d44 213e 30db 3a3e 5808 c33e c44a e13e
000002d0: 03b7 cebe 36ee 8d3e c128 49bf 224a bb3e
000002e0: cc2f a4bc c17d e33d 3b4e 1abe 5da3 773e
000002f0: 73b5 edbe 566e abbe 5437 4abd c69c e1be
00000300: 5ee2 7d3e 0e1c 94be 173f 96be 3576 973e
00000310: 2240 1dbf 1194 2e3e 5148 5bbf 246a 763e
00000320: 9a4d bbbd 6442 89bc 93d6 44bf 3ede 3a3f
00000330: 57f2 593d 25d6 62be f118 c33d eb39 1b3f
00000340: 0f76 4abe 7f4c b63d 291b f53e c565 2d3e
00000350: f91b 14bc 24d7 6d3e 5824 a4bd 9e40 0c3e
00000360: c602 31be 7b0b e83d ad17 903e 6ef4 8fbe
00000370: bfb8 283f 457d 8d3e ddc2 ae3d 6d09 e33b
00000380: 2299 f2be fa30 1d3e 43bb fe3e 290f 1abd
00000390: 6f54 8fbe a770 d1bd bfa5 ebbe f86b b63e
000003a0: f45e cf3e fc1e 353e 1b5f 57bd 958e b43d
000003b0: 3de4 2b3e 7ca9 fd3e da47 a3bb cc4a c13e
000003c0: a5e9 953e bd5a 563e c0db 013f 887a afbd
000003d0: 43d0 1b3d 2760 ad3e 7378 c73d c483 603e
000003e0: 2993 81be 4255 0c3e 91c6 353e c118 b2bc
000003f0: 2132 58be deb5 043d 0654 9abe 807d 1f3f
-0.20890579 -0.30545366 0.33593425 -0.338875 0.052369323 -0.095028706 -0.012628605 0.0039480603
0.2430755 -0.521712 -0.23672475 -0.13405713 -0.32446697 -0.20052978 -0.3208558 -0.07312611
-0.14499114 -0.06550515 0.3425772 -0.4727103 -0.14849828 -0.24035282 -0.016685834 -0.10477923
0.39788473 -0.58240026 0.44174534 0.17047928 0.6020042 0.28094536 0.004058658 -0.18048236
0.14845647 -0.046322912 -0.4178606 0.0009487258 0.0830297 -0.034284208 -0.44733965 0.37302706
-0.11465124 0.05923067 -0.46491495 0.18076988 -0.20186728 -0.07090309 -0.042168375 0.036204375
-0.46208176 -0.29842654 0.040870212 -0.20028956 -0.17526352 0.4346292 0.07287184 -0.030918831
-0.09280386 -0.083193175 0.20900597 0.31579587 0.23694158 0.19832775 0.23960474 0.124375686
-0.28196904 -0.084632546 -0.17658372 0.4338191 -0.13745107 0.3949303 0.31153753 -0.04112063
-0.26278937 0.06658322 0.42287457 0.29479727 -0.00025885314 0.07969069 0.16661957 0.13393682
0.09534856 0.24315928 -0.058086425 0.4035701 -0.01699638 -0.566251 0.05941881 -0.2504276
-0.15694109 0.2227731 -0.6455712 -0.1329282 0.45901015 -0.69825315 -0.57235694 -0.2997789
-0.41137066 -0.058770597 -0.032743555 -0.06752851 0.44000676 -0.10273136 -0.4685027 0.17038617
0.23534879 -0.10822911 -0.548009 0.39140275 0.23169819 -0.46001348 0.2934692 -0.3375175
0.108876474 0.061265904 0.14725132 0.3296818 0.19256398 -0.107080676 -0.10138654 -0.5658083
0.01898042 0.040988676 -0.16923547 -0.06800808 -0.3664206 0.5747354 0.10453875 0.46966064
-0.039570097 -0.21462569 0.71296024 0.21763144 0.12788752 0.25929603 -0.1454245 0.0042950227
0.09041665 0.2753084 0.19589937 0.2791086 0.051042452 0.32437205 -0.06997064 -0.35923174
0.2556708 0.117500685 0.32024062 0.42659748 0.15981117 -0.065226845 -0.051280905 0.014360128
0.14500043 0.05969787 -0.32439643 0.26763624 -0.5801825 0.24579187 -0.26819363 0.16410634
-0.39857107 -0.06473907 0.4155558 -0.16995822 -0.3442479 0.17456968 0.079861246 -0.22970878
-0.018020509 0.29786304 -0.5242447 -0.04120585 -0.16357036 0.20670135 0.03942941 -0.075247295
0.15748782 0.18247676 0.38092303 0.44002354 -0.40374002 0.27720803 -0.7857781 0.36579996
-0.020042323 0.1110797 -0.15068905 0.24183412 -0.46427497 -0.33482617 -0.04936917 -0.4406492
0.24793383 -0.28927654 -0.2934501 0.29582372 -0.61425984 0.1704867 -0.8565722 0.24063927
-0.09145661 -0.01675529 -0.76889914 0.72995365 0.05320963 -0.22152002 0.095262416 0.6063525
-0.19771598 0.08901309 0.47872284 0.16933353 -0.009039872 0.23226601 -0.080147445 0.13696525
-0.17286214 0.11330315 0.28143063 -0.28116173 0.659069 0.27634636 0.08533261 0.006928614
-0.47382456 0.15350714 0.49752244 -0.037612114 -0.27994105 -0.10226565 -0.46024892 0.3562925
0.4050213 0.17687601 -0.052580934 0.08816258 0.16786285 0.4954337 -0.0049829306 0.37752378
0.2927982 0.20933051 0.50725937 -0.08568293 0.03804041 0.3386242 0.09739771 0.21925265
-0.25307587 0.13704398 0.17751528 -0.02174032 -0.21112873 0.032400005 -0.3014223 0.6230087

network_body._body_endoder.seq_layers.0.bias f4 [128]
00000000: 9700 24bc 0c3c 293d 9080 a63d 290c ae3d
00000010: 6816 00be 9cb4 ea3d 4b48 c33d 437a 073e
00000020: 8aa0 5d3e 9aba 7c3d d2d0 d33c b482 d7bd
00000030: 96c6 b33d 7f88 ec3d 1d83 143e bad6 083e
00000040: 619f ee3d 201a 153e 55c8 283d 5961 263e
00000050: e7ff 523d 47d7 3bbc 35af 2a3d 397a 47bc
00000060: c9fe 363c 8ab9 c73d d6ec a63d 9279 46bc
00000070: e27d b83a d0f7 1a3d 24df 823d 8f13 833d
00000080: 2af9 be3d f856 fb3d 6404 903d bc60 8c3d
00000090: 2dff f43c efd1 093e 6c5f d93d ffd0 0c3e
000000a0: 06e2 d03d b889 173d 939c 5abc 3506 353d
000000b0: 2253 f23d 7a13 883d 2721 993d 8f3c 443e
000000c0: 96c3 493d 02e7 dc3d c429 093e 8244 293d
000000d0: dbb8 c83d e7fb 013e b7dc c43d adc4 923d
000000e0: 406c 37bd bec7 7d3d c526 923b 7e87 3f3d
000000f0: 508a 083e 24d4 243e 7f33 013e 1b17 a738
00000100: 4ecc 773d 9065 fa3c df4f b03c 51db 973a
00000110: a541 f53d a779 bc3d 92e5 443d c2fb 973d
00000120: 495d 093e 8d30 20bd 2be5 853d bacc c53d
00000130: af5a c83d 3a82 f63d 36fe 623d 2083 c33d
00000140: 374b 8c3d 9e99 7c3c 51b4 3a3d 322a a53c
00000150: 3290 e93d 51cd c13d 5d53 97bc 1a4e b5bb
00000160: b413 9e3d 9320 a23d 0734 c23d ccd5 593c
00000170: d46c dc3d af0e 073e efb4 2a3d 523d 5d3d
00000180: 3791 c93d fe56 1f3e 3265 1f3e b8a5 cf3d
00000190: 65fd c63c 76eb c73d 7aa7 423e 0bd2 1f3e
000001a0: 5ecb 303d 41e0 a73d 4584 703d 9826 033d
000001b0: dbd3 e13d 6ae3 0b3d 3f13 383d 7dc1 0c3e
000001c0: 71cf bb3c 6106 713d abff 843d eac0 d43d
000001d0: a2dd be3d b5b0 03be ff5e fa3d 6108 ca3d
000001e0: 6680 ac3d 2d7f 983d 7a0e aa3d 0b0a e53d
000001f0: cf7a 79bd 6aa4 a03d 92d2 173e b506 2f3e
-0.010009906 0.04131703 0.0812999 0.08498413 -0.12508547 0.1146023 0.09535273 0.13230233
0.21643272 0.061701395 0.02585641 -0.105229765 0.08778112 0.11549472 0.14503141 0.13363162
0.11651493 0.14560747 0.041206677 0.16248073 0.05151358 -0.0114649 0.041670997 -0.012175136
0.011169144 0.09752186 0.081506416 -0.012113946 0.0014075602 0.03783399 0.06390217 0.06400215
0.09324868 0.12272447 0.070320874 0.06854388 0.029906834 0.1345899 0.106139034 0.137516
0.101993605 0.036996573 -0.013342994 0.044195373 0.118322626 0.0664434 0.074770264 0.19163726
0.04925879 0.10786249 0.13394839 0.0413251 0.098008834 0.1269375 0.096124105 0.07166419
-0.04478097 0.061958067 0.004460188 0.046760075 0.13334012 0.1609655 0.126173 7.967484e-05
0.060497575 0.030566007 0.02152246 0.0011585747 0.11975411 0.09202891 0.048070498 0.07421066
0.13414492 -0.0391088 0.06537851 0.09658189 0.097829215 0.120365575 0.055418216 0.095464945
0.068502836 0.015417485 0.04558212 0.020161722 0.11404456 0.09462989 -0.018472368 -0.005532992
0.07718602 0.07916369 0.0948258 0.013295602 0.10762945 0.13189195 0.041676458 0.054013558
0.09842151 0.15560529 0.15565947 0.1013903 0.02429075 0.097617075 0.190092 0.15607469
0.043162696 0.0819707 0.058719892 0.032019228 0.11026736 0.034152426 0.04494023 0.13745685
0.022926064 0.058843974 0.06494077 0.10388358 0.09319617 -0.12860377 0.1222515 0.098648794
0.084229276 0.07446132 0.083035424 0.11183556 -0.060908135 0.078438595 0.1482642 0.17092402

network_body._body_endoder.seq_layers.2.weight f4 [128, 128]
00000000: 04b7 07bd 2e06 703e 2088 953d a791 d2bd
00000010: 08f3 fcbc 91a1 273c 38c2 87bd e231 003d
00000020: 7966 f5bd f62e 923d 7e29 a3bc 216e 813d
00000030: 78fe 8d3d 7344 fb3c ee91 8c3d 0c27 393d
00000040: b75e 16be 166b 4e3e 9bf4 00be 79ad b7bd
00000050: 06a4 25bd 668d a6bc f098 8c3d 36d4 babd
00000060: a821 adbd 39e1 7d3d 5c45 933c 54f6 013e
00000070: 2120 f8bd a463 c33d ef35 223e 0895 243e
00000080: ac6a 173e 36bb 623e b43d 123e d940 50bd
00000090: f34d 2f3e 0475 d33d 4123 febc 002e 653d
000000a0: 783d 163e 3e82 373e 670a fc3d 1bf8 adbd
000000b0: 69ee 933e 8d15 803c e648 96bd 3d06 d93d
000000c0: b2b1 f93d 4f3d c5bc 79d8 ab3b e47d a13d
000000d0: 7fde 2a3c 43e6 d33d 3de6 2e3c 5ebc 7b3d
000000e0: b51b 233d 726d 0a3e f74b c7bc b4db 5c3c
000000f0: f502 1bbe ccf1 27be 7f13 83bd dd68 06be
00000100: db01 66be 40d3 a73d d944 473e 4ccd 003d
00000110: 9650 cbbd 37aa a6bb d108 313d 031f 313e
00000120: a4c5 56be 3f18 a3bd 45c9 c5bd af67 79bd
00000130: 5fe9 683e 6f0e 6c3c 27bd 96bd eb78 41bc
00000140: 1ee0 1c3c 7c8a a3bd da80 60bd 8c4e 2cbe
00000150: e6d9 433d 65c2 563e f77e 5c3d 489d c6bd
00000160: de7a ce3d 07d6 853b 6d42 c4bd e9be 72bd
00000170: dd86 edbd f073 433e 5e71 cc3d a327 833e
00000180: f104 963d e7e7 c13d fa31 0b3c f79b 5d3b
00000190: bc66 28be f5fa 193e 2d60 cfbc 8f2a 3b3e
000001a0: 50b6 243e 3316 4fbd 3053 d43d 9f46 0a3d
000001b0: 32af fcbc 144f 6b3d e6ef 2c3e 4de3 1bba
000001c0: a73e 0ebe 9961 363d ed95 3c3e eb16 e2bd
000001d0: 8d5a f93d 1807 1b3d e888 03be 9309 2d3e
000001e0: bf89 d03c df58 2e3e 6678 e83d 149e 0ebd
000001f0: 3a14 1a3e c11c 183b 44a4 74bc 5ece 0bbe
00000200: 9ce6 2e3d 2d2e b63d 5669 4e3d ab4f 33bc
00000210: 6db5 163c a0c6 bbbc fb70 87bd 502e fb3d
00000220: 1d42 0e3d 1f3c cc3d 7acc 81be 90e9 6ebe
00000230: c443 fdbd 9bfe 8b3c 132c 60be 375d 51bd
00000240: a768 4fbc dada 3cbe 562c 07bd fb7d 30bd
00000250: 3ee7 fd3d 9911 13bd e07b a5bd 7d30 673d
00000260: ec5e 703e 2085 f4bc 2f09 b0bd b634 0b3c
00000270: 4fb4 593d b909 edbc 3287 0f3e c3a1 043e
00000280: 1c78 bf3e 055c ac3d e433 c8bb dd79 1b3e
00000290: 7473 293c 060f 573c 5858 5c3d c505 42bc
000002a0: c3fa 18be 7e14 b93b 6051 9a3d de35 b13d
000002b0: b107 4d3e 7a1a 823c 2d2a 2ebe 7355 cd3c
000002c0: 0e12 f3bd fb3d ffbc 7360 1cbe 00d4 da3d
000002d0: 5eba 09be e67a 3abd acdd f53b de5d bb3d
000002e0: 8ac7 aabd d241 0dbe c96f b13c a59d b73d
000002f0: de6d d03d 5544 86bd eba7 4ebe 271a 8fbc
00000300: 069f 22be d54b c5bd e338 063e 7556 2b3d
00000310: e0f4 2ebe 789a fd3d f7b5 8a3c 5e6a 9d3e
00000320: 6ecf 07be 0a84 d7bd 7286 2abd fb63 093d
00000330: fc6b 303e c2ad 37bb 36d0 053e 9ab7 543d
00000340: c6ba c7bd 16a9 173d 5a10 46bd 197a 403d
00000350: 0d2f 32be c994 bcbd 5629 673d e5a5 8a3d
00000360: 1c32 3abd 7f94 5dbe 4bd6 093c 0e41 033e
00000370: 2432 81bd 8489 aabc a797 193e 42e0 603e
00000380: 2b80 213e ec6c 243e 6054 203e e249 4e3e
00000390: 7857 42be be4a ac3e c025 2a3e ee69 c03d
000003a0: aedc a33c 06fb d2bd e26c 533e 941c 143d
000003b0: 446e 003d 5117 b7bd 643f 7e3d bf2b 363e
000003c0: d057 8bbd 9e2e 35bd c8d8 073e 2950 2a3c
000003d0: 958e 56bd ebf7 573a ceef 07be e99f 0b3e
000003e0: fa12 13be d521 723d 318d b9bd fba0 10be
000003f0: 8112 bc3d 25fb 843d a1bd 3dbd ae9d 893d
-0.03313352 0.23439857 0.073013544 -0.10281687 -0.030877605 0.0102313915 -0.06628841 0.031297572
-0.11982436 0.07137863 -0.019917246 0.063198335 0.06933302 0.030672288 0.068637714 0.045203254
-0.14684568 0.20158038 -0.1259331 -0.08968634 -0.040439628 -0.020331096 0.06865108 -0.09122507
-0.08453685 0.061982367 0.017977409 0.12691623 -0.12115503 0.09540489 0.15840887 0.16072476
0.14786786 0.22141728 0.1428135 -0.050843094 0.17119579 0.10325053 -0.03102267 0.055952072
0.14671886 0.17920777 0.123066716 -0.08494588 0.2889283 0.015635276 -0.07338123 0.10596893
0.12192096 -0.024077086 0.0052443114 0.0788534 0.010429024 0.10346653 0.01067501 0.061458938
0.039821345 0.13518313 -0.024328215 0.013480116 -0.15137847 -0.16400832 -0.06400203 -0.1312594
-0.22461645 0.081945896 0.19459857 0.031445786 -0.0992748 -0.005086209 0.0432213 0.17296986
-0.20973831 -0.07963609 -0.0965753 -0.060889896 0.22745274 0.014407738 -0.07360297 -0.011808614
0.009574918 -0.07985398 -0.054810382 -0.16826838 0.047815226 0.20972593 0.05383202 -0.09697968
0.10082029 0.004084352 -0.09582982 -0.059264097 -0.11597989 0.19087195 0.099825606 0.25616178
0.07325161 0.0946806 0.008495802 0.0033814886 -0.1644544 0.15037139 -0.025314415 0.18277954
0.16085172 -0.05055828 0.10367429 0.033758756 -0.030845258 0.05744846 0.16888389 -0.0005946651
-0.13891087 0.04452667 0.18416567 -0.110395275 0.12175474 0.037848562 -0.12845194 0.16898184
0.025456307 0.17026089 0.11351089 -0.034818724 0.15046778 0.0023210498 -0.014931742 -0.13652942
0.042700395 0.08895526 0.050393425 -0.010944287 0.009198529 -0.02292186 -0.06613346 0.12264693
0.03473102 0.09972405 -0.25351316 -0.23331285 -0.12366441 0.017089179 -0.21891813 -0.051114287
-0.012659228 -0.1844286 -0.033001266 -0.043088894 0.123976216 -0.035905454 -0.08080268 0.056442726
0.2347371 -0.029848635 -0.08595502 0.008496454 0.05315047 -0.0289353 0.14016417 0.12952332
0.37396324 0.08415989 -0.0061097015 0.15183206 0.010342468 0.01312614 0.05379519 -0.011842196
-0.14939408 0.005648195 0.07535052 0.086528525 0.20022465 0.015881766 -0.17008276 0.02506516
-0.11868678 -0.031157484 -0.15271167 0.10684967 -0.1345 -0.04552736 0.007503232 0.09148763
-0.0833884 -0.1379464 0.021659749 0.08965615 0.101772055 -0.06556002 -0.20181243 -0.017468525
-0.15880975 -0.096336044 0.13107638 0.0418305 -0.170856 0.12382978 0.01693247 0.30745214
-0.13262722 -0.10523231 -0.041632123 0.033542614 0.17228693 -0.0028027152 0.13067707 0.05193291
-0.09752421 0.037026487 -0.048355438 0.04699144 -0.17400761 -0.09208066 0.056435905 0.06769923
-0.045457944 -0.21638678 0.008412908 0.12817785 -0.06308392 -0.020817526 0.14999257 0.21960548
0.15771548 0.16057175 0.15657187 0.20145372 -0.18978679 0.33650774 0.16615963 0.093952045
0.02000269 -0.10301785 0.20647004 0.036160067 0.031355157 -0.08939994 0.062072173 0.17790125
-0.06803858 -0.04423391 0.13266289 0.010395088 -0.05238207 0.0008238542 -0.13275072 0.1363522
-0.14362708 0.059114296 -0.09060133 -0.14123909 0.09183217 0.064932145 -0.046323422 0.06719528

network_body._body_endoder.seq_layers.2.bias f4 [128]
00000000: feea 883d 7012 da3d ae7e a1bb 42f7 de3d
00000010: f8f8 323d 890c 453d 8437 c13d b37e cd3d
00000020: c2d0 8a3d e034 933d eeb9 b13d ec25 763d
00000030: 2800 773d 5705 033c 8f45 133e 7aee 263d
00000040: 2e65 003e 4a92 343d a704 1ebd 79fc 283e
00000050: 7c64 ec3c 1ca0 f43d 5263 c83d ca06 94bd
00000060: d90a 9e3c 0ed8 b63d cf83 f23d b83e 6a3d
00000070: 3cd8 1d3d d865 763d b5aa cb3b bb76 b6bc
00000080: 4ea9 763d f5fa 0c3d 169f 023e 458f bc3d
00000090: 525e d93d 4eff f63c 4ad2 c53d 1420 e23d
000000a0: 0190 f93d e929 733c 13cc 54bc 8a01 d43d
000000b0: 0026 d83d fa8b a9bc 5d11 88bd 76d9 f33c
000000c0: 6a61 643c ad59 823d d5ba 823d b9f3 a43c
000000d0: cfbc cf3c 2cc0 3fbe 9625 483d c0a6 8c3d
000000e0: 6139 ee3d c4c7 eb3d 58c7 1b3e ca1a 0f3e
000000f0: 79b2 443d dbf0 033e 9870 ab3d 8001 cf3c
00000100: 90b4 1f3d 2af5 efbb 5fd5 bb3d cedc ddbd
00000110: 37f9 d63d eb39 9b3d 070e f13d 0008 a23b
00000120: 27b9 353c 7826 efb9 c12b 6d3d afe2 babb
00000130: dfed d63d dfdd ab3d 73e0 253d 1646 cf3d
00000140: 29b0 723d 8337 833d d60a b4bc 64b5 4b3d
00000150: 42cb e63d 76a9 91bc 1d7f e03d bf55 2c3e
00000160: 4799 bf3d 1f40 f03d be68 083e 092e c93d
00000170: 12ac d43d 1e9c 903d 4c20 973d 1b72 5e3d
00000180: f9cf a53d ac53 db3d 7ee9 c53d 6eee 1a3d
00000190: a1f3 fb3b 4129 7f3d 69e8 513d ee2b 493d
000001a0: 23f5 2d3c afaf 8d3d 5c88 053d b761 f43d
000001b0: 1a47 8d3d 198e d63d aaf6 323d 2b56 0e3e
000001c0: 3745 7bbd 9eec 2d3c 22f2 ce3d 4c1c 2b3d
000001d0: 5e9c f13d be39 913c 7855 a73d 5e62 063e
000001e0: fcf2 143d 119f b73d 56bd 333d ef1b fd3d
000001f0: 5498 773d b163 0d3e d11f 38bd 24c8 973d
0.06685446 0.10648048 -0.0049284315 0.108870044 0.043694466 0.048107658 0.09434417 0.100339316
0.06778099 0.071878195 0.086780414 0.06009476 0.060302883 0.007996879 0.14382003 0.040754773
0.12538597 0.044084825 -0.038578656 0.1650256 0.028856508 0.11944601 0.09784569 -0.072278574
0.019292282 0.08927928 0.11841547 0.05718872 0.038536295 0.06015572 0.006215418 -0.022273412
0.060220055 0.03441902 0.12755999 0.09207014 0.10613693 0.030151036 0.0965925 0.11041275
0.1218567 0.014841535 -0.012988108 0.10351856 0.10554123 -0.020696629 -0.06643937 0.02976678
0.013939241 0.063647605 0.06383292 0.020135747 0.025358586 -0.18725652 0.04886397 0.068677425
0.11632038 0.11512712 0.15212762 0.13975063 0.048021767 0.12884848 0.08371085 0.02526927
0.038990557 -0.007322927 0.09171557 -0.10833131 0.10496753 0.07579406 0.11770254 0.0049448013
0.011091507 -0.00045614294 0.057903055 -0.0057032923 0.10494589 0.08391928 0.040497255 0.1012079
0.05925003 0.064070724 -0.021977823 0.049733534 0.11269237 -0.017781 0.10961745 0.16829585
0.09355407 0.1173098 0.13321206 0.09823234 0.10384382 0.07061027 0.07379207 0.05430804
0.08096308 0.107093185 0.09663676 0.03782504 0.007688955 0.062295202 0.051247034 0.04911416
0.010617527 0.069182746 0.032600746 0.119327 0.06898327 0.10476322 0.04369227 0.13900058
-0.061345305 0.010615496 0.10104777 0.041775033 0.11797403 0.017727729 0.08170599 0.13123462
0.03636454 0.089658864 0.043881737 0.123588435 0.060448006 0.1380756 -0.044952217 0.07411221

action_model._discrete_distribution.branches.0.weight f4 [10, 128]
00000000: d335 333d c993 933d c449 d8bc 8397 823d
00000010: a619 153d 82e1 03bd d1cd c83c 8e03 ac3d
00000020: 3936 c33c e3bb eb3c adc5 9d3c 3e00 7cbd
00000030: 94ae 13bd 3723 8b3b 1a5c fa3c b9c6 a9bc
00000040: c1a9 543b cdc4 6a3d 0674 3d3d 3a44 3d3d
00000050: 2468 113d e905 f93b fd13 b5bd 446c 13bd
00000060: eed2 403d 05c7 693d 882d 003c ebff 183b
00000070: c6c2 f5bd acfd d3bc 1236 813d ad7c 1d3d
00000080: d206 113d 0c54 803d d92e a23d 0192 c83c
00000090: ea4c c6bc c43e 9e3d 78d6 ff3c a37b 3d3c
000000a0: 96d4 5fbc cbd1 7e3d 927c 0e3d 38eb 4e3c
000000b0: 39f3 4bbd 2807 493d 847a f0bd d3b9 2dbc
000000c0: 931f 123d 09c6 4e3c c8a5 2bbd 7160 273d
000000d0: 16c0 49bc f5a0 7bbd 9497 423d 534b 2a3d
000000e0: f5b8 4e3d 2f30 6d3d 543d a33c 6313 163c
000000f0: 7b16 6abc 796b 973d 92f4 d83c 37cf 303c
00000100: 5497 873d f4f9 18bc d46b 113d 876a 99bc
00000110: 2399 46bd 9468 613c 2c6f e63a 89e1 9c3d
00000120: 7cb7 bfbc 46db 143d 4628 843c c6dc 773d
00000130: c542 a9bc ade8 e6bc e958 523d bf17 543c
00000140: 50f1 0438 2797 45bd 55f4 de3c 2ea9 303b
00000150: bb3c 4b3d f878 a8bd 16e7 253b 443a 763d
00000160: 69dd 813d 8efc 8c3d b930 2c3d 00d6 873d
00000170: c536 8dbd ff38 ad3d f90b 663d 7b21 c03c
00000180: 1068 983c f666 293c 847c bfbc 505b 943d
00000190: 41c0 e6bc 0c70 e43c 237a 363d 7c65 2639
000001a0: 08a7 363d e0a2 903d a630 483c 42ea 4c3d
000001b0: 691a e33b 0fe8 243d fea3 6b3d c375 f23c
000001c0: b911 c5bc 121a 413d b3b0 6ebd c7e9 b03d
000001d0: 4fed 933c eea3 183c f9ab 723d bfed c53c
000001e0: a135 663d 3efd 463d 6f84 b23c 2da6 953c
000001f0: c65d 933d 2d06 403d ced8 dfbd c704 5b3d
00000200: b800 c5bb 8faa ef3c 34c1 67bd c76e 4f3d
00000210: 174a 7c3d ad56 acbc 4baf 9b3c 073f cc3b
00000220: 0d7c 8b3c 7b45 ae3b 0299 0f3d ffad 53bd
00000230: 30fc 0abd 173a 02bc 1a50 a03c 64e6 f0b9
00000240: b51e 013d 132a 3f3c 917d ce3b ce60 42b9
00000250: be7c 673d b4c9 6d3c da47 88bd f48b 023c
00000260: a222 603d 4823 9f3c 2a5f 483b 9b0c 63bc
00000270: e69e cbbd 3672 1fbc 2a9a 573d 2ecf b53c
00000280: 7c7d 7b3b d65c 483d b99b 9b3c ee82 873c
00000290: c87d f1bb 4959 e53c 1648 d93c 5cdc e1bc
000002a0: 35d8 0c3c 5687 e83c 260b d83c b93b ec3b
000002b0: 5b07 82bd 92fd 213d 9c7e 5dbd cfe3 2c3c
000002c0: 6134 413d 2396 1c3c c35f 41bc 97a8 de3c
000002d0: 3e08 25bd 2224 d0bc b7eb 18ba 3821 1d3c
000002e0: be50 3e3d f66a 1a3d 5807 4a3c 107f ef3c
000002f0: 4aea ba3b 3ba1 333d 5a91 133d c321 9f3b
00000300: d91b 463c 8056 673c 5bb8 a73c 2462 39bb
00000310: 83ed f5bc 2e5f 1cbc 1f75 a93a f51d 4e3c
00000320: a401 0d3c 35ab 0b3d aa48 86bc e3fc de3b
00000330: b06c c0bc a711 51bd 2fd0 c63c 96d7 cabc
00000340: d038 c0bc ff74 24bd acfc c63c 2fb7 8abc
00000350: 9c31 a33a 3aff 71bd 0968 1abc eac4 003d
00000360: 8cb8 723d be0f 033d 000c 8d3c f038 a73c
00000370: c768 99bd a109 1c3d 4bd5 823d 3cc3 f83c
00000380: cef2 9e3c 936a f43b c919 fabc 7e24 033d
00000390: 55eb 59ba 1ca7 b13c af7b 1f3d 6280 debb
000003a0: 776d 263d 825d 253c a47b 48bc def3 cd3b
000003b0: af59 a4bc ccce 27bc 6d53 fe3b 3a2a 973c
000003c0: f6c9 aeba 45d5 123d 475c 8ebd f594 083d
000003d0: c7ba c23b e1a7 55bc 5778 003d c222 913c
000003e0: 58c5 cb3c 033c 453c bc7f f0bc 1f58 43bc
000003f0: 250f 6b3d 438b 113d 1d5b 74bd acd1 803c
0.043752503 0.07205922 -0.026402362 0.06376555 0.036401413 -0.032197483 0.024512203 0.083991155
0.023829566 0.028776115 0.019259298 -0.06152367 -0.036055163 0.0042461413 0.030561496 -0.020724641
0.0032449814 0.05731659 0.046253227 0.046207644 0.035499707 0.0075995815 -0.08841703 -0.035991922
0.04707616 0.057074565 0.0078233555 0.0023345898 -0.12000041 -0.025877796 0.06309141 0.03844898
0.035406895 0.06266031 0.07919092 0.024483683 -0.024206597 0.07726815 0.031230196 0.011565122
-0.013661524 0.062211793 0.03478677 0.012629323 -0.049792502 0.04907909 -0.11742118 -0.010603386
0.035674643 0.012620457 -0.04190615 0.040863458 -0.012313863 -0.061432797 0.047507837 0.04157574
0.050469358 0.05790728 0.019926704 0.009159896 -0.014287586 0.07393546 0.026483808 0.010791591
0.066206604 -0.009336937 0.035503224 -0.018727554 -0.048485886 0.0137578435 0.0017580739 0.07660205
-0.023402922 0.036341928 0.016132485 0.06051328 -0.020661721 -0.02818712 0.051354323 0.012945115
3.1695992e-05 -0.048239853 0.027216116 0.0026956308 0.049618464 -0.08226198 0.002531474 0.06011416
0.06341059 0.068841085 0.042038653 0.06632614 -0.06895212 0.08458137 0.05616376 0.023453465
0.018604308 0.010339489 -0.023374803 0.07243979 -0.028167846 0.02788546 0.044550072 0.000158688
0.044592887 0.07062316 0.01221863 0.050028093 0.0069306386 0.04026037 0.057529442 0.029597169
-0.024056302 0.047144003 -0.058273982 0.086383395 0.018057493 0.009316428 0.059246037 0.024161218
0.05620349 0.048581354 0.021791665 0.018267715 0.0719562 0.04688089 -0.10930024 0.053471353
-0.0060120486 0.029256133 -0.056580737 0.050642755 0.061594095 -0.021037424 0.019004485 0.0062330994
0.017026925 0.0053183413 0.03505803 -0.051679607 -0.03393191 -0.00794842 0.019569445 -0.00045948022
0.031523425 0.011667746 0.00630159 -0.00018537344 0.056515448 0.014513422 -0.066543296 0.007967938
0.05472053 0.019426003 0.00305743 -0.013857986 -0.09942417 -0.00973182 0.052637257 0.022193518
0.0038374355 0.04891666 0.018995153 0.016541924 -0.0073697306 0.027996676 0.026523631 -0.027570896
0.00859647 0.028384846 0.026372503 0.007209268 -0.06349059 0.039548464 -0.054075822 0.010552361
0.047169093 0.00955728 -0.0118026165 0.02718 -0.040291063 -0.025407854 -0.0005833464 0.0095904395
0.04646372 0.037699662 0.012330852 0.029235393 0.005704199 0.043854933 0.03602729 0.0048563196
0.0120916 0.014119744 0.02047365 -0.0028287256 -0.030020481 -0.009544177 0.0012928582 0.0125803845
0.008606348 0.034098823 -0.01639207 0.006805049 -0.023489326 -0.051042225 0.024269192 -0.024761003
-0.02346459 -0.04015064 0.024290405 -0.016933052 0.0012450698 -0.059081294 -0.009424218 0.031437792
0.05925803 0.031997435 0.017217636 0.020412892 -0.07490688 0.03809512 0.06388339 0.030366533
0.019402888 0.0074589937 -0.030529873 0.032017224 -0.000831296 0.02168613 0.038936313 -0.006790207
0.040631738 0.010093095 -0.0122365095 0.0062851747 -0.020062296 -0.010242175 0.00776141 0.018452752
-0.0013335336 0.03584792 -0.06951194 0.03334518 0.0059426758 -0.013040514 0.031364765 0.01771677
0.024874374 0.012038234 -0.029357783 -0.011922865 0.05738749 0.0355332 -0.059657205 0.01572498

action_model._discrete_distribution.branches.0.bias f4 [10]
00000000: 7edc b43d 698a 003d bc0d bdbc 1e1a fabc
00000010: ed57 72bd 2e8b a2bd f8b5 84bd 19d0 d0bc
00000020: ecc7 d7bc 8b49 a03d
0.08831118 0.031382 -0.023077838 -0.030530032 -0.059165884 -0.07936703 -0.0648002 -0.025489854
-0.026340447 0.07826527

action_model._discrete_distribution.branches.1.weight f4 [10, 128]
00000000: 354a 71bd 342f 43bd 92fa 02bd 09b0 603d
00000010: b8ef 4f3c 0d44 b03b eac9 e73b 7747 3cbd
00000020: 7e8f be3c 35b3 04bd dbf2 bc3d dd23 8e3c
00000030: 5cbc 023c b51e 093c 2bcb 993d 364a 1a3a
00000040: 801b f03c da55 343d aabd 9cbd 9f2b 743d
00000050: a45e 903c 954c c43d aabd b53c a00a 0bbd
00000060: fe6a fb3b 37e4 5f3d d377 483d 7eb3 9abc
00000070: c015 e53c c202 a63c 3185 0d3c ce32 b7bc
00000080: 4db0 933b 639f 113d 515c 7dbd 638a 5fbd
00000090: cea8 153c 31f7 a9bd fcce b53c 8914 c43c
000000a0: a42f 4e3d e9fd e3bd 364b 0bbc c0c5 533d
000000b0: 8457 6e3c 0e8f bfbb 3957 6dbd 022c 1e3c
000000c0: b50f 223d 75c7 963d 5a85 033d bdf0 97bd
000000d0: 01bb 97bd d9fe 63bd aa10 24bd 95ff e6bb
000000e0: ff39 8f3d 581a bf3c d324 cc3c 0d6d 4a3d
000000f0: 6d65 563c 972f 933d 1c1e 133d 20db 6abc
00000100: f25f 81bd 9edf 36bc 7b39 913d 8ffa efbd
00000110: 8fa9 6d3d 7329 183c 9930 2f3d a571 90bd
00000120: 323b bfb9 f56e 863c cb52 f6bc cf7f dfbd
00000130: e461 6e3d b272 883d bf1e 6fbd f02d 223c
00000140: 47b3 9ebc b572 bf3c 90da 82bc 629b 683b
00000150: 0794 a5bc c756 57bb 97af 0c3d d42d ab3d
00000160: 8144 873d 38b5 413d 47c8 993d 7538 903d
00000170: 4c05 073d a768 a93c d339 093d 7b65 993b
00000180: aa99 993d e863 903d cc37 a33b 126a adbd
00000190: caef 1fbd b1ff ff3c 37e4 d53c c047 553c
000001a0: 441d 163d cd91 8dbd c286 a8bc 1688 afbc
000001b0: f2fd dcbc acb4 b0bc 3cc5 bbbd df43 923d
000001c0: ece5 19bd 9e4d c4bd 2780 033d af37 5ebd
000001d0: 1413 843d 8adf e0bc 25fc 0e3b efac 993d
000001e0: 71be cdbd 0b15 61bd d5ac 79bd 0dcf 853d
000001f0: d170 043d 72e4 373d 3aa8 5ebd ec89 a7bd
00000200: 401f a0bc 341f 4ebd fa40 8dbd 7878 203d
00000210: c7b7 ed3c 2de8 01bd 5965 a5bb 89d0 95bc
00000220: 6b7d d6bb f05f 91bd b65a b83c ed05 3abc
00000230: af8e 17bd cb08 443c b083 cb3c bf1f 3b3c
00000240: ddc6 1f3c 3b28 6e3d 0776 7f3a dd8c 0e3c
00000250: c48e 9c3c ce06 253d 345d a03b fb0f 833c
00000260: 184a 2d3d e2d3 8a3d 5648 993c 04c4 56bc
00000270: 7cbd 8b3c a90a 0bbc 4d71 623d bf8e 853c
00000280: a4f1 81bb 0002 9d3d 20de 52bd 2009 0ebd
00000290: 5217 3abd 58f3 aa3b 2e9f 8ab8 1f83 09bd
000002a0: d402 983c d65d 6ebd c244 babc 6c4c 06bc
000002b0: d640 56bc aa43 c53c c25d a6bd 2d59 a1bc
000002c0: fb09 8b3d ba1f d93c 1256 40bc 8320 07bc
000002d0: e897 acbd dd2a e2bc d7a1 78bd 26dc 7e3a
000002e0: 577f 243d f5dd b0bc ad5f 6f3c 75de b73b
000002f0: 609f a6ba 93e3 5f3d f38c 8d3c 86b3 b03b
00000300: 2856 803b 3096 59bc 754d a83d d110 97bd
00000310: 5f20 abbc 5e83 503c a21f 293c f10c c5ba
00000320: aafb 143c e1e3 833d dbc3 683c 11b3 afbd
00000330: a42f 083d ce3b 0d3c 96ca 34bd f9b5 0dbd
00000340: fd32 dfbc eb3d 9cbc d03e 4d3c a797 433c
00000350: 4b88 87bd bbfb 61bc c6b3 843c 7310 903d
00000360: 2564 653d 941d 763d da04 893d c170 933d
00000370: 719c 75bc af76 ec3c 4cb2 213d 98d4 07bd
00000380: f298 213d a81b 013d e8ac edbc c61d 3bbd
00000390: 256c 03bb ac45 073c 86f8 993c 2427 c43c
000003a0: a71f 523d 1ba5 06bd b85a 5bbd 77a4 32bd
000003b0: 2eba 0abc 8968 69bd 929f 82bd 8519 c83c
000003c0: 5a78 923c 11b0 49bc 6936 34ba 94a8 b0bc
000003d0: 2378 143c 2e79 5abc 0b47 aa3c 22b6 933d
000003e0: 17ec 1cbd 647b 03bd 9ad2 75bd 0f38 fb3c
000003f0: 1f13 393d bf5b ad3c 1a0d abbd 5419 97bd
-0.05890866 -0.04765244 -0.031977244 0.05485538 0.012691431 0.005379206 0.0070736306 -0.04596659
0.023261782 -0.032397468 0.092260085 0.017351085 0.007979479 0.0083691375 0.07509454 0.0005885692
0.029309988 0.044027187 -0.07653363 0.059611913 0.017623253 0.09584919 0.022185165 -0.03394568
0.0076726666 0.054661002 0.0489424 -0.018884417 0.027964473 0.020264987 0.008637712 -0.022363093
0.0045071007 0.035552394 -0.061855618 -0.054575335 0.009134484 -0.08299101 0.022193424 0.023935573
0.050338402 -0.11132414 -0.008501818 0.05170226 0.014547233 -0.005845911 -0.05794451 0.009654047
0.03956576 0.07362262 0.032109596 -0.07418964 -0.07408715 -0.055662964 -0.040054955 -0.0070495107
0.06993484 0.023327991 0.024919903 0.049420405 0.013085705 0.071868114 0.035917386 -0.01433447
-0.06317128 -0.011161713 0.07091042 -0.11717712 0.05802303 0.009287226 0.042770956 -0.07052926
-0.00036474463 0.01641033 -0.030068776 -0.109130494 0.058198825 0.066625014 -0.05837893 0.009898648
-0.019372595 0.023370126 -0.01597336 0.0035493006 -0.020212187 -0.003285812 0.034347143 0.083583504
0.06604863 0.047291964 0.07508903 0.07042018 0.032964036 0.020679785 0.03350241 0.004681287
0.07500012 0.070503056 0.0049810167 -0.08467497 -0.03904704 0.031249853 0.026109798 0.013017595
0.036649004 -0.06912575 -0.02057207 -0.021427196 -0.02697656 -0.021570526 -0.09168479 0.07141852
-0.037572786 -0.09585117 0.032104637 -0.054252323 0.06448951 -0.027450342 0.002181777 0.075036876
-0.100460894 -0.05495171 -0.06095584 0.065336324 0.032334153 0.044895597 -0.054359652 -0.081806034
-0.019546151 -0.050322726 -0.06897159 0.039177388 0.029018296 -0.03171556 -0.005047482 -0.018287914
-0.0065457127 -0.07098377 0.022504192 -0.011353952 -0.037001308 0.011964987 0.024843067 0.011421143
0.009752003 0.058143836 0.00097450655 0.008700577 0.019111045 0.040289693 0.004893923 0.015998831
0.04230699 0.06778695 0.01871125 -0.013108257 0.017058127 -0.008486428 0.055283833 0.016303418
-0.0039655734 0.07666397 -0.051481366 -0.03467667 -0.045432396 0.005216997 -6.610002e-05 -0.033572312
0.018556036 -0.058194958 -0.022737864 -0.008196931 -0.0130769815 0.024080116 -0.08123352 -0.019695843
0.06789013 0.026504386 -0.011739271 -0.0082474975 -0.08427411 -0.02760833 -0.060701218 0.0009722136
0.040160503 -0.021590212 0.014610213 0.0056112357 -0.0012712292 0.05466039 0.017279124 0.0053924946
0.0039165206 -0.013280436 0.08217899 -0.07376254 -0.02088946 0.012726633 0.010322483 -0.0015033764
0.0090932045 0.06439949 0.014206852 -0.08579076 0.03324856 0.008620216 -0.044138514 -0.03459737
-0.027245993 -0.019072494 0.012527183 0.011938012 -0.06617793 -0.013792927 0.016199004 0.070343874
0.05600371 0.0600868 0.066903785 0.071992405 -0.014990912 0.028865186 0.039476678 -0.03316173
0.0394525 0.031520516 -0.029013112 -0.04568269 -0.0020053473 0.008256357 0.018795263 0.023944445
0.051299717 -0.0328723 -0.053553313 -0.043613877 -0.00846724 -0.056984458 -0.06378092 0.024426231
0.017879654 -0.012310044 -0.0006874563 -0.02156476 0.009061846 -0.013334556 0.020785829 0.072124735
-0.03831109 -0.032100096 -0.0600153 0.03066638 0.04518425 0.021161912 -0.08352108 -0.07377878

action_model._discrete_distribution.branches.1.bias f4 [10]
00000000: 0016 af3d efca 5e3d 3aaf d83b 0612 48bd
00000010: 6ab0 6bbd aef8 7cbd c8fd 2abd 1fae 09bd
00000020: 9bec 5a3c 16c8 e73c
0.08549118 0.05439275 0.0066126855 -0.048845313 -0.05754129 -0.061760597 -0.04174593 -0.03361332
0.013362075 0.02829365

onnx::Div_65 f4 [12]
00000000: bc3b 3640 2926 3840 4467 4040 77f7 4140
00000010: 8a24 4840 398e 4940 16ba 4d40 6991 4e40
00000020: 9dbd 5040 ac22 5140 0025 5140 c79f 5040
2.847396 2.877329 3.0063028 3.030729 3.1272302 3.1493056 3.2144828 3.2276251
3.261573 3.2677412 3.2678833 3.259752
