Assets/Test/Config/results/Test/Test/checkpoint.pt (torch, 485227 bytes, 48 tensors)

discrete_act_size_vector f4 [1, 2]
000000 00 00 20 41 00 00 20 41
       10.0 10.0

network_body.observation_encoder.processors.0.normalizer.running_mean f4 [10]
000000 71 a9 1d 40 bb f1 37 40 81 0a 38 40 7a 56 52 40
       2.463467 2.874129 2.875641 3.286528
000010 0f 75 52 40 34 87 70 40 99 ac 70 40 a7 61 87 40
       3.2883947 3.7582521 3.7605345 4.2306705
000020 a0 85 87 40 73 76 98 40
       4.2350616 4.764459

network_body.observation_encoder.processors.0.normalizer.running_variance f4 [10]
000000 7d f5 e0 48 35 24 01 49 88 1b 01 49 ab 7d 09 49
       460715.9 528963.3 528824.5 563162.7
000010 78 6e 09 49 0f 5e 14 49 d4 40 14 49 86 59 14 49
       562919.5 607712.94 607245.25 607640.4
000020 d2 07 14 49 1e 08 14 49
       606333.1 606337.9

network_body.processors.0.normalizer.running_mean f4 [10]
000000 71 a9 1d 40 bb f1 37 40 81 0a 38 40 7a 56 52 40
       2.463467 2.874129 2.875641 3.286528
000010 0f 75 52 40 34 87 70 40 99 ac 70 40 a7 61 87 40
       3.2883947 3.7582521 3.7605345 4.2306705
000020 a0 85 87 40 73 76 98 40
       4.2350616 4.764459

network_body.processors.0.normalizer.running_variance f4 [10]
000000 7d f5 e0 48 35 24 01 49 88 1b 01 49 ab 7d 09 49
       460715.9 528963.3 528824.5 563162.7
000010 78 6e 09 49 0f 5e 14 49 d4 40 14 49 86 59 14 49
       562919.5 607712.94 607245.25 607640.4
000020 d2 07 14 49 1e 08 14 49
       606333.1 606337.9

network_body._body_endoder.seq_layers.0.weight f4 [128, 10]
000000 68 b5 62 3e c5 7d 63 3e 0e 15 cc 3e 3a 87 0e 3e
       0.22139513 0.22215946 0.39859813 0.13918772
000010 d5 1c 36 bd 2c 94 78 bd 7d 96 38 3d fe 8a fd be
       -0.04446109 -0.060688183 0.04506539 -0.49520105
000020 7f d0 d0 bd df ec 74 3e 39 d8 a6 bc c3 b4 37 bd
       -0.101960175 0.23918484 -0.020366775 -0.044850122
000030 d4 4e 0c be de b2 dc 3e 6c e4 35 3e 19 20 8d 3e
       -0.13701946 0.43105215 0.17762917 0.2756355
000040 c0 11 a5 3e 20 0c 89 3e 96 65 72 be 7e 2f de be
       0.32240105 0.26767063 -0.23671564 -0.4339561
000050 e3 35 cb be 7d 7c c8 3e ef bc 30 3e 7e 7f c5 bd
       -0.3968955 0.39157477 0.17259572 -0.09643458
000060 93 e8 ae bd 17 83 4c 3e c2 3c a4 be cb 90 ff be
       -0.08540454 0.19971882 -0.32077605 -0.49915156
000070 e2 4a 9f be 41 76 72 be 9c 97 9a 3e 79 33 ef be
       -0.3111182 -0.23677923 0.30193794 -0.46718958
000080 b9 19 99 be d1 7d b1 3d 07 02 71 be 37 5d b8 3a
       -0.29902437 0.08666576 -0.2353593 0.0014065866
000090 db e4 39 be 64 32 a6 be 4a d5 55 3e 1f 06 c9 bd
       -0.18153708 -0.3246032 0.20882145 -0.09815621
0000a0 f2 1c cc 3e db 68 05 3f a9 42 e9 3d ef 8f dd bd
       0.39865834 0.5211312 0.113896675 -0.10818469
0000b0 20 4c a7 be 6a 68 bf 3d 1f dd e3 3e c9 b9 65 3e
       -0.32675266 0.09346087 0.4450464 0.22434153
0000c0 a8 e7 cd be 34 dd c0 be ec 49 bf be c0 e3 20 3e
       -0.40215802 -0.37668765 -0.37361085 0.1571188
0000d0 bd 00 fc 3d 87 bf 2c be 5a e7 5a bd 6d d5 02 3f
       0.12304828 -0.16869937 -0.05344329 0.5110691
0000e0 3d f2 3a 3e 77 ea 07 3e 7e e2 d3 3e 69 11 9b be
       0.18256469 0.13273035 0.41383737 -0.3028672
0000f0 7f 6c c2 be 2d f9 ad be 5d 46 06 3f 40 45 06 bf
       -0.379734 -0.3397917 0.52451116 -0.5244942
000100 9d 52 b3 be b7 0d 7e be 2d 0b 1f 3e ae 22 2b 3e
       -0.35023966 -0.2480992 0.15531607 0.16712448
000110 22 ab a5 be a9 27 cf be 94 85 ff be 43 4f 07 3d
       -0.32357126 -0.40459946 -0.499066 0.033034574
000120 ad 99 f0 3e 89 30 12 be 64 81 93 be e1 6d a0 be
       0.46992245 -0.14276327 -0.28809655 -0.3133383
000130 04 f1 52 be 18 df 6a 3e 6d dc 86 3d d5 5c bc be
       -0.20599753 0.22936666 0.06585012 -0.36789575
000140 40 b8 ff bd c7 73 03 3f d4 6f 8d be 1e 8d 1e be
       -0.12486315 0.5134854 -0.2762438 -0.1548352
000150 ab 8e 30 3e aa 0b a4 be 55 74 27 3f 7e 9b 12 3e
       0.17241924 -0.3204015 0.65411884 0.14317128
000160 17 11 1c bf 5d 49 26 bf 1b 72 e2 be b6 11 80 3e
       -0.6096358 -0.64955693 -0.4422768 0.25013512
000170 44 a1 5a bd 8e f3 42 bf 2a 96 bf 3e 00 38 d1 be
       -0.05337645 -0.76152885 0.37419254 -0.40863037
000180 0a 90 18 be a3 e7 b0 be bb d8 3e 3e 85 ef 01 bf
       -0.14898697 -0.34551725 0.18637364 -0.507561
000190 eb 65 28 3e f6 2e b7 3e f7 2d d8 3e f1 e0 9d 3e
       0.16445129 0.35778016 0.42222568 0.3083568
0001a0 3d 8e fb 3e fb 01 2f be 7d da 5e be d8 b9 dd 3e
       0.49131957 -0.17090599 -0.21763034 0.4330585
0001b0 0f f4 08 bf a1 48 95 3d da de b8 be d0 cd 51 3f
       -0.53497404 0.072892435 -0.36107522 0.8195467
0001c0 39 20 8b be 9d 75 1c 3e a9 27 26 3e 2d 59 13 3d
       -0.2717302 0.15279241 0.16226067 0.035973717
0001d0 e3 b2 4c 3e 50 5b ce be 6a 1f d1 3e cd a5 a9 be
       0.19990115 -0.4030404 0.4084428 -0.33134308
0001e0 d3 0f 4e 3f 16 0d e9 3d dc 1b 2c bf fa ea 1a bd
       0.80492896 0.11379449 -0.6723001 -0.037821747
0001f0 2b c2 9a 3d f4 13 34 bf 62 8f 43 3e fc b2 cd bd
       0.07556566 -0.70342946 0.19097665 -0.10043904
000200 17 a1 c8 bc 2c ae 8a 3e 57 3a 0e be 6f ea 09 3e
       -0.024490876 0.27086008 -0.13889442 0.13468336
000210 b3 61 65 be 16 8b 7d 3e bc 25 13 bf da dd 90 be
       -0.2240055 0.24760088 -0.57479453 -0.2829426
000220 b5 cd 0d 3f fa 99 8e 3e 11 47 33 be 22 a0 45 be
       0.5539201 0.2785185 -0.17507578 -0.19299367
000230 fe 3b 0b 3d be cc b7 3d 2e e1 ca be 9e 55 85 be
       0.03399276 0.08974598 -0.39624923 -0.26041883
000240 53 be 7b 3d 1d 6f ec be f1 13 85 be 91 35 94 bd
       0.061460804 -0.46178523 -0.25991777 -0.072367795
000250 07 9b 73 3e 90 a3 01 bf 1d bf 1b 3e c8 0f ce 3d
       0.23789607 -0.506402 0.15209623 0.10061604
000260 be 54 72 3e 61 b9 c5 3e 6f e6 29 bd 6a 89 0d bf
       0.23665139 0.38617995 -0.041479524 -0.552878
000270 99 3d 49 be a3 fc 1b bf ee 45 bb be 8e da 4a 3d
       -0.19652404 -0.6093237 -0.3657679 0.049524836
000280 1f dc d6 3e 24 8f 74 bd 87 60 0f 3e 9d c4 bd bd
       0.41964814 -0.059706822 0.14001666 -0.09266017
000290 de 0b 78 3e 1a 5a fb 3d f9 a2 1a be f2 24 82 3e
       0.24223277 0.12273045 -0.15101232 0.25418812
0002a0 62 15 37 bd 90 4f 2d be e6 b4 46 3e f6 27 cd be
       -0.044698127 -0.16924882 0.19404945 -0.4006955
0002b0 a8 ef 8c 3e fc 61 78 bd 20 2d ed 3c 15 7c 18 3e
       0.27526593 -0.06064032 0.028952181 0.14891084
0002c0 67 39 f8 3e d6 c8 20 3e 57 75 af bd 01 e2 1f 3e
       0.48481295 0.15701613 -0.08567303 0.15613557
0002d0 81 6d 90 3e 4c 64 da be e4 a8 d1 bc 95 29 29 3d
       0.28208545 -0.42654645 -0.025593229 0.04129942
0002e0 ab 49 06 3e 08 2d 0f 3f 69 93 ef be 11 6a 1c 3f
       0.1311404 0.5592809 -0.46792153 0.61099344
0002f0 60 ee bd be 77 15 0c 3f ae 64 ea 3e 1e 9f 9f be
       -0.37095928 0.5472025 0.45779938 -0.31176084
000300 6f 82 08 be a5 f6 80 be 66 53 ca 3e 2b ff b4 3e
       -0.13331006 -0.25188175 0.39516753 0.35350928
000310 6b 12 30 3e fd 9c c3 3e 75 9f 88 bc 13 8c 73 3e
       0.17194526 0.3820571 -0.016677598 0.23783903
000320 45 7a ae bd 66 51 b4 3e 38 27 b6 3d db 75 1d be
       -0.08519415 0.35218352 0.08894199 -0.1537699
000330 60 df 0a 3f 57 d0 b2 3e 38 d6 72 3e 2b 00 6d 3e
       0.54247093 0.34924576 0.2371453 0.23144595
000340 aa 19 9e be c0 26 26 bc 17 7d 23 bf f0 29 97 be
       -0.30878955 -0.010141075 -0.63862747 -0.29524183
000350 b4 e6 54 be 13 88 84 be 53 b2 56 3d 4a 73 2c 3e
       -0.20791131 -0.25885066 0.052416157 0.16840854
000360 3f 5c 23 be 50 b3 96 be 7b ee 4b 3c ee 38 ff bc
       -0.15953158 -0.2943368 0.012446995 -0.031155076
000370 40 dd bc 3e ac 17 2d bc bc c9 b7 3e 61 23 9e 3e
       0.3688755 -0.010564726 0.358961 0.30886367
000380 a5 b1 dd 3c 8f 0d 86 be af ba 16 be 62 37 3c 3f
       0.027062247 -0.2618222 -0.14719652 0.7352201
000390 87 f1 5e be c5 be 48 bf 40 c3 e8 be 03 66 ad 3e
       -0.21771823 -0.7841609 -0.45461464 0.3386689
0003a0 ce 2e 91 be 95 ee df 3c b5 c9 5e 3e 68 23 89 be
       -0.28356022 0.027335444 0.21756633 -0.26784825
0003b0 3e 8a 25 3e ca 76 c2 3d 29 26 e9 3e 8d 8d 0a 3d
       0.16166016 0.094953135 0.45536926 0.0338264
0003c0 9c 01 e9 bd 70 35 b4 be 23 21 ce 3d f7 db f7 3d
       -0.1137726 -0.3519702 0.10064914 0.12102502
0003d0 ff 26 82 3e fe 74 51 be 57 74 d3 3e 9d 01 29 3e
       0.25420377 -0.20454785 0.41299698 0.16504522
0003e0 d3 05 b6 be 0d 91 2a 3e 12 9f 62 3e dd 0e 98 3e
       -0.3555132 0.16656895 0.22130993 0.2969884
0003f0 c2 8c 33 3e bd 6c 1f 3f cc 25 40 be 99 d2 52 be
       0.17534164 0.62275296 -0.18764418 -0.20588149

network_body._body_endoder.seq_layers.0.bias f4 [128]
000000 2f 24 aa bb f0 e1 db 39 f9 9e d0 3c 10 32 f5 3c
       -0.0051923017 0.00041939272 0.02546643 0.029931098
000010 05 5f cd bb 56 b4 2e 3d 2d 88 81 ba e0 23 c1 3c
       -0.0062674307 0.04265245 -0.0009882502 0.023576677
000020 a9 47 86 bd 3e 65 1d bc 91 7b b3 bc 29 10 4a bc
       -0.06556637 -0.009606658 -0.021909507 -0.012332954
000030 34 72 4b bd 95 b4 11 3d b8 18 b7 3b 44 a6 44 3c
       -0.04966946 0.035572607 0.0055876635 0.012002531
000040 08 ac e9 bc ed 1b 32 bd 5c 24 cd bc 73 8a 66 bc
       -0.028524414 -0.043483663 -0.025041752 -0.014071095
000050 7a 15 3c bd c6 ce 66 3d 3c 0b 4b bb 9b 81 c9 3c
       -0.04591892 0.05634954 -0.0030982038 0.024597934
000060 51 76 0b 3d 22 8a c4 bc a9 9b f1 3c c2 39 c3 bb
       0.034048382 -0.023991648 0.02949317 -0.005957813
000070 30 13 0b bd 67 e1 86 bb 9f 81 a1 3d 1d d6 19 bd
       -0.033953846 -0.0041162255 0.078860514 -0.03755771
000080 ca 13 db bb 22 6c e5 bc 66 fa e9 bb 3f 2d f7 bc
       -0.0066857086 -0.028005663 -0.0071404455 -0.030172942
000090 ce b1 d2 3d 18 d1 41 bc e4 f5 b1 bc b8 cb 04 bc
       0.1028782 -0.011829637 -0.021723695 -0.008105211
0000a0 3d b8 49 3d b5 9c f4 3b f9 2c 7c bc 7d 33 69 bd
       0.04924797 0.00746497 -0.015391582 -0.05693387
0000b0 de 42 a8 bc 1e 04 03 bd 1a 7c bf 3c 96 a4 f2 bc
       -0.020539697 -0.03198635 0.023374606 -0.029619496
0000c0 50 a5 08 3e 1f ef d5 3c 9c 1a 21 bc 4a 52 9b bc
       0.13344312 0.026114998 -0.009833004 -0.018960137
0000d0 a0 11 bc bc 3d 12 14 bd 9a 56 2a 3d 6f 00 07 3d
       -0.022957623 -0.036150206 0.041586496 0.032959398
0000e0 b5 be b9 bc a6 56 e0 3b 79 b9 9f 3b e8 ce 0e 3d
       -0.022673944 0.006846267 0.004874405 0.03486529
0000f0 dc 1e c8 bb 49 af 02 bd e9 d4 15 3d 4a 8d 38 bd
       -0.0061071943 -0.031905446 0.03658 -0.04505662
000100 38 de 88 3c fb d1 87 bc 73 48 bc bb c2 e1 06 3d
       0.016707525 -0.016579619 -0.0057459413 0.032930143
000110 e0 2e 08 bd 52 b8 2e bc d8 12 9a bb d2 47 59 bd
       -0.03324783 -0.010664063 -0.0047019534 -0.05304701
000120 b5 73 91 3c 6c 2a 85 3b e3 59 47 bc 35 1e 17 bd
       0.017755369 0.004063895 -0.012167427 -0.036894042
000130 1f c2 e2 bc b4 ed 94 ba d4 8c b2 bb e2 07 c0 bc
       -0.027680455 -0.0011362345 -0.005448917 -0.023441259
000140 09 98 6a 3d 33 ba 6f bd 5f 1e 77 3d 15 35 1e bc
       0.0572739 -0.058527183 0.0603317 -0.00965621
000150 30 6d d4 bc 69 a3 e8 3c ae 08 d8 3c 7e e3 01 3d
       -0.02593097 0.028398233 0.026371326 0.031711094
000160 d7 96 d5 bc a3 37 d8 bc 61 c6 fa bc ba 01 8b 3d
       -0.026072903 -0.026393717 -0.030612173 0.06787439
000170 42 ac 9b bc 0f 93 89 bc 3f e9 5c 3d cb f4 ec 3c
       -0.019003037 -0.016793756 0.05393338 0.02892532
000180 da 6d b9 3d 29 09 3a bc 6f ea 21 bd 41 c9 d2 3a
       0.09054156 -0.011354723 -0.039530214 0.0016081707
000190 46 d4 b5 bc 13 af ca bb 53 be 3b 3d 22 82 7f 3c
       -0.022195946 -0.0061854213 0.045835804 0.015594991
0001a0 38 37 fe 3d ba c2 4e 3d c6 71 dd 3d c8 e2 a9 3b
       0.12412876 0.050478674 0.10812716 0.005184505
0001b0 f9 6d 9d 3d da 45 1c bd 99 21 3a 3a bc 81 14 3d
       0.07686991 -0.038152553 0.00071003434 0.036256537
0001c0 cd a7 4c bd d5 97 83 bc 6d af 90 3c bf d0 73 3c
       -0.049964715 -0.01606361 0.017661775 0.014881312
0001d0 05 60 00 3d e4 7d 95 3d 72 24 0d bc 0d d7 20 bd
       0.03134157 0.07299402 -0.008614646 -0.03926759
0001e0 31 56 71 bd 08 66 12 3c db 7c 37 3c ac 27 98 3d
       -0.05892009 0.008935459 0.011199201 0.07429442
0001f0 df c8 9e bc ef d9 ad 3c 90 ce 68 3d 1b 9f 9a 3b
       -0.019382892 0.021222083 0.05683762 0.004718674

network_body._body_endoder.seq_layers.2.weight f4 [128, 128]
000000 09 22 39 be 8c eb a0 bd 89 b8 82 3e d7 39 3f 3d
       -0.1807939 -0.07857427 0.25531414 0.04668602
000010 b7 85 16 be 5b e3 62 3c 4c b3 c3 3d 21 ce 98 bc
       -0.14699446 0.013848151 0.095556825 -0.018652977
000020 3f 4f 8e bc 32 b5 23 3b cd 05 f1 bc f5 03 d4 3d
       -0.017371772 0.0024979827 -0.029421711 0.10352317
000030 3a 5d 0b be 54 35 dc 3c e8 96 8e 3d 6d e2 89 bd
       -0.13609782 0.026880898 0.06962377 -0.067326404
000040 60 fa ee bd e9 40 cc 3d 2e 5d ce 3d 4e 04 71 3c
       -0.11668849 0.09973318 0.10076366 0.014710499
000050 e4 29 a5 3c 65 57 03 bd c3 3d 11 3b 5c 62 17 be
       0.020161577 -0.032065768 0.0022162057 -0.14783615
000060 78 e3 0a be 35 88 47 be 92 96 9e 3c ed 61 09 be
       -0.13563335 -0.19485553 0.019358907 -0.13416262
000070 02 a8 8b 3d 91 49 a6 3c db 03 38 3e e5 39 64 bc
       0.06819154 0.020298751 0.1797022 -0.013929819
000080 0b 89 8e bd ae ab b6 3c 04 2a 21 3d 12 f7 1a bd
       -0.069597326 0.02229866 0.03934671 -0.03783328
000090 98 13 6d 3d c2 ab 61 3d 0d 50 5c be a6 15 69 bd
       0.057880014 0.05509544 -0.21514912 -0.05690541
0000a0 fe ad 59 bc 2d 2c a0 bd 32 bf 03 3e 4e 6f 90 b8
       -0.013286112 -0.07820926 0.12865904 -6.887187e-05
0000b0 0b a6 0a 3c d7 8d 94 bd 81 d2 ab 3c 5d 1e 3c 3d
       0.008462439 -0.07253616 0.0209744 0.045927394
0000c0 b3 bc 1b bc 38 85 15 3c 92 3f d3 3c 3b a8 98 3c
       -0.009505439 0.009126 0.025787149 0.018634906
0000d0 47 25 4c bd 33 b2 dc 3c e9 f5 a6 bd f5 06 84 bd
       -0.049840238 0.02694044 -0.081523724 -0.064466394
0000e0 24 85 f9 bd 94 20 00 be d8 ae 68 bc 92 7d 13 3d
       -0.12183598 -0.12512428 -0.014201842 0.036008425
0000f0 3b 9b 09 3e 09 a7 2a bb b3 7c 3c 3d 34 42 95 bd
       0.13438122 -0.0026039502 0.04601736 -0.07288018
000100 69 e2 80 3d 1e 90 24 3e 2d 65 34 3d 98 ff 9f 3b
       0.06293184 0.16070601 0.0440418 0.004882764
000110 7b 3e ab bd 3b b2 39 bd 96 24 e3 bd 44 00 ab bd
       -0.083615266 -0.04533599 -0.110909626 -0.0834966
000120 e5 0e 1b 3c c2 9f cc bc c8 a3 80 3c 9c 32 85 3d
       0.009464 -0.024978522 0.015703097 0.065037936
000130 03 a8 02 bc 2f 07 63 3d a4 1c f5 bd ae ac 37 bd
       -0.007974627 0.055426773 -0.119683534 -0.044842415
000140 8e b2 3a be 1b 2b 49 be 4a d2 e7 3d c9 2c ab 3d
       -0.18232176 -0.1964535 0.11319406 0.083581515
000150 bd fb 2e 3c 8f a9 a3 3d 19 14 4f 3d c7 94 bb 3d
       0.010680136 0.07991325 0.050556276 0.091592364
000160 4c 8a 00 bd ee 09 07 be f7 ae a6 3d 24 f2 f4 3c
       -0.03138189 -0.13187382 0.08138841 0.029900618
000170 6c fa b5 3d 92 7e bf bd c3 c3 41 bd 71 37 b7 3c
       0.08885655 -0.09350313 -0.047305834 0.022365304
000180 f5 9a de 3d 65 12 0c bd e3 51 88 3d 56 f8 75 bd
       0.108693995 -0.03419723 0.06656244 -0.060051285
000190 33 5f 75 bd f7 d3 11 3e 96 8b 8d 3d 82 b5 2a be
       -0.059905242 0.14241014 0.069113895 -0.16670802
0001a0 ee b5 a8 3d 79 9d d9 bc 5b ad 3f 3d 63 55 0c bd
       0.08237825 -0.026564347 0.046796184 -0.03426112
0001b0 c9 70 b8 3d 9a 63 c5 3c 79 99 a1 bd 1f 85 2d 3d
       0.09005887 0.024095345 -0.07890601 0.042363282
0001c0 53 d2 a1 3c 41 3e 46 bd 98 d7 97 bd d2 b7 db bd
       0.01975361 -0.048399214 -0.07414168 -0.1072842
0001d0 36 76 93 3d 65 34 91 bd 47 fb 7a 3d ae 8f 2d be
       0.07200281 -0.070900716 0.061274793 -0.1694934
0001e0 75 63 ad bd a2 7f 24 3e 8e 4c 11 3e 44 ca a9 bc
       -0.084662355 0.16064313 0.1418936 -0.02072633
0001f0 b5 83 bb bc 5c 6f 17 3e af 3a 26 3e fe 27 68 3c
       -0.022889951 0.14788574 0.16233324 0.014169691
000200 1b a5 ba 3b d4 6b 84 bd 5d f8 40 3d 6a fb 01 be
       0.0056959516 -0.06465879 0.047111858 -0.12693563
000210 73 93 a2 3e 72 a1 58 3b fe b4 46 3b b8 fd 28 bd
       0.3175312 0.0033055213 0.0030320282 -0.04125759
000220 20 e1 c3 bc 0c c1 d4 bd 9f 0a ee 3c 10 1a dc 3b
       -0.023911059 -0.10388383 0.029057799 0.006716974
000230 52 8f 17 be bf 9c 80 bd 26 db 95 3c ae be e2 3d
       -0.14800766 -0.06279897 0.018292975 0.110715255
000240 73 54 94 3d 08 a6 50 3c 09 2e 0a bc 70 3e ee bb
       0.0724267 0.012734897 -0.008433827 -0.0072706267
000250 58 5d df 3d e4 6a 4f b9 cb 24 66 3d 36 17 85 bb
       0.10906476 -0.00019780878 0.056187432 -0.004061605
000260 a7 30 ed 3c 79 e8 fb 3c 58 8a b6 3d bf e1 b1 bd
       0.028953863 0.0307505 0.08913106 -0.08685636
000270 0e c1 c0 3d cf f7 1e 3d be db ed bd 5d 18 70 bd
       0.09411822 0.038810547 -0.11614178 -0.058616985
000280 d7 4d 9e 3d 47 47 31 3e be dc 53 3c 46 21 a7 3d
       0.077296905 0.17312346 0.012931047 0.08160643
000290 dd 3e c6 bd 7a 95 0b be f8 ce f6 3d cf 17 91 bd
       -0.09679959 -0.1363124 0.12051195 -0.07084619
0002a0 3c 75 98 3c b5 03 69 bd 69 94 49 bd 9f fb d5 bc
       0.01861059 -0.0568883 -0.0492138 -0.026120959
0002b0 c8 34 8a bd ae 76 69 be 19 22 04 be 36 76 1c 3e
       -0.067483485 -0.22799179 -0.12903632 0.15279469
0002c0 04 52 b6 3d 0e 6f ca 3b 87 27 0e 3d b1 6d 9a 3d
       0.08902362 0.0061777895 0.034705665 0.07540453
0002d0 48 74 87 3d 24 d3 44 bd f2 42 3e bc 48 5a 92 bd
       0.06613976 -0.048052922 -0.011612641 -0.07146126
0002e0 83 70 8e ba 0c 31 92 3c 17 be 4e 3d f8 34 ef bd
       -0.0010867271 0.017845653 0.050474253 -0.11680025
0002f0 9a 19 d5 bd ac ee 40 be b8 bc 5e bb c3 dd 9d bd
       -0.10405274 -0.18841046 -0.0033986997 -0.07708313
000300 e0 0f 67 be c0 66 da 3d e8 7f b7 3d 18 1d 42 be
       -0.2256465 0.10664129 0.08959943 -0.18956411
000310 b0 12 82 3e f9 6c 2c 3e 80 10 18 3e 5e 86 82 3c
       0.25404882 0.16838445 0.14850044 0.015933212
000320 99 f3 d2 bc 82 de 47 bd 61 4c c6 3d e5 a4 1c bd
       -0.025750922 -0.048796184 0.09682537 -0.038243193
000330 a6 10 f1 3d 9e 77 0c 3c d0 7c 96 bc 04 8a 5f bd
       0.117707536 0.008573441 -0.018370062 -0.05457498
000340 4a 65 77 ba ed 8f c2 3c 0d d7 a6 bb 65 88 a3 3d
       -0.00094373955 0.02375027 -0.005091554 0.079849996
000350 0f fc 8d bd 5a d6 6f 3d 35 4e ae 3d 31 31 89 3d
       -0.06932842 0.05855403 0.085110106 0.06698836
000360 74 5b 5a bc 06 a6 84 bd 9f da 68 3d 22 b2 91 be
       -0.013327468 -0.06476979 0.05684912 -0.28456217
000370 ce 86 ff 3b 77 a0 1b 3b 3e b1 8c bd b2 3c bf 3c
       0.0077980524 0.0023746768 -0.06869744 0.023344371
000380 85 95 8e 3d c4 98 d1 3c 2a 99 37 3d 10 33 eb bd
       0.06962112 0.02558554 0.044823803 -0.11484349
000390 4d 40 40 3d 8d 8a e4 3c 83 36 e3 bc 30 f0 73 3d
       0.046936322 0.027898097 -0.027735954 0.059555233
0003a0 04 52 35 be 91 3d a9 bc 26 09 9d 3d 0f 0b c5 bd
       -0.17707068 -0.02065924 0.076677606 -0.0962125
0003b0 19 d0 6c bb 79 eb bd 3d 2a 29 94 3d 28 43 91 bb
       -0.0036134778 0.092734285 0.07234414 -0.0044330545
0003c0 cb b0 19 3e 38 8e 70 bd b8 e5 2a bd 64 0d 15 bd
       0.15008847 -0.05872938 -0.041722983 -0.036389723
0003d0 a3 0d 4e 3d 0e 5b 04 3e ad 30 64 3b a4 ff 1d 3e
       0.050305974 0.1292536 0.0034819052 0.1542955
0003e0 7d 96 fe 3c 3b 71 a4 bd 1c 08 88 3d 5f 34 38 3d
       0.031077618 -0.080294095 0.06642172 0.04497182
0003f0 57 d6 7e 3d 29 03 1f bd 99 0e a6 bc 30 6e 4b bd
       0.06221613 -0.038821373 -0.020270633 -0.04966563

network_body._body_endoder.seq_layers.2.bias f4 [128]
000000 fb 6a 3f 3d 00 fe 43 3b 0f f1 28 bc ef fe ad 3c
       0.046732884 0.0029906034 -0.010311379 0.021239726
000010 07 ad 21 bc 6c a8 5a bd 0b 14 a1 3c 71 28 81 3d
       -0.009867913 -0.053383276 0.019662878 0.06306542
000020 77 27 a3 3d 27 42 8d bc 44 79 f5 bc a5 c8 94 bc
       0.07966512 -0.017243458 -0.02996505 -0.018162081
000030 ce d2 cf 3c 99 e0 ed ba b9 34 46 bd be 7c 4a 3c
       0.025369074 -0.00181486 -0.048390124 0.012358842
000040 5c 97 73 bc b3 08 e3 3c 28 ae 71 3b 69 19 1b 3b
       -0.01486763 0.027714109 0.0036877487 0.0023666269
000050 2d e6 23 3d 97 11 9a 3a e1 7d ea ba 8f 16 20 bb
       0.040014435 0.001175451 -0.0017890298 -0.0024427508
000060 70 df 00 3d 04 6c ed b9 fc 89 87 3b 22 81 98 bc
       0.031463087 -0.0004528464 0.004136322 -0.018616263
000070 09 64 c9 bc 88 4d 4f 3d fb ec 45 3c c9 ee 54 bd
       -0.024583833 0.05061105 0.012080426 -0.051985536
000080 27 04 71 bc fa 87 09 3c 42 14 e5 3d 6f bd 27 bb
       -0.014710463 0.008394236 0.111855045 -0.002559509
000090 c9 c1 ae bc 1b a1 06 bd e5 2a b2 3c f5 6d 92 3d
       -0.021332638 -0.032868486 0.02174897 0.07149879
0000a0 9c 5b 63 3d 36 0b ff 3c ab e6 94 bc 88 d4 b7 3b
       0.055507287 0.031133275 -0.018176397 0.0056100525
0000b0 66 68 e7 3c b0 70 dd 3d 9e 2e 64 bd e2 56 87 3c
       0.028248023 0.10812509 -0.05570852 0.016520921
0000c0 ec 22 27 3c 9c 95 06 bd 66 76 b6 3d 57 8d d0 3d
       0.010201197 -0.032857522 0.089093015 0.101832084
0000d0 0e 3c fb bb cf cc 36 bb 00 4a 4b bc 4a ee c2 bc
       -0.007667071 -0.0027893072 -0.01240778 -0.023795266
0000e0 53 ab 68 bb bf cc 78 3d 03 82 28 bc e1 b7 91 bc
       -0.0035502508 0.060742136 -0.010284903 -0.017787876
0000f0 b1 5b 9f 3d 5f 01 eb 3d 7e c5 bd 3c 32 6e 90 3c
       0.077811606 0.11474871 0.02316546 0.01763067
000100 44 dc 90 3d 2b c0 21 3d ea 7a 0b bd 3d c9 4d 3d
       0.07073262 0.039489906 -0.034052767 0.050240744
000110 20 9c 75 3c bf fa 09 b9 55 fc d5 3a 2a 94 a9 3c
       0.014990836 -0.00013158748 0.0016325811 0.020700533
000120 06 51 d7 3c 3b 7b 9d 3c 50 f7 20 bc 67 2a 28 3d
       0.026283752 0.0192238 -0.009824589 0.041056063
000130 ba c4 da bc cc 2b 7f 3d 3b 0d 55 bd 65 9b 8f 3d
       -0.026705135 0.062297627 -0.05201457 0.07012061
000140 2b b7 17 3b 2c 16 5b 3d fb 3c 45 bd d1 5c b7 bc
       0.0023149948 0.05348794 -0.04815386 -0.022383125
000150 09 1d 24 bd b8 89 5a bc dd ac b3 bc 2a de be 3d
       -0.040066753 -0.013338499 -0.021933014 0.09319718
000160 83 82 c4 bc 1b 47 2f bc 59 74 5a 3d f9 f0 9a bc
       -0.023988014 -0.010698105 0.053333614 -0.018913733
000170 2d 2e a1 3c ee 2d c6 bc 31 cf b7 3d 94 f1 20 3d
       0.019675339 -0.024191823 0.089750655 0.039292887
000180 aa 09 08 bb 27 ff e3 3b 96 90 dc 3c 3b f0 30 3d
       -0.0020757713 0.0069579068 0.026924413 0.04319785
000190 ce c7 45 bc 0c f0 72 3d d7 6f 8c 3d db 45 ca 3d
       -0.012071563 0.059310958 0.06857269 0.09876605
0001a0 f3 09 1c bb 39 60 ea bc 2c ba 0a bd 00 f2 04 bc
       -0.002380964 -0.028610336 -0.033868954 -0.008114338
0001b0 01 37 0c bd 38 b3 51 bd 61 0b 5e 3d 65 26 96 3c
       -0.034232143 -0.051196307 0.05421007 0.018328855
0001c0 78 47 4b bc f9 98 aa bc b1 7c f1 bc 7f 58 97 3c
       -0.012407176 -0.020824896 -0.029478403 0.018474815
0001d0 26 f5 3d 3d 0d 50 4f bc aa 09 37 3c 00 a4 e7 3a
       0.04637637 -0.012653363 0.011171738 0.0017672777
0001e0 1f 5e f6 bb fa 52 32 3b 26 55 f1 3b 19 0a bb 3c
       -0.0075185443 0.0027210102 0.007364887 0.022831963
0001f0 9e cd 3f bd e2 7b d0 3a 57 61 ab 3d e5 76 f6 3c
       -0.04682695 0.001590606 0.083681755 0.03008599

action_model._discrete_distribution.branches.0.weight f4 [10, 128]
000000 39 98 49 bb 5b ce b3 3a 73 bc a1 bc 33 08 b2 bb
       -0.0030760898 0.0013718115 -0.01974318 -0.0054331063
000010 ca 17 6a 3c 2e 92 2b bc 07 48 77 bb af 7c 6e bc
       0.014287898 -0.010471864 -0.003773214 -0.014556094
000020 80 ba 01 3d 9f 20 ef bc cd ab 16 bc f4 9e 06 bd
       0.031672 -0.02919036 -0.009196234 -0.032866433
000030 94 f7 c7 bc 38 54 8a bb a5 48 00 bd 85 c6 a0 bc
       -0.024410047 -0.0042214654 -0.03131928 -0.019625911
000040 6c 57 de bc be 3f dd bc 1a 3a f2 bc a3 b3 03 bc
       -0.027141295 -0.027007934 -0.02956872 -0.008038434
000050 65 8b 9e 3c e7 e8 da 3b 0d c7 7f bc c5 ab 08 bd
       0.019353578 0.006680596 -0.015611422 -0.033366937
000060 88 c3 2a bd bd 03 5a bb 7b 89 4d bc c1 a0 19 3c
       -0.04169038 -0.0033266388 -0.012544985 0.009376706
000070 e4 ad ea bc 21 a3 a1 3b 7e c2 19 bc 93 38 d9 bc
       -0.02864737 0.0049327766 -0.009384749 -0.026516235
000080 67 84 aa bc 0b ec d6 bb ba 74 40 bc 9f ac 50 bc
       -0.020815087 -0.0065589002 -0.01174658 -0.012736469
000090 88 a7 52 bc aa 36 08 bd f7 4d ae bc f0 96 55 3c
       -0.012857325 -0.033255257 -0.02127741 0.013036475
0000a0 92 ab c1 3c 31 b1 f4 bc 3e 13 8e 3a 62 55 25 bc
       0.023641381 -0.029869648 0.0010839475 -0.010091158
0000b0 be 40 85 3c 64 b5 43 3c 89 21 47 bc 80 eb e1 bc
       0.016266223 0.011945102 -0.0121539915 -0.027578115
0000c0 1c ea 4a 3d 1a 96 8e 3b 24 3e c9 ba a1 af c3 3c
       0.04953967 0.0043513896 -0.0015353602 0.023887457
0000d0 9d e0 cf bc 5d 1c 74 bc e2 46 8e bc ea 54 f0 bb
       -0.025375659 -0.01489934 -0.017367784 -0.0073343413
0000e0 a5 42 b5 bb d5 6b b4 3c 36 c4 69 bb a7 a0 4b bc
       -0.0055316263 0.022024075 -0.003566993 -0.012428439
0000f0 71 57 0a 3d 38 3e 4a 3c 36 fe 1d bd 72 ad 28 bc
       0.033774797 0.012343936 -0.038572513 -0.010295259
000100 c7 17 ea bc e7 2e 98 3a b1 0e 92 bc 92 80 46 bb
       -0.028575791 0.0011610658 -0.017829271 -0.0030289036
000110 96 82 f0 bb 64 81 0a bc 55 60 9a bb f0 91 fb 3b
       -0.007339786 -0.008453701 -0.0047111907 0.007677309
000120 2d 8e 84 bb bd 61 01 bd 2e 62 8d bc bd f8 ae bc
       -0.004045269 -0.03158735 -0.01725873 -0.021358842
000130 85 20 91 ba 7d 7b ac 3c 20 d2 32 bc ae b4 e5 3c
       -0.0011072314 0.021054978 -0.0109143555 0.028040256
000140 cf 5c 18 bc 73 5e a6 bb 09 70 6c bc fd 0b 97 bc
       -0.009299471 -0.005077177 -0.014431008 -0.018438334
000150 fa 13 ba bc b9 14 c8 bc bb 95 92 bc 4e cf 85 bb
       -0.022714604 -0.024423944 -0.017893663 -0.0040835505
000160 b8 b0 15 bc d8 0d b7 bc ba e2 0d bc 46 60 e0 bc
       -0.009136371 -0.022345468 -0.008660013 -0.027389657
000170 c5 11 a7 bc 8f f1 11 bd 1a 03 84 3c 5f dc a7 bc
       -0.020394215 -0.03563076 0.01611476 -0.020490823
000180 54 87 a9 3b 95 f1 0a bc 1d 42 7c 3b 88 4c aa bb
       0.005173603 -0.008480449 0.0038491555 -0.0051971115
000190 32 53 b2 bc a9 04 90 bc 7a 7b a5 3b 2d 19 f1 bb
       -0.021768186 -0.017580347 0.00505012 -0.0073577375
0001a0 eb 76 0a bd 07 c8 27 bc ff ee a0 bc 0d 75 31 3c
       -0.033804815 -0.010240561 -0.019645212 0.01083113
0001b0 a9 96 dc 36 33 ab 5c bc 39 60 c4 3b a2 e6 47 bc
       6.57405e-06 -0.013468551 0.005992916 -0.012200983
0001c0 78 bc cb bc f4 da 05 3c 7b 06 80 bc 7f af 07 bb
       -0.024870142 0.008169878 -0.01562809 -0.002070397
0001d0 2d e0 68 3b a3 ff 72 39 53 2a 1c bc dc 8b 17 3c
       0.003553401 0.0002317415 -0.009531575 0.009249654
0001e0 d2 59 0e bc e6 36 b7 bc ec b4 4c 3c 9c 2f f3 bb
       -0.008688407 -0.022365045 0.012494307 -0.007421447
0001f0 3c 1f 8d bc c5 c1 b1 bc a1 4a 96 ba 6d 43 bd 3c
       -0.017226808 -0.021698842 -0.0011466333 0.02310344
000200 5f 34 9c 3c c4 40 a9 bb 7d f2 f1 bc eb f9 3e bd
       0.019067941 -0.0051651914 -0.029534573 -0.04662506
000210 d6 25 a0 3d 19 eb 95 3c 02 9b 20 bc 00 8f 9e bc
       0.07819717 0.01830058 -0.009802582 -0.019355297
000220 19 8e 41 bd 7b 0f b0 bc 35 ba 67 3d f1 62 45 ba
       -0.047254656 -0.021491757 0.056574065 -0.0007529697
000230 9a 69 44 3c c8 e8 82 bd ac e1 0c 3d b6 7b 79 3d
       0.011988068 -0.06392056 0.034394905 0.060908996
000240 89 b4 9c bd f8 00 a2 3c 9c 78 09 bc 42 13 16 3d
       -0.07651622 0.019775853 -0.008390572 0.03663946
000250 43 63 84 bc e1 65 01 bc d9 ad 0e 3d 12 ce df 3c
       -0.016160613 -0.007897825 0.034833763 0.027319942
000260 67 d8 af 3c c1 ae 03 bc 1b 00 28 3d 47 de a2 3d
       0.021465493 -0.00803727 0.041015726 0.07952552
000270 47 7d 96 bc 06 a3 da bd 16 d8 17 3d 1f 79 9f 3c
       -0.018370284 -0.106756255 0.03707131 0.019466935
000280 72 da 9c bc 76 e8 69 3d 29 bb 16 be 0c 62 f7 bc
       -0.019147132 0.057106458 -0.14719833 -0.03019812
000290 83 67 a3 3c 5d ec 2a 3d 99 2c 1e 3d c0 9b 67 bd
       0.01994682 0.04172932 0.03861675 -0.05654502
0002a0 f4 7b 90 3c 45 92 62 bc 47 30 52 3d 78 65 e4 3c
       0.01763723 -0.013828819 0.051315572 0.027880415
0002b0 48 f8 20 3c 68 3b 7d 3c e8 5c e7 3b 8b 09 42 3d
       0.00982482 0.015456058 0.007060636 0.047372382
0002c0 63 b1 2c 3d 51 1a 99 bc e5 63 ee bd ea fa 4f bc
       0.042161357 -0.018689306 -0.11640147 -0.0126941
0002d0 ae 76 66 bc 8e dd 8a bc 15 e9 36 bc 48 ee a4 bc
       -0.014066381 -0.016951349 -0.0111639695 -0.020133153
0002e0 24 6b 30 3d 6b 6d a6 3c 87 9b 9d bc 6c 4b 9e bc
       0.043070927 0.020315846 -0.0192392 -0.019323073
0002f0 f1 62 84 bc 53 fd fe bd cf 23 88 bb 39 f8 87 3d
       -0.01616046 -0.124506615 -0.0041546593 0.066391416
000300 c2 b6 2e bb 8a 3c db 3b 47 1f 19 3d 74 30 a4 bb
       -0.0026659225 0.0066905664 0.037383344 -0.005010659
000310 57 5d 3c 3c d5 0b 27 bc 89 fe b4 3c 62 5a 14 bc
       0.011496863 -0.010195692 0.022094028 -0.009054752
000320 9d f2 8f bc dd 8f a8 bc c6 01 96 bb 71 de e2 bd
       -0.017571742 -0.020576412 -0.004577848 -0.110775836
000330 89 69 16 bd 8e a3 9e 3c d8 6d 19 3d 55 e8 ed 3a
       -0.03672174 0.019365098 0.03745827 0.0018150905
000340 74 9e 67 3d 25 f2 34 bb 2d 81 66 3d 56 79 f3 3d
       0.056547597 -0.002761015 0.056275535 0.11888377
000350 a8 2f 83 3d 1d f0 65 3a e6 2a 18 bc f7 b0 d6 bd
       0.06405574 0.00087714364 -0.009287572 -0.10482972
000360 5a 06 78 bc 71 06 43 3d 85 90 4d bc 05 07 2a 3d
       -0.015138233 0.047613565 -0.012546663 0.0415106
000370 62 63 f6 bb c6 a0 eb 3c 4e ef 57 bd ec ab 23 3b
       -0.0075191716 0.028763186 -0.052718453 0.00249743
000380 38 91 50 3d d4 08 05 3d 1b 51 f4 b9 9f 70 15 3d
       0.05091974 0.032479122 -0.00046599735 0.036484357
000390 9f 89 68 3d ec 71 83 bb 21 38 c0 bc 81 f1 f2 bd
       0.05677187 -0.0040113833 -0.023464264 -0.118624695
0003a0 8e 29 b7 bb 9c 9b 98 bc 2b 7a c3 3c 55 48 68 bb
       -0.0055896705 -0.018628888 0.023861965 -0.0035443504
0003b0 4f 23 c5 3c 3a 38 41 3d 7c b0 0b ba 3f 0c 28 3d
       0.024064688 0.047172762 -0.00053287274 0.041027304
0003c0 5f e3 a1 3d 77 87 b1 3d cc 34 c6 3d 8e cf 92 bc
       0.07904696 0.08668416 0.09678039 -0.017921235
0003d0 e5 7c 34 3d ed 9e 29 bc 68 4c 53 3d d4 1c 98 3b
       0.04406442 -0.010352832 0.05158654 0.0046421085
0003e0 38 26 56 bc c5 cc a5 3c da c8 ae bb a1 5a f7 3c
       -0.0130706355 0.020239243 -0.005334002 0.030194582
0003f0 42 3e b3 3d c9 ba f6 3c 49 a6 9c 3a 42 45 0e bd
       0.08752109 0.030118363 0.0011951412 -0.03473402

action_model._discrete_distribution.branches.0.bias f4 [10]
000000 70 ba 39 bd 49 a3 66 bc 65 2f bc 3c 4f e4 35 3c
       -0.045343816 -0.014077016 0.022971818 0.011101796
000010 53 7d c7 3c 4e fc a0 3c e0 41 07 3d 99 64 93 ba
       0.024351751 0.019651558 0.033021808 -0.001124519
000020 fd f1 1a bc b2 8a 1f bd
       -0.009457109 -0.03895063

action_model._discrete_distribution.branches.1.weight f4 [10, 128]
000000 39 d5 b4 3a 0d 2d 9b bc 1f c9 60 bc 2e b9 91 bc
       0.0013796455 -0.01894238 -0.013719826 -0.017788496
000010 99 af 33 3c fe 63 19 bc 3e a3 85 bc 7c 58 21 bc
       0.010967159 -0.009362219 -0.016313192 -0.0098477565
000020 a6 d5 6d 3c c8 c9 a2 bc 9a 12 c8 bc 5f 75 80 bc
       0.01451627 -0.019871607 -0.024422932 -0.015680967
000030 b0 3f 16 bc 32 f7 e1 bb 2c 63 77 bc 89 ef ca bc
       -0.009170458 -0.006895923 -0.015099328 -0.024772422
000040 4a e3 9a bc 27 35 f4 bc 8e 9e b5 bc c0 22 b0 bb
       -0.018907208 -0.029810501 -0.022170331 -0.0053752363
000050 74 dc cc ba b0 a0 cd bb be 92 65 bc 12 3b 27 bc
       -0.0015629665 -0.006275259 -0.014012037 -0.010206955
000060 51 c5 30 bc 63 f5 de bb ee 3f 27 bc bd 29 ca bb
       -0.010789231 -0.0068041547 -0.010208113 -0.0061695264
000070 b3 5b 6b bc 5c 28 f0 3c 7d db 05 bd 40 9f bc bb
       -0.0143651245 0.02931612 -0.032680023 -0.0057562888
000080 c9 d3 77 bc 53 16 83 bc f9 b6 a5 3c 3d 7e 8e bc
       -0.015126177 -0.016001856 0.02022885 -0.01739418
000090 f3 23 c3 bc 53 64 20 bd 41 0f 8f bc e8 1a 19 3d
       -0.023820853 -0.039158177 -0.017463328 0.037379175
0000a0 54 a7 ad 3c 91 97 0a bd 69 b9 99 bc b3 fd d7 39
       0.021197952 -0.03383595 -0.018765168 0.00041197016
0000b0 18 aa 24 bb bb 10 ac bc 79 56 b9 bc a6 a1 1d bc
       -0.0025125798 -0.021004071 -0.022624241 -0.0096210595
0000c0 c2 22 3c 3c dc 63 44 bc 6b ac 24 3c b6 88 51 bc
       0.011482896 -0.011986699 0.010050873 -0.012788942
0000d0 f2 6c 8c ba 65 ee 05 bc 30 5f 3b bb 3b cb e0 bc
       -0.001071362 -0.0081745135 -0.0028590672 -0.027440658
0000e0 0a 06 94 bb 34 16 00 3b 3b a7 91 bc 4b c4 c5 bc
       -0.0045173215 0.0019544484 -0.017779937 -0.024141451
0000f0 aa 41 3e bc 72 34 8b 3c 70 33 3b bc c1 15 91 bc
       -0.011612335 0.016992781 -0.011425838 -0.017710568
000100 4f c7 ba bb d0 ae 1e bc 0e 91 fb bc 28 cd 8c 3b
       -0.005700029 -0.009685233 -0.030708816 0.0042969175
000110 91 b4 b5 bc 61 18 49 bc fa e9 85 bc ed 53 6d bc
       -0.022180827 -0.012273879 -0.01634692 -0.0144853415
000120 03 ab c0 bc 44 db 04 bd f7 37 9c 3b 67 86 f4 bc
       -0.023519045 -0.03243567 0.0047674137 -0.029849244
000130 0c b6 5c bc 1d 72 57 3a 54 93 f4 bc 40 44 28 bc
       -0.013471138 0.00082186033 -0.029855408 -0.010270178
000140 cb 5b 1d bc 04 e1 fa bb cf dd 68 bc 6e 22 17 bd
       -0.009604405 -0.0076562185 -0.01421304 -0.03689807
000150 9e a3 ea bb 88 e9 59 bc 02 ed 15 bc 5d c1 96 3b
       -0.007160618 -0.013300307 -0.009150745 0.0046006874
000160 c9 84 b0 bc 52 7e 5b bc 20 92 7a bb ed 3e 59 bb
       -0.021547692 -0.013396816 -0.003823407 -0.003314908
000170 f8 ab 6e bc e3 c0 7c bc aa 38 75 3c 8e 08 3f bc
       -0.014567368 -0.015426847 0.014967123 -0.011659754
000180 33 87 d9 bc 41 db b3 bc f2 f7 ba bc 82 a6 16 bc
       -0.026553726 -0.021955134 -0.022823308 -0.009194972
000190 bc ca 02 bc 0d be 18 bc 3f 51 ae bb 78 7f a9 3b
       -0.007982906 -0.009322655 -0.005319744 0.005172666
0001a0 50 00 d4 bc c2 fd 19 bc 7f 38 35 bc 54 c2 1a bc
       -0.025879055 -0.0093988795 -0.011060833 -0.0094457455
0001b0 ec 68 12 bc 59 97 13 bc 04 40 a2 bc 94 53 95 bc
       -0.008936148 -0.009008252 -0.019805916 -0.01822833
0001c0 c4 20 d5 bc c1 87 42 bc 81 24 59 bc 22 7f 05 bc
       -0.0260166 -0.011873187 -0.013253332 -0.008147987
0001d0 d8 90 de 39 54 09 d0 bb 25 e8 b5 bc f0 36 b2 3b
       0.00042451057 -0.0063487682 -0.022205422 0.005438678
0001e0 50 2a 7a bc 53 18 8b bc c9 08 0d bc 30 88 4e bc
       -0.015268877 -0.016979372 -0.008608052 -0.012605712
0001f0 04 35 b4 bc b0 78 0e bc 9c 38 08 bc 50 58 8f 3c
       -0.021997936 -0.008695766 -0.008314278 0.017498165
000200 03 2b 0a 3c cd 21 8b bc 03 9b 14 bc 03 07 61 bb
       0.008433106 -0.01698389 -0.009070161 -0.0034336455
000210 54 6c 29 3d 45 70 f1 3b e2 ac 31 bc a2 b3 02 bd
       0.041363075 0.00736812 -0.010844441 -0.031909592
000220 46 6d 99 bc 91 68 16 3b f8 d0 d0 3c 13 1a d7 bc
       -0.018728863 0.002295051 0.025490269 -0.02625755
000230 ab b7 3e 3c 8c ec 55 bd 88 4f 50 3a 48 bd 98 3c
       0.01164047 -0.05222754 0.00079464214 0.018644944
000240 c1 44 f7 bc 06 c8 c1 3c e8 db 6b bc 33 23 8c 3c
       -0.030184152 0.023654949 -0.014395691 0.017106628
000250 11 28 e7 b8 a4 4f fc bc b2 09 cd 3c cc 29 a6 3c
       -0.00011022401 -0.030799694 0.025029037 0.020283602
000260 8f e6 51 bc 2f a6 ea bc 56 73 5b 3c 32 fb 75 3d
       -0.012811317 -0.028643696 0.013394197 0.06005401
000270 12 8f 10 bc 32 48 c0 3c 01 18 84 3c 1b 07 ad 3c
       -0.008823173 0.023471925 0.016124727 0.021121552
000280 08 8e 1a bb a9 3b ec 3c 1a 57 48 bd 79 ec c8 bb
       -0.0023583192 0.028837042 -0.04891119 -0.0061317054
000290 a4 db ce 3c 65 e2 04 3b 96 96 8a bc 68 f2 39 bc
       0.025251217 0.0020276543 -0.016917508 -0.011349298
0002a0 2d 62 18 3c 9e ea 89 bb 32 0b 4f 3c f8 8e c6 bb
       0.009300751 -0.0042088768 0.0126369465 -0.0060595237
0002b0 95 c4 1d 3d 50 3e 3f 3c ea 7b 0e bd 17 46 04 3c
       0.038517553 0.011672571 -0.034786142 0.008073351
0002c0 64 93 17 3d b6 23 0f bd 23 ff c5 ba 93 45 9a 3c
       0.037005797 -0.034946166 -0.0015105944 0.018832004
0002d0 33 ad 34 bb 1f 6c 3f bb 70 5f 77 bc 7d 1c 82 bc
       -0.0027569055 -0.0029208732 -0.015098438 -0.015882725
0002e0 7c c3 9d 3b 76 55 ee 3c 90 90 07 bc ec 23 ea bb
       0.0048145633 0.029093485 -0.0082742125 -0.0071453955
0002f0 42 d8 9f 3b bf 87 3e bd 01 ca 0f bc 7a be 37 3d
       0.004878075 -0.046516176 -0.008776189 0.044859387
000300 5c d2 98 bc 0e d6 ab 3d 41 ef 24 3c a6 66 ba bc
       -0.018654995 0.08390437 0.010066808 -0.022754025
000310 74 27 9c 3c 23 1d b9 bc 5b 31 95 bb 90 b4 18 bc
       0.019061781 -0.022596901 -0.004553003 -0.009320393
000320 76 1c 8d ba 89 3b 46 bc d7 f5 55 bc 3f 6a 62 bd
       -0.0010765928 -0.012099155 -0.013059101 -0.055277105
000330 7b 16 41 bd ee b3 06 3d 7e 9f b9 3a fe 73 da bb
       -0.04714058 0.032886438 0.0014161912 -0.0066666594
000340 02 2e 0e 3d 1e 61 04 bb 16 e7 08 bc 4e 36 60 3c
       0.034711845 -0.0020199488 -0.008355876 0.013684822
000350 ce 5d 15 3d 22 eb 5d bc 66 22 99 bb 21 18 30 bd
       0.036466412 -0.01354483 -0.00467329 -0.04299176
000360 34 f8 c5 bc 2a cf 9b 3c c2 8c 0c bd 14 3f 0a 3d
       -0.024166204 0.019019682 -0.034313925 0.033751562
000370 54 31 d9 bb 4b c8 b0 3b 46 08 3f bd 92 76 b0 3a
       -0.006628195 0.0053949705 -0.04663875 0.0013463071
000380 fb d7 7e 3c f6 fe ac 3b f0 41 f3 bb 28 50 35 bd
       0.015554423 0.005279417 -0.007423632 -0.044265896
000390 8d a4 e7 3c 40 be 84 bc 25 6d 0f bc 96 73 96 bd
       0.028276706 -0.016204 -0.008754049 -0.07346265
0003a0 f1 e4 c2 bb bb a1 80 bc 08 83 62 3c dd 2e be ba
       -0.005947702 -0.01570212 0.013825186 -0.0014509816
0003b0 04 fc 93 ba 2f 14 45 3d 74 d7 8d 3c 19 57 43 3c
       -0.0011290316 0.04811495 0.01731465 0.011922621
0003c0 f9 63 00 3d 39 f1 32 3d ec 31 5e ba 36 02 a5 bc
       0.03134534 0.04368708 -0.0008476067 -0.020142656
0003d0 5e 93 aa bc a3 e8 7d bc 92 e4 9b 3c b2 55 cb 3a
       -0.020822223 -0.015497359 0.01902989 0.001551321
0003e0 be a8 33 bc 5f a0 20 3c 63 82 80 bc a0 81 6b 3c
       -0.010965524 0.00980386 -0.015687173 0.014374167
0003f0 92 10 a2 3c 2b e5 c4 3c dc ad 6e 3b a6 9a 90 3b
       0.019783292 0.024035057 0.0036419546 0.004412967

action_model._discrete_distribution.branches.1.bias f4 [10]
000000 bb 0d 95 bc 86 76 d8 bc 7c 9e 7e bb 1b 47 b7 3c
       -0.018195024 -0.026423704 -0.0038851788 0.022372773
000010 83 6a 96 3b 37 6a 81 3c f6 c5 9e 3c ff bd 9e 3b
       0.004590334 0.015797717 0.019381505 0.0048444266
000020 a8 d0 ea 3c e3 17 2b bd
       0.028663948 -0.041770827

exp_avg f4 [128, 10]
000000 24 36 31 ba 88 07 6f ba 02 00 6f ba 10 a6 2b ba
       -0.0006760082 -0.00091182487 -0.00091171276 -0.00065478776
000010 fd 9c 2b ba b5 7f 53 ba bd 7e 53 ba 83 ec 26 ba
       -0.00065465254 -0.0008068041 -0.00080678967 -0.00063676405
000020 9b f0 26 ba db 81 53 ba 39 b0 2b 3a f7 3c 61 3a
       -0.00063682505 -0.0008068361 0.00065493915 0.00085921533
000030 43 21 61 3a e9 dd 26 3a eb bc 26 3a 0a b5 5c 3a
       0.0008588025 0.00063654647 0.00063605484 0.0008419311
000040 18 99 5c 3a 6b aa 25 3a 6a 78 25 3a 0e 6e 5c 3a
       0.0008415147 0.0006319645 0.00063121936 0.00084087334
000050 28 70 08 39 9e e7 0e 39 c7 06 0f 39 cd ea 73 39
       0.00013011752 0.0001362846 0.00013640067 0.00023261756
000060 f9 17 74 39 18 d0 4b 39 af 09 4c 39 6c 66 67 39
       0.00023278584 0.0001943711 0.00019458563 0.00022068032
000070 ca ee 67 39 33 71 4c 39 d8 76 d6 39 50 8a e5 39
       0.00022118833 0.00019497126 0.00040905806 0.00043781335
000080 6a bd e5 39 cc 4c 18 3a 48 6f 18 3a b0 21 eb 39
       0.00043819408 0.00058097835 0.0005814922 0.00044847792
000090 6c 76 eb 39 1c c4 06 3a c6 24 07 3a 50 0d ec 39
       0.00044910924 0.0005140917 0.0005155321 0.00045023346
0000a0 3b 5a 09 ba fc 3d 5c ba ca 35 5c ba b3 38 fb b9
       -0.00052395806 -0.00084015704 -0.0008400349 -0.00047916695
0000b0 47 21 fb b9 1e af 3e ba 04 ac 3e ba e2 85 f8 b9
       -0.00047899244 -0.00072740193 -0.0007273557 -0.00047401997
0000c0 0a 76 f8 b9 fa aa 3e ba cd 87 9e b8 30 56 95 b9
       -0.00047390192 -0.00072734023 -7.559322e-05 -0.0002848371
0000d0 98 63 95 b9 5a cd c7 b8 8e 00 c8 b8 88 06 9a b9
       -0.00028493698 -9.527309e-05 -9.5368465e-05 -0.00029378035
0000e0 b6 21 9a b9 2e 85 b8 b8 b9 13 b9 b8 e5 53 9a b9
       -0.00029398286 -8.79861e-05 -8.825161e-05 -0.00029435675
0000f0 b8 1e a0 39 9f 00 a2 39 e8 48 a2 39 22 c8 20 3a
       0.00030540465 0.0003089951 0.00030953367 0.0006133338
000100 26 f9 20 3a c8 29 46 3a cc 6c 46 3a 1a 2f 04 3a
       0.00061406416 0.00075593265 0.00075693126 0.0005042419
000110 0a af 04 3a 68 e4 46 3a 72 c9 35 3a 6c ae 42 3a
       0.0005061483 0.0007587136 0.000693462 0.00074265036
000120 95 d1 42 3a 03 1a 85 3a 90 32 85 3a 10 49 a2 3a
       0.0007431743 0.0010154847 0.0010162164 0.0012381393
000130 75 6d a2 3a 74 0e 67 3a d6 9c 67 3a a8 af a2 3a
       0.001239224 0.00088141044 0.0008835321 0.0012411969
000140 77 83 42 3a 31 7d 5c 3a 45 91 5c 3a 02 fd 8f 3a
       0.00074201025 0.0008410989 0.0008413981 0.0010985436
000150 a6 0c 90 3a dd 6d db 3a b5 8c db 3a 50 1b 81 3a
       0.0010990098 0.0016741116 0.0016750308 0.0009850059
000160 9e 50 81 3a a5 c6 db 3a fe 8a 0c 3a e0 1a 14 3a
       0.0009865945 0.0016767575 0.00053612876 0.00056497566
000170 08 4c 14 3a 7a 4b 81 3a 21 6d 81 3a 33 79 b3 3a
       0.00056570815 0.0009864413 0.0009874442 0.0013692736
000180 4e aa b3 3a 67 5e 59 3a 55 13 5a 3a b8 02 b4 3a
       0.0013707371 0.000829196 0.0008318921 0.001373372
000190 7f b2 39 3a c4 7f 29 3a 49 63 29 3a 9a 8f 34 3a
       0.0007083788 0.0006465877 0.0006461633 0.00068878534
0001a0 bd 70 34 3a d5 55 20 3a 75 35 20 3a c0 d9 32 3a
       0.00068832544 0.00061163056 0.00061114813 0.00068226084
0001b0 85 ae 32 3a 72 01 20 3a a8 5a c7 b9 6d cb 07 ba
       0.00068161666 0.0006103731 -0.00038023782 -0.0005180154
0001c0 70 c6 07 ba fa 2d a8 b9 6e 20 a8 b9 2a 92 b4 b9
       -0.0005179411 -0.00032077712 -0.0003206762 -0.00034441176
0001d0 0c 89 b4 b9 a5 78 a8 b9 76 73 a8 b9 7e 7d b4 b9
       -0.00034434383 -0.00032133344 -0.00032129482 -0.00034425774
0001e0 40 be b9 3a 9a 6e f4 3a 42 71 f4 3a a6 f8 eb 3a
       0.0014171079 0.0018648684 0.0018649476 0.001800318
0001f0 1e ff eb 3a 40 55 28 3b 12 62 28 3b 5d 4e d9 3a
       0.0018005108 0.0025685579 0.002569322 0.001657914
000200 ba 7b d9 3a e2 7b 28 3b 24 5e 95 b8 88 ec bf b8
       0.001659266 0.0025708606 -7.122409e-05 -9.151647e-05
000210 c0 2e c0 b8 d2 3b 7b b9 88 6d 7b b9 8a cb 10 ba
       -9.163981e-05 -0.0002395951 -0.00023978029 -0.0005523494
000220 86 e4 10 ba 3a a9 49 b9 be 32 4a b9 b9 12 11 ba
       -0.00055272167 -0.00019231896 -0.00019283124 -0.0005534101
000230 b3 61 5e 3a 2c 24 6f 3a 81 5c 6f 3a 84 da bb 3a
       0.0008483186 0.00091225165 0.00091309106 0.001433209
000240 ee 01 bc 3a a9 5f ea 3a 2c 99 ea 3a 16 5d 9f 3a
       0.0014343837 0.0017881292 0.0017898432 0.0012158479
000250 56 cb 9f 3a 48 01 eb 3a 04 c1 58 3a 3d 17 6b 3a
       0.0012191336 0.0017929459 0.00082685077 0.00089680013
000260 35 38 6b 3a 82 9d 98 3a 0c b5 98 3a ee c9 e7 3a
       0.0008972914 0.0011643621 0.0011650636 0.0017684081
000270 c4 f2 e7 3a 44 65 89 3a bc ad 89 3a 24 3e e8 3a
       0.0017696251 0.001048245 0.0010504047 0.0017718715
000280 61 be a2 3a 05 a1 c7 3a e4 8a c7 3a 7b 9d a4 3a
       0.0012416356 0.0015230483 0.0015223888 0.001255914
000290 1c 84 a4 3a f9 69 cb 3a 70 55 cb 3a 18 ba a1 3a
       0.0012551579 0.0015519253 0.0015513133 0.0012338785
0002a0 96 98 a1 3a ba 36 cb 3a f0 12 83 39 2c 90 f1 38
       0.0012328799 0.0015503981 0.00025000377 0.000115186296
0002b0 b8 eb f0 38 50 d3 7c 39 13 7a 7c 39 da eb 02 39
       0.00011487998 0.00024111313 0.00024078069 0.00012485628
0002c0 dd 7e 02 39 1a 0c 7f 39 33 68 7e 39 8a c6 01 39
       0.00012445026 0.00024323203 0.00024262145 0.0001237636
0002d0 45 04 25 3a f0 e1 38 3a 67 c4 38 3a b9 c7 21 3a
       0.00062948867 0.000705271 0.0007048309 0.00061714236
0002e0 e9 a5 21 3a a2 1d 36 3a 2d fd 35 3a 11 92 20 3a
       0.0006166385 0.00069471647 0.0006942328 0.0006125281
0002f0 65 5d 20 3a 88 c9 35 3a 18 1b 91 3a c1 f0 a0 3a
       0.00061174325 0.00069346325 0.0011070697 0.0012278782
000300 6b d9 a0 3a 7f bd 8c 3a e7 a2 8c 3a f3 51 99 3a
       0.0012271827 0.0010737627 0.0010729701 0.0011697396
000310 89 38 99 3a f7 be 8b 3a 92 97 8b 3a 54 10 99 3a
       0.0011689822 0.001066177 0.001065003 0.001167784
000320 58 b8 4a 3a ad d1 26 3a f9 ac 26 3a 5e e9 44 3a
       0.0007733158 0.00063636416 0.00063581724 0.0007511581
000330 ad c1 44 3a 25 76 1e 3a 14 4a 1e 3a 29 80 43 3a
       0.00075056666 0.00060448266 0.000603826 0.0007457757
000340 6e 43 43 3a f4 01 1e 3a 80 01 8f b8 ca e5 09 b9
       0.00074487075 0.0006027513 -6.819051e-05 -0.00013150941
000350 20 ad 09 b9 60 f3 28 b9 54 b3 28 b9 ee b5 01 ba
       -0.00013129832 -0.00016112393 -0.00016088533 -0.0004948069
000360 2e ad 01 ba d6 b8 23 b9 58 3f 23 b9 14 a1 01 ba
       -0.0004946765 -0.00015613748 -0.00015568489 -0.0004944962
000370 63 c7 16 3b 17 cd 37 3b bf c9 37 3b af a6 28 3b
       0.0023007027 0.0028045827 0.0028043834 0.0025734117
000380 aa a4 28 3b 4d 5e 53 3b dc 65 53 3b e5 35 21 3b
       0.0025732913 0.0032252253 0.0032256758 0.0024598774
000390 dc 48 21 3b 9f 77 53 3b 18 d6 53 37 f4 d5 f1 37
       0.0024610078 0.0032267345 1.2626428e-05 2.8829068e-05
0003a0 f0 6d f0 37 2b 3f 49 b8 d1 26 4a b8 74 fc ad b6
       2.8661423e-05 -4.7980964e-05 -4.8196704e-05 -5.185191e-06
0003b0 fc 2f b6 b6 23 9c 0d b8 23 b9 0f b8 40 4b c4 b6
       -5.429609e-06 -3.3762433e-05 -3.426628e-05 -5.8500154e-06
0003c0 b4 c7 93 b8 18 08 09 b9 63 26 09 b9 a3 32 3b b9
       -7.046704e-05 -0.00013068353 -0.00013079638 -0.00017852573
0003d0 d6 5b 3b b9 5d ef 90 b9 f6 0f 91 b9 53 9c 17 b9
       -0.00017867921 -0.0002764416 -0.00027668447 -0.00014458717
0003e0 86 0c 18 b9 37 4b 91 b9 de 61 87 3a bf 3e b0 3a
       -0.00014500515 -0.00027712595 0.0010328849 0.0013446434
0003f0 21 2d b0 3a f0 ea 88 3a 5a d6 88 3a 40 4a b0 3a
       0.0013441184 0.0010445993 0.0010439858 0.0013449863
