Assets/Test/Config/results/CheeseWorld3/CheeseWorld3.onnx (onnx, 93819 bytes, 11 tensors)

discrete_act_size_vector f4 [1, 2]
0	0x41200000	10.0
1	0x41200000	10.0

network_body.observation_encoder.processors.0.normalizer.running_mean f4 [24]
0	0x3fe26264	1.7686276
1	0x4007a69c	2.119544
2	0x4158ddab	13.554118
3	0x00000000	0.0
4	0x400a890f	2.1646154
5	0x4023aaad	2.5572922
6	0x4170dd0b	15.053966
7	0x00000000	0.0
8	0x4026e8a5	2.6079495
9	0x4041caf1	3.0280116
10	0x41865c70	16.795135
11	0x00000000	0.0
12	0x404559a1	3.0835955
13	0x4062f38e	3.5461154
14	0x41970113	18.875525
15	0x00000000	0.0
16	0x40672f06	3.612245
17	0x4082ff9d	4.093703
18	0x41ab0191	21.375765
19	0x00000000	0.0
20	0x40855c51	4.167519
21	0x4096a501	4.707642
22	0x41c3f1f9	24.49315
23	0x00000000	0.0

network_body._body_endoder.seq_layers.0.weight f4 [128, 24]
0	0xbdd7d401	-0.105384834
1	0xbe049053	-0.1294568
2	0xbd1aebb5	-0.037822444
3	0xbbbc0d49	-0.0057388884
4	0xbe823496	-0.25430745
5	0xbe94b2fd	-0.29042807
6	0xbd68525f	-0.05671918
7	0x3d40ba3e	0.047052614
8	0xbd8f99fc	-0.07011792
9	0xbe1f30d4	-0.1554597
10	0x3e49e64b	0.19716756
11	0x3d122292	0.0356775
12	0x3ac457c8	0.0014979774
13	0xbd96a527	-0.07355719
14	0xbe118404	-0.14210516
15	0xbed001a9	-0.40626267
16	0x3e8a706a	0.2703889
17	0x3d9f3585	0.0777388
18	0xba951532	-0.0011374115
19	0xbdccbe4d	-0.099972345
20	0xbeac9cbb	-0.33713326
21	0x3ddd9cbb	0.108209096
22	0x3ec6505f	0.38733193
23	0x3c900083	0.017578369
24	0xbdccbb49	-0.09996659
25	0xbd640d09	-0.055676494
26	0x3e902ba2	0.2815829
27	0xbe09a710	-0.13442636
28	0xbe4dea41	-0.20108892
29	0xbe6a0882	-0.22854808
30	0x3b65c567	0.0035060288
31	0x3d2bdded	0.04195969
32	0x3e6696b6	0.22518429
33	0x3e6b6505	0.22987755
34	0x3e92693b	0.2859591
35	0xbed0f1ed	-0.40809575
36	0x3f0fe169	0.56203324
37	0x3ded68f6	0.11592285
38	0xbcf8045c	-0.030275516
39	0xbdeb151f	-0.11478638
40	0x3d5f025a	0.054445602
41	0x3d40233e	0.04690861
42	0x3d8afe83	0.067868255
43	0xbdde5d2e	-0.10857616
44	0xbce527f8	-0.02797316
45	0x3e57a6fe	0.21059796
46	0x3dcb4218	0.09924716
47	0x3d8e3ef7	0.06945603
48	0xbe4f9e43	-0.20275216
49	0x3e8733aa	0.26406604
50	0xbe5c8bb0	-0.21537662
51	0x3dcce6a0	0.10004926
52	0xbeee1ae5	-0.46504894
53	0x3e7582fe	0.23975751
54	0x3db20d95	0.08693997
55	0x3e91258f	0.28348967
56	0x3c58fc57	0.013243756
57	0x3e133cae	0.14378616
58	0xbe02ca06	-0.12772378
59	0x3e90695e	0.2820539
60	0x3ea7a81e	0.3274545
61	0xbe83b58f	-0.25724456
62	0x3e08f6d0	0.13375401
63	0xbe87e9a7	-0.2654545
64	0xbe8ea3f9	-0.27859476
65	0xbd79e5ef	-0.061010297
66	0x3e21a1f1	0.15784432
67	0x3e5641fc	0.20923609
68	0xbd9a1374	-0.07523242
69	0xbd7c821a	-0.061647512
70	0x3decb068	0.11557084
71	0x3ec644c0	0.38724327
72	0xbdc0c73e	-0.094130024
73	0xbe2855d0	-0.16438985
74	0xbd68be8c	-0.056822345
75	0x3e3756a4	0.17904145
76	0xbf11716a	-0.5681368
77	0xbd1a8c11	-0.037731234
78	0xbd7070c4	-0.05870129
79	0xbdbcaab5	-0.09212247
80	0x3db11588	0.08646685
81	0x3d37a33b	0.044833403
82	0x3d580663	0.052740466
83	0xbc27a211	-0.010231511
84	0xbe1fec98	-0.15617597
85	0x3e1e1745	0.15438564
86	0x3e0137e2	0.12618974
87	0x3e4d1843	0.20028786
88	0x3e64ffcc	0.22363204
89	0xbddbf6ed	-0.10740457
90	0xbd007fd0	-0.03137189
91	0x3ec30cb5	0.38095632
92	0xbea25dcf	-0.31712195
93	0xbe76c50f	-0.2409861
94	0xbce5460c	-0.027987503
95	0x3e8db9c7	0.276808
96	0xbdbec89a	-0.093156055
97	0xbe51043d	-0.20411773
98	0x3e18088e	0.14847013
99	0x3e1a5ce1	0.15074493
100	0x3c19c2f1	0.009384857
101	0x3ec02964	0.3753158
102	0x3d110a14	0.035410002
103	0xbd462061	-0.048370723
104	0x3d9b3271	0.0757798
105	0x3e446bfe	0.19181821
106	0xbe855737	-0.26043102
107	0x3df3c19c	0.119021624
108	0xbd4d6e1a	-0.05015383
109	0xbe97bd7a	-0.29636747
110	0x3f1e535c	0.61845946
111	0x3d6bbcad	0.057552982
112	0xbd85cb9c	-0.06532976
113	0xbe320cd2	-0.17387703
114	0xbd87c7de	-0.066299185
115	0xbe263167	-0.16229783
116	0x3e212180	0.15735435
117	0x3e589417	0.21150242
118	0xbe0ae3f5	-0.13563521
119	0x3cc74086	0.02432276
120	0x3d34a780	0.044105053
121	0xbbe68bea	-0.007035722
122	0x3e1f54c0	0.15559673
123	0x3e16f6fc	0.14742655
124	0xbd8c2d7d	-0.06844614
125	0x3eb731b1	0.357801
126	0xbea5a5e2	-0.3235312
127	0xbd9b6d8e	-0.07589255
128	0xbd553543	-0.052052747
129	0x3da6dacb	0.081472
130	0xbe11bab8	-0.14231384
131	0x3e89e30b	0.26931033
132	0x3d266c42	0.040630586
133	0x3e50683e	0.20352265
134	0x3dd43244	0.1036115
135	0x3dd739a2	0.105090395
136	0x3dfe3083	0.124115966
137	0x3c7df699	0.015500688
138	0xbeaef6da	-0.34172708
139	0xbe43dc1f	-0.19126938
140	0x3d666557	0.05624899
141	0xbe14c58d	-0.14528485
142	0x3e41b6a5	0.1891733
143	0x3eb23301	0.34804538
144	0x3e092991	0.13394763
145	0x3d9a0715	0.07520882
146	0xbda58af4	-0.08083144
147	0x3e411ce9	0.18858685
148	0xbe3d7836	-0.18502888
149	0xbdf359c1	-0.118823536
150	0xbe168d6c	-0.14702386
151	0xbd88de2c	-0.06683001
152	0xbd003bb0	-0.031306922
153	0x3dab9f3e	0.083799824
154	0xbe7c98af	-0.24667619
155	0xbd980836	-0.07423441
156	0xbf02a800	-0.510376
157	0x3d92ae4b	0.0716215
158	0xbe604b5c	-0.21903747
159	0x3ede782a	0.43451053
160	0xbdd6d48f	-0.10489761
161	0xbe3cd181	-0.18439294
162	0xbea0d500	-0.31412506
163	0xbe8b0eea	-0.27159816
164	0x3dadbee7	0.08483677
165	0xbe9c2280	-0.3049507
166	0x3e08ee1d	0.13372083
167	0xbce734e9	-0.028223472
168	0xbb98eae8	-0.004666675
169	0x3e08e448	0.13368332
170	0x3da72ed5	0.081632294
171	0x3daf05ba	0.08546014
172	0xbb74b6dc	-0.0037340438
173	0xbe07907a	-0.13238707
174	0x3e1354ce	0.14387819
175	0x3e5430e8	0.20721781
176	0xbd497c03	-0.049190532
177	0xbd8038c1	-0.06260825
178	0xbe32c72e	-0.17458794
179	0x3d5ee558	0.054417938
180	0xbe68d8bd	-0.22738929
181	0xbe4463ba	-0.19178668
182	0x3df70f82	0.12063505
183	0xbde8e07e	-0.113709435
184	0xbe9b8dbc	-0.30381572
185	0xbbc5795d	-0.0060264305
186	0x3d83d8f6	0.064378664
187	0xbd26c23d	-0.040712584
188	0x3e4f6a4c	0.20255393
189	0xbd3ca9d9	-0.046060417
190	0x3e6787df	0.22610424
191	0x3e1ebf2f	0.15502618
192	0xbe90941b	-0.28237996
193	0xbe016366	-0.12635574
194	0x3d5da5cf	0.054113206
195	0xbdd4d944	-0.10393003
196	0x3e7862dd	0.24256463
197	0x3c885bb1	0.016645284
198	0xbe00a597	-0.12563168
199	0xbcfd5731	-0.030925365
200	0xbd6020e7	-0.054718878
201	0xbdc9288e	-0.09822188
202	0x3e07793c	0.13229841
203	0xbe3ef0b4	-0.18646508
204	0xbe3039ad	-0.17209502
205	0xbd4b0489	-0.049564872
206	0x3d6c91a0	0.057756066
207	0xbe8595f5	-0.2609097
208	0xbce6eaa4	-0.028188057
209	0x3e87024b	0.26368937
210	0xbde87bdd	-0.1135175
211	0x3e735f09	0.23766722
212	0xbda28dd5	-0.079372086
213	0xbe028f32	-0.12749937
214	0x3da98c06	0.082786605
215	0xbe37421a	-0.1789631
216	0x3cf50cc5	0.029913316
217	0x3e2765b4	0.1634739
218	0x3e6f7f15	0.23388322
219	0xbe101a14	-0.14072448
220	0x3c33e037	0.01097875
221	0xbb80c4ac	-0.003929695
222	0x3d337dbc	0.04382108
223	0x3e9862c0	0.2976284
224	0xbe5e1646	-0.21688184
225	0x3dbc6af9	0.09200091
226	0x3e3aa15b	0.18225615
227	0xbe7eafb1	-0.24871708
228	0xbe443bce	-0.19163439
229	0xbedf8d91	-0.43662694
230	0xbe06a9a1	-0.13150646
231	0x3e0ff03d	0.14056487
232	0xbe6e1740	-0.23251057
233	0x3e079ec7	0.13244162
234	0xbe72015d	-0.23633333
235	0xbe9a9d92	-0.30198342
236	0xbe56fc4c	-0.20994681
237	0x3aa19989	0.0012329082
238	0xbe1f7ce8	-0.15574992
239	0xbd932c62	-0.071862
240	0xbe8665e4	-0.2624961
241	0xbe1d4258	-0.1535734
242	0xbeca80c3	-0.39551362
243	0xbe5fa9c5	-0.21842106
244	0x3e068c18	0.13139379
245	0xbe973db0	-0.2953925
246	0xbd3e66c3	-0.04648472
247	0xbddfd07f	-0.10928439
248	0x3e6063b5	0.21913035
249	0x3d692b09	0.056925807
250	0xbe40f587	-0.18843661
251	0x3e367ab3	0.17820244
252	0x3cc2862b	0.023745617
253	0x3cb5cc9b	0.02219229
254	0x3e838c39	0.2569292
255	0x3d39296e	0.045205526

network_body._body_endoder.seq_layers.0.bias f4 [128]
0	0x3c78e7d4	0.015191991
1	0x3aba5be3	0.0014218058
2	0x3c88a624	0.016680785
3	0x3ca3e7a9	0.020007925
4	0x3bb00cb7	0.0053726095
5	0x3ca98e20	0.020697653
6	0x3cfc4de9	0.03079887
7	0x3c42123f	0.0118451705
8	0x3aef7b93	0.0018271081
9	0x3ce2d12c	0.027687632
10	0xbbcfbb28	-0.0063394494
11	0x3b995b53	0.004680076
12	0x3c326332	0.010887908
13	0x3c115860	0.008871168
14	0x3a4e7d55	0.00078769523
15	0x3c57a1eb	0.013161163
16	0xbbbac32f	-0.005699537
17	0x3aaa1b9b	0.0012978198
18	0xbb678aa2	-0.0035330434
19	0xbc0fc17b	-0.008774157
20	0x3cbc863e	0.02301323
21	0xbc11701c	-0.008876827
22	0x3cf47ceb	0.029844722
23	0x3baffcfa	0.0053707333
24	0x3bdaf1fc	0.006681679
25	0x3a1bb36d	0.0005939517
26	0x3c054009	0.008132943
27	0x3cfe709c	0.031059556
28	0xbc67dd41	-0.014151872
29	0xbbc305b4	-0.0059516076
30	0x3c74b3d7	0.014935455
31	0x3c8ab16f	0.01693031
32	0x3d033cd4	0.032040432
33	0x3c255063	0.0100899665
34	0x3a7f764e	0.0009745107
35	0xbc464af2	-0.012102829
36	0x3ac3a62a	0.001492684
37	0x3aa7105e	0.0012745967
38	0xbbd3849f	-0.0064550187
39	0xb855d48e	-5.0981114e-05
40	0xbb3f218b	-0.002916428
41	0x3b5f0afc	0.0034033647
42	0xbc8650a0	-0.016395867
43	0x3cc574bb	0.024103513
44	0x3b87f570	0.0041491315
45	0x3c21c438	0.009873442
46	0x3c5d9ac6	0.01352567
47	0x3c2449dd	0.010027376
48	0x3afe2292	0.0019388965
49	0xba82c90c	-0.000997813
50	0x3c6c57b1	0.014425204
51	0x3c968244	0.018372662
52	0x3d0273a7	0.031848576
53	0x3b2fd828	0.002683172
54	0xba2a641d	-0.00064999034
55	0x3c1a4931	0.009416864
56	0xbb78286a	-0.0037865886
57	0x3c8e62fc	0.017381184
58	0x3cb25020	0.021766722
59	0x3bfcd0a9	0.007715304
60	0x3b84d515	0.0040537217
61	0x3ba0be2c	0.0049054828
62	0xbb72c3d8	-0.0037043002
63	0x3a95a6f2	0.0011417551
64	0x3c81b724	0.015834399
65	0x3bac0089	0.0052490872
66	0xbc0f451c	-0.008744504
67	0x3c0809c9	0.008303114
68	0x3c9403d6	0.018068235
69	0xbbdd9d14	-0.00676311
70	0x3b9cd21c	0.004785789
71	0x3c32785d	0.010892955
72	0xbc08a581	-0.00834024
73	0x3d14cbb9	0.036327098
74	0x3b22c523	0.002483674
75	0x3bb1d3d1	0.005426862
76	0x3ce2d7f3	0.027690863
77	0xbc44355f	-0.011975615
78	0xbb6c7637	-0.0036081204
79	0x3c3242c8	0.01088018
80	0xbb7c86a6	-0.0038532405
81	0x3c7e3e79	0.015517824
82	0xbc40ddfd	-0.011771676
83	0x3c85c05b	0.016327074
84	0x3b2af719	0.0026087223
85	0x3b9ce4d1	0.004788019
86	0x3be66aed	0.0070317895
87	0xbaf3f9e5	-0.0018613903
88	0xbb8c504e	-0.004282034
89	0xb99215f1	-0.00027863638
90	0x3bdc0b4e	0.006715215
91	0x3c049a66	0.008093452
92	0x39ef5397	0.00045647912
93	0x3c84ddf6	0.01621912
94	0xbc9e1565	-0.019297311
95	0x3b45e8b3	0.0030198514
96	0x3cc8bca5	0.024504015
97	0xbc679f69	-0.014137127
98	0x398f1aa7	0.00027294943
99	0xbb311a70	-0.0027023815
100	0x3c84a18c	0.016190313
101	0x3bb68f05	0.0055712485
102	0xbbcf61a2	-0.0063287774
103	0x3ab5db52	0.0013874567
104	0xb862cb64	-5.407202e-05
105	0xbb86630d	-0.0041011632
106	0xbb17af6d	-0.0023145333
107	0x3a067c4a	0.0005130215
108	0x3cd9f1e4	0.0266046
109	0xbc015d59	-0.007895791
110	0x3c4b7c02	0.0124197025
111	0x3c3fb751	0.011701421
112	0xbbb89ecf	-0.005634166
113	0xbc5a02da	-0.013306344
114	0xbbb0ffe2	-0.0054015974
115	0x3acbc6cf	0.001554692
116	0xbc825d51	-0.015913637
117	0xbb5a9f47	-0.0033359097
118	0xbb9e493c	-0.0048305076
119	0x3cddaec5	0.027060876
120	0x3ca5a580	0.020220518
121	0x3c7850cb	0.015155981
122	0xbba4b3ba	-0.005026308
123	0x3cc92c0a	0.024557132
124	0x3b8bcd18	0.0042663924
125	0x3bdffeef	0.0068358104
126	0x3c4ad673	0.01238023
127	0x3b44b351	0.0030014107

network_body._body_endoder.seq_layers.2.weight f4 [128, 128]
0	0xbd52a8c3	-0.051430475
1	0x3d220adf	0.03956115
2	0xbd78aac7	-0.06070974
3	0xbda763c2	-0.08173324
4	0xbe00f876	-0.1259478
5	0xbd661020	-0.05616772
6	0x3d7a3893	0.06108911
7	0x3e40c38f	0.188246
8	0x3db1d51e	0.08683227
9	0xbd72e11a	-0.059296705
10	0xbdb6f40a	-0.089332655
11	0xbc530dd7	-0.012881718
12	0xbdbe3dc9	-0.09289128
13	0xbd18b386	-0.037280582
14	0x3b762d19	0.0037563501
15	0x3e359033	0.17730789
16	0xbb474086	-0.003040345
17	0x3b3545e5	0.0027660069
18	0x3d6af5e4	0.057363406
19	0x3c13de18	0.009025119
20	0x3db057d0	0.08610499
21	0x3cb3d150	0.021950394
22	0xbd9d8844	-0.07692006
23	0x3d984619	0.07435245
24	0xbd90d84e	-0.07072507
25	0x3dbebeb2	0.09313716
26	0x3d8eaa89	0.06966121
27	0x3df70fc2	0.120635524
28	0x3b8a61d5	0.0042230883
29	0x3e2bedc1	0.16789915
30	0xbe081e17	-0.13292728
31	0x3c148150	0.009064034
32	0xbdbd3ed8	-0.09240502
33	0x3d53a9c9	0.05167559
34	0x3ddce90e	0.10786639
35	0xbc94c8b9	-0.018162118
36	0x3d5e78ea	0.05431453
37	0xbd655451	-0.055988614
38	0xbc8aa51e	-0.016924437
39	0x3e19e2a3	0.15027861
40	0x3bd54533	0.0065084933
41	0xbd257d24	-0.040402547
42	0x3dc9af41	0.0984788
43	0x3da83e51	0.08215011
44	0xbd4149d2	-0.04718954
45	0xbdfd3bad	-0.12364898
46	0x3c8a9329	0.016915875
47	0x3d94a532	0.07258071
48	0xbe2e2129	-0.17004837
49	0xbd1f1286	-0.038836025
50	0xbc29e0a2	-0.010368498
51	0x3ddd0a6c	0.107930034
52	0xbcafbaa4	-0.021451302
53	0x3bc9896f	0.0061504166
54	0x3d5063ee	0.05087655
55	0xbe0db344	-0.13837916
56	0x3d90d3cb	0.07071646
57	0xbe0d5aba	-0.1380414
58	0x3d1ca725	0.03824534
59	0xbe002049	-0.12512316
60	0xbdbaff90	-0.09130776
61	0xbd34fa36	-0.044183932
62	0x3dda836e	0.106695995
63	0x3e173d1d	0.14769407
64	0xbce5b3b0	-0.028039783
65	0xbca51282	-0.020150427
66	0xbd5911a4	-0.05299534
67	0xbb5d1b34	-0.0033738138
68	0x3da9599c	0.08269045
69	0xbd87564e	-0.06608258
70	0xbe5eb604	-0.21749121
71	0x3e0805b6	0.13283429
72	0xbd5813e8	-0.05275336
73	0x3da6c648	0.08143288
74	0x3ca02947	0.019550933
75	0xbd8d3604	-0.06895068
76	0xbc9ecc9e	-0.019384678
77	0xbdc5f537	-0.09665912
78	0xbda4ff81	-0.08056546
79	0xbd92c13f	-0.07165765
80	0x3cbc9137	0.023018463
81	0x3daa3e0c	0.08312616
82	0x3c19b13b	0.009380634
83	0x3dffa421	0.12482477
84	0xbe29a1fa	-0.16565695
85	0x3df61572	0.12015809
86	0x3d8fb585	0.07017044
87	0x3dbcbe28	0.09215957
88	0xbdc0e8c7	-0.09419399
89	0x3d8fe43c	0.07025954
90	0xbd460ecd	-0.04835396
91	0x3d40aeac	0.04704158
92	0x3e0ea46e	0.13929912
93	0xbdae3ff4	-0.08508292
94	0x3e1619d0	0.14658284
95	0xbe1be388	-0.15223515
96	0xbd936208	-0.07196432
97	0x3e3ad2bf	0.18244456
98	0xbd13ccb1	-0.03608388
99	0x3db15907	0.08659559
100	0x3db2774c	0.0871416
101	0x3c227213	0.009914893
102	0x3e1619af	0.14658235
103	0xbda6ae37	-0.081386976
104	0xb9c651c9	-0.00037826438
105	0x3de0e2a1	0.10980726
106	0x3cfb8c94	0.030706681
107	0xbd540e80	-0.05177164
108	0xbc08433d	-0.008316812
109	0x3db358a0	0.08757138
110	0x3e00b5ee	0.125694
111	0x3ddad37c	0.10684869
112	0xbc651d83	-0.013984087
113	0xbe2e8158	-0.17041528
114	0xbc0097ce	-0.007848693
115	0xbd9edee2	-0.07757355
116	0xbcf5a6df	-0.029986797
117	0x3da99294	0.08279911
118	0xbdd8f327	-0.10593253
119	0xbc340e0f	-0.01098968
120	0xbe10246a	-0.14076391
121	0xbd63bda0	-0.055600762
122	0xbd672361	-0.056430224
123	0x3d103d8c	0.035214946
124	0x3d740c97	0.05958232
125	0xbca5d50b	-0.020243188
126	0xbcf44c52	-0.029821549
127	0x3d1f091e	0.038827054
128	0xbcd45a1f	-0.02592188
129	0x3e2edc5a	0.17076245
130	0xbda08a45	-0.07838873
131	0xbde5a7ba	-0.11213632
132	0xbd13af45	-0.036055822
133	0x3e21c7a7	0.15798818
134	0xbd563aaa	-0.05230204
135	0xbe1f28be	-0.15542886
136	0xbe0e994e	-0.13925669
137	0x3d32eb69	0.043681536
138	0xbc3927b8	-0.011300974
139	0xbe545d2f	-0.20738672
140	0xba28b3c0	-0.0006435476
141	0xbd9ecd8b	-0.07754048
142	0xbdf69f99	-0.120421596
143	0x3dc4fe77	0.09618848
144	0xbdb90a61	-0.09035183
145	0x3d8421fe	0.06451796
146	0x3c204d6e	0.009784086
147	0x3b95eb59	0.004575175
148	0xbdeb3e73	-0.114865206
149	0xbceefcf4	-0.029173352
150	0xbd4b2220	-0.04959309
151	0x3cfb1270	0.03064844
152	0x3da39d37	0.07988971
153	0xbb8c1103	-0.004274489
154	0xbc130d0b	-0.008975278
155	0xbc75063f	-0.0149551025
156	0x3e0d05f9	0.1377181
157	0x3df4317d	0.11923502
158	0x3e20718b	0.15668313
159	0x3c32958b	0.010899912
160	0x3cd745b6	0.026278358
161	0x3dc766d7	0.09736412
162	0x3deb6ed8	0.11495751
163	0xbe81b519	-0.2533348
164	0x3e4f8a33	0.20267563
165	0x3d6048e0	0.054757
166	0xbd50eccc	-0.051007077
167	0x3e0985d4	0.13429958
168	0x3c6d2f16	0.014476558
169	0x3ce3ce14	0.027808227
170	0x3d6c66e7	0.057715323
171	0xbd4e59c0	-0.05037856
172	0x3c85f14e	0.016350415
173	0x3cf18e59	0.029486822
174	0x3dbfda2a	0.09367783
175	0xbd8a4040	-0.06750536
176	0x3e1d3d36	0.15355381
177	0xbba8f037	-0.005155589
178	0x3cfb2f09	0.030662077
179	0x3d956b3b	0.07295843
180	0x3e1a958a	0.15096107
181	0x3d9686c4	0.07349923
182	0xbcc5f20a	-0.024163265
183	0x3c93f9f9	0.018063532
184	0x3d3db294	0.046312883
185	0xbd2ba876	-0.041908704
186	0xbd9b740a	-0.07590492
187	0x3ce76120	0.028244555
188	0x3dcc5a29	0.09978134
189	0x3d8f5a30	0.06999624
190	0xbc5d2144	-0.013496701
191	0xbd7c041d	-0.06152736
192	0xbb426349	-0.002966123
193	0xbc314da8	-0.010821737
194	0x3cae2d2d	0.021261776
195	0x3e23e5d0	0.16005635
196	0x3cee2ed5	0.029075066
197	0xbe3361aa	-0.17517725
198	0x3b2512a3	0.002518811
199	0xbbfaf4c2	-0.007658572
200	0xbd9b6c0c	-0.07588968
201	0x3dedf2d2	0.1161858
202	0x3d6c535c	0.057696685
203	0xbe091b9a	-0.13389435
204	0xbe0aa2bd	-0.13538642
205	0x3d578817	0.05262002
206	0xbc45cb15	-0.012072344
207	0xbd6e637c	-0.058200344
208	0xbd5b3661	-0.053518657
209	0xbda567cf	-0.080764405
210	0x3d2b7228	0.041856915
211	0xbe15ce97	-0.14629589
212	0x3d678671	0.056524698
213	0x3c3ade80	0.011405587
214	0xbbcfde74	-0.006343657
215	0x3d6f1af0	0.0583753
216	0x3b540b04	0.0032355199
217	0xbd85af2c	-0.06527552
218	0x3b7a4237	0.003818644
219	0xbdac73b1	-0.08420504
220	0xbe5d17d8	-0.21591127
221	0x3c3676d7	0.011136732
222	0xbe34f30e	-0.17670843
223	0x3d1f9816	0.0389634
224	0xbe50fdde	-0.20409343
225	0x3c17a704	0.009256128
226	0xbdc44bdd	-0.09584782
227	0x3d1eef9a	0.03880272
228	0xbdd1149b	-0.10209008
229	0x3d494e84	0.049147144
230	0xbcf82de3	-0.030295318
231	0x3e01a3a2	0.12660077
232	0xbbd1711c	-0.0063916575
233	0x3e012c09	0.12614454
234	0x3dd18c29	0.102318116
235	0xbdc6d785	-0.09709076
236	0xbe902776	-0.28155106
237	0xbe1f039e	-0.15528724
238	0xbd078d2c	-0.033093616
239	0xbd2e27e6	-0.04251852
240	0x3db2c838	0.08729595
241	0xbd1d7a9f	-0.03844702
242	0x3e2810b7	0.16412626
243	0x3cebc93b	0.028782478
244	0xbd035f26	-0.032073162
245	0x3d389bb9	0.045070384
246	0x3cd75a27	0.026288105
247	0xbe412629	-0.18862213
248	0x3d8a407e	0.06750582
249	0x3ca55d2d	0.020186031
250	0xbcfb779b	-0.03069668
251	0xbe7f55a3	-0.24935012
252	0xbe162beb	-0.14665191
253	0x3d97af90	0.07406533
254	0x3d5b13f7	0.053485837
255	0xbdc0cde6	-0.09414272

network_body._body_endoder.seq_layers.2.bias f4 [128]
0	0xbbf0f0c9	-0.0073529226
1	0x3b3f0173	0.002914515
2	0xbb4b748f	-0.0031044816
3	0xba990919	-0.0011675685
4	0xbc1f6d3e	-0.009730635
5	0x3b8c3dbb	0.00427982
6	0x3cc14577	0.023592694
7	0x3b9faa78	0.0048726164
8	0xbb747f3e	-0.0037307288
9	0x3c284b65	0.010271882
10	0xbc052a86	-0.008127814
11	0xbb9950cb	-0.0046788207
12	0x3c017db9	0.00790351
13	0x3a2bca30	0.00065532606
14	0x3c2abcb5	0.010420968
15	0x3bdf471f	0.006813898
16	0xbbe08516	-0.0068518026
17	0x3b851ad0	0.004062034
18	0x3bd18dd9	0.0063950834
19	0x3b288d3a	0.0025718943
20	0xba9aa41d	-0.0011798177
21	0x3baffb55	0.0053705373
22	0xbb8448ae	-0.0040369844
23	0x3be621e0	0.007023081
24	0xbc0f99fb	-0.008764739
25	0x3bacadc5	0.0052697384
26	0x3c3a20e9	0.011360385
27	0x3cd3b4ab	0.025842985
28	0x3ca7580b	0.020427724
29	0xbb59eaec	-0.0033251597
30	0x3bec720b	0.0072157434
31	0x3b40b284	0.0029403279
32	0x3cb6778d	0.022273803
33	0xbbdf7287	-0.0068190726
34	0x3a54c04b	0.0008115812
35	0x3c672250	0.014107302
36	0x3c25d2f6	0.010121098
37	0x3bf85240	0.0075781643
38	0x3be656a2	0.0070293704
39	0x3c22304b	0.009899209
40	0x3a84bc51	0.0010126923
41	0x3c957c48	0.018247738
42	0xbc57b0a9	-0.013164678
43	0x3cb3e91b	0.02196174
44	0xbbb067f8	-0.005383488
45	0xbb3d7063	-0.00289061
46	0x3c8e0a61	0.017338933
47	0x3bbba77c	0.005726753
48	0xbc1ab4cb	-0.009442518
49	0xbc5f0386	-0.01361168
50	0xbad7e443	-0.0016471226
51	0xbb724c85	-0.0036971879
52	0x3b99e6a9	0.0046966863
53	0x3ad12046	0.0015955053
54	0x3aa87ef3	0.0012855217
55	0x3b46ff6f	0.0030364653
56	0x3c8bae46	0.017050873
57	0xbc86780c	-0.016414665
58	0x3cc76f77	0.024345143
59	0xbb80444a	-0.0039143907
60	0x3c913e41	0.01772988
61	0x3aa13f73	0.0012302235
62	0x3c8665d2	0.016405974
63	0x3a86d02b	0.0010285428
64	0x3cef8d7e	0.029242273
65	0x3c99b820	0.018764555
66	0xbc28cf60	-0.010303348
67	0x3c205356	0.009785494
68	0xbbac7db5	-0.005264009
69	0xbb88afd3	-0.0041713505
70	0x3c00224e	0.007820679
71	0x3c1e33a5	0.009655868
72	0x3be911a9	0.007112701
73	0xbc6bd738	-0.014394574
74	0x3b740bc6	0.0037238463
75	0x3c47046d	0.012147051
76	0xbc623839	-0.01380735
77	0x3bfcecf1	0.0077186753
78	0x3ca28094	0.019836701
79	0xbbea60f5	-0.0071526715
80	0xbc3339c3	-0.010939064
81	0x3b812c1d	0.0039420263
82	0x3c486413	0.012230891
83	0xbad2dcdd	-0.0016087551
84	0xbb9add9c	-0.004726125
85	0x3c64d81b	0.013967539
86	0xbb278184	-0.0025559375
87	0xbb6a7fd4	-0.0035781758
88	0xbb95bdc8	-0.004569743
89	0xbc3071d3	-0.010769325
90	0x3c1cec2a	0.00957779
91	0xbbd2e5e6	-0.0064360974
92	0xbc07ea78	-0.008295648
93	0x3c66538f	0.014058008
94	0x3a4f1bd3	0.00079005695
95	0xbb34a9c0	-0.0027567
96	0xbc0843b9	-0.008316928
97	0xbc0219b0	-0.007940695
98	0x3c64048b	0.013917099
99	0x3ca7b50b	0.02047207
100	0xbaa117be	-0.0012290401
101	0xbc48addf	-0.012248485
102	0x3c929d32	0.017897222
103	0x3cb35fd9	0.02189629
104	0x3c800e07	0.015631689
105	0x3b7528a6	0.0037408262
106	0x3bc03642	0.005865843
107	0x3bd6bb6b	0.0065531037
108	0xbb3b46bc	-0.0028576097
109	0x3c1f6e42	0.009730877
110	0x3c76d197	0.015064619
111	0xbbef79f9	-0.0073082414
112	0x3c2ecaac	0.010668438
113	0x3c2c6f45	0.010524576
114	0x3bba5afb	0.0056871152
115	0x3c4426c8	0.011972137
116	0x3bcc2ba4	0.0062307883
117	0x3aaa06e7	0.0012972028
118	0x3bb442d5	0.005501131
119	0xbc369ba0	-0.011145502
120	0x3c83acc1	0.016073586
121	0xbaf0ce34	-0.0018372
122	0x3c4b4cf2	0.012408482
123	0x3bb51a74	0.005526835
124	0xbc233606	-0.009961611
125	0x3bfc898e	0.0077068275
126	0xbc68cfd0	-0.014209703
127	0xbc662605	-0.0140471505

action_model._discrete_distribution.branches.0.weight f4 [10, 128]
0	0x388fd8d9	6.8591624e-05
1	0x3b263527	0.002536127
2	0xbc654c41	-0.013995231
3	0xbca2829d	-0.019837672
4	0x3c69ed7e	0.014277814
5	0xbb5711aa	-0.0032816925
6	0xba89b8c3	-0.0010507334
7	0xbb913a79	-0.0044320193
8	0xbbfe1ec6	-0.0077551333
9	0x3c324d25	0.0108826505
10	0x3936b060	0.00017422577
11	0xbc8a7cb9	-0.016905176
12	0x3b7c0d09	0.0038459918
13	0x3c2322e8	0.009957053
14	0xbc57f46f	-0.013180836
15	0xbca9a3f9	-0.020708071
16	0xbbb40cfc	-0.005494712
17	0xbbafb559	-0.0053621945
18	0x3c9da7cb	0.019245049
19	0x3a2ccf8c	0.0006592206
20	0x3b8b58d5	0.004252533
21	0x3c408c40	0.011752188
22	0xbc6c7a94	-0.014433522
23	0x3bd4ddc3	0.0064961626
24	0x3c256bd9	0.010096514
25	0x3cb3395f	0.021877943
26	0x3c93936c	0.018014632
27	0xbb86ceda	-0.004114014
28	0xbbfd37ed	-0.007727614
29	0x3c13cf2e	0.009021563
30	0x3c4b0ac7	0.012392706
31	0x3c1f2876	0.0097142365
32	0x3bc67e98	0.0060575716
33	0x3bcaa5be	0.006184309
34	0x3bd9fba9	0.0066523147
35	0x3bc6f5f9	0.0060718027
36	0x3bdecdc9	0.006799434
37	0x3ba9509b	0.0051670796
38	0xbcd9c16d	-0.02658149
39	0xba105fd2	-0.00055074424
40	0x3c6c4123	0.014419827
41	0x3b87ae97	0.004140686
42	0xbb852501	-0.004063249
43	0x3ca25ed6	0.019820612
44	0xbb930343	-0.004486473
45	0xbc9c4f7c	-0.01908087
46	0x3bd424d3	0.0064741164
47	0xbb0ae413	-0.0021193072
48	0xbb63696c	-0.0034700288
49	0xbc658d8b	-0.014010797
50	0x395d5b40	0.00021110196
51	0x3b9e53ed	0.004831782
52	0xbb742ad0	-0.0037256964
53	0x3c4fc7f0	0.012681946
54	0x3b26f4bb	0.002547546
55	0x3c2ad67e	0.0104271155
56	0x3bf09786	0.0073422818
57	0x39e585d8	0.00043778005
58	0x3ca2227b	0.019791832
59	0xbbba821b	-0.0056917793
60	0xbca58a9b	-0.020207694
61	0x3cb82fc6	0.022483718
62	0xbb24232b	-0.0025045376
63	0xbc1eb13d	-0.009685812
64	0x3ca44f9c	0.020057492
65	0x3c835e3f	0.016036151
66	0x3bb0796e	0.0053855693
67	0xbc0cc751	-0.008592443
68	0xbc0a1c26	-0.008429563
69	0x3bcf85c2	0.006333084
70	0xbbd1ea62	-0.0064061144
71	0x3bb07722	0.0053852955
72	0xbb7a9c3d	-0.0038240098
73	0xbca83673	-0.020533776
74	0x3c038981	0.008028389
75	0x3abafd52	0.0014266169
76	0x3bd4011a	0.006469858
77	0xbbb52db4	-0.00552913
78	0x3b844994	0.0040370915
79	0xbc4efb7a	-0.012633199
80	0x3b4aa3d2	0.0030920398
81	0x3c922d09	0.01784374
82	0x3be86606	0.0070922403
83	0x3a0435a2	0.00050433923
84	0x3ab2814b	0.0013618855
85	0xbc800a57	-0.01562993
86	0x3ca220e5	0.019791076
87	0x3be95f21	0.007121936
88	0xbc3d0290	-0.0115362555
89	0xbcc6f886	-0.024288427
90	0x3c97bf3d	0.018523807
91	0xbb0aada9	-0.0021160638
92	0xbc650807	-0.013978965
93	0x3ae59c75	0.0017517941
94	0x3abafc12	0.0014265797
95	0xbbb4eb4c	-0.0055212136
96	0xbc119173	-0.008884775
97	0xbc8e4d43	-0.017370826
98	0x3ca4ea68	0.020131305
99	0x3c0994b3	0.008397269
100	0xbb2c1dc1	-0.0026262852
101	0xbbc851bb	-0.0061132587
102	0xbb37c427	-0.00280405
103	0xb97fe9e4	-0.00024405826
104	0x3b97a58b	0.0046278886
105	0xbaac875f	-0.0013162902
106	0x3c7988e3	0.01523039
107	0x3bc3d688	0.005976502
108	0x3bdfb05b	0.006826443
109	0x3b662a8c	0.0035120575
110	0x3aaad9a0	0.0013034828
111	0x3b14f08b	0.0022726383
112	0x3c2584c7	0.010102457
113	0xbb5693db	-0.0032741937
114	0xbba9309e	-0.0051632663
115	0x3b424f8f	0.0029649471
116	0xbbbfc5ed	-0.005852452
117	0xbc55229f	-0.013008743
118	0x3aa15abd	0.0012310367
119	0xbbc45d28	-0.0059925504
120	0x3cdd265a	0.026995827
121	0x3aec4264	0.0018025157
122	0xbc399896	-0.011327883
123	0x3b892788	0.0041856207
124	0xba17aa32	-0.0005785554
125	0x3d1c0b5e	0.038096778
126	0xbc48be16	-0.012252351
127	0xbb75a5d4	-0.0037482874
128	0x3c9d0961	0.019169511
129	0x3928276d	0.00016036416
130	0x3bd04b3d	0.0063566254
131	0x3cf5d0e2	0.03000683
132	0x3ccbd5cd	0.024882222
133	0x3cae9bb4	0.02131448
134	0xbca3c127	-0.019989563
135	0x3c2ae75d	0.010431138
136	0xbb8e8f94	-0.004350612
137	0x3c5571af	0.013027593
138	0x3cbeacfa	0.023275841
139	0x3b72d657	0.0037054026
140	0xbc284983	-0.010271433
141	0x3c22d604	0.009938721
142	0xb9d4e6be	-0.00040607707
143	0xbc96fdae	-0.01843151
144	0x3c91c6ad	0.017794931
145	0xbd089cdb	-0.033352714
146	0x3c6a966a	0.014318088
147	0xba828f64	-0.0009960947
148	0x3c582c85	0.013194208
149	0x3c577153	0.013149577
150	0x3a9ddc04	0.0012043719
151	0xbd05c61d	-0.03265964
152	0x3b982e4d	0.0046441914
153	0xbb543890	-0.0032382347
154	0x3c871ed4	0.016494192
155	0x3cdf94f6	0.02729271
156	0x3cb0a693	0.021563804
157	0x3cfce876	0.030872565
158	0x3abb9faf	0.0014314557
159	0x3c8fa56d	0.017534936
160	0xbabe7e61	-0.0014533513
161	0x3c1d8d1f	0.009616165
162	0xba874782	-0.0010320994
163	0xbc300445	-0.010743205
164	0xbd5057a4	-0.05086483
165	0x3b96fd6c	0.004607847
166	0x3becac71	0.007222705
167	0x3c6250fe	0.013813255
168	0x3c1e1b72	0.009650098
169	0x3c7d5d0a	0.015464077
170	0x3b99a6c9	0.004689072
171	0xbcf81b70	-0.03028652
172	0x3b9f7a4f	0.0048668752
173	0xbc0a1d5c	-0.008429851
174	0x3cf8a709	0.030353086
175	0xbc2b39d3	-0.010450798
176	0xbc2c85ce	-0.010529948
177	0xbae0b8fb	-0.0017144972
178	0xbcc90737	-0.024539573
179	0xbbf0a64b	-0.0073440424
180	0xbcdb2e2f	-0.02675542
181	0x3bfdc9ad	0.007744989
182	0xbc45e4c7	-0.012078471
183	0xbbd93da8	-0.0066296645
184	0x3d20b28a	0.039232768
185	0x3c346d32	0.011012362
186	0xbd1e9965	-0.038720507
187	0xb8b2b134	-8.520708e-05
188	0x3a2ec5fc	0.0006667075
189	0x3c274eee	0.010211689
190	0x3b32ee58	0.0027302708
191	0xbaa7d238	-0.0012803739
192	0x3c563c72	0.013075935
193	0x3cdd4ea2	0.027015034
194	0xbcc4e918	-0.024036929
195	0xbc94c8e9	-0.018162208
196	0x3c932317	0.017961068
197	0x3c02baa6	0.007979071
198	0x3bb0b0de	0.005392178
199	0x3bc93ec1	0.006141514
200	0x3c3b5715	0.011434336
201	0xbbe4e31d	-0.006985082
202	0x3b7b4927	0.0038343163
203	0x3cb2979a	0.021800805
204	0x3b60d012	0.0034303707
205	0xbb540c4d	-0.0032355965
206	0xb88d9ac0	-6.7522284e-05
207	0x3bbbb1ab	0.005727967
208	0x3bca796d	0.006179026
209	0x3c6f94c7	0.014622874
210	0xbcf373d0	-0.02971831
211	0xbcf5a427	-0.0299855
212	0xbb5867b1	-0.003302079
213	0x3b9bf676	0.004759605
214	0xbc9e28ac	-0.019306503
215	0x3b867466	0.0041032312
216	0xbb906f6f	-0.004407815
217	0x3b7d7153	0.0038672283
218	0x3ab9cee9	0.0014176044
219	0x3c457e66	0.0120540615
220	0xba628745	-0.00086413726
221	0x3c6650b5	0.014057328
222	0x3c12c382	0.0089577455
223	0x3aa394b1	0.0012480227
224	0x3c1e1493	0.00964846
225	0x3c472090	0.01215376
226	0x3c3b2881	0.011423231
227	0x3bd8ee94	0.0066202376
228	0xbc192bd0	-0.009348825
229	0x3c9b0734	0.018924333
230	0x3c94c6e7	0.01816125
231	0x3c4a0c53	0.01233204
232	0x3c164b43	0.009173217
233	0x3c8b706c	0.01702138
234	0xbb7bd1f6	-0.0038424707
235	0xbcaaadce	-0.02083483
236	0x3b9d218a	0.004795258
237	0xba3af2bf	-0.0007131509
238	0xbb43a159	-0.002985081
239	0x3c9be08e	0.019027974
240	0x3c993ecd	0.018706704
241	0x3af6391b	0.0018785329
242	0x3c377a25	0.011198555
243	0xbc978693	-0.018496787
244	0xbc52e207	-0.012871272
245	0x3c23f181	0.0100063095
246	0x3c31c330	0.010849759
247	0x3c575ec4	0.0131451525
248	0x3cf06e6e	0.029349532
249	0x3c623ed8	0.013808928
250	0x3ba2c834	0.0049677137
251	0x3a09642e	0.0005241063
252	0x3cad500f	0.021156339
253	0xbc949ad5	-0.018140236
254	0xbb012bb3	-0.0019709885
255	0x3ccad884	0.024761446

action_model._discrete_distribution.branches.0.bias f4 [10]
0	0x3b24cb96	0.002514576
1	0xbb6468b6	-0.0034852452
2	0xbbb531d6	-0.0055296225
3	0x3b7b69bc	0.0038362583
4	0x3b42a3da	0.0029699714
5	0x3b1c1012	0.002381329
6	0x3c79b869	0.015241721
7	0xbc89cb1a	-0.01682048
8	0x3bbc1168	0.0057393797
9	0xbbae1a14	-0.0053131673

action_model._discrete_distribution.branches.1.weight f4 [10, 128]
0	0x3c09bbd0	0.008406594
1	0xbbcff643	-0.0063464954
2	0xbbdd8099	-0.006759715
3	0x3b8c4b2f	0.0042814235
4	0xbaa23e6e	-0.0012378225
5	0xbc33eccb	-0.010981749
6	0x3b961cba	0.004581061
7	0x3c9347f6	0.01797865
8	0x3c36753b	0.011136348
9	0x3c8500ab	0.01623567
10	0xbb4090bd	-0.0029383146
11	0x3c87bdde	0.016570028
12	0x3b030839	0.0019993915
13	0xbcb9e453	-0.022691881
14	0x3c010e93	0.00787701
15	0x3bb5b0b9	0.0055447486
16	0xbc041838	-0.008062415
17	0x3bbf6ec2	0.005842061
18	0xbb65e1b9	-0.0035077168
19	0xbca1f081	-0.019768002
20	0x3c972600	0.018450737
21	0xbc95f53a	-0.01830541
22	0xbbd5cd40	-0.006524712
23	0x3caaa1bb	0.020829072
24	0xbcc4438f	-0.023957996
25	0x3c95bf79	0.018279778
26	0xbb9eaef3	-0.004842633
27	0xbbc9ea12	-0.0061619366
28	0x3c2517db	0.010076488
29	0xbcbc69cd	-0.022999668
30	0xbc8bbf91	-0.01705912
31	0xbb8a6431	-0.0042233695
32	0x3c251055	0.010074695
33	0xbab0dc59	-0.0013493403
34	0x3c343512	0.010998981
35	0xbb9f27d4	-0.004857043
36	0x3bd1fc97	0.006408285
37	0xbc14d678	-0.009084336
38	0x3c0801b5	0.008301188
39	0x3b9f0416	0.004852782
40	0xbbb80e92	-0.0056169713
41	0xbc8e51fc	-0.017373078
42	0xbbdc9dc5	-0.006732675
43	0x3c909e00	0.017653465
44	0xbbfb06a2	-0.007660703
45	0xbc2c3c9a	-0.010512495
46	0xbaa74cf2	-0.001276402
47	0xbc14471d	-0.009050158
48	0x3cc1756b	0.02361556
49	0x3bb8526a	0.005625059
50	0x3ca50564	0.020144172
51	0x3b20b889	0.0024524054
52	0x3c3252ba	0.010883981
53	0xbc21de1c	-0.009879615
54	0x3c06cd62	0.008227678
55	0xbb9ee627	-0.0048492136
56	0xbb3abc6f	-0.0028493663
57	0x3c85ceee	0.016334023
58	0x3ce9078d	0.028445983
59	0x3c8a6a7b	0.016896477
60	0xbbf041bf	-0.0073320563
61	0xbbad22ea	-0.005283703
62	0x3c204522	0.009782108
63	0x3c40a086	0.011757022
64	0x3c0cbf7b	0.008590574
65	0xbbef1290	-0.007295914
66	0x3bf2fc3f	0.007415324
67	0x3c24949e	0.010045199
68	0xbb9cadc2	-0.0047814557
69	0xbb859fad	-0.0040778727
70	0xbc9d319e	-0.019188698
71	0xbc1216d4	-0.008916575
72	0xba3f7597	-0.0007303594
73	0xbbdc8f70	-0.0067309663
74	0xbcd42ce4	-0.025900312
75	0x3b57e2bc	0.003294154
76	0xba04a17a	-0.0005059462
77	0x3ae25cb8	0.0017270064
78	0xbcd5ce53	-0.02609936
79	0x3b5be48b	0.003355297
80	0xbc11411e	-0.008865623
81	0x3ba914f1	0.005159967
82	0x3cd8cdc5	0.026465306
83	0x3c392a68	0.011301614
84	0x3bc5a3ee	0.006031505
85	0xbc904881	-0.017612698
86	0x3c0c226c	0.008553129
87	0xbb47906c	-0.0030451072
88	0x3bc752cb	0.0060828677
89	0xbc21de37	-0.00987964
90	0x3bf3d4d7	0.007441144
91	0x3c83d9e0	0.016095102
92	0xbce2ac47	-0.027670039
93	0x3c94b9a9	0.018154936
94	0xbc06baf6	-0.008223286
95	0xbbadff21	-0.0053099548
96	0xbc8401d8	-0.01611416
97	0xba537bae	-0.0008067441
98	0xbbbf1312	-0.005831131
99	0xb9ea893a	-0.000447342
100	0x3b5e5acc	0.003392863
101	0x3bcbc3b0	0.006218396
102	0xbc21173e	-0.0098322015
103	0xbc38d910	-0.0112822205
104	0x3c9aa25b	0.018876245
105	0xbb92a1b4	-0.004474843
106	0x3b3fdb26	0.002927491
107	0x3c8c77d2	0.017146979
108	0xbab4f3c3	-0.0013805557
109	0x3c7b439f	0.015335946
110	0x3c1e650a	0.009667644
111	0xbcc89bfa	-0.024488438
112	0x3bbe7cda	0.0058132233
113	0xbc179b82	-0.009253385
114	0x3bfef68d	0.007780856
115	0x3c3af37e	0.011410592
116	0xb941419e	-0.00018430359
117	0xbc0ba183	-0.008522394
118	0x3cbe5768	0.023235038
119	0xbb6a2bf9	-0.0035731776
120	0xbbfbc91c	-0.007683886
121	0x3b8f2524	0.004368441
122	0xba9c4d3f	-0.0011924877
123	0x3a991386	0.0011678792
124	0x3a055211	0.0005085776
125	0x3c5ad502	0.013356449
126	0x3bd04264	0.0063555706
127	0xbce052e2	-0.027383272
128	0xbc35e396	-0.011101624
129	0xbc22705f	-0.009914487
130	0x3bb9c78e	0.0056695407
131	0x3b55a026	0.0032596677
132	0x3ab6284a	0.0013897505
133	0xbc0a1ea5	-0.008430158
134	0xbcb93fbd	-0.0226134
135	0xba9d0b38	-0.0011981493
136	0x3c34e98b	0.011042009
137	0xbbb02f5f	-0.005376741
138	0x3bc2994d	0.005938685
139	0xbc5cf6d8	-0.0134865865
140	0x3cfc1422	0.030771319
141	0x3be10f44	0.006868275
142	0x3c4b969f	0.012426048
143	0xbb7bd988	-0.003842922
144	0x3c977043	0.018486148
145	0xbb87971f	-0.004137888
146	0xba62c61e	-0.00086507376
147	0xbc06c992	-0.008226769
148	0xbb904ed5	-0.0044039288
149	0xbc68439b	-0.014176275
150	0x3cc841b9	0.024445402
151	0xbc0a89b7	-0.008455685
152	0x3b3e4346	0.0029031797
153	0xbd0a75b0	-0.03380364
154	0xbb7d25d5	-0.0038627286
155	0x3c98f3ef	0.018671004
156	0x3c7c7668	0.01540909
157	0x3cd75ce6	0.026289415
158	0x3ab13196	0.0013518806
159	0x3c361be7	0.011115051
160	0xbc9ada41	-0.0189029
161	0x3c41aecd	0.011821461
162	0x3b8bf41b	0.004271043
163	0xbc0a7967	-0.008451796
164	0x3c5d39d6	0.013502559
165	0x3c1dafdc	0.009624448
166	0x3c663b57	0.014052234
167	0xbb18aa3f	-0.0023294834
168	0x3ba533c2	0.0050415704
169	0x3d148efa	0.036269166
170	0x3c2fd707	0.010732419
171	0xbc4005cc	-0.011720132
172	0xbcb130df	-0.021629749
173	0xbb65fa16	-0.003509169
174	0x3c74ae8f	0.014934196
175	0xbc3a8af9	-0.011385673
176	0x3c3c0355	0.011475404
177	0xbaea5f66	-0.0017881214
178	0x3bd1b23e	0.006399422
179	0xbbe0dda0	-0.0068623573
180	0xbcaba3d8	-0.02095215
181	0x3af19a4c	0.0018432825
182	0xbc76e80b	-0.015069972
183	0x3bb3d45c	0.0054879617
184	0xbcc36e62	-0.023856346
185	0x3c049a69	0.008093455
186	0xbce644f0	-0.028109044
187	0xbb34e12f	-0.002760004
188	0xbaf12f3d	-0.0018400919
189	0xbbeecf1a	-0.007287872
190	0x3c395eb9	0.011314088
191	0x3c7b4d7e	0.0153383
192	0x3c0bc4b3	0.0085307835
193	0xbc80feed	-0.015746558
194	0xba81424d	-0.0009861678
195	0xbbe7b9ef	-0.0070717256
196	0x3cae6735	0.021289447
197	0xbcb2f2af	-0.021844236
198	0x3c72d61e	0.014821557
199	0x3bb8ee71	0.005643659
200	0x3c36647b	0.011132355
201	0xbbabc00c	-0.0052413996
202	0xbc9354c6	-0.017984759
203	0x3ccd5517	0.025064988
204	0xbb3816fb	-0.002808987
205	0xbabc174d	-0.0014350206
206	0x3b8e81e1	0.004348979
207	0xbca2020c	-0.019776367
208	0xbac679b8	-0.0015142476
209	0xbc467c18	-0.012114547
210	0xbc63c064	-0.01390085
211	0xbb126368	-0.0022337083
212	0xbafbf8fa	-0.0019223981
213	0xbc02d17d	-0.007984516
214	0xbc863a76	-0.016385298
215	0xbb820d98	-0.0039689057
216	0xbc61a31c	-0.013771798
217	0x3cc7fefd	0.02441358
218	0xbab06007	-0.0013456353
219	0xbc35e7a4	-0.011102591
220	0x3ca1fbb2	0.019773338
221	0xbc5f4715	-0.013627787
222	0x3c6a8015	0.014312764
223	0xbc3ffb83	-0.01171768
224	0x3b6c6f98	0.0036077257
225	0xbc8701dc	-0.016480379
226	0xb9bc1bf2	-0.00035878975
227	0x3c6502d1	0.013977722
228	0x3cd245ac	0.025667988
229	0xbc9e5e26	-0.019332003
230	0xb90d971e	-0.00013503103
231	0xbb444c52	-0.0029952717
232	0xbc3ac33e	-0.011399088
233	0xbc9af6af	-0.018916456
234	0xbbd88da3	-0.0066086813
235	0xbc1f3099	-0.009716176
236	0xbac10121	-0.0014725068
237	0xbbd50cb1	-0.006501757
238	0xbb1d9b9e	-0.0024049054
239	0x3c7604d5	0.0150158005
240	0x3af1cf29	0.0018448579
241	0xbc18bde2	-0.009322615
242	0xbb593c70	-0.0033147596
243	0xbbf19aec	-0.0073732045
244	0xbaf18fc0	-0.0018429682
245	0xbb58a52c	-0.0033057434
246	0xbc653aa9	-0.013991036
247	0x3c98b87f	0.018642662
248	0x3c64c3b1	0.013962672
249	0xbb8736ea	-0.0041264193
250	0x3ccc6959	0.024952577
251	0xbcabef05	-0.020987997
252	0x3c5d1acb	0.0134951575
253	0xbcc22cb7	-0.023702962
254	0x3ce9573a	0.028483976
255	0x3b9bd283	0.0047553196

action_model._discrete_distribution.branches.1.bias f4 [10]
0	0x3bf94d68	0.0076081045
1	0xbc40ce42	-0.011767926
2	0x3c5233d1	0.012829737
3	0x3c43c28d	0.01194824
4	0xbaf5a295	-0.001874047
5	0xbc3c95bb	-0.011510308
6	0x3b2f18d2	0.0026717675
7	0xba4af62c	-0.0007742371
8	0xbb87329e	-0.004125907
9	0xbb8b2f63	-0.0042475923

onnx::Div_68 f4 [24]
0	0x3ff16865	1.8859984
1	0x40029ff5	2.041013
2	0x4193ed33	18.49082
3	0x3bc6ac9a	0.006063056
4	0x400433c3	2.0656593
5	0x400d9efd	2.2128289
6	0x4195f490	18.744415
7	0x3bc6ac9a	0.006063056
8	0x400f091b	2.2349308
9	0x40158837	2.336439
10	0x4199512c	19.164635
11	0x3bc6ac9a	0.006063056
12	0x4016a4fa	2.3538194
13	0x401bc1af	2.4336965
14	0x419faf73	19.960669
15	0x3bc6ac9a	0.006063056
16	0x401d126f	2.45425
17	0x401d5994	2.4585924
18	0x41a8ffa4	21.124825
19	0x3bc6ac9a	0.006063056
20	0x401e57b0	2.474102
21	0x401d724e	2.4601016
22	0x41b71aff	22.888182
23	0x3bc6ac9a	0.006063056
