Assets/Config/results/ThiefLearn1/ThiefLearn1.onnx (onnx, 308121 bytes, 11 tensors)

discrete_act_size_vector f4 [1, 2]
000000 00 00 20 41 00 00 20 41
       10.0 10.0

network_body.observation_encoder.processors.0.normalizer.running_mean f4 [430]
000000 93 3c 57 3e 1f f6 22 3f 50 f8 69 3d 00 00 00 00
       0.21019201 0.636568 0.057121575 0.0
000010 00 00 00 00 e4 ba 6b 3d e4 ba 6b 3d 4b 95 3c 3d
       0.0 0.05755128 0.05755128 0.046040814
000020 00 00 00 00 e4 ba eb 3d 2e cc 30 3e 4b 95 bc 3d
       0.0 0.11510256 0.17265388 0.09208163
000030 00 00 00 00 2e cc 30 3e 87 54 93 3e 00 00 00 00
       0.0 0.17265388 0.28775427 0.0
000040 4b 95 3c 3d e4 ba eb 3d e4 ba eb 3d 4b 95 3c 3d
       0.046040814 0.11510256 0.11510256 0.046040814
000050 4b 95 3c 3d 2e cc 30 3e 2e cc 30 3e 4b 95 bc 3d
       0.046040814 0.17265388 0.17265388 0.09208163
000060 4b 95 3c 3d e4 ba 6b 3e 2e cc b0 3e 00 00 00 00
       0.046040814 0.23020512 0.34530777 0.0
000070 4b 95 bc 3d 2e cc 30 3e 2e cc 30 3e 4b 95 3c 3d
       0.09208163 0.17265388 0.17265388 0.046040814
000080 4b 95 bc 3d e4 ba 6b 3e e4 ba 6b 3e 4b 95 bc 3d
       0.09208163 0.23020512 0.23020512 0.09208163
000090 4b 95 bc 3d 87 54 93 3e 2e cc b0 3e ee 27 d4 3d
       0.09208163 0.28775427 0.34530777 0.103591785
0000a0 ee 27 d4 3d 2e cc b0 3e 2e cc b0 3e f5 ab 83 3e
       0.103591785 0.34530777 0.34530777 0.2571713
0000b0 2f c7 3e 3f da 97 94 3d 00 00 00 00 00 00 00 00
       0.7452268 0.07255526 0.0 0.0
0000c0 c1 63 93 3d c1 63 93 3d 4b d2 6b 3d 00 00 00 00
       0.07196761 0.07196761 0.057573598 0.0
0000d0 c1 63 13 3e 48 15 5d 3e 4b d2 eb 3d 00 00 00 00
       0.14393522 0.2159015 0.115147196 0.0
0000e0 48 15 5d 3e 6a 3c b8 3e 00 00 00 00 4b d2 6b 3d
       0.2159015 0.35983592 0.0 0.057573598
0000f0 c1 63 13 3e c1 63 13 3e 4b d2 6b 3d 4b d2 6b 3d
       0.14393522 0.14393522 0.057573598 0.057573598
000100 48 15 5d 3e 48 15 5d 3e 4b d2 eb 3d 4b d2 6b 3d
       0.2159015 0.2159015 0.115147196 0.057573598
000110 c1 63 93 3e 48 15 dd 3e 00 00 00 00 4b d2 eb 3d
       0.28787044 0.431803 0.0 0.115147196
000120 48 15 5d 3e 48 15 5d 3e 4b d2 6b 3d 4b d2 eb 3d
       0.2159015 0.2159015 0.057573598 0.115147196
000130 c1 63 93 3e c1 63 93 3e 4b d2 eb 3d 4b d2 eb 3d
       0.28787044 0.28787044 0.115147196 0.115147196
000140 6a 3c b8 3e 48 15 dd 3e 5f a6 04 3e 5f a6 04 3e
       0.35983592 0.431803 0.1295409 0.1295409
000150 48 15 dd 3e 48 15 dd 3e 75 77 a4 3e c9 00 63 3f
       0.431803 0.431803 0.32122388 0.88673073
000160 05 15 c5 3d 00 00 00 00 00 00 00 00 8f 3a be 3d
       0.0962315 0.0 0.0 0.09288513
000170 8f 3a be 3d cd 2e 98 3d 00 00 00 00 8f 3a 3e 3e
       0.09288513 0.074308015 0.0 0.18577026
000180 a3 ab 8e 3e cd 2e 18 3e 00 00 00 00 a3 ab 8e 3e
       0.27865323 0.14861603 0.0 0.27865323
000190 b2 c8 ed 3e 00 00 00 00 cd 2e 98 3d 8f 3a 3e 3e
       0.4644218 0.0 0.074308015 0.18577026
0001a0 8f 3a 3e 3e cd 2e 98 3d cd 2e 98 3d a3 ab 8e 3e
       0.18577026 0.074308015 0.074308015 0.27865323
0001b0 a3 ab 8e 3e cd 2e 18 3e cd 2e 98 3d 8f 3a be 3e
       0.27865323 0.14861603 0.074308015 0.37154052
0001c0 a3 ab 0e 3f 00 00 00 00 cd 2e 18 3e a3 ab 8e 3e
       0.55730647 0.0 0.14861603 0.27865323
0001d0 a3 ab 8e 3e cd 2e 98 3d cd 2e 18 3e 8f 3a be 3e
       0.27865323 0.074308015 0.14861603 0.37154052
0001e0 8f 3a be 3e cd 2e 18 3e cd 2e 18 3e b2 c8 ed 3e
       0.37154052 0.14861603 0.14861603 0.4644218
0001f0 a3 ab 0e 3f 9b 34 2b 3e 9b 34 2b 3e a3 ab 0e 3f
       0.55730647 0.16719286 0.16719286 0.55730647
000200 a3 ab 0e 3f 57 a1 df 3e 1a 2f 8a 3f d2 15 34 3e
       0.55730647 0.4367778 1.0795624 0.17586449
000210 00 00 00 00 00 00 00 00 81 8e 17 3e 81 8e 17 3e
       0.0 0.0 0.14800455 0.14800455
000220 e4 7d f2 3d 00 00 00 00 81 8e 97 3e c1 55 e3 3e
       0.11840418 0.0 0.2960091 0.44401363
000230 e4 7d 72 3e 00 00 00 00 c1 55 e3 3e 3e 72 3d 3f
       0.23680836 0.0 0.44401363 0.74002445
000240 00 00 00 00 e4 7d f2 3d 81 8e 97 3e 81 8e 97 3e
       0.0 0.11840418 0.2960091 0.2960091
000250 e4 7d f2 3d e4 7d f2 3d c1 55 e3 3e c1 55 e3 3e
       0.11840418 0.11840418 0.44401363 0.44401363
000260 e4 7d 72 3e e4 7d f2 3d 81 8e 17 3f c1 55 63 3f
       0.23680836 0.11840418 0.5920182 0.88802725
000270 00 00 00 00 e4 7d 72 3e c1 55 e3 3e c1 55 e3 3e
       0.0 0.23680836 0.44401363 0.44401363
000280 e4 7d f2 3d e4 7d 72 3e 81 8e 17 3f 81 8e 17 3f
       0.11840418 0.23680836 0.5920182 0.5920182
000290 e4 7d 72 3e e4 7d 72 3e 3e 72 3d 3f c1 55 63 3f
       0.23680836 0.23680836 0.74002445 0.88802725
0002a0 b2 66 88 3e b2 66 88 3e c1 55 63 3f c1 55 63 3f
       0.2664085 0.2664085 0.88802725 0.88802725
0002b0 dc 5c 79 3f 7c c2 bb 3f 38 54 53 3f 00 00 00 00
       0.9740732 1.4668727 0.8255038 0.0
0002c0 00 00 00 00 9b 6b 07 3f 9b 6b 07 3f fd ab d8 3e
       0.0 0.5289857 0.5289857 0.42318717
0002d0 00 00 00 00 9b 6b 87 3f 5e 21 cb 3f fd ab 58 3f
       0.0 1.0579714 1.5869558 0.84637433
0002e0 00 00 00 00 5e 21 cb 3f 7a 46 29 40 00 00 00 00
       0.0 1.5869558 2.6449265 0.0
0002f0 fd ab d8 3e 9b 6b 87 3f 9b 6b 87 3f fd ab d8 3e
       0.42318717 1.0579714 1.0579714 0.42318717
000300 fd ab d8 3e 5e 21 cb 3f 5e 21 cb 3f fd ab 58 3f
       0.42318717 1.5869558 1.5869558 0.84637433
000310 fd ab d8 3e 9b 6b 07 40 5e 21 4b 40 00 00 00 00
       0.42318717 2.1159427 3.1739116 0.0
000320 fd ab 58 3f 5e 21 cb 3f 5e 21 cb 3f fd ab d8 3e
       0.84637433 1.5869558 1.5869558 0.42318717
000330 fd ab 58 3f 9b 6b 07 40 9b 6b 07 40 fd ab 58 3f
       0.84637433 2.1159427 2.1159427 0.84637433
000340 fd ab 58 3f 7a 46 29 40 5e 21 4b 40 a2 c1 73 3f
       0.84637433 2.6449265 3.1739116 0.95217335
000350 a2 c1 73 3f 5e 21 4b 40 5e 21 4b 40 c0 90 f4 3f
       0.95217335 3.1739116 3.1739116 1.9106674
000360 c3 a8 65 40 36 da e9 3f 00 00 00 00 00 00 00 00
       3.5884254 1.8269718 0.0 0.0
000370 ba b4 94 3f ba b4 94 3f ec ed 6d 3f 00 00 00 00
       1.1617653 1.1617653 0.92941165 0.0
000380 ba b4 14 40 08 0f 5f 40 ec ed ed 3f 00 00 00 00
       2.3235307 3.4852924 1.8588233 0.0
000390 08 0f 5f 40 c5 e1 b9 40 00 00 00 00 ec ed 6d 3f
       3.4852924 5.8088098 0.0 0.92941165
0003a0 ba b4 14 40 ba b4 14 40 ec ed 6d 3f ec ed 6d 3f
       2.3235307 2.3235307 0.92941165 0.92941165
0003b0 08 0f 5f 40 08 0f 5f 40 ec ed ed 3f ec ed 6d 3f
       3.4852924 3.4852924 1.8588233 0.92941165
0003c0 ba b4 94 40 08 0f df 40 00 00 00 00 ec ed ed 3f
       4.6470613 6.970585 0.0 1.8588233
0003d0 08 0f 5f 40 08 0f 5f 40 ec ed 6d 3f ec ed ed 3f
       3.4852924 3.4852924 0.92941165 1.8588233
0003e0 ba b4 94 40 ba b4 94 40 ec ed ed 3f ec ed ed 3f
       4.6470613 4.6470613 1.8588233 1.8588233
0003f0 c5 e1 b9 40 08 0f df 40 e3 d5 05 40 e3 d5 05 40
       5.8088098 6.970585 2.0911796 2.0911796

network_body._body_endoder.seq_layers.0.weight f4 [128, 430]
000000 f2 55 05 3c 96 0d fd 3b e8 3d bc 3c c8 5d 67 3c
       0.008138167 0.007722567 0.022978738 0.01412148
000010 11 02 c0 3c 95 08 0b 3d ad 9c 2b 3d 8d 99 94 bc
       0.023438485 0.03394373 0.041897465 -0.018139625
000020 f1 29 84 3d 19 40 76 bc 81 88 3a 3c 33 94 63 3d
       0.06453312 -0.0150299305 0.011385084 0.055561256
000030 94 8c b9 3c 69 ad 6c bd 20 7b 13 bd f8 c4 cd 3b
       0.02265004 -0.057782564 -0.036006093 0.006279584
000040 35 f2 b7 bd 94 0f 5c 3d b8 0b cb bd e3 e5 05 3d
       -0.08981744 0.053725794 -0.099143445 0.03268994
000050 7e d7 29 bb 0b 29 bf bc f7 d5 06 3c 18 2c 90 3c
       -0.0025915797 -0.023335 0.008229724 0.01759915
000060 af a0 20 3d dc 8e c3 3c 55 c9 a9 bc 2e a3 8d 3c
       0.03921574 0.023871832 -0.020725885 0.017289724
000070 57 b0 56 bd b7 ac ea bc 1e e1 87 3d 4b 2d 7f bd
       -0.052414265 -0.02864681 0.066347346 -0.062299054
000080 b6 82 97 3c 04 d7 de bd 3a 5e 9a bd 18 50 c7 bb
       0.018494945 -0.10880855 -0.075375035 -0.006082546
000090 8a ed 95 bd 02 b1 62 bd 3d bc cf 3c 38 28 01 bd
       -0.073206976 -0.05534459 0.025358314 -0.031532496
0000a0 73 d6 37 bd f7 61 a7 3d 7c fd e1 3d 97 15 ec bc
       -0.04488225 0.08172982 0.110346764 -0.028818889
0000b0 21 75 35 3d 84 a1 ab bc bb f2 bb bc 55 f6 62 3d
       0.044301156 -0.02095104 -0.022942891 0.0554107
0000c0 19 e9 3a 3c ac ca e7 b9 f0 f8 e7 bd 6d 89 7e 3d
       0.011408114 -0.00044210756 -0.11326778 0.06214278
0000d0 c6 ae da b9 77 f5 06 bb bc e3 34 3b f9 60 1d bd
       -0.00041710417 -0.0020593086 0.002760156 -0.03842256
0000e0 47 70 c6 bd 5d d1 77 bc 62 88 2a 3c c0 93 bb bd
       -0.09689384 -0.0151256 0.010408493 -0.091590405
0000f0 20 52 20 bd ff 9c b0 39 e3 9c f9 bc d5 e6 20 bd
       -0.03914082 0.00033686307 -0.030470317 -0.03928264
000100 d1 9b 78 bc 3e 7c 30 bd 4b 36 2a bd b9 8f 72 3d
       -0.015173868 -0.043087237 -0.041555684 0.059219096
000110 50 b0 a5 3d 9f f1 26 bd 67 b8 92 bd d2 0d 9d bc
       0.080902696 -0.04075777 -0.07164078 -0.01917163
000120 9e 12 2f bd f2 f8 ed bb cd 90 6a bc d8 39 89 bc
       -0.042742364 -0.0072623426 -0.01431675 -0.016751215
000130 34 29 47 bd 38 eb 33 bd ac fb 90 bc 22 92 07 bd
       -0.04862328 -0.043925494 -0.017698132 -0.033098347
000140 9f e4 3a 3d 35 69 a3 bd 9e c2 45 3c c4 47 e0 bc
       0.045628186 -0.07979051 0.012070326 -0.02737797
000150 73 da a3 3d 69 ca 6e bd 79 13 76 bd 0d d2 94 bd
       0.0800065 -0.058298502 -0.060077164 -0.072666265
000160 ce 8f 8c bd 57 86 1f 3c 2d a9 3a 3c 8b 5b 81 3d
       -0.06863366 0.009736619 0.011392874 0.063162886
000170 4d cd 46 bd 26 c1 5e bd f2 1f a4 bc 13 0e 82 bc
       -0.048535634 -0.05438342 -0.020034764 -0.015875852
000180 d7 c4 cd bc 08 44 24 bd 96 50 e6 3c 93 13 cb bc
       -0.025118275 -0.040103942 0.028114598 -0.024789607
000190 7f 58 26 3c 77 1d f6 3c 62 76 1d bd bd 63 dd 3c
       0.010152935 0.030043347 -0.038442977 0.027025098
0001a0 01 86 90 bc 25 7c 81 bc 34 6e 6b 3d bd 9f a8 bd
       -0.017642023 -0.015806267 0.057478145 -0.08233593
0001b0 ba 88 6d bc 1b cc 1c be f2 b4 2a 3d 90 37 07 be
       -0.01449793 -0.15312235 0.04167647 -0.13204789
0001c0 97 15 b4 3d 6a 9d 17 3d f0 40 97 bd c6 be 3c bd
       0.087931804 0.037015356 -0.07385433 -0.046080373
0001d0 3c 3f 00 bd 41 19 88 bc 18 59 93 bd b9 e1 92 bc
       -0.031310305 -0.016613605 -0.07194728 -0.017929899
0001e0 49 22 d3 bd 7e 2e 75 bd 58 b3 1b bd b7 8d 91 bc
       -0.10309274 -0.05985879 -0.038012832 -0.01776777
0001f0 54 cc 44 3a 52 a5 4e bd ce 6a a1 3c 22 38 05 bd
       0.0007507254 -0.05045063 0.019704249 -0.032524236
000200 bc 30 36 bd bb b8 70 3c e8 cb 2e bd 01 be 00 3e
       -0.04448007 0.014692481 -0.04267493 0.1257248
000210 95 ac 8a bd 1d 4b 44 bb 2e 6f 71 3d a6 00 bf bb
       -0.06771199 -0.0029951998 0.05894392 -0.0058289347
000220 a8 76 2d bd b1 45 e7 bb 16 63 36 bd 68 1d cd 3c
       -0.042349488 -0.0070578684 -0.04452809 0.025038436
000230 d8 c7 25 bc d3 e7 9f 3d ec eb 14 bd 99 b9 c6 bc
       -0.010118447 0.07807889 -0.036357805 -0.024258422
000240 eb 1c f1 ba d0 18 ac bc 64 9c 9c bc b1 cc b6 bd
       -0.0018395459 -0.021007925 -0.019117542 -0.089257605
000250 24 8e 7f 3d 77 68 9d bd 32 1e 93 bd ca ca 5c 3d
       0.062391415 -0.07685941 -0.07183494 0.053904332
000260 4a 47 f2 bd 35 a9 98 3d b1 89 7d 3d 0f 85 92 b8
       -0.118300036 0.07454149 0.06189889 -6.9866066e-05
000270 3c 9e 8b 3c e4 0f ff 3c 6e 26 cf bc 32 08 76 bd
       0.017043225 0.031135507 -0.02528688 -0.06006641
000280 94 fc 19 bd cb 1a e5 3c 76 b0 79 3c 79 26 55 3b
       -0.037594393 0.027966877 0.0152398255 0.0032524152
000290 44 e4 88 bb e7 74 d7 3c cc 65 94 bc 1e 86 c4 3c
       -0.004177602 0.02630086 -0.018114947 0.023989733
0002a0 d0 f6 55 3d 2b 90 b5 39 80 60 64 3d 6c 73 8c 3c
       0.052237332 0.00034630424 0.055756092 0.017144881
0002b0 4d 93 ee 3d ac 53 25 bd 2c 38 87 3d d2 3d 00 3c
       0.11649189 -0.040363 0.06602511 0.007827239
0002c0 5c 7d 5f bd 08 fd 01 3d 01 a1 8e bd 45 a6 45 3d
       -0.05456291 0.03173545 -0.06964303 0.04825427
0002d0 2a 7a 65 bd d4 8b 2d 3d c8 7c 19 3d 18 b0 ab 3c
       -0.056024708 0.04236968 0.037472516 0.020957991
0002e0 18 43 14 bd 36 04 56 bd 96 b1 56 bc 05 64 09 3c
       -0.036196798 -0.05225011 -0.013103863 0.008385663
0002f0 b9 58 ef 3c d7 39 95 3d f0 f4 32 bb 8d bd 1a bb
       0.029217111 0.07286423 -0.0027306639 -0.0023611516
000300 f4 cb 33 bb d0 11 99 3b ef 83 bd 3d c4 67 d0 bc
       -0.0027434798 0.004671313 0.0925368 -0.025440104
000310 78 fd a0 3d 39 d1 82 3c 0f d5 e3 bd 6d bd 95 bc
       0.07860845 0.015968906 -0.11124622 -0.018278802
000320 0c ad 05 be a2 9f 28 3d 8a 56 1d 3d 3d fd fd bb
       -0.13054293 0.041167863 0.03841261 -0.0077511356
000330 72 76 78 bc 4e 6a fd bc 77 0c 3a 3d b7 e6 d0 bc
       -0.015164958 -0.03093448 0.045422044 -0.025500638
000340 97 87 13 3d 94 37 2c 3c a8 fc 88 3c 71 d3 bd 3d
       0.03601798 0.010511298 0.016722038 0.09268845
000350 2a 8f 28 3d 45 86 4c 3c 95 2b 55 bb 97 07 80 3d
       0.041152157 0.012483184 -0.0032527198 0.06251448
000360 70 a6 ca 3c ad 19 4f bc 03 14 37 3c cd 11 86 bd
       0.024737567 -0.012640399 0.011174205 -0.06546364
000370 13 1f a4 bb 56 e9 34 bd 93 7f 49 3d 59 b1 e5 3c
       -0.005008587 -0.04416784 0.04919393 0.028038668
000380 a9 19 0f bd 08 f8 d0 bb 43 17 88 3d bd 39 64 bc
       -0.03493658 -0.006377224 0.06645062 -0.0139297815
000390 9b f0 d0 bc 25 48 9f 3d 60 d3 18 bd b8 18 86 3b
       -0.025505355 0.07777432 -0.037310958 0.004092302
0003a0 f8 34 73 3d 95 49 f8 bc 27 ad 95 bd 55 04 1f 3d
       0.059376687 -0.030308524 -0.07308417 0.03882249
0003b0 82 3b 44 3c 81 88 90 3c 07 16 a2 3d ed 31 87 3d
       0.011977078 0.017643215 0.07914358 0.066013195
0003c0 ed 7c 1e 3d 87 19 9b ba e8 86 59 3d 3f a7 ee bc
       0.038693357 -0.0011833169 0.053107172 -0.029132484
0003d0 9d 20 e1 3c 98 6b 45 3c 55 a0 b1 3c a2 48 0b bc
       0.027481372 0.012049578 0.021682898 -0.008501204
0003e0 bd 0f a1 bd 16 a4 40 bc 79 02 ea bd 3b 15 c5 bc
       -0.0786433 -0.011757871 -0.11426253 -0.024057975
0003f0 03 e9 9d 3d 74 17 eb 3c 49 0b d3 3d 7f 0e d3 bc
       0.07710459 0.028697707 0.10304887 -0.025763748

network_body._body_endoder.seq_layers.0.bias f4 [128]
000000 a9 7b c6 3c 66 3a a7 3c ab 69 eb 3c 54 0d 18 3d
       0.024228888 0.020413589 0.02873691 0.037122086
000010 77 87 b5 3c 5d 5a 32 3d a8 2b 70 3c 77 f5 a6 3c
       0.022159321 0.04354321 0.014658846 0.020380719
000020 b7 62 04 3d 9d fd d7 3c 3f 7d c3 3b 16 6f 11 3c
       0.032320704 0.02636605 0.005965858 0.008876583
000030 ab ae 5b 3c 83 7d d2 3c 6f 3d 06 3c 43 d9 08 3d
       0.013408343 0.025694614 0.008193358 0.033410322
000040 87 b0 a7 3b 22 b4 6e 3c 4f bd 0a 3d e6 a2 31 3b
       0.0051174792 0.014569314 0.033871945 0.0027105152
000050 e3 e8 9f 3b a8 d0 59 3c ca 43 87 3c bf c4 e7 3c
       0.004880057 0.013294376 0.016511817 0.028292058
000060 a7 96 f8 3c ca 4c 8d bc 45 0f d4 bc 9f 34 ec 3c
       0.030345274 -0.01724853 -0.025886187 0.028833685
000070 95 16 38 3c 34 a8 40 3c 8e af 69 3c 8e 7d d0 bb
       0.011235853 0.011758853 0.014263047 -0.0063626235
000080 15 08 28 3d 45 73 ff 3c 4d 2b 72 3c 74 53 d3 3c
       0.041023333 0.031182894 0.0147808315 0.02579663
000090 ed e7 d6 3c b6 e6 6e 3c 44 08 8e bc f0 e2 b1 3b
       0.026233638 0.014581373 -0.017337926 0.0054286644
0000a0 c6 64 63 3c 37 cd 59 3c b4 b0 93 3c 45 ac 91 3c
       0.013879007 0.013293556 0.018028595 0.01778234
0000b0 5f 52 cc bc 84 bc a2 3b d2 de 36 3d 9b 32 18 3d
       -0.024941621 0.0049663205 0.04464609 0.037157636
0000c0 00 e6 98 3c 75 f1 02 3d 30 f6 0d 3d 5d 0b 1f 3c
       0.01866436 0.031968553 0.03465861 0.009707299
0000d0 f7 d6 9d 3c a3 3b 82 3b 82 cb f2 3c 31 d7 b0 3c
       0.019267542 0.0039743944 0.029638056 0.021586986
0000e0 54 25 dd 3a 04 ff d2 3c b4 a4 3d 3c 96 70 4c bc
       0.0016872087 0.025756367 0.011574913 -0.012478014
0000f0 62 67 07 3d 25 5e 8f 3c e3 18 a5 3b 13 12 0d 3d
       0.033057578 0.017500946 0.005038367 0.034441065
000100 c2 06 2a 3d 6a 21 a2 3b 14 33 a2 3c 0f 7b 0e 3d
       0.04151035 0.004947831 0.019799747 0.034785327
000110 e0 ca 37 38 f3 93 f0 3c 76 90 03 3d 48 da 05 3b
       4.3819542e-05 0.029367423 0.03212019 0.0020424295
000120 50 d2 03 3d d4 8e 00 3d 22 bc 0a bc 5f 6d 18 3d
       0.03218299 0.03138621 -0.008467706 0.03721368
000130 a0 6c 0a 3d c0 1a a7 3c b1 ca 59 3d a5 8e 84 bc
       0.033795 0.020398498 0.053171817 -0.0161813
000140 ab 99 79 bb 69 69 a1 3b c2 c9 4a 3c fa 78 59 3c
       -0.0038085978 0.004925896 0.012377204 0.013273472
000150 b3 c2 0b bd 6d 52 e0 3c b7 8d 43 3b 91 8c fe 3c
       -0.034121227 0.027383054 0.0029839107 0.031072887
000160 3d 1f 0a 3d 52 29 af 3c 8f d8 0d 3c 6d 28 c0 3c
       0.033721197 0.021382008 0.008657589 0.023456777
000170 02 55 32 3d 9d ee 69 bb 7a 6d 1a 3d 54 3b b6 3c
       0.0435381 -0.0035695203 0.03770206 0.022245087
000180 d5 8e 07 3d 9b 1e 4a 3c 30 d9 06 3d 6c bc 9a 3c
       0.0330952 0.0123363985 0.03292197 0.018888675
000190 1d 90 27 3d 52 42 22 3d 91 51 1c 3d fd 85 f4 ba
       0.04090892 0.03961403 0.038163725 -0.0018655654
0001a0 67 c9 07 3d 38 6c b1 3c 53 80 86 3c ac 30 95 3a
       0.033151057 0.021658048 0.016418612 0.0011382303
0001b0 38 e0 a8 3c 45 c5 dc 3c cb 12 22 3c 1f 58 28 3c
       0.020614728 0.026949534 0.009892176 0.010274916
0001c0 c4 22 0a 3d 55 21 fb 3c 3f 82 b8 3c 57 f2 84 bb
       0.03372456 0.030655542 0.022523044 -0.0040572095
0001d0 e1 64 d0 3c df 16 c0 3c 2a e6 84 3c b2 7c b4 3c
       0.025438728 0.023448406 0.016223032 0.022032116
0001e0 19 0d 0a 3d f0 05 a6 3b 49 d1 c7 3c 85 59 8e 3c
       0.033703897 0.005066626 0.024391787 0.01737667
0001f0 8b b3 64 3b 5f 60 15 3d 67 b4 e5 3c 14 e9 d3 3c
       0.0034897055 0.03646886 0.028040124 0.025867976

network_body._body_endoder.seq_layers.2.weight f4 [128, 128]
000000 8a 8c 56 bd 42 37 a3 3d 87 8d 0a 3c f8 8b 98 bd
       -0.052380122 0.07969524 0.008456594 -0.07448572
000010 4b 68 2f bd 66 fb 1c 3e ca 37 1e be 7f 82 82 3e
       -0.04282407 0.15330276 -0.1545097 0.25490186
000020 2c bd aa bd 92 a5 81 3d c2 99 3d be 2b 25 c4 3d
       -0.08336863 0.06330408 -0.18515685 0.09577402
000030 b8 f2 4d 3d a8 44 a2 bd b2 a4 72 3b b5 af 8a 3d
       0.050280303 -0.079232514 0.0037024436 0.06771795
000040 b5 60 e4 3d 1c 2c a0 ba ca d8 04 3e c5 e7 07 3c
       0.11151258 -0.0012220177 0.12973323 0.008295004
000050 31 f9 75 bd 6b f4 49 bc 5b 9f 32 be 97 88 13 bd
       -0.0600521 -0.01232634 -0.17443602 -0.036018934
000060 c7 6e 0c 3d fa 5e 2f bd c2 50 25 be a5 e4 de bc
       0.034285333 -0.042815186 -0.16144088 -0.027208636
000070 42 c8 59 3e ca a1 d4 3c 50 75 04 3d dc 20 1e 3b
       0.21267799 0.025956053 0.03233844 0.0024128472
000080 e3 a9 0f 3e 51 ac 90 be db 1d e9 3c 8e e8 95 3d
       0.1402965 -0.28256467 0.028456619 0.07319747
000090 17 f7 a5 3d a6 53 1b be dd c5 6a 3d d5 20 d0 3c
       0.08103769 -0.15168628 0.057317603 0.02540628
0000a0 30 ff 1f bc 36 d2 67 be c1 1c dd 3d 78 bb aa 3d
       -0.009765431 -0.22638783 0.107965 0.08336538
0000b0 b0 d5 c2 3d 51 b2 bd bd 25 8d b6 3d 80 74 ff 3d
       0.09513414 -0.09262527 0.0891364 0.124733925
0000c0 ba bd a9 bd bc 4e 0a 3e b6 38 93 3d 76 96 02 3d
       -0.082881406 0.13506597 0.07188551 0.031881772
0000d0 b9 2a aa bd b3 a2 43 3d ae 90 b0 bc 47 89 62 3e
       -0.0830893 0.047762584 -0.021553364 0.2212268
0000e0 5a ee 7a 3d 7c b8 12 3c 67 23 9b bc 55 24 1c 3d
       0.061262466 0.008955117 -0.01893778 0.038120586
0000f0 92 a0 00 3d 04 27 36 be 09 f6 95 3d fd d5 71 3d
       0.03140313 -0.17788321 0.07322318 0.059041966
000100 2f d6 1c 3e 57 65 05 bc 14 d1 40 3e ff be 8c 3d
       0.1531608 -0.008141837 0.18829757 0.06872367
000110 b0 e8 f8 3c 56 79 37 3e a6 db 47 3e 3f 31 53 bd
       0.030384392 0.1791738 0.19517383 -0.051560637
000120 26 26 c4 3c da c8 7b 3d 7a fc 3b be 6c ef 8b 3c
       0.023943972 0.061470844 -0.18358031 0.017081939
000130 40 fd 13 3e 82 49 90 bd d5 68 3a bd ca 6d 1a bd
       0.14452076 -0.070452705 -0.045510132 -0.03770236
000140 9f 49 d1 bc 05 63 9e 3c d1 98 10 3e 12 4b e6 3d
       -0.0255478 0.019334326 0.14120795 0.11244787
000150 2a af d6 3d 9a f9 30 3e a6 47 15 be 9d 7c cb 3b
       0.10482629 0.17282715 -0.14578113 0.0062099234
000160 14 81 7d 3e 68 b8 9e 3d 76 4a 70 3c 7d dc 69 bd
       0.2475627 0.077500165 0.01466619 -0.05709504
000170 bd ba e6 3c 32 7e c9 bd 2a a2 a9 3d 37 71 a1 3d
       0.028165216 -0.09838523 0.082828835 0.07882922
000180 79 e3 45 bd f5 a8 dd bd 1f 39 15 be f5 76 e5 bd
       -0.048312638 -0.108232416 -0.14572571 -0.1120433
000190 fd 88 bc 3d 0f bd 0c 3e 17 a6 0b 3e fa 34 3e bd
       0.09205816 0.13743995 0.13637577 -0.04643724
0001a0 e5 99 98 3d d2 63 00 3e df 98 66 3d f1 33 08 be
       0.07451228 0.12538078 0.056298133 -0.13301064
0001b0 c6 4d ae bd ba b9 0f 3e f7 9a 9f 3d 0e 40 0b ba
       -0.08510928 0.14035693 0.07793229 -0.0005311974
0001c0 cd e5 2f bb 54 71 55 be 0d ce 89 3d fe d0 cf 3b
       -0.0026839853 -0.20844012 0.06728754 0.0063420525
0001d0 14 1b f4 bc 18 c8 c5 bd de 18 e9 bd 0b 1f be bd
       -0.029798068 -0.096573055 -0.11381696 -0.09283265
0001e0 b6 e7 87 3d 35 82 a4 bd 32 35 84 bd fc 63 c9 3c
       0.06635992 -0.080326475 -0.06455459 0.02458381
0001f0 78 c5 71 be ae 96 8a 3d a8 9f 45 3c 27 34 df 3d
       -0.23610485 0.06767021 0.012061991 0.10898619
000200 85 a7 e2 3d 18 74 85 bd 96 02 74 bc 4a 04 8c 3d
       0.11067108 -0.06516284 -0.014893195 0.068367556
000210 5f 47 0c 3e 35 ac cb bd 67 c2 98 bd cd a6 00 bd
       0.13699101 -0.09944955 -0.07458954 -0.031409074
000220 47 16 08 be 5b 85 58 3e 4b c1 71 bd 52 c6 2a bd
       -0.13289748 0.21144621 -0.05902223 -0.04169304
000230 22 a6 53 be 7b 59 bd bd 3a ca df bd 3d f7 49 3e
       -0.20668843 -0.09245583 -0.109272435 0.1972322
000240 1e b4 da bd 55 db 2b be 56 51 9b 3d e4 dc 01 be
       -0.10678886 -0.16782887 0.07583873 -0.1268192
000250 ed 8b d6 3b 25 9b 0b bd 37 59 0f bc 1b ce 51 bd
       0.006547442 -0.034083504 -0.008749298 -0.051221948
000260 24 69 e1 3d 89 42 d2 3d e0 76 70 bd 80 50 b3 bd
       0.11006382 0.10266597 -0.058707118 -0.087555885
000270 5b 82 8a bd 27 5f 01 be 74 34 65 3d 60 3a 29 3e
       -0.067631446 -0.12633954 0.055958226 0.16526175
000280 e7 cf 47 3d ce 01 db 3d e1 00 32 bd af a1 6b be
       0.048782256 0.106937036 -0.04345787 -0.23010896
000290 d9 5b 32 3e 8a 58 2c be 09 b7 82 bd ee e0 d7 bd
       0.1741785 -0.1683065 -0.063825674 -0.10540949
0002a0 93 f6 0e be 32 da a7 bd f9 84 74 3d 7c a2 b5 3d
       -0.13961248 -0.08195914 0.059697125 0.08868882
0002b0 7a 5a 2e be 15 0f c7 3d d6 c6 60 3d 59 c7 ea 3d
       -0.17026702 0.097196735 0.054877125 0.11463804
0002c0 cf d1 c9 bc 74 7e b3 bd a4 89 14 3e 44 09 fb bc
       -0.024636177 -0.087643534 0.1450563 -0.030644067
0002d0 63 7b 0d be d2 53 74 3d 2d e5 00 bc a3 13 b2 3c
       -0.138166 0.05965025 -0.00786714 0.02173788
0002e0 d8 14 16 be f0 25 12 3e 88 b2 2e 3e e8 68 3f bc
       -0.14656389 0.14272285 0.17060292 -0.011682726
0002f0 c5 e5 b8 bc 72 98 30 3c c4 c0 0d 3d cd 5d 4b bc
       -0.0225705 0.010778533 0.034607664 -0.012412501
000300 d5 9f eb bd db 25 85 3d 72 5b 27 3e f2 3a ff bb
       -0.11505095 0.06501361 0.16343477 -0.0077890093
000310 2a 6b 86 bd e1 f1 dc bc 25 24 e7 3d 11 8d d1 bd
       -0.06563409 -0.026970806 0.11286191 -0.102319844
000320 bf 55 ba 3d 02 24 68 be d5 47 ed bd 16 34 78 3d
       0.09098386 -0.22669986 -0.115859665 0.060596548
000330 d9 db ec 3b 5c 13 01 be f7 60 09 3d 82 88 b5 bc
       0.0072283563 -0.12605041 0.03353974 -0.022159819
000340 be 72 bd bd 82 47 8b bd 41 06 12 be 51 50 42 bd
       -0.09250401 -0.068007484 -0.14260198 -0.047439877
000350 b1 1e ec bd 1d b8 3e 3d 1c 08 3c bd e1 20 1c 3e
       -0.115292914 0.046562303 -0.04590617 0.15246917
000360 3e 26 b2 3d 62 f6 49 3e c3 43 d2 bd b5 ea 63 bd
       0.086987 0.19722894 -0.10266831 -0.055643756
000370 1c 9b d2 3d 5a d5 e4 bc ab 55 65 3d 11 29 f2 bb
       0.10283491 -0.027933765 0.055989902 -0.0073901494
000380 c8 f9 00 3c 87 79 00 be fc 1a 47 3d 73 93 21 bd
       0.0078720525 -0.12546359 0.04860972 -0.03944726
000390 48 89 e0 3d be 2c 23 3d 26 7a 83 bd af 0b c0 3d
       0.10963684 0.03983759 -0.06419782 0.093772285
0003a0 48 1a b0 3d 4f 27 af bc 39 c7 28 3e 61 80 7a 3d
       0.08598763 -0.021381048 0.16482247 0.061157588
0003b0 41 8f 92 bd a7 91 aa bd 58 1a 90 3d 3c d1 a9 bb
       -0.0715623 -0.08328562 0.07036275 -0.0051824134
0003c0 2a 77 c2 3c 22 e3 06 3e 16 7d cd 3c 14 4d c2 3d
       0.023738462 0.13172582 0.02508406 0.09487358
0003d0 0c 21 9a bc 6c 9e 07 3e 51 79 21 3e b7 66 0d 3c
       -0.018814586 0.13244027 0.15768935 0.008630446
0003e0 96 75 5b bd 11 ae ed bd ee f9 15 3d 9c 00 31 be
       -0.053578936 -0.11605466 0.036615305 -0.17285389
0003f0 1a 78 6a bd 86 87 b7 bd d8 4e 47 3d 70 d6 69 be
       -0.057243444 -0.08961396 0.048659176 -0.22835708

network_body._body_endoder.seq_layers.2.bias f4 [128]
000000 43 8f 91 3c c0 72 d3 3c 93 de b6 3b cb c7 ae 3b
       0.017768508 0.025811553 0.005580732 0.005333876
000010 ee e4 fa 3b 0e e6 d2 3c c9 bd fa 3c e1 8e 17 3b
       0.007656685 0.025744464 0.030608075 0.0023125934
000020 b8 f9 dd 3c b6 f4 b9 3c e9 e1 3c 3c ab 90 89 3c
       0.027096614 0.022699695 0.011528471 0.016792616
000030 00 d7 ab 3a e4 eb d0 3a 57 35 69 3c f8 ec b1 3c
       0.001311034 0.0015939442 0.014233909 0.02171944
000040 ba e9 b6 3c d2 a4 43 3c 61 3d 49 3c 06 6f fc 3a
       0.022328246 0.011941152 0.0122827 0.0019259162
000050 90 9a d9 3a 78 99 08 3c f7 5c 63 3c 77 a9 1d 3c
       0.0016601849 0.008337371 0.013877145 0.009622923
000060 4f fd f7 3c 74 64 b2 3c 5e 5e a2 3c ab 69 d6 3b
       0.030272154 0.021776415 0.019820388 0.0065433583
000070 e0 26 c4 3c c0 1b a9 3c f8 a9 cb 3b ec a9 33 3d
       0.023944318 0.020643115 0.00621533 0.043863222
000080 3b 8d d9 3c 7e 26 84 3c 10 f7 e5 3c 17 04 cf 3b
       0.026556602 0.016131636 0.02807191 0.006317626
000090 19 83 d1 3c e3 6c a6 3c 72 82 35 3c e5 48 b5 3c
       0.025575208 0.020315593 0.011078464 0.022129485
0000a0 99 5a 93 3b 37 e9 08 3d 94 2d ba 3c 42 dc 51 bb
       0.004496884 0.033425536 0.022726811 -0.0032022153
0000b0 47 e6 ce 3c 96 25 54 3b 43 4e 88 3c e4 bd 06 3d
       0.02525629 0.0032371036 0.01663888 0.032895938
0000c0 a1 22 19 3d 16 72 5c 3c fc 33 15 3c 99 d1 9e 3c
       0.03738654 0.013454935 0.009106632 0.019387053
0000d0 92 b4 b2 3c bf 24 8b 3c 75 9f 59 3c 8a 64 fe 3b
       0.021814618 0.016985295 0.013282646 0.00776345
0000e0 8c 43 d0 3c c7 60 74 3c bb 93 50 bb 46 c4 40 3c
       0.025422834 0.014915652 -0.0031826335 0.011765545
0000f0 8d 28 6d 3c 95 2f 97 3c f2 a4 ad 3c 51 aa 60 3a
       0.014475 0.018455306 0.021196816 0.0008570301
000100 11 fe 96 3c 39 cb 65 3b 67 2a cb 3c 15 cb 98 3c
       0.018431695 0.0035063757 0.024800492 0.018651525
000110 09 87 6c 3c 64 a1 a6 3c ff 52 87 3b 23 2c e1 3a
       0.014436492 0.020340629 0.004129767 0.0017179291
000120 a6 60 ae 3c 26 9d cc 3c 74 a3 b8 3c 71 35 98 3b
       0.02128632 0.024977278 0.022538878 0.0046450426
000130 79 1c cc 3c 3a 5a d3 3b 8c 64 a2 3c df 4b 54 3c
       0.02491592 0.006449965 0.019823335 0.012957542
000140 3b 63 73 3c eb 59 d7 3b 4f 4a e6 3c ff e5 a2 3c
       0.014855201 0.0065719984 0.028111605 0.019885061
000150 d1 a9 06 3d b8 ce 60 3c 9f b5 71 3d 32 33 fe 3b
       0.032876793 0.013721161 0.059011098 0.007757568
000160 75 55 8e 3c fb 1f bf 3c 2b 13 8c 3c 0f da 82 3c
       0.017374733 0.02333068 0.017098984 0.015973119
000170 1a 59 c0 3c e7 00 d2 3c ee 18 f3 3b 94 6f b5 3c
       0.023479987 0.025635196 0.0074187433 0.022147931
000180 10 aa 44 3c b4 a3 93 3c a8 df 80 3c 9e 79 3f 3c
       0.012003437 0.018022396 0.015731648 0.011686711
000190 1e 60 85 3c df e3 9d 3c e0 b3 b4 bc 7d fc e6 3c
       0.016281184 0.019273696 -0.022058427 0.028196568
0001a0 08 5a 05 3d a3 31 86 3c ea 9d 91 bb aa 9a d7 3c
       0.032556564 0.01638109 -0.0044438737 0.026318867
0001b0 0d a1 c4 3c b1 bd 14 bc 87 52 a9 3c 4b b9 7d 3c
       0.024002576 -0.009078429 0.020669235 0.015486072
0001c0 4f 7d 7f 3c 71 c3 48 ba 2e 65 9d 3c 82 c5 86 3c
       0.015593841 -0.00076585176 0.019213285 0.016451601
0001d0 a1 9c 1b 3c 3f 07 58 3c bc 33 d9 3c a3 88 9b 3c
       0.009497792 0.013185321 0.026513927 0.018986052
0001e0 cf 99 4f 3c 09 ef ca 3c 5f f4 72 3c 10 67 fe 3c
       0.012670948 0.024772184 0.01482877 0.031055003
0001f0 85 9e e6 3c 90 d4 a5 3b 5c 9a 15 3c 5f 50 e2 3c
       0.02815176 0.00506074 0.00913104 0.027626215

action_model._discrete_distribution.branches.0.weight f4 [10, 128]
000000 54 51 f2 bc 08 fa 04 bd 8e fa fa bc 17 09 d4 bc
       -0.029579796 -0.03246501 -0.030637052 -0.02588324
000010 ef 95 2d bc de 38 5f bb ac 1e 26 bd 5f c3 11 bd
       -0.010594829 -0.0034060995 -0.040556595 -0.03558671
000020 b7 a8 a3 bc 10 97 11 bd 3b 14 8d bc a7 eb e2 bc
       -0.01997791 -0.035544455 -0.01722156 -0.027700258
000030 2a ab e2 3c c2 60 7f 3c e8 d9 2f 3b fa 5e fa 3a
       0.027669508 0.015587034 0.0026832763 0.0019101792
000040 1a 0f 34 bd 2f 0c 01 bc 05 5a e2 39 43 a9 a2 3b
       -0.043959714 -0.00787644 0.0004317315 0.004964025
000050 fe d2 46 3c 27 2d 32 bd 78 9b 4a bb 1c df b5 3c
       0.012135265 -0.043500092 -0.003091542 0.022201113
000060 6b 0c 2b bd 91 5a 18 bc 09 00 53 3b 6a d2 12 bd
       -0.04175989 -0.009298936 0.0032196066 -0.035845198
000070 fa a2 a9 3b ed 79 a3 bc 70 07 ed bb dd c3 30 bd
       0.005176899 -0.0199556 -0.0072335526 -0.04315554
000080 58 a6 83 bc d1 81 24 bd b9 83 9d 38 ab 53 65 3c
       -0.01607053 -0.040162865 7.510879e-05 0.013996999
000090 d7 5d 22 bd 1c d3 cc bb 0c fd 0e bc bb 54 a6 bc
       -0.039640274 -0.006250752 -0.008727323 -0.020304075
0000a0 9c e6 21 bb 1e 93 51 3c 28 48 dc bc f0 8f b5 bb
       -0.0024704104 0.012791423 -0.026889876 -0.0055408403
0000b0 c9 21 87 bc 9b fd 8b bc 86 f9 9f bc 88 5d 71 bb
       -0.016495602 -0.017088702 -0.019528162 -0.003682943
0000c0 86 81 55 bc 05 0c 33 3d 34 5c d4 bc 1c f2 ed bc
       -0.013031369 0.043712635 -0.025922872 -0.02904611
0000d0 c0 9a 8e bc 43 2b 44 bd 4d b3 c1 bc be 7f 8d 3b
       -0.017407775 -0.04789282 -0.023645068 0.0043182066
0000e0 f1 d4 7c bc ff 5b 81 bc 82 ea 36 bb 56 82 10 bc
       -0.015431629 -0.015790937 -0.0027910774 -0.008820137
0000f0 05 fa 7a bb d5 18 00 bc f4 f9 47 3c 4f 34 a5 ba
       -0.0038295996 -0.00781842 0.01220559 -0.001260409
000100 ea 80 3d bc 6e ca b2 bc 3f c5 ff 3b 7f 7b bd 3c
       -0.01156638 -0.021825042 0.007805496 0.023130177
000110 fe 92 31 bd bb 6c 46 bd 92 77 ea bc 11 ef e1 3b
       -0.043353073 -0.048443537 -0.028621469 0.006894954
000120 f1 1c f1 3a 5a 34 11 3d a8 3f 2c bc f8 4e 69 bc
       0.0018395466 0.035450317 -0.010513224 -0.014240019
000130 7c 22 8c bc 46 3c c1 bb a6 03 42 bb 57 b2 bd bc
       -0.017106287 -0.0058970777 -0.0029604225 -0.023156328
000140 25 0b 90 bc 06 2e 59 bc eb 4f 21 3c 42 8a 08 3c
       -0.01758344 -0.013255602 0.009845714 0.0083337445
000150 c9 a9 34 bc 45 88 bb bc bd a4 06 bc 79 3b e2 bc
       -0.011026808 -0.022892127 -0.008217988 -0.02761625
000160 05 8d a1 3c 8c 42 c2 bc 88 e8 84 3c dc e8 bd bc
       0.019720564 -0.023713373 0.01622416 -0.023182325
000170 76 48 39 bc af 90 37 bd 0c 00 44 ba 49 88 6f bc
       -0.01130878 -0.044815715 -0.00074768136 -0.014619895
000180 b5 be 85 bc 04 5f a9 3c 62 1b 59 bc b5 b4 35 bd
       -0.016326288 0.02067519 -0.0132511575 -0.04436179
000190 6c 90 3f bd 48 70 a3 3b e7 59 84 3c e2 c8 d5 bc
       -0.04676859 0.00498775 0.01615615 -0.026096765
0001a0 06 27 72 bc 8e d1 e3 bc 50 4c cd 3c 0a b9 4a bd
       -0.014779812 -0.027809884 0.025060803 -0.049492873
0001b0 d1 7a 1b 3b 75 38 15 3c b2 cb bf bb 2c 80 5c bc
       0.0023724327 0.009107699 -0.00585314 -0.013458293
0001c0 c6 7d 81 bc 8d 0e 94 bc ea 24 0a bd 86 5d a2 bc
       -0.015807044 -0.018073345 -0.03372661 -0.019819986
0001d0 0f 78 be 3b b8 5f b2 bc 58 16 8a bc 0f d1 b7 3c
       0.005812652 -0.021774158 -0.016856357 0.022438554
0001e0 c2 1f 8a bc dc a5 72 bc 02 ed 3b 3c 60 1b 1c bd
       -0.016860846 -0.014810052 0.011470081 -0.038112044
0001f0 e2 ed 08 bc 6d 35 ae bc 26 38 86 bc ec 10 9a bb
       -0.008357497 -0.02126571 -0.016384196 -0.0047017243
000200 7e 68 be bb 08 75 85 bc 28 a6 2f 3d 3d d1 36 bb
       -0.0058107963 -0.016291156 0.04288307 -0.0027895712
000210 55 2a 2f 3c ba 63 a5 bb 2f b1 5e bc 40 9b c2 bc
       0.010691245 -0.0050472887 -0.013592049 -0.02375567
000220 ad 6a e5 bb e2 3f 4a bd 91 44 c3 3c 7b 51 1f bd
       -0.007001242 -0.04937733 0.023836406 -0.038896065
000230 8c 7a 1b bd 04 39 74 3c b5 aa 01 3d f7 6c e8 bb
       -0.037958667 0.014906172 0.03165694 -0.0070930677
000240 a0 ba c6 bc 79 ca b1 bb 83 29 b8 3c e2 bc 75 bb
       -0.024258912 -0.005425748 0.022480732 -0.0037496616
000250 c8 e2 c0 bb b2 50 db bb 36 d6 a1 3c c3 b4 cc 3a
       -0.0058864094 -0.0066929692 0.019755464 0.0015617836
000260 7d b9 62 bb 5d 03 10 3d 78 1d 3d 3d 8d 48 2e bc
       -0.0034595423 0.035159457 0.04617068 -0.010637415
000270 02 67 48 bb 35 7a 7f bc c2 37 1e 3d 43 8c c7 bc
       -0.0030578976 -0.015593101 0.038627394 -0.024358874
000280 1f 34 1d bd ff df 4e bc e5 f6 53 3c 9c 73 ac 3c
       -0.038379785 -0.012626647 0.012937282 0.02105122
000290 8b 38 a1 bc d1 58 21 3c 84 bd 26 3c 04 b1 83 bc
       -0.019680282 0.009847836 0.01017702 -0.016075619
0002a0 90 e3 2d 3b 30 78 a3 3c 1a de eb bc b6 68 bf bc
       0.0026533343 0.01995477 -0.02879243 -0.02336536
0002b0 03 24 f6 bc 90 6c b4 bc 4a e7 30 bd 1c 4d e5 3c
       -0.030046469 -0.022024423 -0.043189324 0.02799087
0002c0 6d 1e 91 bc 1c 19 ab 3d bc 6f 90 bb e0 c3 29 b9
       -0.017714703 0.083543986 -0.004407851 -0.00016190065
0002d0 b5 e3 b1 bc 16 38 83 bc 4e e0 24 bc 91 e9 48 3c
       -0.021715024 -0.016017955 -0.010063244 0.012262718
0002e0 01 fe 88 3b 6d 41 c0 3a ac 24 9c 3c 11 a2 3e bc
       0.0041806703 0.0014667936 0.019060455 -0.011635319
0002f0 41 56 40 3c ed f4 8d 3c e4 bb a4 3c 96 fe f7 bb
       0.0117393145 0.017328704 0.020109124 -0.007568191
000300 20 95 05 3b 79 2b 39 bc 07 61 0c bd 0d 0a 6c 3d
       0.0020383075 -0.011301869 -0.03427222 0.057626773
000310 41 49 6b bc 18 94 a0 bc de d3 e7 ba 6c 58 a1 bb
       -0.014360727 -0.019601867 -0.0017687043 -0.004923871
000320 3d d4 b5 3b cb b6 fa 3c 76 d6 e7 bc cc 2a a9 3c
       0.0055489824 0.03060474 -0.028300505 0.02065029
000330 6e 55 f7 bc 59 a1 19 3c d8 3e 5c bc dc 24 72 bc
       -0.030192103 0.009376847 -0.0134427175 -0.014779296
000340 ec d4 ce bc 3e b6 9d 3c d0 62 bd 3c 93 42 56 3d
       -0.025248013 0.019251939 0.023118407 0.052309584
000350 f6 07 81 bc fd 7e a0 bc 34 a8 aa bd 89 49 6e bc
       -0.015750866 -0.019591803 -0.083328635 -0.014543899
000360 a5 2a 25 3d eb d3 3c bc 78 db 65 3d a9 e8 a0 3b
       0.040323872 -0.011525135 0.056117505 0.0049105478
000370 00 61 17 bd 01 7c 1d bc 8b d4 15 3b 46 e9 40 bd
       -0.03695774 -0.009612084 0.0022862281 -0.047097467
000380 b7 b4 b6 bb 75 a9 01 3d d7 cb f4 3c ed cf 14 bd
       -0.005575742 0.031655747 0.029882355 -0.036331106
000390 c3 2b 76 39 c2 ed b3 bb b8 6a ae 3b e1 57 b4 bc
       0.0002347669 -0.0054909894 0.0053227805 -0.02201456
0003a0 a1 b5 dd bc cb f6 ac bc fe 63 c8 3c 50 8b c6 3b
       -0.027064146 -0.021113774 0.024461742 0.006059088
0003b0 12 18 1f bc 3f e6 a8 ba f7 f1 6e 3b 3c de 00 bd
       -0.009710329 -0.0012886001 0.003646014 -0.03146194
0003c0 ec eb ff bb ae 76 ca bc 4b d2 0a bb 21 15 da bc
       -0.0078101065 -0.024714794 -0.0021182473 -0.026621403
0003d0 22 98 f8 bc 40 20 00 bd fd 91 f8 3c 51 d5 35 3d
       -0.03034598 -0.031280756 0.03034305 0.044392888
0003e0 77 fe 0b bd f2 3d 46 3c 63 b8 34 bc 1b 32 07 bd
       -0.034178223 0.01209973 -0.011030289 -0.03300677
0003f0 9b 3f 80 bc 2b 2f 0a 3c d8 a6 f4 bc 86 cb 6b bc
       -0.01565533 0.008434097 -0.029864714 -0.0143917855

action_model._discrete_distribution.branches.0.bias f4 [10]
000000 f3 10 d6 bc d1 d0 ab bb 88 92 1f 3b 01 ce 87 bc
       -0.026131129 -0.0052433987 0.0024348814 -0.016577723
000010 bf 8c 3f bc cc 04 00 3c d0 5f 19 bc 12 97 67 3b
       -0.011691271 0.007813644 -0.009361222 0.0035337848
000020 d9 42 47 3c 81 6c 01 3c
       0.012161934 0.0078994045

action_model._discrete_distribution.branches.1.weight f4 [10, 128]
000000 4e 94 2a bc 10 3d c7 3b 41 f4 cc 3a 6c 23 12 3b
       -0.010411335 0.0060802773 0.0015636758 0.0022298945
000010 bc 92 b8 3c ca e9 8b 3a 29 8e a0 3a 3c 27 25 bb
       0.022530906 0.0010674533 0.0012249398 -0.0025200387
000020 ce e8 e8 bb 47 05 32 3b 53 66 14 3b 42 ed 3e 3c
       -0.0071078306 0.002716379 0.0022643998 0.011653246
000030 46 d6 66 3c 6c 46 cc bb 69 34 ad bc ee f3 40 3c
       0.014089173 -0.006233981 -0.021143155 0.011776907
000040 38 0a 9e 3c 96 4b 45 bc 0e 1a e6 3a 40 8b de ba
       0.019291982 -0.012041947 0.0017555372 -0.0016978756
000050 53 fb 0a 3c 32 d4 0d bc 8f 7c 28 3c cb b0 66 bc
       0.008482772 -0.008656548 0.010283603 -0.014080237
000060 5f e2 06 bc 0d 78 22 bc 43 85 40 3c da 48 a8 bb
       -0.008232682 -0.009916318 0.011750522 -0.0051356377
000070 95 dc 5d bc 62 ed 37 3c 8f 97 8a 3b 3d 97 59 ba
       -0.01354136 0.01122603 0.004229493 -0.00083004293
000080 fc a4 8a bb 3f 61 0f 3b ef 69 1d ba 25 9a 92 bb
       -0.0042310935 0.0021878032 -0.000600486 -0.004473942
000090 18 23 89 bc 28 be 8a 3a 08 46 95 b8 ef 36 d2 bb
       -0.016740367 0.0010585235 -7.117918e-05 -0.00641524
0000a0 73 0a 1a 3c 2d 78 1a bb 4e 1a 03 bc 8e ec 01 bc
       0.009401905 -0.0023570166 -0.008001877 -0.007929934
0000b0 d3 4c ed 3b 9a 73 9a 3b cf 9b 9c 3b 27 f2 24 3c
       0.007241824 0.004713488 0.004779316 0.010067499
0000c0 c3 70 4a bc 2a 65 92 3c 44 14 d9 bb e5 ee 8f 3b
       -0.012355986 0.017870504 -0.0066247303 0.004392492
0000d0 8c a8 ae b9 e1 22 a5 3b 03 e6 fe 3b ef 95 94 bc
       -0.00033313443 0.0050395583 0.0077788844 -0.0181379
0000e0 be 4f f2 ba 83 5b db bc 91 4a 98 3c 1c c6 99 ba
       -0.00184869 -0.026777035 0.018590244 -0.0011732015
0000f0 d2 2b 78 3c 36 c1 d9 3c cf 85 a8 bc 07 de 5e bb
       0.015147166 0.026581388 -0.020571617 -0.003400685
000100 76 7c 8d 3c 60 9f 47 3c 74 b8 45 3c 08 56 b7 3b
       0.017271262 0.012183994 0.012067903 0.0055949725
000110 c6 9a fa bb 23 d2 4f 3b 52 40 ba bb 04 e3 a0 bb
       -0.007647845 0.0031710945 -0.005683937 -0.004909875
000120 3b 5f 88 bc 87 e0 1d bc 3c ee 1c bc 8a c8 97 3b
       -0.016646972 -0.009636051 -0.009578284 0.0046320604
000130 00 eb be 3b 5a e1 45 bc 31 2e 72 b9 e6 1b d1 ba
       0.005826354 -0.012077654 -0.00023096126 -0.0015953749
000140 d8 78 bf 3a 8c d0 77 3b 58 38 3e 3c ad b8 ab ba
       0.0014608158 0.0037813513 0.011610113 -0.0013101302
000150 a2 ca 45 bc f5 f5 d1 bb 1f 39 b5 bc 0b ac 25 3b
       -0.012072237 -0.006407494 -0.022121964 0.0025279548
000160 61 67 01 3d e0 8c 63 3a b1 07 23 3c 3a a7 50 3b
       0.03159273 0.0008680355 0.009950564 0.0031837956
000170 fd 5d 18 3c 3a 1b bc 3b 45 66 69 3b 2d 8b 9b 3b
       0.009299752 0.0057405503 0.0035613936 0.0047468157
000180 06 71 4e 3c 80 5b 8e 3b 22 33 5f 3c c5 4f e3 bb
       0.012600189 0.0043444037 0.013623031 -0.0069369995
000190 94 2a 29 bb a5 dd 6d bc 7f 80 d3 bb 21 b1 f6 3b
       -0.0025812732 -0.014518176 -0.006454527 0.0075284396
0001a0 61 6f 83 bb fa cb 8f 3b 5e 1a a5 3c d7 7e 54 3c
       -0.00401108 0.0043883296 0.020154174 0.012969694
0001b0 c0 a6 78 b9 d3 fb d8 3a 79 36 75 3c 6b 6f 32 3c
       -0.00023713242 0.0016554542 0.014966601 0.010890822
0001c0 03 a9 2b 3b 82 17 16 bc 78 d8 eb bb 1f 3c e9 bc
       0.0026193268 -0.009160878 -0.007197436 -0.02847105
0001d0 3e e9 6a 3c a6 85 a6 3a 4a 90 81 bc 90 c6 97 3c
       0.014337836 0.0012704625 -0.015815873 0.0185273
0001e0 73 a7 3c 3c 3f 1b 2c bb da 86 dc 3b 9c e7 6d bb
       0.011514532 -0.0026261357 0.0067299427 -0.003630138
0001f0 69 50 b6 3b ee 90 85 ba 92 a9 96 3c 27 3a c4 bb
       0.005563785 -0.0010190287 0.018391404 -0.0059883776
000200 6c 97 65 3c 53 39 43 3c 78 bf c8 ba 5c 8c 60 3b
       0.014013153 0.011915523 -0.0015315851 0.0034263348
000210 4d 07 55 bb a0 02 b0 bc c9 36 25 3c 67 ab 1c 3c
       -0.0032505572 -0.021485627 0.010083863 0.00956235
000220 74 86 4a 39 59 6e d2 bb 96 52 f9 bb ab 3c 03 3c
       0.00019314309 -0.006421846 -0.007608722 0.00801007
000230 57 43 0e 3c 67 5e 26 3c a4 c8 21 bb 4b e9 3a bb
       0.008683047 0.010154343 -0.0024686242 -0.00285204
000240 8a a0 b2 bb c0 a5 ec bb 54 2e b4 ba dd 71 46 3c
       -0.0054512667 -0.0072219074 -0.0013746717 0.012112108
000250 f4 be 88 38 c9 55 6d 3a 2b 43 58 3c f2 2a 58 3b
       6.520553e-05 0.00090536155 0.013199608 0.0032984582
000260 3c d4 a2 bc 59 0b df 3b 97 0d c5 3b c9 d3 8f bc
       -0.019876592 0.0068067727 0.006013583 -0.017557042
000270 09 b7 56 bc 09 8d 0c ba 28 62 3b bc 84 c6 80 3c
       -0.013105162 -0.0005361592 -0.0114369765 0.01571966
000280 49 d0 48 3c 11 54 b7 bb 6a 9e 9f 3a 88 43 e8 3b
       0.01225669 -0.0055947383 0.0012177948 0.0070881285
000290 41 ed c5 bb fa 52 4b bb 08 82 b2 bb ab 39 e9 bb
       -0.0060402458 -0.00310248 -0.00544763 -0.0071174703
0002a0 9e 66 87 bc 3c e8 6a 3c 8e 8c 45 bb 6f 30 73 b8
       -0.016528424 0.014337596 -0.0030143592 -5.7980822e-05
0002b0 f0 04 8b 3c 00 a2 a4 3b 61 41 9a 3b 28 97 54 3b
       0.016970128 0.0050241947 0.004707501 0.003243873
0002c0 3c ed a1 3b 9e 88 7e 3a 81 49 4d 3c 77 32 e9 bb
       0.0049416106 0.00097096886 0.012529732 -0.0071166116
0002d0 0d b1 80 3c 0c 27 60 ba 83 76 07 bc 92 db 99 3c
       0.015709424 -0.00085507403 -0.0082680015 0.018781457
0002e0 ec ae 33 3c 88 0c e4 3b c2 50 7e 3b 7a 5e 21 3c
       0.010966998 0.0069595017 0.003880546 0.009849185
0002f0 33 b2 c5 3c 45 ba 21 3c 9f 86 6c bc c5 e3 8e bb
       0.024132824 0.00987107 -0.014436393 -0.0043606483
000300 aa a1 01 ba 79 be d2 3b b1 7a 0a bc 38 39 7a 3c
       -0.00049450493 0.0064313975 -0.0084521035 0.015272431
000310 41 fe 59 bb 30 2b 66 3b a9 28 07 3a 7f d4 c8 ba
       -0.003326312 0.0035120957 0.00051559 -0.0015322118
000320 c1 94 50 ba 15 63 f7 3b dc 8a 4f 3b 90 82 b3 3b
       -0.00079567364 0.0075496533 0.003166846 0.0054782107
000330 51 38 82 bb fa bf 03 bb 9d 4f 29 bc 22 59 35 3c
       -0.0039739986 -0.002010344 -0.010333923 0.011068614
000340 5f 89 62 3b 59 c1 fb 3b 60 b8 36 3c 8b 98 08 bc
       0.0034566743 0.007682961 0.011152357 -0.00833715
000350 0c 57 53 bc 34 76 67 3c cb 4e d8 bb 1f 88 21 3c
       -0.012899172 0.014127303 -0.0066011897 0.009859114
000360 e4 af b9 3b c7 32 47 3c 75 49 0a bb 6c d1 0d bb
       0.0056667197 0.012158102 -0.0021100913 -0.0021639718
000370 32 36 80 bb ae 37 15 3c d1 b5 30 3a de 0b 2d ba
       -0.0039127106 0.009107513 0.000674096 -0.00066011946
000380 46 7f 6c 3b 4b 28 5a bb d0 03 34 3c 4e 21 80 3c
       0.0036086603 -0.0033288177 0.010987237 0.01564088
000390 71 6b 00 3c c4 31 75 3b 61 35 54 3a 3a d8 f3 3c
       0.007838116 0.0037413696 0.0008095112 0.02976619
0003a0 2c 90 34 3b 09 f8 ef 3b d2 61 c2 3c d8 4e ae bb
       0.0027551753 0.0073232693 0.023728285 -0.0053194575
0003b0 11 92 2f bb 10 90 3a 3b 49 98 05 3c 92 c9 40 3c
       -0.0026789943 0.0028467216 0.008153983 0.011766808
0003c0 e5 ef 3b 3c 08 fb fd bb 26 fa fc bb de 2d ba 3a
       0.0114707695 -0.0077508725 -0.0077202497 0.0014204343
0003d0 6f 03 b7 3c 4c 0e a5 3b a4 ba 9c 3b f9 cc 80 3c
       0.022340504 0.0050371047 0.0047829915 0.015722739
0003e0 88 22 8b 3a 2f 3b b7 3a 7b a3 92 bb 60 83 a5 3b
       0.001061515 0.001397943 -0.004475055 0.0050510615
0003f0 0c d6 b1 3b 36 43 03 bc 88 eb 4c bb 8e 03 03 bc
       0.0054271277 -0.00801163 -0.0031268317 -0.007996453

action_model._discrete_distribution.branches.1.bias f4 [10]
000000 26 30 7b bb 03 82 44 3b a5 22 bd bb 60 6d 88 3b
       -0.003832826 0.002998472 -0.005771952 0.004163429
000010 ae 9f 16 3c ce 8d 2c bb ce 80 9e bb a0 a2 f2 3b
       0.009193344 -0.002632964 -0.004837132 0.0074046403
000020 51 1f a3 bb 89 86 0a b9
       -0.0049780984 -0.00013210824

onnx::Div_65 f4 [430]
000000 ad 54 22 40 dc fa f7 40 56 79 1e 3f 2a 5e 5c 3b
       2.5364182 7.7493725 0.61903894 0.0033625462
000010 2a 5e 5c 3b 23 89 08 3f 23 89 08 3f be 75 da 3e
       0.0033625462 0.53334254 0.53334254 0.42667955
000020 2a 5e 5c 3b 9e 88 88 3f e1 cc cc 3f 71 74 5a 3f
       0.0033625462 1.0666692 1.6000024 0.85333925
000030 2a 5e 5c 3b e1 cc cc 3f 7d aa 2a 40 2a 5e 5c 3b
       0.0033625462 1.6000024 2.6666558 0.0033625462
000040 be 75 da 3e 9e 88 88 3f 9e 88 88 3f be 75 da 3e
       0.42667955 1.0666692 1.0666692 0.42667955
000050 be 75 da 3e e1 cc cc 3f e1 cc cc 3f 71 74 5a 3f
       0.42667955 1.6000024 1.6000024 0.85333925
000060 be 75 da 3e 7c 88 08 40 cb cc 4c 40 2a 5e 5c 3b
       0.42667955 2.1333303 3.1999996 0.0033625462
000070 71 74 5a 3f e1 cc cc 3f e1 cc cc 3f be 75 da 3e
       0.85333925 1.6000024 1.6000024 0.42667955
000080 71 74 5a 3f 7c 88 08 40 7c 88 08 40 71 74 5a 3f
       0.85333925 2.1333303 2.1333303 0.85333925
000090 71 74 5a 3f 7d aa 2a 40 cb cc 4c 40 e3 c2 75 3f
       0.85333925 2.6666558 3.1999996 0.960005
0000a0 e3 c2 75 3f cb cc 4c 40 cb cc 4c 40 50 8f 33 40
       0.960005 3.1999996 3.1999996 2.805622
0000b0 1f 0f 04 41 bc 7b 33 3f 2a 5e 5c 3b 2a 5e 5c 3b
       8.253692 0.7011068 0.0033625462 0.0033625462
0000c0 48 75 18 3f 48 75 18 3f 60 ef f3 3e 2a 5e 5c 3b
       0.59553957 0.59553957 0.47643566 0.0033625462
0000d0 d1 74 98 3f 00 af e4 3f 35 ee 73 3f 2a 5e 5c 3b
       1.191065 1.7865906 0.9528535 0.0033625462
0000e0 00 af e4 3f eb 91 3e 40 2a 5e 5c 3b 60 ef f3 3e
       1.7865906 2.9776561 0.0033625462 0.47643566
0000f0 d1 74 98 3f d1 74 98 3f 60 ef f3 3e 60 ef f3 3e
       1.191065 1.191065 0.47643566 0.47643566
000100 00 af e4 3f 00 af e4 3f 35 ee 73 3f 60 ef f3 3e
       1.7865906 1.7865906 0.9528535 0.47643566
000110 b3 74 18 40 ed ae 64 40 2a 5e 5c 3b 35 ee 73 3f
       2.3821228 3.5731766 0.0033625462 0.9528535
000120 00 af e4 3f 00 af e4 3f 60 ef f3 3e 35 ee 73 3f
       1.7865906 1.7865906 0.47643566 0.9528535
000130 b3 74 18 40 b3 74 18 40 35 ee 73 3f 35 ee 73 3f
       2.3821228 2.3821228 0.9528535 0.9528535
000140 eb 91 3e 40 ed ae 64 40 f6 35 89 3f f6 35 89 3f
       2.9776561 3.5731766 1.0719593 1.0719593
000150 ed ae 64 40 ed ae 64 40 75 ea 47 40 8f 7e 0d 41
       3.5731766 3.5731766 3.1236851 8.843398
000160 8f 6e 50 3f 2a 5e 5c 3b 2a 5e 5c 3b c3 d5 2c 3f
       0.814187 0.0033625462 0.0033625462 0.67513674
000170 c3 d5 2c 3f b4 44 0a 3f 2a 5e 5c 3b 59 d5 ac 3f
       0.67513674 0.5401108 0.0033625462 1.3502609
000180 e1 9f 01 40 31 44 8a 3f 2a 5e 5c 3b e1 9f 01 40
       2.0253832 1.080206 0.0033625462 2.0253832
000190 5a 0a 58 40 2a 5e 5c 3b b4 44 0a 3f 59 d5 ac 3f
       3.3756318 0.0033625462 0.5401108 1.3502609
0001a0 59 d5 ac 3f b4 44 0a 3f b4 44 0a 3f e1 9f 01 40
       1.3502609 0.5401108 0.5401108 2.0253832
0001b0 e1 9f 01 40 31 44 8a 3f b4 44 0a 3f 3f d5 2c 40
       2.0253832 1.080206 0.5401108 2.7005155
0001c0 d9 9f 81 40 2a 5e 5c 3b 31 44 8a 3f e1 9f 01 40
       4.0507627 0.0033625462 1.080206 2.0253832
0001d0 e1 9f 01 40 b4 44 0a 3f 31 44 8a 3f 3f d5 2c 40
       2.0253832 0.5401108 1.080206 2.7005155
0001e0 3f d5 2c 40 31 44 8a 3f 31 44 8a 3f 5a 0a 58 40
       2.7005155 1.080206 1.080206 3.3756318
0001f0 d9 9f 81 40 c4 8c 9b 3f c4 8c 9b 3f d9 9f 81 40
       4.0507627 1.2152333 1.2152333 4.0507627
000200 d9 9f 81 40 96 ec 63 40 58 ca 18 41 f8 03 92 3f
       4.0507627 3.561315 9.5494 1.1407461
000210 2a 5e 5c 3b 2a 5e 5c 3b a8 f0 58 3f a8 f0 58 3f
       0.0033625462 0.0033625462 0.8474221 0.8474221
000220 6c 8d 2d 3f 2a 5e 5c 3b 54 f0 d8 3f bc b4 22 40
       0.6779392 0.0033625462 1.6948342 2.5422812
000230 03 8d ad 3f 2a 5e 5c 3b bc b4 22 40 50 96 87 40
       1.3558658 0.0033625462 2.5422812 4.2370987
000240 2a 5e 5c 3b 6c 8d 2d 3f 54 f0 d8 3f 54 f0 d8 3f
       0.0033625462 0.6779392 1.6948342 1.6948342
000250 6c 8d 2d 3f 6c 8d 2d 3f bc b4 22 40 bc b4 22 40
       0.6779392 0.6779392 2.5422812 2.5422812
000260 03 8d ad 3f 6c 8d 2d 3f 3f f0 58 40 b5 b4 a2 40
       1.3558658 0.6779392 3.3896635 5.084559
000270 2a 5e 5c 3b 03 8d ad 3f bc b4 22 40 bc b4 22 40
       0.0033625462 1.3558658 2.5422812 2.5422812
000280 6c 8d 2d 3f 03 8d ad 3f 3f f0 58 40 3f f0 58 40
       0.6779392 1.3558658 3.3896635 3.3896635
000290 03 8d ad 3f 03 8d ad 3f 50 96 87 40 b5 b4 a2 40
       1.3558658 1.3558658 4.2370987 5.084559
0002a0 c9 3e c3 3f c9 3e c3 3f b5 b4 a2 40 b5 b4 a2 40
       1.5253536 1.5253536 5.084559 5.084559
0002b0 80 2c 90 40 5a 73 28 41 e8 93 21 40 2a 5e 5c 3b
       4.505432 10.528162 2.5246525 0.0033625462
0002c0 2a 5e 5c 3b a0 d9 c4 3f a0 d9 c4 3f e4 7a 9d 3f
       0.0033625462 1.5378914 1.5378914 1.2303128
0002d0 2a 5e 5c 3b 89 d9 44 40 2d a3 93 40 c7 7a 1d 40
       0.0033625462 3.0757773 4.613669 2.4606187
0002e0 2a 5e 5c 3b 2d a3 93 40 04 10 f6 40 2a 5e 5c 3b
       0.0033625462 4.613669 7.689455 0.0033625462
0002f0 e4 7a 9d 3f 89 d9 44 40 89 d9 44 40 e4 7a 9d 3f
       1.2303128 3.0757773 3.0757773 1.2303128
000300 e4 7a 9d 3f 2d a3 93 40 2d a3 93 40 c7 7a 1d 40
       1.2303128 4.613669 4.613669 2.4606187
000310 e4 7a 9d 3f 83 d9 c4 40 2c a3 13 41 2a 5e 5c 3b
       1.2303128 6.1515517 9.227337 0.0033625462
000320 c7 7a 1d 40 2d a3 93 40 2d a3 93 40 e4 7a 9d 3f
       2.4606187 4.613669 4.613669 1.2303128
000330 c7 7a 1d 40 83 d9 c4 40 83 d9 c4 40 c7 7a 1d 40
       2.4606187 6.1515517 6.1515517 2.4606187
000340 c7 7a 1d 40 04 10 f6 40 2c a3 13 41 26 2a 31 40
       2.4606187 7.689455 9.227337 2.7681975
000350 26 2a 31 40 2c a3 13 41 2c a3 13 41 1f bd b4 40
       2.7681975 9.227337 9.227337 5.648086
000360 b5 68 51 41 42 84 5d 40 2a 5e 5c 3b 2a 5e 5c 3b
       13.088063 3.4611974 0.0033625462 0.0033625462
000370 84 25 07 40 84 25 07 40 40 3c d8 3f 2a 5e 5c 3b
       2.1116648 2.1116648 1.6893387 0.0033625462
000380 7b 25 87 40 4c b8 ca 40 2b 3c 58 40 2a 5e 5c 3b
       4.2233253 6.334997 3.3786724 0.0033625462
000390 4c b8 ca 40 e6 ee 28 41 2a 5e 5c 3b 40 3c d8 3f
       6.334997 10.558325 0.0033625462 1.6893387
0003a0 7b 25 87 40 7b 25 87 40 40 3c d8 3f 40 3c d8 3f
       4.2233253 4.2233253 1.6893387 1.6893387
0003b0 4c b8 ca 40 4c b8 ca 40 2b 3c 58 40 40 3c d8 3f
       6.334997 6.334997 3.3786724 1.6893387
0003c0 79 25 07 41 4a b8 4a 41 2a 5e 5c 3b 2b 3c 58 40
       8.446649 12.669992 0.0033625462 3.3786724
0003d0 4c b8 ca 40 4c b8 ca 40 40 3c d8 3f 2b 3c 58 40
       6.334997 6.334997 1.6893387 3.3786724
0003e0 79 25 07 41 79 25 07 41 2b 3c 58 40 2b 3c 58 40
       8.446649 8.446649 3.3786724 3.3786724
0003f0 e6 ee 28 41 4a b8 4a 41 99 43 73 40 99 43 73 40
       10.558325 12.669992 3.8010008 3.8010008
