Assets/Test/Config/results/CheeseWorld/CheeseWorld.onnx (onnx, 89711 bytes, 11 tensors)

discrete_act_size_vector f4 [1, 2]
10.0 10.0
00000000: 0000 2041 0000 2041

network_body.observation_encoder.processors.0.normalizer.running_mean f4 [10]
2.3152988 2.4390152 2.7187548 2.8674393 3.164883 3.3225188 3.6474087 3.8245094
4.1690354 4.3533792
00000000: db2d 1440 d318 1c40 1400 2e40 2084 3740
00000010: 718d 4a40 26a4 5440 256f 6940 c3c4 7440
00000020: bd68 8540 e24e 8b40

network_body._body_endoder.seq_layers.0.weight f4 [128, 10]
-0.048108518 -0.26508856 -0.14829035 0.35562664 0.4004438 0.21878922 0.3165407 0.25685593
0.82573295 -0.2566655 0.08449012 -0.62196815 0.12072929 -0.18706715 -0.88242847 -0.5547229
0.03329195 -0.16809426 0.113173015 -0.09743337 -0.057510823 0.47528976 -0.49509323 0.29408583
-0.33725876 0.19887035 -0.1272749 0.44604835 0.52485716 0.041616548 -0.24228376 -0.5103794
-0.06269983 -0.4250926 0.29983032 -0.044940356 -0.06424356 -0.20830007 -0.055741772 0.03882018
0.054761183 0.094304815 -0.4989551 0.25048143 -0.07145791 0.37943223 -0.17520931 0.5402134
0.01719954 0.47270736 0.31211197 -0.19039033 -0.24865508 0.70210606 0.47009832 -0.43948245
-0.024432233 0.8469105 0.10218551 0.49648696 0.69790834 0.4355733 0.40878928 -0.08145114
-0.048226263 -0.52743864 -0.094349705 0.15865722 0.3217044 0.05961259 0.1270499 0.480274
0.2744255 0.2373065 0.31984106 0.31637964 0.20653808 0.3394584 -0.20257044 -0.14628883
0.14908686 -0.16875252 0.038569976 -0.1426716 0.0697735 0.6543648 0.22424051 -0.23412782
0.4533442 -0.28196067 0.5045072 -0.35268903 -0.10371817 -0.16359253 0.28251493 -0.5461531
-0.07378726 -0.2984184 0.7159113 -0.5193516 -0.345859 0.19379184 -0.0012466162 0.19145006
-0.23742417 -0.40262517 0.57053775 -0.017775152 0.23341992 -0.18146458 -0.10946493 0.0831602
-0.1170771 0.26701197 0.04995574 -0.3868344 0.3566864 0.18432236 0.19973205 -0.12783246
-0.31352043 -0.3026232 -0.5189964 -0.46660987 0.04253823 0.1975322 -0.7903176 -0.43201417
0.16587155 0.5796589 -0.3681909 -0.8465107 -0.41286334 -0.18950109 0.35840017 0.05650332
-0.27661094 0.27137136 -0.10653692 0.44439843 0.18007228 -0.08776396 -0.007858434 0.2346752
-0.055986643 -0.68734586 0.17432807 -0.050774146 -0.37656063 -0.24536636 0.22879115 0.23252086
-0.4067364 -0.08774014 -0.09763553 -0.10302794 -0.50040907 0.33239034 -0.7156407 0.10875531
-0.1717591 -0.02524681 -0.49607447 0.18721111 -0.05828042 -0.41960046 -0.09443116 -0.5644891
-0.37241977 -0.3785521 -0.19083954 0.08434292 0.0882183 0.21292953 -0.5771354 0.26456076
0.18244024 0.46312216 0.22282228 0.22257628 -0.45378667 -0.43185005 0.56310594 0.050052267
0.12248125 0.3100333 0.38656285 0.03677837 -0.017487442 0.24625036 -0.3374878 -0.37143636
-0.04514276 -0.1035178 1.0374217 1.1671351 0.095208704 -0.54134035 -0.519035 0.08926355
0.2624083 0.35366875 -0.41191173 -0.2939454 0.507575 0.19420382 -0.28088027 -0.47971863
-0.023299646 -0.41184354 0.73331237 0.5068299 -0.1415059 -0.16535261 0.16890791 -0.10883884
0.34177744 0.6109338 0.1286313 -0.15469554 -0.6277908 -0.29294872 -0.4761536 0.08647272
-0.17748071 0.28876403 -0.003679612 0.3912601 -0.34873313 0.39906192 0.018469112 0.49002284
-0.331555 -0.29653224 -0.34763342 0.5838364 -0.22697072 0.39421493 0.2530735 0.04795278
0.37477362 -0.18136019 0.09746304 0.02366256 0.95470613 -0.018044762 -0.16199316 -0.32763442
0.07143725 -0.46274185 0.08942729 0.08686554 0.27496845 -0.27684426 0.45000648 -0.04557856
00000000: 700d 45bd b0b9 87be 6dd9 17be b214 b63e
00000010: f806 cd3e 480a 603e 9f11 a23e 9f82 833e
00000020: 3c63 533f a969 83be 2809 ad3d 4e39 1fbf
00000030: eb40 f73d 888e 3fbe d5e6 61bf 5202 0ebf
00000040: 245d 083d e720 2cbe 41c7 e73d 268b c7bd
00000050: 7890 6bbd 2e59 f33e dc7c fdbe 6b92 963e
00000060: 2ead acbe aba4 4b3e 5a54 02be 7360 e43e
00000070: 0a5d 063f 1d76 2a3d 3c19 78be 39a8 02bf
00000080: c568 80bd bda5 d9be 5c83 993e 6113 38bd
00000090: 2192 83bd 9d4c 55be 7c51 64bd e901 1f3d
000000a0: 434d 603d e222 c13d 0b77 ffbe 1a3f 803e
000000b0: 8658 92bd f144 c23e 126a 33be 6d4b 0a3f
000000c0: 0de6 8c3c b306 f23e 24cd 9f3e aff5 42be
000000d0: 709f 7ebe 39bd 333f bab0 f03e d803 e1be
000000e0: 1b26 c8bc 20cf 583f a346 d13d 8a33 fe3e
000000f0: 1faa 323f 7703 df3e d44c d13e dbcf a6bd
00000100: e788 45bd 3806 07bf 6b3a c1bd 0a77 223e
00000110: 70b6 a43e 552c 743d 5e19 023e 79e6 f53e
00000120: 8081 8c3e 7a00 733e 35c2 a33e 83fc a13e
00000130: b87e 533e 7ecd ad3e a06e 4fbe bdcc 15be
00000140: 3aaa 183e 76cd 2cbe 8dfb 1d3d 8118 12be
00000150: 69e5 8e3d 7484 273f 4e9f 653e 34bf 6fbe
00000160: bb1c e83e 265d 90be 6227 013f a893 b4be
00000170: 316a d4bd cd84 27be cca5 903e b1d0 0bbf
00000180: c61d 97bd 4cca 98be f745 373f 3af4 04bf
00000190: 6e14 b1be 5e71 463e 8065 a3ba 7c0b 443e
000001a0: 521f 73be e324 cebe c30e 123f 329d 91bc
000001b0: a205 6f3e dad1 39be 262f e0bd e54f aa3d
000001c0: 1ec6 efbd cbb5 883e 649e 4c3d 290f c6be
000001d0: 9a9f b63e 00bf 3c3e 8f86 4c3e 83e6 02be
000001e0: c085 a0be 6ef1 9abe f3dc 04bf 7de7 eebe
000001f0: 913c 2e3d e245 4a3e 4152 4abf f630 ddbe
00000200: 3bda 293e 8764 143f 8583 bcbe edb4 58bf
00000210: d362 d3be 930c 42be 3a80 b73e 0670 673d
00000220: f39f 8dbe 30f1 8a3e 0730 dabd 3188 e33e
00000230: de64 383e 97bd b3bd a9c0 00bc b24e 703e
00000240: 4052 65bd e6f5 2fbf 0f83 323e 8df8 4fbd
00000250: 8ecc c0be 5241 7bbe 3a48 6a3e f319 6e3e
00000260: c13f d0be 1ab1 b3bd 23f5 c7bd 5000 d3bd
00000270: cf1a 00bf 112f aa3e 3b34 37bf 1bbb de3d
00000280: 9ee1 2fbe 66d2 cebc 79fd fdbe 45b4 3f3e
00000290: 73b7 6ebd dfd5 d6be 2065 c1bd 5c82 10bf
000002a0: cead bebe 95d1 c1be 716b 43be fbbb ac3d
000002b0: ccab b43d 330a 5a3e 25bf 13bf 8274 873e
000002c0: 9dd1 3a3e 591e ed3e 862b 643e 09eb 633e
000002d0: ba56 e8be 731b ddbe b627 103f 9b03 4d3d
000002e0: 73d7 fa3d afbc 9e3e 91eb c53e eba4 163d
000002f0: d341 8fbc 0e29 7c3e 33cb acbe e82c bebe
00000300: 9de7 38bd 2401 d4bd 3cca 843f af64 953f
00000310: c8fc c23d 4895 0abf 7adf 04bf cfcf b63d
00000320: 615a 863e 1214 b53e 18e6 d2be 0380 96be
00000330: 6ff0 013f 5edd 463e 8acf 8fbe ae9d f5be
00000340: e6de bebc 28dd d2be 5cba 3b3f 9bbf 013f
00000350: ece6 10be 3252 29be 32f6 2c3e e6e6 debd
00000360: 74fd ae3e 2866 1c3f ecb7 033e 8268 1ebe
00000370: e6b6 20bf 60fd 95be 68ca f3be 9c18 b13d
00000380: 81bd 35be e1d8 933e a525 71bb 3e53 c83e
00000390: 268d b2be d851 cc3e 894c 973c 46e4 fa3e
000003a0: 94c1 a9be 13d3 97be 02fd b1be 4d76 153f
000003b0: 036b 68be 8ad6 c93e da92 813e 226a 443d
000003c0: 54e2 bf3e 7cb6 39be b49a c73d fcd7 c13c
000003d0: 9f67 743f 9cd2 93bc 89e1 25be b3bf a7be
000003e0: b14d 923d 80ec ecbe a825 b73d 8fe6 b13d
000003f0: aac8 8c3e 88be 8dbe 4067 e63e 96b0 3abd

network_body._body_endoder.seq_layers.0.bias f4 [128]
0.01578034 0.060745023 0.084024675 0.054266546 0.042278115 0.027984018 0.022582892 0.018931486
0.018742412 0.06966876 -0.00039722654 0.025972726 0.064320445 0.07112742 0.017383842 0.07290208
0.017060196 0.026364522 0.018037332 -0.012736526 -0.005732054 -0.008143655 0.047856122 0.027071632
0.035341024 -0.010216591 0.0018625023 0.08707176 0.060623985 0.015664972 0.022413291 0.053817563
0.0251951 0.061026484 0.008890249 0.03385336 0.031730857 0.019897876 0.006148144 -0.0068531535
0.005799501 0.014811988 0.035793707 -0.0063165356 0.015078552 -0.024787217 0.07218011 -0.010705044
0.027300233 0.004513016 0.04047604 0.04822022 -0.011084064 -0.011182925 0.06837034 0.05222917
0.020320568 0.044350892 0.055677895 0.039752334 0.023447055 0.0040837657 0.064611524 0.069725044
0.060973622 0.024981478 0.050882347 0.007328051 0.04636022 -0.000941429 0.042969577 -0.00816804
0.04622941 0.03795731 -0.0059826337 0.034511995 0.022743346 0.016322423 -0.00040824554 0.061744276
0.027778335 0.055646528 0.011264627 0.056052368 0.046263494 0.06353718 0.008487734 0.058216147
0.014330972 0.038894136 0.078848384 0.020039564 0.06781406 0.018991012 -0.0022007113 0.04120947
0.027589105 0.02028065 0.010965341 0.0036624447 0.017811246 0.044330295 0.008432545 0.00630886
0.040837068 -0.0022830502 0.07251801 0.0014967519 0.025847096 0.048614733 0.03682546 0.019400716
0.03753385 0.06137324 0.029738195 0.016443634 0.04521072 0.026405085 0.011723267 0.022843149
0.019060107 -0.0039221295 -0.00912242 0.025318269 0.027231693 0.033815812 -0.028389385 0.06763006
00000000: c645 813c c6cf 783d 2115 ac3d 9946 5e3d
00000010: d12b 2d3d bd3e e53c c2ff b83c 3416 9b3c
00000020: b089 993c 7fae 8e3d d842 d0b9 c1c4 d43c
00000030: 70ba 833d 41ab 913d 8f68 8e3c b04d 953d
00000040: d3c1 8b3c 69fa d73c 07c3 933c ddac 50bc
00000050: f4d3 bbbb f76c 05bc c804 443d 54c5 dd3c
00000060: c0c1 103d 7d63 27bc 351f f43a ae52 b23d
00000070: db50 783d d453 803c 149c b73c ce6f 5c3d
00000080: f465 ce3c e8f6 793d 68a8 113c d2a9 0a3d
00000090: 37f8 013d df00 a33c 5f76 c93b 6b90 e0bb
000000a0: be09 be3b fbad 723c 6c9c 123d f1fa cebb
000000b0: 080c 773c 900e cbbc 2ad3 933d 3564 2fbc
000000c0: bda4 df3c ece1 933b 34ca 253d 9182 453d
000000d0: ef99 35bc 9638 37bc c005 8c3d 41ee 553d
000000e0: 5277 a63c 48a9 353d 810e 643d 58d3 223d
000000f0: 0a14 c03c 1cd1 853b 0c53 843d 01cc 8e3d
00000100: 7abf 793d f5a5 cc3c 026a 503d 2620 f03b
00000110: 37e4 3d3d 3bca 76ba de00 303d 3ed3 05bc
00000120: 0d5b 3d3d 2079 1b3d f809 c4bb 735c 0d3d
00000130: 4150 ba3c 9ab6 853c ca09 d6b9 91e7 7c3d
00000140: 648f e33c 9ded 633d 458f 383c 2b97 653d
00000150: ca7e 3d3d c81f 823d 2310 0b3c 0e74 6e3d
00000160: 74cc 6a3c 754f 1f3d 437b a13d 032a a43c
00000170: 19e2 8a3d 0a93 9b3c cf39 10bb 43cb 283d
00000180: 8c02 e23c 9b23 a63c f9a7 333c a005 703b
00000190: e4e8 913c af93 353d a828 0a3c 8eba ce3b
000001a0: c544 273d 3a9f 15bb 5384 943d a92e c43a
000001b0: 4abd d33c 3e20 473d 4bd6 163d 40ee 9e3c
000001c0: 18bd 193d 8262 7b3d 849d f33c cdb4 863c
000001d0: e02e 393d 7a4f d83c f212 403c 8e21 bb3c
000001e0: f123 9c3c 3585 80bb 3476 15bc 4268 cf3c
000001f0: 0015 df3c 7382 0a3d db90 e8bc a181 8a3d

network_body._body_endoder.seq_layers.2.weight f4 [128, 128]
0.09385562 -0.07965293 -0.012655159 -0.036095005 0.064255945 0.04611478 0.02990412 0.08248571
-0.056426734 -0.15940513 -0.16158368 0.017849125 -0.18442105 -0.09541115 -0.06636267 0.18361674
-0.080778815 0.12277158 0.11200119 0.022001447 -0.12974654 0.20120738 0.034320127 -0.14927424
0.13302226 0.0026004645 0.13006428 0.12165431 -0.012808487 -0.0028920993 -0.0964364 0.08292869
-0.0062352745 0.13655043 0.026755486 -0.14937387 0.018018326 0.018848937 0.1622376 0.02719838
-0.08020542 0.047367323 0.022574024 0.066560276 0.049717966 -0.038360745 0.08679556 0.09415833
0.24057281 -0.027439786 0.064101554 0.13302416 -0.031578593 -0.029684635 -0.052182723 -0.18082938
0.17262985 0.30812508 -0.045523245 0.032146554 -0.18627676 0.050914697 0.025023038 -0.12115045
-0.054306686 0.09084687 -0.104690135 0.20891231 0.08133735 0.12557022 -0.039837316 -0.05583111
-0.05064896 0.040337518 0.053446896 -0.05468359 0.16843514 0.015719451 -0.025550853 -0.15592667
0.061774734 -0.10554308 -0.0014204284 0.006402445 -0.13838786 -0.065324284 0.003983724 4.1773856e-05
0.036607403 0.08421769 0.0066331974 -0.05262756 -0.09131479 -0.04465441 -0.06781 0.027463697
-0.040939536 0.020602047 0.06668005 -0.058911864 0.008976143 0.05948361 0.187939 0.11228231
-0.16421582 -0.08878104 -0.14375214 0.025699032 -0.03193727 0.0030855625 -0.07565982 0.10822461
-0.07315936 -0.2980709 -0.15356122 0.09320593 -0.019522278 -0.05352993 -0.09569077 0.04785505
-0.16948421 -0.0035397673 0.031752303 -0.04545878 0.06087399 0.050770853 -0.033776354 0.0608726
0.14418022 -0.05989786 0.11730077 0.034422033 -0.17423944 0.045805 0.29247183 -0.01004595
0.024416625 0.17305173 0.09284258 0.0675349 -0.1351044 0.086218864 0.063275136 -0.016216092
-0.030788073 0.07713289 -0.016669113 0.087913 0.009901553 0.03699601 0.1139588 -0.1119139
-0.06568985 0.096308984 0.05555791 -0.097311735 0.04810642 -0.041448638 -0.040188536 0.2346634
-0.028733391 -0.059532575 0.09186436 0.14778079 0.12535334 0.0058752378 0.039607733 0.038922258
-0.014907315 0.031175913 -0.1676817 -0.0005530927 -0.0063341754 0.022263277 0.13575344 -0.024314333
0.24360806 0.0071382406 0.067677684 -0.007788208 0.16488898 0.0808504 -0.036990862 -0.27449203
-0.019292263 0.037672095 -0.015250956 0.034041688 0.03560791 -0.08907165 -0.16887353 -0.08220346
-0.11438688 -0.11809422 0.05306096 -0.0018061195 -0.002965757 0.2557199 0.0058089243 0.15390453
-0.07686695 -0.2197779 0.06357252 -0.059337944 0.019622475 0.02059296 0.0028827065 0.063229606
0.022093372 -0.09310301 -0.03334533 -0.017088877 -0.04526665 0.12435336 0.042725712 0.040311735
0.029782582 0.040850993 0.09945762 0.09969767 -0.08297583 0.13057245 0.030492157 -0.06790037
-0.062476207 -0.07679134 -0.03863052 0.07469244 0.019884042 -0.013233997 0.09485968 0.03995378
-0.047920592 -0.04078316 0.13367914 0.13685112 0.1779328 0.044643573 0.07909814 0.06230265
-0.16655591 -0.003577843 0.029074797 -0.00086375314 -0.014223262 0.019376349 -0.024504082 -0.086594835
0.06422257 0.115913324 0.17235345 -0.06323696 0.032983847 0.24348193 -0.06714818 -0.04427982
00000000: 6037 c03d 1321 a3bd 9657 4fbc 5bd8 13bd
00000010: 9f98 833d dae2 3c3d 7cf9 f43c 45ee a83d
00000020: b81f 67bd 193b 23be 3176 25be 5438 923c
00000030: dfd8 3cbe ec66 c3bd 27e9 87bd 0706 3c3e
00000040: 5d6f a5bd ab6f fb3d e160 e53d 613c b43c
00000050: 47dc 04be 4f09 4e3e 4393 0c3d 59db 18be
00000060: fd36 083e 8e6c 2a3b 922f 053e e525 f93d
00000070: b0da 51bc 6089 3dbb 7380 c5bd 84d6 a93d
00000080: 4651 ccbb e0d3 0b3e 522e db3c 77f5 18be
00000090: 2b9b 933c 1669 9a3c 9d21 263e 23cf de3c
000000a0: bd42 a4bd 3d04 423d 29ed b83c c150 883d
000000b0: 11a5 4b3d 2820 1dbd dfc1 b13d 15d6 c03d
000000c0: b858 763e 67c9 e0bc ad47 833d 7c37 083e
000000d0: 8e58 01bd 312d f3bc 8dbd 55bd 562b 39be
000000e0: e1c5 303e 92c2 9d3e 9576 3abd 1bac 033d
000000f0: 56bf 3ebe ee8b 503d 1dfd cc3c ba1d f8bd
00000100: b070 5ebd ec0d ba3d c867 d6bd 1ced 553e
00000110: 3294 a63d 7b95 003e 742c 23bd 29af 64bd
00000120: 4975 4fbd f438 253d 22eb 5a3d e6fb 5fbd
00000130: 437a 2c3e 14c6 803c 0650 d1bc 3eab 1fbe
00000140: 8107 7d3d f826 d8bd ab2d baba 9acb d13b
00000150: 8cb5 0dbe bdc8 85bd e689 823b 5636 2f38
00000160: a5f1 153d 537a ac3d 4b5b d93b ff8f 57bd
00000170: 4003 bbbd 8be7 36bd f8df 8abd 8cfb e03c
00000180: 37b0 27bd a0c5 a83c 8d8f 883d 914d 71bd
00000190: ac10 133c 16a5 733d 1573 403e 45f4 e53d
000001a0: 3128 28be d5d2 b5bd c333 13be c786 d23c
000001b0: a8d0 02bd 2637 4a3b 89f3 9abd dda4 dd3d
000001c0: 93d4 95bd c09c 98be 273f 1dbe c0e2 be3d
000001d0: 2fed 9fbc 3342 5bbd 86f9 c3bd a803 443d
000001e0: 458d 2dbe 71fb 67bb b40e 023d fc32 3abd
000001f0: 0157 793d 19f5 4f3d 1359 0abd 8c55 793d
00000200: fba3 133e 7557 75bd 633b f03d 1efe 0c3d
00000210: d36b 32be 069e 3b3d debe 953e c597 24bc
00000220: 6005 c83c 7934 313e 4024 be3d bd4f 8a3d
00000230: cf58 0abe 8493 b03d 6596 813d 9cd7 84bc
00000240: 4537 fcbc d9f7 9d3d aa8d 88bc bb0b b43d
00000250: 203a 223c 2189 173d 3b63 e93d 1d33 e5bd
00000260: 6688 86bd a53d c53d b190 633d 604b c7bd
00000270: 3d0b 453d 0cc6 29bd bc9c 24bd 9a4b 703e
00000280: 4a62 ebbc 6ed8 73bd 6223 bc3d d953 173e
00000290: a05c 003e 1185 c03b b83b 223d f26c 1f3d
000002a0: d03d 74bc a164 ff3c c0b4 2bbe 6cfd 10ba
000002b0: ea8e cfbb 7a61 b63c f302 0b3e da2e c7bc
000002c0: 6474 793e e7e7 e93b 999a 8a3d 3934 ffbb
000002d0: a8d8 283e e594 a53d bb83 17bd 388a 8cbe
000002e0: cf0a 9ebc 0e4e 1a3d 25df 79bc 4c6f 0b3d
000002f0: 9ad9 113d 326b b6bd 2fed 2cbe 4a5a a8bd
00000300: ab43 eabd 62db f1bd 7356 593d 50bb ecba
00000310: 255d 42bb b8ed 823e ca58 be3b 2699 1d3e
00000320: 6b6c 9dbd 750d 61be 4f32 823d 580c 73bd
00000330: 50bf a03c 91b2 a83c caeb 3c3b 867e 813d
00000340: 29fd b43c caac bebd 1d95 08bd f9fd 8bbc
00000350: 8669 39bd f9ac fe3d 2801 2f3d eb1d 253d
00000360: 9afa f33c 5f53 273d 70b0 cb3d 4b2e cc3d
00000370: 3bef a9bd c9b4 053e b0ca f93c 590f 8bbd
00000380: 0de7 7fbd c744 9dbd 093b 1ebd 5af8 983d
00000390: dce3 a23c 68d3 58bc cb45 c23d 93a6 233d
000003a0: 6248 44bd 3e0c 27bd 2fe3 083e b322 0c3e
000003b0: 0434 363e 2edc 363d 35fe a13d 1031 7f3d
000003c0: a28d 2abe 3f7a 6abb 452e ee3c 7e6d 62ba
000003d0: af08 69bc 26bb 9e3c c9bc c8bc a258 b1bd
000003e0: 1f87 833d f763 ed3d 6c7d 303e 6182 81bd
000003f0: 121a 073d 5453 793e fc84 89bd c25e 35bd

network_body._body_endoder.seq_layers.2.bias f4 [128]
-0.0014296778 0.01614954 0.0026653646 0.0794504 0.03628779 -0.011610793 0.020866793 0.04730589
-0.001082456 -0.01134406 0.025218735 0.013631557 0.0305122 0.009170286 0.06015534 0.03454959
0.010795247 0.018820196 0.023139128 0.056373905 0.029537098 0.03505594 0.02552189 0.0024949757
0.06582231 0.005867443 0.01579995 0.02428463 0.055624552 0.023351064 -0.011495163 0.029781079
-0.007080278 0.04902579 0.030854706 0.0011177568 0.05460466 0.07307927 0.019782927 0.0024193584
0.022242872 0.0012235473 -0.011134644 0.03583567 -0.007341339 0.007756195 0.0441852 0.002995665
0.0309105 0.014380782 0.019374803 0.047569674 0.05368842 0.0015903831 -0.00075540197 0.005198939
0.0019832263 0.020595491 0.084080875 0.024767002 -0.008288677 0.019569634 0.011962358 -0.0043842196
-0.0019408597 -0.006118327 0.053068127 0.029300181 0.03728323 -0.012994677 0.028491072 -0.017160332
0.027019016 0.04488613 0.0019988979 -0.008831836 0.02170379 0.0020104 0.07780562 0.06991506
0.05395028 -0.017609416 0.018396368 -0.009444708 0.020729365 -0.0075293086 0.013886783 0.014738684
0.008657692 0.031317852 -0.01135304 0.009871802 0.033719745 -0.013968888 0.04077324 0.020180041
0.019392053 0.018118896 -0.004266379 0.06220971 0.00162542 0.01799209 0.062069576 -0.015929569
0.03392355 -0.0003710315 0.0037219438 0.02045733 -0.017375762 0.049304686 0.010791608 0.014216904
0.02293741 -0.000725551 0.06460987 -0.006349268 0.027183898 -0.006298553 -0.0072867414 0.040654555
0.010269078 0.0446658 0.020503981 0.0159801 0.021217596 -0.0048179408 -0.0014963681 0.0054759555
00000000: 0764 bbba 0a4c 843c 66ad 2e3b e4b6 a23d
00000010: 81a2 143d 323b 3ebc d6f0 aa3c d2c3 413d
00000020: 32e1 8dba 70dc 39bc 8597 ce3c e556 5f3c
00000030: b9f4 f93c f83e 163c 7265 763d df83 0d3d
00000040: 8cde 303c d02c 9a3c 458e bd3c 53e8 663d
00000050: c9f7 f13c d196 0f3d 4813 d13c bf82 233b
00000060: d9cd 863d ae43 c03b e66e 813c 8ff0 c63c
00000070: 92d6 633d bb4a bf3c 3556 3cbc 73f7 f33c
00000080: ad01 e8bb 44cf 483d 02c3 fc3c b281 923a
00000090: 23a9 5f3d 96aa 953d ce0f a23c 198e 1e3b
000000a0: af36 b63c 6f5f a03a 156e 36bc 6cc8 123d
000000b0: 9d8f f0bb ae27 fe3b 8afb 343d eb52 443b
000000c0: 0438 fd3c 5f9d 6b3c e8b7 9e3c 6bd8 423d
000000d0: 64e8 5b3d 6774 d03a 2b06 46ba dc5b aa3b
000000e0: 04f9 013b e0b7 a83c 9832 ac3d 2be4 ca3c
000000f0: 3bcd 07bc 7f50 a03c c4fd 433c 80a9 8fbb
00000100: 7264 feba 3f7c c8bb f75d 593d ef06 f03c
00000110: 4db6 183d a0e7 54bc 1c66 e93c d393 8cbc
00000120: fc56 dd3c 85da 373d f1ff 023b 68b3 10bc
00000130: 26cc b13c eac0 033b 8e58 9f3d a12f 8f3d
00000140: f8fa 5c3d 9f41 90bc fbb3 963c fabd 1abc
00000150: a1d0 a93c 6bb8 f6bb 6485 633c 857a 713c
00000160: fed8 0d3c 2647 003d 1a02 3abc 57bd 213c
00000170: b71d 0a3d c3dd 64bc d701 273d 9d50 a53c
00000180: 15dc 9e3c 146e 943c fbcc 8bbb 9ccf 7e3d
00000190: 0b0c d53a 2664 933c ab3c 7e3d ba7e 82bc
000001a0: 6cf3 0a3d 0187 c2b9 dbeb 733b 2196 a73c
000001b0: 9d57 8ebc b6f3 493d 49cf 303c 04ee 683c
000001c0: 3ce7 bb3c e732 3eba 2e52 843d 850d d0bb
000001d0: c4b0 de3c 1864 cebb 9ec5 eebb 6485 263d
000001e0: a33f 283c 7cf3 363d f7f7 a73c b3e8 823c
000001f0: 86d0 ad3c d1df 9dbb c821 c4ba a56f b33b

action_model._discrete_distribution.branches.0.weight f4 [10, 128]
-0.03921069 -0.017480629 -0.008875002 0.07613097 -0.0017395738 -0.03877909 0.020359576 0.046980564
-0.0191057 -0.019480465 -0.029075291 -0.0014748424 0.014702249 -0.04006984 0.070865296 -0.0016262284
-0.06364939 -0.006136433 -0.037170626 0.047947545 0.030420242 0.048179176 0.018329905 0.027348101
0.056721393 -0.019741887 -0.041743066 -0.01219261 0.03884085 -0.036847103 -0.048026312 -0.034905117
-0.05376009 0.05065093 -0.024034003 -0.035997063 0.06883808 0.068039045 -0.01446793 -0.021482935
-0.0058122277 -0.05605969 -0.02113661 -0.027796887 -0.010913302 -0.015382932 0.031851664 -0.03807256
0.048504625 0.005766879 -0.009978921 -0.01876083 0.060649015 -0.041599803 -0.05289407 -0.0028357655
-0.06376991 -0.04319159 0.08557289 -0.00874618 -0.038301583 -0.0032932658 -0.024326786 -0.051097654
-0.01687884 -0.028927967 0.07889285 -0.0026706965 0.040301524 -0.022062276 -0.016518727 -0.036683537
-0.02416044 0.025278475 -0.042055167 -0.04662794 0.0445401 -0.004134196 0.06715068 0.07048375
0.057734933 -0.04743821 -0.0064671948 -0.012983837 -0.02846807 -0.04215038 0.045738805 -0.03335638
-0.042897817 -0.05354467 -0.038079295 -0.059341557 0.048543233 -0.045869976 -0.01288391 -0.010658515
-0.00682828 0.033577483 -0.048225503 0.05648213 -0.036997877 -0.023352541 0.06488965 -0.03362523
0.026305467 -0.027216414 -0.041399073 -0.019342342 -0.04894209 0.05355406 0.03666344 -0.0035821798
0.0430441 -0.048126817 0.079252414 -0.050152797 -0.0068463488 -0.001647693 -0.015982708 0.014203796
0.012614491 0.02564152 -0.033547066 0.007237056 0.020954408 -0.032324545 -0.03874826 -0.06414639
-0.0062531577 0.014141661 0.008852595 0.03647554 0.008050101 -0.0109581165 0.043781824 0.013208809
-0.008135388 0.008365223 0.0039502797 0.020910364 0.016946787 -0.011906902 0.032626532 -0.0009170526
-0.046272382 -0.0013198827 -0.0123144705 0.012218875 0.00923568 0.012429918 0.004277387 0.013859161
0.018451076 -0.005086022 -0.023405187 -0.03940542 0.03398767 0.0058374247 -0.033746995 -0.025165241
-0.018532315 0.0036704282 -0.0052319234 -0.021033386 0.017657563 0.034737438 -0.038811084 0.015245419
0.009364237 -0.0067718076 -0.0227014 -0.008113104 0.00043437962 -0.004102806 0.0405431 -0.011445799
0.012142079 0.008110262 -0.009791447 0.0124075925 0.034566093 -0.00067477 -0.0039761746 -0.013873715
-0.042544127 -0.027572896 0.028082995 0.0022304456 -0.005668213 -0.002245698 -0.003217816 -0.038470324
0.016646825 -0.023854041 0.018611372 0.002344533 0.04103998 -0.017089201 0.0052215843 -0.034509517
0.009147296 0.020329986 -0.0011665933 -0.037866145 0.02958395 0.020527542 0.02148941 -0.006549196
0.0049351384 -0.043118004 0.0137487305 0.022560569 -0.025830286 -0.016398143 0.023608474 -0.013317245
-0.006638857 0.01283801 -0.020530008 -0.03199737 0.017294712 0.007081224 0.021922128 -0.003747426
0.022263609 0.035879087 -0.021882458 0.0037858495 -0.030008307 -0.046248227 0.016979313 -0.008342565
0.015143219 -0.0240281 -0.037906636 0.017854733 -0.020197429 0.024913115 0.0035442899 0.013826272
0.022744628 -0.023301898 0.002366763 -0.0022148825 0.02956473 -0.02857803 -0.022800345 0.0061847717
-0.005360524 -0.0029740238 0.0263637 0.0055493596 0.017670069 -0.015544392 -0.03178283 -0.04482446
00000000: 639b 20bd 8933 8fbc 7568 11bc 8eea 9b3d
00000010: 6902 e4ba d3d6 1ebd 20c9 a63c b16e 403d
00000020: 8f83 9cbc 7f95 9fbc 4e2f eebc 804f c1ba
00000030: b4e1 703c 4620 24bd d321 913d 2c27 d5ba
00000040: 9d5a 82bd 2214 c9bb 3a40 18bd a564 443d
00000050: df33 f93c 8757 453d 9928 963c 2009 e03c
00000060: b154 683d bdb9 a1bc c7fa 2abd 83c3 47bc
00000070: 9517 1f3d fdec 16bd 3db7 44bd abf8 0ebd
00000080: 8a33 5cbd 5977 4f3d f5e2 c4bc a871 13bd
00000090: fbfa 8c3d 0e58 8b3d e60a 6dbc fbfc afbc
000000a0: 8074 bebb d89e 65bd af26 adbc 4cb6 e3bc
000000b0: b5cd 32bc b108 7cbc e476 023d f9f1 1bbd
000000c0: c9ac 463d 16f8 bc3b a17e 23bc 50b0 99bc
000000d0: 1a6b 783d 8e64 2abd 74a7 58bd 40d8 39bb
000000e0: cc99 82bd aae9 30bd d740 af3d 234c 0fbc
000000f0: 1fe2 1cbd d5d3 57bb f848 c7bc c64b 51bd
00000100: 7e45 8abc 58fa ecbc 9392 a13d da06 2fbb
00000110: 3613 253d f2bb b4bc 4852 87bc 7a41 16bd
00000120: 1dec c5bc ce14 cf3c 0a42 2cbd f0fc 3ebd
00000130: ae6f 363d 2678 87bb 4c86 893d c959 903d
00000140: 777b 6c3d 924e 42bd c3ea d3bb 29ba 54bc
00000150: df35 e9bc e0a5 2cbd 9d58 3b3d b3a0 08bd
00000160: 9fb5 2fbd a851 5bbd 09f9 1bbd 2210 73bd
00000170: 45d5 463d 28e2 3bbd 0917 53bc 0da1 2ebc
00000180: c4bf dfbb 8b88 093d 1b88 45bd ce59 673d
00000190: 168b 17bd d44d bfbc dde4 843d 9cba 09bd
000001a0: 907e d73c f5f4 debc 1392 29bd d573 9ebc
000001b0: 8077 48bd 815b 5b3d 672c 163d 01c3 6abb
000001c0: 034f 303d a020 45bd 174f a23d 056d 4dbd
000001d0: 5657 e0bb 67f7 d7ba 2bee 82bc 0ab7 683c
000001e0: 03ad 4e3c 2a0e d23c a668 09bd d324 ed3b
000001f0: 94a8 ab3c be66 04bd 7fb6 1ebd 2f5f 83bd
00000200: 4ae7 ccbb 6db2 673c 7a0a 113c 6067 153d
00000210: 92e4 033c ac89 33bc 9254 333d c369 583c
00000220: 4a4a 05bc 4a0e 093c 5971 813b 364c ab3c
00000230: fdd3 8a3c 2b15 43bc 66a3 053d 5c66 70ba
00000240: 1c88 3dbd eaff acba a2c2 49bc ad31 483c
00000250: 4051 173c dba6 4b3c 5329 8c3b 8911 633c
00000260: b626 973c a5a8 a6bb 3cbc bfbc 9467 21bd
00000270: a836 0b3d de47 bf3b 4a3a 0abd 5627 cebc
00000280: 15d1 97bc 918b 703b 8e70 abbb 354e acbc
00000290: 98a6 903c d848 0e3d 5ff8 1ebd ecc7 793c
000002a0: 756c 193c 0ae6 ddbb 49f8 b9bc d3ec 04bc
000002b0: 72bd e339 d570 86bb 8610 263d 2987 3bbc
000002c0: 92ef 463c e8e0 043c 4e6c 20bc 3749 4b3c
000002d0: 2d95 0d3d 0ce3 30ba 924a 82bb 944e 63bc
000002e0: c042 2ebd 8ee0 e1bc 4f0e e63c ab2c 123b
000002f0: 6bbc b9bb 8f2c 13bb fee1 52bb 0f93 1dbd
00000300: ec5e 883c 8d69 c3bc e076 983c bda6 193b
00000310: 8a19 283d a7fe 8bbc d319 ab3b da59 0dbd
00000320: 8ade 153c 128b a63c 60e8 98ba 8819 1bbd
00000330: 0a5a f23c 6029 a83c 8f0a b03c a39a d6bb
00000340: f1b6 a13b 819c 30bd 5b42 613c f1d0 b83c
00000350: 099a d3bc 6655 86bc 8f66 c13c 9330 5abc
00000360: c58a d9bb 8456 523c 8c2e a8bc ad0f 03bd
00000370: a4ad 8d3c 9d09 e83b 0996 b33c 6097 75bb
00000380: 2c62 b63c f3f5 123d d742 b3bc 041c 783b
00000390: fbd3 f5bc c86e 3dbd 3318 8b3c 41af 08bc
000003a0: 441b 783c 94d6 c4bc fd43 1bbd 1744 923c
000003b0: 1475 a5bc 9716 cc3c 5147 683b 9787 623c
000003c0: f152 ba3c 9fe3 bebc b21b 1b3b 9027 11bb
000003d0: bc31 f23c 791c eabc cac7 babc a0a9 ca3b
000003e0: 56a7 afbb d7e7 42bb b0f8 d73c 67d7 b53b
000003f0: d2c0 903c e8ad 7ebc b62e 02bd da99 37bd

action_model._discrete_distribution.branches.0.bias f4 [10]
0.035355136 0.0043777917 -0.018046744 -0.00814158 0.0019951737 -0.0057312744 -0.0017211558 -0.004990793
0.00036441893 0.007092865
00000000: 8cd0 103d 9473 8f3b c4d6 93bc 4364 05bc
00000010: 76c1 023b 6acd bbbb 6898 e1ba ce89 a3bb
00000020: 7b0f bf39 446b e83b

action_model._discrete_distribution.branches.1.weight f4 [10, 128]
0.003551891 -0.0584159 -0.011092181 -0.038962264 0.061652213 -0.039586592 0.028551461 -0.008502807
-0.045240678 -0.016716177 0.058778264 -0.05257152 0.06106295 -0.05310193 -0.045476016 0.075488724
-0.019391812 -0.030714005 0.06051302 -0.03718647 0.022653876 -0.009896675 0.06904681 -0.039242033
-0.04122434 -0.04063185 -0.016563313 -0.010411188 -0.015214241 0.036714546 -0.014242816 -0.03683462
-0.04991476 -0.064732745 0.045404475 -0.03664217 -0.0325907 -0.018400408 -0.021488085 -0.008389631
-0.03734913 -0.013953679 -0.02189247 -0.008320698 -0.032343917 0.044304486 -0.0030246763 -0.0036220925
0.020080896 0.056260534 -0.027553353 0.087389275 0.0020117231 -0.013969426 0.025061835 -0.0156475
0.00966623 -0.019280339 -0.04959524 0.06568263 -0.00015751508 0.05084486 0.016764643 -0.027950132
-0.033677533 -0.025060445 -0.005771526 0.042944364 -0.021283807 -0.024554359 0.07114136 -0.02296754
-0.026298959 -0.038916383 -0.032061946 -0.031095391 -0.0028018523 -0.00025748214 -0.029175889 -0.065681525
-0.023316862 -0.016555598 0.045744084 -0.031576935 -0.012172404 -0.031919632 -0.01927229 -0.037217114
-0.020793255 0.008507101 -0.046108607 -0.032271672 0.009213877 -0.038272195 -0.02278603 0.047701225
-0.040300727 0.0007043024 -0.030558303 -0.035037562 -0.040010203 -0.02092249 -0.043034878 -0.007517625
-0.009982381 -0.0168131 -0.02818566 -0.062026706 -0.026129501 -0.003780691 -0.0121482005 0.08378866
0.02138278 -0.0117852865 -0.06345389 -0.017187616 0.05023973 -0.03190389 -0.045744903 0.05400914
0.00077409454 -0.018540774 -0.022077028 0.0019997715 -0.035078563 -0.0377758 -0.0048030224 -0.03278769
-0.02727933 -0.029301284 0.013377001 -0.021388372 0.019979198 -0.012720302 -0.019233182 -0.01625027
-0.010749644 -0.018530393 0.043899387 -0.019156264 -0.008302665 -0.017503314 -0.0145258885 0.047441956
-0.005110398 0.005215943 -0.004299606 -0.012065684 0.019060705 -0.0070325243 0.018048767 -0.009589371
0.0035423948 -0.03052579 -0.026779572 0.020617304 -0.019722173 0.013052451 -0.020013856 0.008116299
-0.020970799 -0.0019307768 0.026027618 -0.001670616 -0.027567176 -0.01931388 -0.021518638 -0.0058738366
0.018294044 -0.013722254 0.014937651 0.04721055 0.0040718247 0.050956044 -0.019922419 -0.02976937
-0.00516376 0.02782065 -0.014154146 -0.018065678 -0.023748199 0.008579014 0.007550608 -0.046877835
-0.012269636 0.010209038 -0.01061919 0.048838798 0.018360483 0.04809205 0.0217378 -0.010143854
-0.0051799975 -0.02518835 -0.009597884 0.0012413851 -0.021227127 0.019354282 -0.007930514 -0.014645534
-0.04076424 0.014852444 -0.014001779 -0.024263794 -0.011610897 -0.03475661 -0.01143494 -0.01741488
-0.045312047 -0.013108706 0.043067988 -0.04128022 -0.0044436255 -0.036627196 -0.022453772 -0.025594262
0.004334184 -0.012868577 -0.008153735 -0.028236924 -0.030771948 -0.015075968 -0.009367276 0.044069838
-0.0259012 -0.017364895 -0.038537018 -0.0027330825 -0.028799117 0.0112201795 -0.01492372 -0.024570627
-0.0022521866 -0.009167539 -0.0093074255 -0.008742272 -0.0131635675 -0.03034955 -0.025027145 0.030244945
-0.020513378 0.0037895492 0.010793395 -0.007761291 -0.007955324 -0.01183383 -0.00034501552 -0.021384362
-0.032901917 -0.0003623104 0.0353683 -0.0050081685 -0.002997694 -0.01566353 -0.003995277 -0.017906703
00000000: d8c6 683b 8345 6fbd fbbb 35bc e596 1fbd
00000010: 0887 7c3d 8d25 22bd c1e4 e93c 5b4f 0bbc
00000020: 4a4e 39bd 5df0 88bc 7ac1 703d 3c55 57bd
00000030: 251d 7a3d 6981 59bd 0f45 3abd d599 9a3d
00000040: 94db 9ebc f09b fbbc 80dc 773d d750 18bd
00000050: 9f94 b93c aa25 22bc 6a68 8d3d 41bc 20bd
00000060: dbda 28bd 956d 26bd c9af 87bc b093 2abc
00000070: 2745 79bc fe61 163d b35a 69bc e6df 16bd
00000080: 6b73 4cbd 9a92 84bd 0bfa 393d 1a16 16bd
00000090: d37d 05bd 74bc 96bc c807 b0bc aa74 09bc
000000a0: 67fb 18bd f99d 64bc d657 b3bc 8953 08bc
000000b0: 0e7b 04bd 9f78 353d a639 46bb a160 6dbb
000000c0: b180 a43c 7271 663d 92b7 e1bc 26f9 b23d
000000d0: 1dd7 033b 05e0 64bc 7a4e cd3c 302f 80bc
000000e0: 1b5f 1e3c cdf1 9dbc 6124 4bbd 9d84 863d
000000f0: a22a 25b9 b342 503d 0156 893c adf7 e4bc
00000100: 74f1 09bd 904b cdbc 121f bdbb 6ee6 2f3d
00000110: 615b aebc 3926 c9bc 90b2 913d 6c26 bcbc
00000120: ea70 d7bc c966 1fbd 6353 03bd c3bb febc
00000130: 489f 37bb abfe 86b9 4602 efbc 0984 86bd
00000140: 0103 bfbc 9b9f 87bc 265e 3b3d d156 01bd
00000150: c36e 47bc 29be 02bd ece0 9dbc f970 18bd
00000160: 9e56 aabc 5e61 0b3c 61dc 3cbd 4d2f 04bd
00000170: cdf5 163c 4ec3 1cbd c5a9 babc 5c62 433d
00000180: 6012 25bd efa0 383a 6855 fabc 8c83 0fbd
00000190: bde1 23bd a465 abbc 5745 30bd 6956 f6bb
000001a0: 248d 23bc a0bb 89bc 9de5 e6bc b70f 7ebd
000001b0: 890d d6bc 78c5 77bb 3f09 47bc 6499 ab3d
000001c0: f12a af3c 1317 41bc 1df4 81bd 0bcd 8cbc
000001d0: 2dc8 4d3d a7ad 02bd 025f 3bbd b038 5d3d
000001e0: 9bec 4a3a d2e2 97bc e2da b4bc 990e 033b
000001f0: 8aae 0fbd ccba 1abd ac62 9dbb 634c 06bd
00000200: e778 dfbc 3f09 f0bc 352b 5b3c ab36 afbc
00000210: 6aab a33c d068 50bc e88e 9dbc 491f 85bc
00000220: 461f 30bc 0dcd 97bc d8cf 333d 99ed 9cbc
00000230: e707 08bc 1c63 8fbc fefd 6dbc 7f52 423d
00000240: 2075 a7bb 80ea aa3b b6e3 8cbb 26af 45bc
00000250: 3225 9c3c 1771 e6bb 02db 933c bd1c 1dbc
00000260: 8627 683b 3911 fabc d560 dbbc 9fe5 a83c
00000270: 6590 a1bc f3d9 553c 19f4 a3bc 3afa 043c
00000280: f4ca abbc 1e12 fdba df37 d53c 92f8 daba
00000290: 8fd4 e1bc 2438 9ebc db47 b0bc 5079 c0bb
000002a0: 64dd 953c 4ed3 60bc 0dbd 743c da5f 413d
000002b0: f16c 853b 49b7 503d 5734 a3bc e5de f3bc
000002c0: c234 a9bb 22e8 e33c cbe6 67bc 79fe 93bc
000002d0: 958b c2bc fe8e 0c3c 176b f73b f902 40bd
000002e0: 9506 49bc cf43 273c 1cfc 2dbc 310b 483d
000002f0: b968 963c 2bfc 443d 7913 b23c 6832 26bc
00000300: f8bc a9bb cc57 cebc 7140 1dbc f9b5 a23a
00000310: 83e4 adbc df8c 9e3c fdee 01bc d2f3 6fbc
00000320: 67f8 26bd aa57 733c b867 65bc ddc4 c6bc
00000330: a23b 3ebc f25c 0ebd 9d59 3bbc a7a9 8ebc
00000340: 2099 39bd e6c5 56bc 0f68 303d 7315 29bd
00000350: d59b 91bb 6606 16bd f9f0 b7bc 0fab d1bc
00000360: c505 8e3b b9d6 52bc 3e97 05bc 1f51 e7bc
00000370: 7415 fcbc 3101 77bc 3479 19bc 9382 343d
00000380: c12e d4bc d340 8ebc fed8 1dbd 841d 33bb
00000390: 20ec ebbc d8d4 373c 9e82 74bc 5748 c9bc
000003a0: 6c99 13bb 7233 16bc 2c7e 18bc bf3b 0fbc
000003b0: 01ac 57bc 9f9f f8bc ba05 cdbc 3fc4 f73c
000003c0: ac0b a8bc 165a 783b c8d6 303c 6e52 febb
000003d0: 0c57 02bc aee2 41bc 33e3 b4b9 422e afbc
000003e0: 29c4 06bd 7bf4 bdb9 5ade 103d 901b a4bb
000003f0: f674 44bb ce50 80bc d0ea 82bb 14b1 92bc

action_model._discrete_distribution.branches.1.bias f4 [10]
0.020769408 -0.0048455205 0.006421948 -0.02394595 -0.004219575 0.0013656644 0.0036171784 -0.0070762252
-0.00066333095 0.0075389147
00000000: 9b24 aa3c 2cc7 9ebb 346f d23b 4c2a c4bc
00000010: 5c44 8abb 1800 b33a 2f0e 6d3b aedf e7bb
00000020: 63e3 2dba 0009 f73b

onnx::Div_65 f4 [10]
2.9073894 2.9197187 3.04713 3.0649335 3.153952 3.1589072 3.2174826 3.2203975
3.2428374 3.225802
00000000: ab12 3a40 acdc 3a40 2e04 4340 df27 4440
00000010: 59da 4940 892b 4a40 3ceb 4d40 fe1a 4e40
00000020: a68a 4f40 8a73 4e40
