Assets/Test/Config/results/CheeseWorld4/CheeseWorld4/checkpoint.pt (torch, 510059 bytes, 48 tensors)

discrete_act_size_vector f4 [1, 2]
000000 00 00 20 41 00 00 20 41
       10.0 10.0

network_body.observation_encoder.processors.0.normalizer.running_mean f4 [18]
000000 ed 83 d9 3f 61 c6 f4 3f 8e 3d c0 40 48 af 05 40
       1.6993386 1.912304 6.007514 2.0888233
000010 6c 80 15 40 d1 34 cf 40 1b 90 21 40 3e 45 34 40
       2.3359632 6.4751973 2.5244205 2.8167262
000020 a8 5d db 40 fb 7f 41 40 9d b6 54 40 2d 1c e8 40
       6.8551826 3.0234363 3.3236458 7.2534394
000030 70 e7 62 40 17 40 79 40 79 65 f4 40 bc 2f 84 40
       3.5453758 3.8945367 7.637387 4.130827
000040 1c 9a 8f 40 d2 52 00 41
       4.487562 8.02022

network_body.observation_encoder.processors.0.normalizer.running_variance f4 [18]
000000 44 1b 02 4a fa 2b 0a 4a 69 30 79 4c 96 dc 1a 4a
       2.131665e+06 2.2638065e+06 6.5323428e+07 2.5372535e+06
000010 59 a5 23 4a dd 7a 82 4c 1b df 30 4a d4 6c 3b 4a
       2.6811742e+06 6.8409064e+07 2.8978628e+06 3.070773e+06
000020 d2 c2 86 4c 90 0c 45 4a f7 af 49 4a cc 9a 8a 4c
       7.065358e+07 3.228452e+06 3.3044458e+06 7.266877e+07
000030 0c 18 4f 4a a5 bf 53 4a f5 a9 8f 4c c7 9c 54 4a
       3.393027e+06 3.4692892e+06 7.5321256e+07 3.4834418e+06
000040 00 40 50 4a 4b 91 96 4c
       3.411968e+06 7.894076e+07

network_body.processors.0.normalizer.running_mean f4 [18]
000000 ed 83 d9 3f 61 c6 f4 3f 8e 3d c0 40 48 af 05 40
       1.6993386 1.912304 6.007514 2.0888233
000010 6c 80 15 40 d1 34 cf 40 1b 90 21 40 3e 45 34 40
       2.3359632 6.4751973 2.5244205 2.8167262
000020 a8 5d db 40 fb 7f 41 40 9d b6 54 40 2d 1c e8 40
       6.8551826 3.0234363 3.3236458 7.2534394
000030 70 e7 62 40 17 40 79 40 79 65 f4 40 bc 2f 84 40
       3.5453758 3.8945367 7.637387 4.130827
000040 1c 9a 8f 40 d2 52 00 41
       4.487562 8.02022

network_body.processors.0.normalizer.running_variance f4 [18]
000000 44 1b 02 4a fa 2b 0a 4a 69 30 79 4c 96 dc 1a 4a
       2.131665e+06 2.2638065e+06 6.5323428e+07 2.5372535e+06
000010 59 a5 23 4a dd 7a 82 4c 1b df 30 4a d4 6c 3b 4a
       2.6811742e+06 6.8409064e+07 2.8978628e+06 3.070773e+06
000020 d2 c2 86 4c 90 0c 45 4a f7 af 49 4a cc 9a 8a 4c
       7.065358e+07 3.228452e+06 3.3044458e+06 7.266877e+07
000030 0c 18 4f 4a a5 bf 53 4a f5 a9 8f 4c c7 9c 54 4a
       3.393027e+06 3.4692892e+06 7.5321256e+07 3.4834418e+06
000040 00 40 50 4a 4b 91 96 4c
       3.411968e+06 7.894076e+07

network_body._body_endoder.seq_layers.0.weight f4 [128, 18]
000000 59 49 1e 3f 16 34 33 3e af 0a fe 3c 39 88 7d be
       0.6183067 0.17500338 0.031010954 -0.24758996
000010 2f 45 8c bd 17 f8 93 be 96 d8 96 3d a6 70 6f 3e
       -0.06849133 -0.28900215 0.07365529 0.23382816
000020 48 38 a3 3d cc ff 68 3e cb f3 28 be 13 53 96 3e
       0.07969719 0.22753829 -0.1649925 0.29360256
000030 dc bf 2f be dc df 08 bc 43 ef 26 bf f9 dc 9e 3e
       -0.17163032 -0.0083541535 -0.65208834 0.31027964
000040 7e a5 31 3f 5c 1f 21 3e 61 52 c7 be f9 7b aa bd
       0.69393146 0.15734619 -0.38930038 -0.08324427
000050 bc 67 80 be 3e 51 25 3d 9f 7c 92 bd 3c a5 13 bf
       -0.25079143 0.04036068 -0.07152676 -0.57674
000060 58 84 31 3e a1 bd 95 3d 1f 9c 5f be f6 fc 13 be
       0.17335641 0.073115595 -0.21836899 -0.14451966
000070 7d 74 d3 bc cf c8 00 bf 91 f2 b9 3e 6b 88 b0 3d
       -0.025812382 -0.5030641 0.36317876 0.0861977
000080 a3 06 ae be e0 95 67 3d 06 7c 7b 3e 8a a0 ea be
       -0.33989438 0.056539416 0.2455903 -0.45825607
000090 36 b0 49 3e 31 56 19 3c f7 f6 b2 bc 71 57 87 bd
       0.19696125 0.009358929 -0.021846278 -0.06608475
0000a0 fc 16 33 be f2 03 c0 be 67 57 cf be 34 14 68 3d
       -0.17489237 -0.3750301 -0.4049637 0.056659892
0000b0 18 9c 53 3e 2b 5b 0f 3e 7b 1a cf be 92 6a 4a be
       0.20665014 0.13999622 -0.4044989 -0.19767216
0000c0 2d cc a5 be f7 32 80 be 94 9f 5d be ae 54 0f bf
       -0.32382336 -0.25038883 -0.21642905 -0.55988586
0000d0 5a ce b8 be f5 cd 3b 3d 4d 95 4c 3e c5 bd 49 3e
       -0.36094934 0.045850713 0.19978829 0.19701298
0000e0 85 63 87 3e 9d dc 08 bb 3d 9c e6 3e 51 e6 23 3d
       0.26443115 -0.002088345 0.45041075 0.04001457
0000f0 c6 52 07 bd 24 d8 63 3e 2e 8b 0e be b9 43 5b be
       -0.033037923 0.2225042 -0.1392028 -0.21412553
000100 62 fa 9b 3e d2 be 9c bd 17 9d 18 be a2 d7 7b 3e
       0.30464464 -0.076535836 -0.14903675 0.24593976
000110 8d 50 00 3e 8b 40 97 3e 22 b2 3b 3d 59 d0 25 be
       0.12530728 0.2954143 0.045824178 -0.1619276
000120 39 ea f0 3e 2a e0 97 3e 6f 6b 82 3d 9f 1a 56 3d
       0.47053698 0.2966321 0.063681476 0.05227148
000130 55 df b5 3e 0b ab 7e bc 55 45 8d 3d 32 3a a9 3e
       0.3552195 -0.0155437095 0.0689799 0.33052212
000140 44 2c 9e bd 46 19 99 3e db 15 f2 3d c5 a4 e7 bc
       -0.07723287 0.29902095 0.11820575 -0.02827681
000150 07 c9 5c bd b4 72 99 3e 64 f9 2f be eb 8b 6f 3e
       -0.053902652 0.29970324 -0.17184979 0.23393218
000160 31 ea 87 3e 96 85 c8 bc fc 75 11 bd 0d e7 82 be
       0.2654586 -0.024477761 -0.03551291 -0.25566903
000170 ae 8c 5e 3e 53 7b f4 bd 9b 30 73 3e 05 ac 8b 3e
       0.21733353 -0.11937585 0.2374901 0.27279678
000180 10 32 92 be 01 b0 57 3d 46 40 2e be 3b d7 d6 be
       -0.2855382 0.052658085 -0.17016706 -0.41961083
000190 45 b1 72 be 6a b1 b6 bd e1 94 d1 bd 19 a1 c1 bd
       -0.23700435 -0.08920558 -0.102334745 -0.09454555
0001a0 d1 a3 c2 3d dd 19 24 be bf 0d d0 3e 17 81 8e be
       0.09503902 -0.16025491 0.40635487 -0.27832863
0001b0 f8 4e ac 3e d2 88 b1 be bf 3d 20 bc f2 ab f4 3d
       0.33653998 -0.34674698 -0.009780346 0.119468585
0001c0 f8 78 83 bc 17 af 4c 3e 93 b2 04 be 07 b1 8b be
       -0.016048893 0.19988666 -0.12958746 -0.272835
0001d0 45 a7 47 3d fd f0 92 be 09 b1 06 be 98 f3 3b be
       0.048743505 -0.28699484 -0.13153471 -0.18354642
0001e0 fd 4d ce be fd af f4 3e de a9 ae 3b 21 13 0c be
       -0.40293875 0.47790518 0.0053303083 -0.13679172
0001f0 d0 09 fe be cb 6d f8 3e 3e 1b b6 3d 38 0d ac be
       -0.4961686 0.48521265 0.08891915 -0.33603835
000200 0c fd a3 3d c5 14 ec 3e f4 db 44 be a3 ca 46 3e
       0.08007249 0.46109596 -0.1922453 0.19413237
000210 6c 25 b3 3d 08 68 33 be 87 0f a8 3d 06 3f ec 3e
       0.08747372 -0.17520154 0.082060866 0.46141833
000220 a3 e3 37 3e 25 6a 84 be b3 91 d7 3e c7 26 a1 3d
       0.1795793 -0.25862232 0.42103347 0.07868724
000230 1e db 13 3e 82 23 93 be 0a 91 8b 3d b1 02 67 be
       0.14439055 -0.28738028 0.068147734 -0.2255962
000240 6b 6b 6b be 38 50 c0 3d ba 48 81 3e 6c 20 b2 be
       -0.22990195 0.093903005 0.25250798 -0.3479036
000250 71 94 6e 3c 23 21 72 3e 81 1e 0a bf ae 99 f4 3d
       0.014561758 0.23645453 -0.53952795 0.119433746
000260 aa e5 81 3d db d9 a9 bd 9b 6e d8 be ef 3e ce bb
       0.06342633 -0.08293506 -0.42271885 -0.0062941234
000270 b4 e1 0a bf 4d 6e 8e be 41 2d ff 3d 99 94 30 be
       -0.54250646 -0.27818528 0.124598034 -0.17244186
000280 8a b0 c4 3e 13 48 dd 3c df 5c 4a bd 18 91 2f bf
       0.3841594 0.027011907 -0.049404975 -0.6858077
000290 eb 10 8a 3d d5 1c 22 bd 19 f2 11 3e ad 89 b0 bd
       0.06741508 -0.039578278 0.14252509 -0.086200096
0002a0 5f 36 54 3d 65 14 13 3e 44 ae 5c be 53 46 03 3e
       0.051809665 0.14363249 -0.21550852 0.12819795
0002b0 a3 a8 da 3d fc 11 2f be 08 0d 0b 3f a9 5b 1f bd
       0.10676696 -0.17096704 0.5431676 -0.038905773
0002c0 e9 5c b1 bd 4e f9 1c 3f f5 60 0f 3f 95 7f e8 be
       -0.08660299 0.6131791 0.5600732 -0.45409837
0002d0 26 00 4a 3e 14 c1 e8 bc 09 39 9e be d5 54 20 be
       0.19726619 -0.02841238 -0.3090289 -0.15657361
0002e0 4d fb 37 3e f6 39 9c be ea 7d d3 3c 9b 92 83 3d
       0.17966957 -0.3051297 0.025816876 0.06424447
0002f0 65 f5 b4 3d 99 fd aa be d8 1e 1f 3f 40 11 9f 3e
       0.08835868 -0.33396605 0.6215644 0.31067848
000300 f1 65 19 bd cd 46 23 bd ca 9f bc be 09 d4 e5 3d
       -0.037450735 -0.039862443 -0.3684066 0.11222083
000310 a6 77 9b 3d 58 3b 9a 3d 4e 1d 98 be a3 ac 47 3d
       0.075911805 0.0753085 -0.29709858 0.048748624
000320 6d 8b 81 3c aa f9 e4 3d 5a ff 99 bd e7 e2 3a 3d
       0.015813554 0.11180432 -0.075194076 0.045626547
000330 8a 32 62 be 24 a4 32 bc 7d f7 97 be 22 cb 6d 3a
       -0.22089592 -0.010903392 -0.29681006 0.00090711017
000340 5a 02 f9 3e ce f2 3f be 82 4f 21 be 22 f5 85 3d
       0.48634607 -0.18744966 -0.15752986 0.06540896
000350 2a 81 f1 be c8 a9 19 bf c4 13 b4 bc 9c 7b c3 3e
       -0.47168857 -0.6002469 -0.021982081 0.38180244
000360 87 e3 3e 3d c5 57 63 3c 7c 46 b6 be f8 9a a9 3d
       0.046603706 0.013875906 -0.3560065 0.08281511
000370 cc 38 19 3f 0e 16 90 bd 12 9b 5e 3e 8d c7 d3 be
       0.5985229 -0.070354566 0.21738842 -0.41363183
000380 a7 0c 6b 3c b5 24 6a 3e e1 62 64 3e 39 6a 47 3e
       0.014346278 0.22865565 0.22303344 0.19474114
000390 6b b2 ca 3e ff 83 99 3e af 43 93 3e e4 20 34 3f
       0.39589247 0.29983518 0.28762576 0.7036269
0003a0 16 1b b3 3d 23 81 82 bd 28 f5 a1 3d 28 7e 98 bd
       0.087454006 -0.06372287 0.07908088 -0.074459374
0003b0 e9 c0 32 bc fd 47 79 3e bc b9 2a be 5f 7c 5b 3d
       -0.010910251 0.24343868 -0.16672415 0.053585406
0003c0 29 e1 22 be 6b 9e a7 be 8e a9 25 3e a6 08 85 bd
       -0.15906204 -0.3273805 0.16177961 -0.0649579
0003d0 cc 3e e9 be 6a a0 85 3e 71 7f 40 3e 31 02 a5 be
       -0.45555723 0.2609895 0.18798615 -0.32228234
0003e0 3d 48 82 be 29 90 c1 3e 12 a2 a2 3e 1f df ca be
       -0.25445738 0.37805298 0.31764275 -0.39623353
0003f0 64 44 da be d3 e2 55 3d 77 3f 3e 3e 73 50 d4 bb
       -0.42630303 0.05221827 0.18578897 -0.006479317

network_body._body_endoder.seq_layers.0.bias f4 [128]
000000 95 ec 7e 3d 7a bd 22 3e 7e 95 ef 3b 1f 81 b0 bd
       0.06223734 0.15892592 0.007311522 -0.08618378
000010 1d be d6 bd 32 3a 81 3d 82 60 d7 bd 8d b2 e0 3d
       -0.1048548 0.06309928 -0.10516454 0.10971556
000020 b5 83 70 3d 2f d6 26 3e 1c 6a 55 3e ac 86 18 3e
       0.058719356 0.16292642 0.20841259 0.14895123
000030 4b d2 31 bd 43 e7 3e 3e 5f cb b4 3d 73 f8 c2 3d
       -0.04341344 0.18642907 0.088278525 0.09520044
000040 6f a5 2d 3c 93 e4 31 3c 02 b6 8b 3d aa 51 35 3e
       0.0105985245 0.010857719 0.068218246 0.17706934
000050 68 08 96 3d 19 03 ae bb 57 06 3c 3e 52 2f 3a 3e
       0.07325822 -0.005310428 0.18361793 0.18182114
000060 04 6e 2f 3e 0c f7 81 3e 91 70 8a 3e 41 c1 ad bd
       0.17131811 0.25383794 0.27039006 -0.08484126
000070 63 60 95 3e 5d 49 32 3e 99 20 b8 3c 9c 66 25 3e
       0.291751 0.17410798 0.022476481 0.16152424
000080 8d e1 10 3d 30 a6 cc 3d 8a 3f 72 3e 5a 10 75 3e
       0.035371352 0.09992635 0.2365705 0.23932019
000090 27 cc 39 3e 83 b5 25 3e 4e ef 05 3e 7b 85 c1 bd
       0.18144284 0.16182522 0.13079569 -0.094492875
0000a0 34 14 b2 3c ea 2a 1c 3e 09 39 17 3e 6d 53 23 3e
       0.02173815 0.15250745 0.14767851 0.15949793
0000b0 ae e8 91 bc 7b 4d 12 3e 56 aa 40 be 45 71 cb bd
       -0.017811146 0.14287369 -0.18814978 -0.09933714
0000c0 a2 a2 1a 3e c5 5c 25 bc 6f 29 e3 3c 4a 56 df bc
       0.15101102 -0.010092919 0.027729718 -0.027262826
0000d0 e4 76 dd 3d 36 0b 27 3e 97 49 26 3e 86 15 30 3e
       0.10813692 0.1631287 0.1623901 0.1719571
0000e0 8e 64 8d 3e 39 ab d8 3d da a0 5c 3c be 46 9d bc
       0.2761578 0.10579533 0.013466084 -0.019198772
0000f0 96 b7 00 be f3 59 90 bd 9a 38 57 3e 3d ed d9 3d
       -0.12570032 -0.070484065 0.21017686 0.10640953
000100 13 82 bb 3d ee 80 3e 3e 1e 2b 10 3e 12 4b 29 3e
       0.09155669 0.1860387 0.14078948 0.16532543
000110 e4 1c a8 3d eb e9 d3 3c 93 fc c0 bc 9c cd eb 3c
       0.082086354 0.025868377 -0.023557937 0.028784566
000120 9d af b6 3b 5d c4 1f 3e 14 47 d5 3d 11 e2 3d bc
       0.005575134 0.1560225 0.10413948 -0.011589543
000130 57 fd 22 3e c5 3a 3a bb d1 e2 10 bc 18 1b 4f bc
       0.15916954 -0.0028416377 -0.00884314 -0.012640737
000140 80 34 d8 3d bb 37 c7 bb 59 bb 5d 3d 99 df a6 3d
       0.105568886 -0.0060796416 0.054133747 0.081481166
000150 db 24 4f 3d 2b 31 07 3e 0c a0 34 3e b2 15 4c 3e
       0.050572257 0.1320235 0.17639178 0.19930151
000160 3d c7 cc 3d 1c 61 2f 3e ae d3 97 bd a2 75 86 3d
       0.09998939 0.17126888 -0.074134216 0.065654054
000170 7d d0 99 3d ca 8d e0 3d 3f 63 18 3e 96 e0 85 3d
       0.07510469 0.10964544 0.1488161 0.06536977
000180 bd 4b a2 3d 10 3b 04 3e 48 05 35 3d 0b a6 af 3d
       0.07924602 0.12913156 0.04419449 0.08576592
000190 34 33 d4 3c c4 07 9f bd 16 27 1e 3e a7 ae 8f 3d
       0.025903322 -0.07765153 0.15444598 0.07015734
0001a0 38 a8 76 3e ef 2f 1d 3e 8b 23 e3 3d 87 35 82 3d
       0.24087608 0.15350316 0.11090764 0.06357866
0001b0 8e c9 c8 3d b6 72 92 3d b2 d5 9d 3d d2 f4 4d 3e
       0.098040685 0.071507856 0.07706775 0.20112923
0001c0 53 c2 06 bd f1 2c 0d 3e c1 13 74 3c c9 d8 44 3e
       -0.032900166 0.13786675 0.014897288 0.19223322
0001d0 21 22 6c 3d a6 f2 e8 3d bd 47 9e bd 18 1a 8d bc
       0.057649735 0.113744065 -0.07728527 -0.017224357
0001e0 41 f9 0b 3e a5 c0 12 3e 41 c6 55 3c 74 f4 f4 3d
       0.13669302 0.143313 0.013047756 0.11960688
0001f0 91 27 09 3e bc fa 3e 3e 29 9f 3d 3e d0 a6 b0 3d
       0.13394 0.18650335 0.18517746 0.08625567

network_body._body_endoder.seq_layers.2.weight f4 [128, 128]
000000 e0 3d 10 3e cf af 80 bc c7 27 87 3c 2f 81 a8 3e
       0.14086103 -0.015708832 0.01649846 0.3291106
000010 c4 1c f5 bc 06 7b f4 bd 15 02 5d be c3 6e 66 bd
       -0.029920943 -0.11937527 -0.21582825 -0.056257974
000020 bf 65 32 be df d0 8a 3e 0d d7 09 3d 42 15 4b be
       -0.17421626 0.2711248 0.033652354 -0.19832328
000030 02 b7 8d 3e 1c d7 de 3b c1 1c 23 3c de 21 89 bc
       0.27678686 0.0068005454 0.009955586 -0.016739782
000040 02 d3 82 3d bd 46 9c bb 22 42 75 3c d3 b9 11 be
       0.06387903 -0.004769175 0.014969381 -0.14231043
000050 37 0f b2 bd 69 ec 75 bd a0 11 74 bd ed 08 01 3e
       -0.08694308 -0.06003991 -0.05958712 0.12601061
000060 ba 53 4f 3c b1 41 af bc 2d c8 f9 3c 70 19 33 3d
       0.012654239 -0.021393629 0.030490959 0.04372543
000070 ec 70 16 bc 34 04 aa 3d 5b 7a be 3d 66 ca ce bd
       -0.009182196 0.08301583 0.09300681 -0.10097198
000080 68 13 7b 3d 66 b3 1e 3d 62 9b 12 3b 28 ff a8 3c
       0.061297804 0.038745306 0.0022370447 0.02062948
000090 b4 de 40 be 4b c4 50 3e b3 21 f7 3c 2b cf 1f 3e
       -0.18834955 0.2038738 0.030167436 0.15606372
0000a0 02 d9 16 3d f9 0f 65 be a3 5c 67 be 64 6e 11 be
       0.03682805 -0.22369374 -0.22593932 -0.14202267
0000b0 84 3a 84 bd 88 87 80 3d ed c8 72 bd 8c a9 27 bc
       -0.064564735 0.062758505 -0.05927365 -0.010233294
0000c0 98 42 69 3d c9 ca 2b 3e e8 81 bc 3b d7 9d f9 3c
       0.056948274 0.16776575 0.0057527907 0.030470772
0000d0 a3 b0 e5 3d c9 46 8f 3c 2e b6 a1 3d 66 73 17 3e
       0.112153314 0.017489808 0.07896076 0.14790115
0000e0 c2 e3 7e bd 73 04 37 bd 0a ec 25 3e 29 5f 10 3e
       -0.062228926 -0.044681977 0.16203323 0.140988
0000f0 80 9b 98 bd e6 14 c4 bd ee 5b 9d be ef b2 8e bc
       -0.07451534 -0.095742986 -0.307342 -0.017419307
000100 7f d2 1f be ff 58 63 3c 63 02 48 be 87 05 6d bd
       -0.15607642 0.013876199 -0.1953216 -0.0578666
000110 7d 1f 71 bd 94 d2 73 bd c0 22 e7 3d cb 61 81 3b
       -0.05886792 -0.059526995 0.11285925 0.0039484254
000120 70 7d 8b 3d 0d d9 f1 3d 83 2d 62 be cf 48 0d 3e
       0.06811035 0.11808977 -0.22087674 0.13797306
000130 db c1 9c be fc d2 ce bc ec 10 68 3e 0c 0a 09 bd
       -0.3061665 -0.02524709 0.22662705 -0.033456847
000140 55 76 ed 3c 16 88 f4 bc 4c 53 11 3e b6 39 8e bd
       0.02898709 -0.029850047 0.14191931 -0.06944601
000150 94 4e 1f bd 95 3c dd bd 71 f6 14 bd 27 cd b0 3d
       -0.038893297 -0.10802571 -0.036367837 0.0863288
000160 77 63 8b 3d e0 49 ad bd 39 19 c9 3d 41 e0 94 3d
       0.06806081 -0.08461356 0.09819264 0.072693355
000170 1b 0f 33 3d 0e dd ed 3d bc eb c2 bd 32 56 6e be
       0.043715578 0.116144285 -0.09517619 -0.23275068
000180 6c ca 78 3d 24 04 89 be e0 cc 2b be 89 1e bb 3d
       0.06073992 -0.26760972 -0.16777372 0.091366835
000190 3a 5c 12 bd 55 bb ea bd 72 db 01 be 7c 07 67 bd
       -0.035732485 -0.11461512 -0.12681368 -0.056403622
0001a0 fd 8e a1 bb ba 95 cd 3d 8f 90 c3 bd 37 a3 66 3e
       -0.0049303756 0.10038324 -0.09549057 0.22523199
0001b0 ee e0 d1 3d 15 b1 48 3d df 27 10 bd c7 02 72 be
       0.1024798 0.048997004 -0.035194274 -0.23633872
0001c0 f7 01 7c 3d 38 af 43 3e a1 8c 24 3e ec 98 a1 be
       0.06152531 0.1910981 0.1606927 -0.31561983
0001d0 ac 60 42 3d 1a 96 59 bd a5 35 2d be c5 a0 4f 3d
       0.047455475 -0.053121664 -0.16914995 0.05069043
0001e0 2a 9b cd 3d 74 9e 03 3e 19 d8 62 3e fc 95 04 be
       0.10039361 0.12853414 0.22152747 -0.1294784
0001f0 f2 ef 31 be 09 1e fd 3c 44 81 09 be 36 e7 c5 3d
       -0.17376688 0.030898111 -0.13428217 0.096632406
000200 64 64 df 3d e7 dd fc 3d 7c 8d ef bd 17 bc 06 3d
       0.1090782 0.12347012 -0.11696908 0.03289422
000210 58 26 92 3d a2 b9 05 be 0e 87 a7 bd 46 97 e8 3c
       0.0713622 -0.13059095 -0.081800565 0.028392445
000220 84 7e 90 bd 3a b3 eb 3d 47 fa 27 3d 9c 1f 17 3e
       -0.07055381 0.11508794 0.041010167 0.14758152
000230 2a cf 41 3e 0c df b2 bd 11 05 bd bc b6 03 a9 3c
       0.18926683 -0.08733949 -0.023073705 0.020631652
000240 15 e1 1d bd 8f eb bd 3d 0e 1d 7c bd 83 a2 5a 3e
       -0.038544733 0.09273445 -0.061551146 0.21351056
000250 82 c7 5c 3c 42 08 f0 bd 94 a3 ac bd fc 6f e0 3c
       0.013475301 -0.11720325 -0.084296376 0.027397148
000260 da 9d 81 bd 6f 36 18 be ca 67 0b be d7 9d b5 3c
       -0.06328936 -0.14864515 -0.13613811 0.02216999
000270 21 fa 19 be 6d 4d e8 3b 9b ba 74 3e e2 15 27 be
       -0.15036823 0.007089308 0.2389931 -0.16316941
000280 20 af cd bc e8 22 3d 3d 62 60 ed 3c 19 db 75 bd
       -0.02510792 0.046175867 0.028976623 -0.0600234
000290 bf 6f 58 ba e3 f3 52 3d 17 b2 1a 3e a1 f1 e3 bc
       -0.00082563976 0.05150212 0.15106998 -0.027825179
0002a0 0d 95 92 bd 58 2d d2 bd ea 94 ae bd d2 76 82 bc
       -0.071573354 -0.10262555 -0.08524497 -0.015925799
0002b0 22 25 c0 bd a2 fd 3b 3d 96 09 cc bc ab 90 a0 bd
       -0.093820825 0.04589618 -0.024906915 -0.07840093
0002c0 5c 58 1d 3e a8 2e 01 be 65 32 13 be c5 38 75 bb
       0.15365738 -0.12615454 -0.14374693 -0.003741787
0002d0 24 02 82 3e 50 5a cc bd b9 9c b9 3c 10 cb 99 3c
       0.25392258 -0.09978163 0.022657739 0.018773586
0002e0 d7 c4 3a be 23 ff 5b 3e 31 97 19 3e b2 63 51 3d
       -0.18239151 0.21484046 0.14999081 0.051120467
0002f0 e0 49 f6 bc ef 65 47 bc 14 06 51 3d 78 6d 56 3e
       -0.030064523 -0.012170299 0.051031187 0.20940197
000300 c1 7c 80 bd 53 1d 40 3e 4c e4 84 bd 5d 19 7a 3d
       -0.06273795 0.18761186 -0.06488857 0.061059345
000310 12 74 9b 3c ca ee 5e 3e a8 1d 90 3d 1c 53 83 bd
       0.018976245 0.21770778 0.070369065 -0.06412336
000320 c4 63 c6 3d f0 64 86 bd ad 17 b5 bd 98 05 1f bd
       0.096869975 -0.06562221 -0.088424064 -0.038823694
000330 0e b4 30 bd 11 50 ae be b2 1e c5 3d e0 f1 cb 3b
       -0.043140464 -0.3404546 0.09624995 0.006223902
000340 e0 26 ea 3d 08 9e 8d bc 7e 6b 34 3e a9 0c 7e 3d
       0.11433196 -0.01728727 0.1761913 0.062023792
000350 28 4d bc 3d db 3e ee bd f5 71 16 3e 58 ce 18 be
       0.09194404 -0.116330825 0.14691909 -0.14922464
000360 5c fc 2e 3e 17 1a 9d 3e 75 84 4b bc 56 ac b0 bd
       0.17088455 0.30683967 -0.012421717 -0.086266205
000370 03 2c 28 3e 0c a1 8a 3d 58 e1 8c 3d 2a 47 1c be
       0.16423039 0.067689985 0.068789184 -0.15261522
000380 95 84 83 3d 09 82 96 bd 27 da 1f be b0 ac 09 be
       0.064217724 -0.07349021 -0.15610562 -0.13444781
000390 6f 1f fc bc 62 f0 d3 bc cd 48 95 3d 47 95 2b bd
       -0.030776707 -0.02587146 0.07289276 -0.04189041
0003a0 74 64 26 bd 8c 5c 1d 3e c6 41 bb 3c 16 79 44 bd
       -0.040623143 0.15367335 0.022858512 -0.04796704
0003b0 e6 fe 98 3d 0c 4b 2c 3d 6b de 06 3c bf b5 a6 3d
       0.07470493 0.042063758 0.0082317395 0.08140134
0003c0 67 ea 80 3d db c5 d2 3d dc f4 bf 3d 42 ca 00 be
       0.06294709 0.10291644 0.09372875 -0.12577155
0003d0 d2 67 66 3c 07 cb 26 be ee 2d 03 be 95 90 8c 3d
       0.014062839 -0.16288386 -0.1281049 0.06863514
0003e0 44 91 25 be b1 fa 76 be 61 ce 19 3e 24 2d ff bd
       -0.16168696 -0.24119069 0.15020134 -0.12459782
0003f0 11 e0 8c bd d1 81 82 bc d7 ad 64 be b6 da 07 3d
       -0.06878675 -0.015931042 -0.2233194 0.033167563

network_body._body_endoder.seq_layers.2.bias f4 [128]
000000 b6 4c 47 bc 6a 2d c9 bc 11 53 82 3a ef e3 f1 3b
       -0.012164285 -0.024557788 0.0009942969 0.007381908
000010 8b 7f 3c bc c4 e8 f8 3d 66 9a 27 3d 68 7f d5 3d
       -0.011505018 0.121537715 0.04091873 0.104246914
000020 a5 6a 96 3e 37 bd 12 bd ad 85 04 be 92 5a 0a 3e
       0.29378238 -0.03582498 -0.12941618 0.13511112
000030 90 61 72 bd 23 aa d4 bb 28 2e 3d 3e b4 81 b8 3d
       -0.059175074 -0.0064900084 0.18474638 0.09009114
000040 82 e5 86 3e 2f 63 11 be 3a 0b bc 3e 26 47 bc 3d
       0.26346976 -0.14197992 0.36727315 0.09193258
000050 16 2e c9 3d e2 a8 98 3d dd 5e d7 bd e4 04 7c 3d
       0.09823243 0.07454087 -0.105161406 0.0615281
000060 0d 58 ab 3d be ba db bd 74 8a b0 3a 10 e9 09 3e
       0.08366404 -0.107289776 0.0013468997 0.13467813
000070 ca e8 1d 3d 04 3e 3f 3d bb d1 fc bd d0 2a 10 3c
       0.038552083 0.046690002 -0.123446904 0.00879927
000080 b2 9f 0a be 6e 2e 05 3e 28 44 1d 3e 12 a1 f4 bc
       -0.13537481 0.13005993 0.15358031 -0.02986196
000090 4b b7 02 3e ef 43 9e 3e 4d df 82 bb 8f 18 a3 3e
       0.12765233 0.30911204 -0.0039939047 0.31854674
0000a0 bb 50 9d 3d 12 2c a4 bd d4 9e e4 bc 64 af ea bd
       0.07681414 -0.08016218 -0.027907766 -0.11459234
0000b0 03 94 88 3d d9 5f 0f 3e 9c d7 57 3e 26 eb 9d 3c
       0.06668856 0.14001407 0.21078342 0.019277167
0000c0 d9 38 2e 3d e0 2a 66 3e 52 b9 95 3c 11 b2 9a bd
       0.042534683 0.22477293 0.018276844 -0.07553495
0000d0 43 4d 16 3c 6f 63 84 3b 80 d4 2f bd c7 37 51 3e
       0.009173694 0.0040401737 -0.042927265 0.20431434
0000e0 7f d3 a9 bd 70 66 5f 3d fb a4 a3 bd d2 de 93 3c
       -0.08292293 0.05454105 -0.07990452 0.018050585
0000f0 38 9e 18 3a b4 15 4e 3e 9d 95 3b 3e e9 5d be 3d
       0.0005821916 0.20125467 0.18318792 0.09295256
000100 f3 c6 e0 3c 7d bc 61 bd fc bc 1c 3e 3d b3 47 3d
       0.027438616 -0.055111397 0.15306467 0.04875492
000110 71 51 60 3e 03 2c b3 3d 63 1c cf 3d 9b b0 33 3e
       0.21906067 0.08748629 0.10112836 0.17547838
000120 c3 88 68 3e 14 9a b6 3d 20 2a 7f 3d d3 20 a9 3d
       0.2270842 0.08916107 0.062296033 0.08258214
000130 19 7f 1e 3e 6b b9 fb bd 8c 7f 94 3d ab 31 0c 3e
       0.15478171 -0.12291225 0.0725089 0.13690822
000140 fa bf 8e 3d dd a6 cd 3d b8 3c 5c 3d cf fd 7e bd
       0.069702104 0.10041592 0.053768843 -0.06225377
000150 d6 0f de bc e2 7e 77 bc 96 4b 46 3b 79 1d 3f 3e
       -0.02710716 -0.015105935 0.0030257455 0.18663587
000160 c6 01 12 3e 57 44 50 3e fd 9c 07 3e f6 86 8c bd
       0.14258489 0.2033857 0.1324348 -0.06861679
000170 fa 40 17 be 94 51 9b 3d 99 37 11 3e 0e bc ed bd
       -0.1477088 0.07583919 0.14181365 -0.11608134
000180 5f 9f a1 3c bf f8 bc 3c be 83 f4 bd 88 3f 50 bd
       0.019729314 0.02306783 -0.1193919 -0.050841838
000190 46 c2 92 bd cf e8 59 3e 53 0b 04 bc 91 c3 58 3d
       -0.07165961 0.21280216 -0.0080593405 0.05292088
0001a0 53 b7 c9 3d 45 1b eb 3b d5 02 19 be 26 39 ea 3d
       0.098494194 0.0071748816 -0.14942487 0.114366814
0001b0 8f ef 0e 3e 35 8a 90 3d 35 84 12 be eb 05 2e bc
       0.13958572 0.07057611 -0.14308245 -0.010621528
0001c0 8f fb 6f 3e 04 df 16 3e 3a 1e a3 3d 49 54 2e 3e
       0.23435806 0.14733511 0.0796475 0.1702434
0001d0 40 26 eb 3c 7d 71 c9 3b 5c 9c a9 3d ab 6a e9 3d
       0.028704762 0.006147562 0.08281776 0.113972984
0001e0 e5 8d df bd 73 23 97 3d 89 65 a4 3e af 6d d2 bd
       -0.10915736 0.07379808 0.32108715 -0.10274827
0001f0 b2 55 f3 3c 64 d9 fb 3d b4 1d 64 bd 17 3e 97 3d
       0.029703949 0.12297323 -0.05569239 0.073848896

action_model._discrete_distribution.branches.0.weight f4 [10, 128]
000000 b5 4e b9 3d 21 21 ae bc b9 1f 24 bd 26 5d f1 3c
       0.09048215 -0.021256031 -0.040069316 0.029463362
000010 a0 c6 80 3d af 8e 58 3d d8 97 87 bd cf 52 3e 3d
       0.06287885 0.05287045 -0.06620759 0.04646569
000020 c7 83 bd ba 65 78 4e 3d 5e 56 2c 3d 3e 4f b9 bc
       -0.0014458828 0.050407786 0.042074554 -0.022620793
000030 3c bc f8 3a e9 52 92 3d 48 01 0f bd 8a c2 3e be
       0.0018976997 0.0714472 -0.03491333 -0.18628898
000040 5f 16 8e bc b9 42 03 3d 1f f6 8a bd a6 72 b8 3b
       -0.017344652 0.032046054 -0.06785225 0.0056289015
000050 23 73 c2 3d 97 65 ce 3d ff f5 dc 3c b7 94 f1 bd
       0.09494617 0.100779705 0.026972769 -0.11795943
000060 36 54 45 bd fe 6c 2d bd 65 47 b1 bd 0d 89 f6 bd
       -0.048176013 -0.04234027 -0.086561956 -0.12037859
000070 10 23 72 3d ea 4b ff 3c 9b 00 52 bc 7e c7 3c 3d
       0.05911547 0.031164128 -0.012817527 0.046088688
000080 1f 36 85 bd 53 ba 4b bd 82 ec c3 bd 66 8a 28 bc
       -0.065044634 -0.04973824 -0.09566595 -0.010286903
000090 58 f7 61 3d c8 7a b7 3c 7f aa 4a bd 43 51 90 bc
       0.055167526 0.022397414 -0.049479004 -0.017616874
0000a0 96 50 72 bd 61 ea b4 3c 07 f4 af bd 3a 39 81 bb
       -0.059158884 0.022084417 -0.085914664 -0.0039435895
0000b0 de 6d f6 3d b2 3a 1f 3d 54 47 27 be cd 6b 7e ba
       0.12032674 0.038874336 -0.16335803 -0.00097053946
0000c0 26 75 95 3d 9c e3 d5 bd aa db aa 3d 71 91 c0 bd
       0.07297735 -0.10443804 0.08342679 -0.09402741
0000d0 a0 9e ea bc 04 e2 e9 bc 5e b8 7d 3c 93 84 e0 bb
       -0.028640091 -0.028550155 0.015485851 -0.0068517416
0000e0 f0 fc 8f 3d e2 3f d1 3c 57 9b 3e 3c c8 65 5e bd
       0.07030666 0.025543157 0.011633716 -0.054296285
0000f0 1c 8a 9e bd 5a d0 e8 bd e5 f9 4e 3d 7a 74 cc bd
       -0.07741186 -0.11367865 0.050531287 -0.09983154
000100 54 18 a9 bd 8e 4b a4 bd 8b 42 2c bd fd 66 69 bb
       -0.08256593 -0.080222234 -0.042055648 -0.0035614364
000110 7a 5e 08 bd 35 33 10 bd 4b 2e 99 3d 4d 65 11 be
       -0.033293225 -0.035205085 0.07479533 -0.141988
000120 8a 13 2f 3d 83 b2 ce bd 7e fc 62 bd cb 24 80 bd
       0.042743243 -0.10092642 -0.055416577 -0.06257018
000130 f8 dc 15 3d 4d 9b fd 3b a3 07 8c bd 04 0a b4 bc
       0.036587685 0.0077394606 -0.06837394 -0.021977432
000140 cd 08 01 bd d7 86 d5 3d 9b d8 b6 3c 1c 06 44 3d
       -0.031502534 0.10426109 0.022320082 0.04785739
000150 e5 d2 2e bd 7e 27 87 bd c6 5e a4 3d ff f2 cc bd
       -0.042681593 -0.065993294 0.08025889 -0.10007285
000160 32 fb 1e bd 87 e9 5c 3c e9 26 c0 bd 9e b1 a4 bd
       -0.038813777 0.013483412 -0.093824215 -0.0804169
000170 8e 01 0d bd 66 c2 f0 bc 24 df 0e be b2 73 ff bc
       -0.03442531 -0.029389571 -0.13952309 -0.031183098
000180 fa 62 c9 3d f2 0b 6c 3d a0 1f 3c bd c4 ab 30 3b
       0.098333314 0.05762858 -0.045928597 0.002695785
000190 34 3e c0 3c d1 ef 68 bd 22 34 6c bd 20 84 61 bd
       0.02346716 -0.05686933 -0.057666905 -0.055057645
0001a0 af 57 e6 bc 6f 57 81 3d dc 23 57 bd 13 a8 79 3d
       -0.028117983 0.06315505 -0.052524433 0.060951304
0001b0 4d 43 c5 bd 61 1f c4 3d a7 e7 a7 bb a3 0c c8 3c
       -0.09631977 0.095762976 -0.0051240507 0.024420088
0001c0 aa ef ff bc 19 30 fc 3c 55 0f d5 bd d2 66 5f 3c
       -0.03124221 0.030784653 -0.10403315 0.013635354
0001d0 c1 a3 bc bd d4 fb 7f bd 89 f4 be bb 99 03 08 3d
       -0.09210921 -0.06249602 -0.0058274907 0.033206556
0001e0 a7 f0 1f 3d 66 77 41 bd 9c 27 a7 3d 03 e2 f5 3c
       0.039047863 -0.047233008 0.08161852 0.030014997
0001f0 45 91 27 3d 6e 1a b4 bd 1b 82 6b bd 6f 79 3e 3d
       0.040910024 -0.087941036 -0.057497125 0.046502527
000200 bc af 51 3d 57 d3 57 3d ed 65 31 3d 5e 23 64 bc
       0.051192984 0.052691784 0.043310095 -0.013924448
000210 d6 ff 0a bc ae cd 2e 3d 4f 25 48 3b 17 a1 a5 3c
       -0.008483848 0.04267662 0.0030539816 0.020218415
000220 c7 51 b2 bd e5 f5 9f 3d 90 6e 50 bc f0 7b 8b 3c
       -0.08707004 0.078105725 -0.012721673 0.017026871
000230 52 09 df bb 32 48 77 3d 2d 17 32 bd 85 8b 0a be
       -0.006806531 0.060371585 -0.043479133 -0.13529785
000240 fb 58 1d 3d 77 e6 eb bc 77 e1 04 be 7f d9 0e 3d
       0.038414937 -0.028796418 -0.12976633 0.03487539
000250 ab 46 09 3d 26 1c 0f 3d 07 58 c3 bb 21 96 dd 3c
       0.03351466 0.034938954 -0.0059614214 0.027049126
000260 25 dc cd 3c 96 0b 88 3c 9f d8 38 3c 09 6b 2f bd
       0.025129387 0.016607087 0.011282115 -0.042826686
000270 0e 38 3b 3d bf c0 64 3d d6 e5 3c ba 47 6b 56 3d
       0.045707755 0.05584788 -0.0007205879 0.0523484
000280 ab f1 44 bd 32 4f 9e bc c1 4e 62 bd 83 da 6c 3d
       -0.048082035 -0.019324873 -0.055250887 0.057825577
000290 4b 74 25 3d 2d 31 f7 bd fb 8f 0f bc 92 bb b7 bd
       0.04039411 -0.120699264 -0.008762355 -0.08971323
0002a0 43 11 22 be ad bd 91 3d b6 5f a7 ba 9e c8 05 bc
       -0.15826897 0.07116256 -0.0012769613 -0.008165507
0002b0 fb 96 60 3d 37 a4 27 3c 2b 65 c9 bd 51 2c 24 3d
       0.054831486 0.010232023 -0.098337494 0.040081326
0002c0 91 12 a6 3d 90 b6 9d bd 88 f3 80 3d 86 dd 42 bd
       0.0810901 -0.07700837 0.0629645 -0.047574542
0002d0 ff 6b 5e 3d 7d 9c d4 3c 2e f6 3c 3c 66 ad a1 bd
       0.05430221 0.025953526 0.011533303 -0.07894401
0002e0 c6 f4 24 3d c9 17 b4 bd 7f eb 98 3c f8 e9 98 3d
       0.040272497 -0.08793599 0.01866698 0.07466501
0002f0 4a 80 33 3d 01 8b c1 bd 09 a0 6c 3c 50 23 d0 bd
       0.043823518 -0.09450341 0.014442452 -0.10162985
000300 f3 bf c6 3c 39 d4 28 3d e4 a1 e3 3c 43 f3 91 3d
       0.02426145 0.041218016 0.027787156 0.071264766
000310 b8 bc c5 bd f0 6d a0 3a 25 9b 1e 3d 96 14 7b bd
       -0.09655136 0.0012239795 0.038722176 -0.06129893
000320 18 52 99 3d b5 00 78 bd b0 63 09 3d 8b f3 2e 3d
       0.07486361 -0.06054755 0.033542335 0.04271273
000330 42 66 46 3d 6a 8f f5 bb 51 ec 86 3c 6d b6 09 3d
       0.048437364 -0.007493903 0.016470106 0.03362124
000340 ee 9d 0a be c4 ee 39 3d 9d 1b 85 3d b2 d3 47 3d
       -0.13536808 0.04539372 0.064994074 0.048785873
000350 ab 8b 5f 3c 55 79 bc 3a e4 44 8d 3d f5 a5 9d bd
       0.013644139 0.0014379421 0.068979055 -0.076976694
000360 3d 60 9f bd 85 87 b6 3c f3 46 b4 3b a7 9d 8b bc
       -0.07782028 0.022281418 0.005501622 -0.017042948
000370 1b de 7b 3c 2c 0f 4d 3d c1 0f eb bd 22 7a f7 bb
       0.015372778 0.050063297 -0.11477614 -0.007552401
000380 d3 b2 84 3d 01 87 75 3d c4 9e fb 3c 68 31 9f 3d
       0.064794205 0.059943203 0.030715354 0.07773095
000390 4e 2d c7 3c 5b f2 b1 bd 63 69 c6 3c 3f b1 99 bc
       0.024313595 -0.08688804 0.024220174 -0.018761275
0003a0 81 87 d8 3c e2 93 a6 3d f6 10 84 3d dd f0 14 3d
       0.0264318 0.08133675 0.064485475 0.036362518
0003b0 d0 3b e8 bd f3 51 75 3d 85 b8 25 3c c7 03 a4 3d
       -0.11339533 0.059892606 0.010114794 0.08008533
0003c0 56 5b 36 bd 53 5d d7 3c fa b2 ae 3b 00 6c 1b 3d
       -0.0445207 0.026289618 0.0053313943 0.037944794
0003d0 ec c0 28 bc 8d 9b 3f 3d 9e c9 50 bc e3 6e db 3c
       -0.010299902 0.046779204 -0.012743382 0.026786273
0003e0 bb 3d 64 3d 29 c9 d0 3c 4e b1 9e 3d 13 24 bb 3c
       0.055722933 0.025486546 0.07748662 0.02284435
0003f0 4b bd 94 bc af 97 8a 3c e0 85 1d 3d 85 83 24 3d
       -0.018156668 0.016918031 0.03845775 0.04016449

action_model._discrete_distribution.branches.0.bias f4 [10]
000000 bf 97 80 bd 27 9e 8a bd 6a b9 d4 3a b3 d6 8e 3d
       -0.06278943 -0.067684464 0.0016229574 0.069745444
000010 ce 57 b8 3d cf 6b 29 3d ae ad 35 3e df b4 a7 3b
       0.090011224 0.04136258 0.17742035 0.005117997
000020 87 9c 06 be fd c8 85 bd
       -0.13145648 -0.06532476

action_model._discrete_distribution.branches.1.weight f4 [10, 128]
000000 3c 4a 1b 3c 45 e8 a9 bc d2 d3 c4 3d b5 a0 97 bd
       0.009478148 -0.020740638 0.09610714 -0.07403699
000010 ce e3 08 be 32 e8 19 bd 43 a0 40 bc 83 c4 cb bd
       -0.1336815 -0.037574954 -0.011756959 -0.09949591
000020 a4 4c c1 bd cb 9a 24 ba 6c 93 22 bd 1d 8c 67 3d
       -0.09438446 -0.00062791695 -0.039691374 0.056530107
000030 b7 8a 5b bd 36 97 55 bd d4 f6 9d bd b6 c8 0c 3c
       -0.053599086 -0.05214616 -0.07713094 0.008592775
000040 6d 86 36 bd 7a d8 1d bd 35 af d9 bd b0 f1 a3 bd
       -0.044561792 -0.038536526 -0.10629121 -0.080050826
000050 e9 47 a6 bd fa 92 af bd f6 6c b9 bd e2 5a c0 3a
       -0.081191845 -0.085729554 -0.09053986 0.0014675523
000060 62 ad c0 3d 83 c6 2e bd 6c 44 1c 3d d5 f3 c3 3d
       0.0940807 -0.042669784 0.03815119 0.09567992
000070 f3 32 34 bd 39 d3 45 3c b5 4a 27 bd 89 c8 36 bd
       -0.0439939 0.012074285 -0.04084273 -0.04462484
000080 0c de 78 bc e4 57 d4 3d 75 c9 d3 bd e5 ca 2d 3b
       -0.015189659 0.10368326 -0.10341159 0.002651864
000090 b8 57 8a bd 78 f2 14 be 1c d2 f7 bb 9b b1 0f be
       -0.06755012 -0.1454562 -0.007562889 -0.14032595
0000a0 1d 69 fa bd 9a 92 8f 3c 6f ff 98 bc 4b 9a 9d bb
       -0.1222708 0.01752596 -0.018676488 -0.004809653
0000b0 b4 2e ab bd 43 bb a3 bd 47 12 66 3d 9f 06 a6 bd
       -0.08358517 -0.07994702 0.056169774 -0.081067316
0000c0 de d2 c8 bd d6 cd cb 3c f4 fa a2 bd 20 81 00 3d
       -0.09805845 0.024878424 -0.07958022 0.031373143
0000d0 07 2b a4 3c c0 10 8d 3d 08 a9 9a bd 55 64 ff bd
       0.020040048 0.068879604 -0.075517714 -0.12470309
0000e0 81 12 4c bd e8 f6 0b be 3d 67 ba bc b9 1f c7 3d
       -0.049822334 -0.13668406 -0.022754306 0.097228475
0000f0 70 b8 b0 3d 3c 44 e5 bd a3 1a f1 bd 97 da fd bd
       0.08628929 -0.11194655 -0.11772659 -0.12395208
000100 a5 cb 82 3d 4d 9c 3a 3d 16 77 d7 bc 02 4d 01 bd
       0.06386498 0.045559216 -0.026301902 -0.03156758
000110 6f 17 b8 bd f1 8d a9 3d 4c 02 8c bd b6 ba 35 3d
       -0.089888446 0.08279026 -0.068363756 0.044367515
000120 da ed 9f bd be 08 c7 bd 74 6b 5d 3c 3e 59 cf 3c
       -0.078090385 -0.09718464 0.013514388 0.025311109
000130 d4 a4 d1 bd 95 4a a0 bd 12 d6 a5 3d 8a 6a fd bb
       -0.102365166 -0.078267254 0.08097471 -0.0077336477
000140 54 19 f2 bd 8d 10 fd bd bf b4 e0 bc 49 9d ad bc
       -0.11821237 -0.123566724 -0.027429936 -0.021193163
000150 b6 28 49 bc 10 7b 2b bd 2c df 81 bd d1 2b bd ba
       -0.012277773 -0.04186541 -0.06341395 -0.0014432614
000160 72 e7 1c bd d2 e1 89 bd a2 30 db 3d c6 87 6b bc
       -0.03830666 -0.06732525 0.10702635 -0.014375633
000170 2e 77 bb bc 72 82 09 bd ae 3e 7a 3d 1a 25 44 bb
       -0.022883978 -0.033571668 0.061094932 -0.002992934
000180 e3 7f 9e bd 4b b2 88 bd 5b 27 be bc 4d 73 38 3d
       -0.07739236 -0.06674632 -0.023212126 0.045031834
000190 3f 9d 5e bc ef 80 2a be b5 8b 73 3b 2e a7 3e bd
       -0.013587295 -0.16650747 0.003716213 -0.046546154
0001a0 b6 6c 10 3c f5 94 7d bd 8e db fe 3c 4d 66 71 bd
       0.008814981 -0.061909635 0.031110551 -0.058935452
0001b0 81 91 0b be d7 78 b6 bd 4f 60 98 bd ca 0c 77 bc
       -0.13629724 -0.08909767 -0.074402444 -0.015078733
0001c0 da b5 39 bd 80 44 8a bd f2 28 1a 3d 9a 1a 3d bd
       -0.045339443 -0.067513466 0.037636705 -0.046167947
0001d0 8f 85 94 3d 0a bd bf 3d a6 14 c9 bd 34 f7 81 bd
       0.07252037 0.09362228 -0.098183915 -0.063459784
0001e0 35 a2 14 ba 34 28 ed ba de a1 3f bc a3 52 98 bd
       -0.00056699227 -0.0018093647 -0.011696307 -0.07437637
0001f0 d3 7c f4 bd 40 d3 a9 3d 34 61 83 bb 08 ab d9 bc
       -0.11937871 0.08292246 -0.0040093902 -0.026570812
000200 c8 70 bd 3d 22 f0 58 3c f7 d2 89 3d c4 34 30 bd
       0.09250027 0.013240846 0.067296915 -0.04301907
000210 fb 22 5e bd 77 c0 56 3c 17 0a e2 3c 4c 6a 07 bd
       -0.05423258 0.013107411 0.027592702 -0.033060357
000220 69 54 f9 bd 45 e9 91 3d 7d 41 fb 3c 94 e1 41 3c
       -0.12174303 0.07124571 0.030670876 0.011833567
000230 c9 c4 12 3c ba b4 8d 3c 21 6e 36 bc 79 e0 82 bd
       0.00895805 0.017298091 -0.011134655 -0.06390471
000240 f6 03 5f 3c 53 5d cd bb 7e 43 0a be 89 d2 16 3c
       0.013611784 -0.0062672286 -0.13502309 0.009205469
000250 19 72 07 bc 0f 7d ab bb cf fb d7 bb 7b 04 6f 3d
       -0.008266949 -0.005233414 -0.006591297 0.058353882
000260 4b e1 6f 3d 7e ff 2d bd 34 dd d5 3c 1b 67 cd 3b
       0.058564465 -0.042479984 0.026106454 0.0062683946
000270 b4 2b 1d 3d c9 ff fe 3c ba 6a cf bc 5d ea 9d ba
       0.038371757 0.031127827 -0.025319446 -0.0012047995
000280 65 26 33 bd 09 9e 47 3d 7a 9d 47 bc 2e c7 48 3d
       -0.043737788 0.0487347 -0.012183541 0.049018078
000290 55 a3 1f bb 4b e8 f7 bd df 4a 63 3d 32 a1 6f be
       -0.0024358828 -0.12104853 0.055491325 -0.23401335
0002a0 fa 93 1e be 44 aa 52 3d 80 c1 55 3c 72 90 52 3b
       -0.15486136 0.05143191 0.013046622 0.0032129553
0002b0 69 b6 a6 bc d0 64 e0 ba 7c a0 28 bd 12 3e 21 b9
       -0.020350652 -0.0017119888 -0.041168675 -0.0001537728
0002c0 f3 5b 54 3d 81 b0 bb 3c 53 fb 5c 3d dd 7f 1c 3d
       0.051845502 0.022911312 0.05395062 0.038207877
0002d0 86 67 7d 3d e8 e9 89 3d 02 b0 62 3b 24 06 40 be
       0.061866306 0.06734067 0.0034589772 -0.18752342
0002e0 b9 07 d0 3b 71 9d fa bd 3d 9d a2 bb 00 52 a8 3d
       0.006348577 -0.12237061 -0.004962592 0.08218765
0002f0 2f b4 74 3d 8d e9 df bd 0b f4 a2 bc b1 bd 14 be
       0.05974215 -0.10933218 -0.01989176 -0.14525487
000300 d8 e6 6d 3d fe 16 a3 3d 61 10 6d 3c 17 a8 5b 3d
       0.058081478 0.0796337 0.014469237 0.0536271
000310 c1 21 40 be ea 32 80 bb 40 a5 f3 bc c0 6f 14 bc
       -0.18762876 -0.0039123194 -0.029741883 -0.009059846
000320 d1 4d 5f 3c 4d 91 f3 bd 74 f4 e1 bb d0 67 35 3d
       0.013629393 -0.11892948 -0.006895596 0.044288456
000330 d8 d6 25 3b c8 e5 9d 3c 78 74 93 3d 70 7b 1f 3d
       0.0025305059 0.019274607 0.07199949 0.03893608
000340 f1 10 23 be b2 e9 53 bd a2 30 52 3d d9 67 b3 3c
       -0.15924431 -0.05173654 0.05131591 0.021900104
000350 0e 91 66 3d a2 63 8e 3c 59 a4 6a 3d 80 28 81 bc
       0.05629068 0.017381493 0.05728564 -0.015766382
000360 84 9c 1d bd c9 d0 8c bc 87 d6 8a 3d e2 73 94 3c
       -0.038479343 -0.0171894 0.06779199 0.018121663
000370 a3 6b 16 bc 59 6e 22 3d 6a c9 32 bd 6e f2 5c 3d
       -0.009180936 0.039656017 -0.043649115 0.053942136
000380 a0 d1 a1 3c a5 04 8c 3c be 9a 63 3c c3 ee c1 3d
       0.019753277 0.017092058 0.013891874 0.09469368
000390 8c 95 91 3d fc 4f 34 be d8 f7 1f 3d a4 1f a3 bc
       0.07108602 -0.17608637 0.03905472 -0.019912548
0003a0 cc 5d 35 3d 2d 00 cd 3c 75 68 a4 3d e3 eb c5 3c
       0.044278905 0.025024498 0.08027736 0.024160331
0003b0 94 f0 fe bd 5f 83 0b 3d 40 33 32 3c f9 d5 3b 3d
       -0.124482304 0.034060832 0.010876477 0.045858357
0003c0 c8 3d 4d bd 3d c6 7e 3d 12 9f db 3c 24 20 0b bb
       -0.050107747 0.062200774 0.02680925 -0.0021228874
0003d0 a5 11 64 3d e7 2e 6d 3d b1 4d cd bc 86 b9 46 bd
       0.05568089 0.057906058 -0.02506146 -0.048516773
0003e0 e6 45 38 3d b7 d0 db 3c 2b 5c 77 3d 22 a9 e5 ba
       0.044988535 0.026832921 0.060390633 -0.0017521719
0003f0 88 d5 b5 bd 5d a9 39 3d d9 07 ac 3d 14 fd eb 3b
       -0.088786185 0.045327533 0.08399934 0.0072018

action_model._discrete_distribution.branches.1.bias f4 [10]
000000 45 f9 78 bc 00 10 9c bd db 25 e2 bc 6e 76 2f bc
       -0.015196149 -0.07620239 -0.027605942 -0.010709388
000010 98 69 9c 3d 02 d9 d2 3d 5e 32 1a 3e 2b 93 ce 3b
       0.07637328 0.10295297 0.15058276 0.006304165
000020 36 41 f3 bc 17 12 14 be
       -0.029694181 -0.14460026

exp_avg f4 [128, 18]
000000 46 a5 1f bb 7e 04 9f 39 82 85 21 3a 6a 1a 1f bb
       -0.0024359985 0.0003033019 0.0006161557 -0.0024277219
000010 d0 81 28 38 a9 dd a0 39 9b a3 13 bb c5 56 b7 b8
       4.017522e-05 0.00030682728 -0.0022527936 -8.742282e-05
000020 38 94 df 39 79 a8 f4 ba c9 fe f1 b9 04 b9 ac 39
       0.00042644306 -0.0018665931 -0.00046156932 0.00032944244
000030 2d 67 e5 ba 59 7b 17 ba 1b a3 89 39 83 57 d3 ba
       -0.0017502062 -0.0005778573 0.000262522 -0.0016124103
000040 fb 71 38 ba 4c 29 c1 38 9e 47 a6 3a 42 51 39 39
       -0.00070360274 9.210649e-05 0.0012686139 0.00017673246
000050 b5 10 bc b8 16 bd ae 3a 3e 83 a1 39 23 8b f7 b9
       -8.9676505e-05 0.0013331498 0.00030806096 -0.00047215176
000060 00 5b b3 3a ee 6a aa 39 9c 1b 0c ba ca cf a1 3a
       0.0013683736 0.00032504596 -0.000534469 0.0012345251
000070 64 f3 c2 39 b4 d5 ea b9 32 be b7 3a b7 b9 b3 39
       0.00037183904 -0.0004479118 0.0014018475 0.0003427991
000080 60 1e 04 ba 86 be cf 3a c8 28 7f 38 1a 89 a1 b9
       -0.00050399266 0.0015849627 6.0834718e-05 -0.00030810462
000090 2c 44 08 3a cf 96 12 3a ae 68 af 39 44 db 9d 39
       0.00051981467 0.000559193 0.00033456594 0.0003010874
0000a0 5e 14 31 3a 0a 9a b9 b8 01 f1 14 39 6c 26 42 3a
       0.0006755049 -8.8501794e-05 0.00014204161 0.0007406238
0000b0 56 9e 63 39 a9 d9 c0 b8 6c b0 6e 3a 86 0b 77 38
       0.00021707392 -9.195816e-05 0.00091052684 5.890012e-05
0000c0 ff df 12 b9 bc 14 86 3a 1e 5d b1 39 b9 83 ae b9
       -0.0001400709 0.0010229568 0.00033829449 -0.00033286007
0000d0 db e7 a0 3a 2c c3 24 38 89 85 46 bb 5e 8a f7 b9
       0.001227613 3.9282415e-05 -0.0030291995 -0.00047214603
0000e0 27 c9 1b 3a 9d 16 3d bb 07 e4 78 ba 95 c4 18 3a
       0.0005942755 -0.002885259 -0.0009494428 0.0005827633
0000f0 ee 11 35 bb 81 b8 95 ba be 20 3f 3a 94 c7 14 bb
       -0.0027629095 -0.0011422784 0.0007290951 -0.0022701966
000100 cc 44 ca ba 16 d6 3e 3a c0 2a 17 bb 2a 0b df ba
       -0.001543188 0.0007279826 -0.0023066252 -0.0017016877
000110 94 17 07 3a 10 a2 13 bb 56 e6 ca ba 99 49 89 38
       0.0005153355 -0.0022527017 -0.0015480022 6.546378e-05
000120 fc 37 7f bb 18 15 49 b9 f4 35 59 3a f5 be 7d bb
       -0.0038943281 -0.00019176712 0.00082859327 -0.0038718556
000130 58 07 2d ba 98 61 3f 3a 5d 65 71 bb 76 6e 6f ba
       -0.00066005206 0.00073006144 -0.00368341 -0.00091335864
000140 a0 9c 67 3a 60 0c 4a bb f6 28 c4 ba 21 b6 64 3a
       0.00088352896 -0.003083013 -0.0014965821 0.0008724649
000150 ca d8 46 bb cc 1d dc ba 9c 23 34 3a ed b4 3e bb
       -0.0030341619 -0.0016793548 0.0006871761 -0.002909954
000160 be bb df ba 04 2c 9c 39 35 b7 54 39 f4 91 0b b9
       -0.0017069501 0.00029787433 0.00020286145 -0.00013310445
000170 da f2 04 b7 fa 0e 37 39 44 73 01 b9 a5 f3 f4 b7
       -7.924356e-06 0.00017457819 -0.00012345338 -2.9200522e-05
000180 71 67 2c 39 d0 2c 24 b9 87 90 14 b9 f3 f3 f2 38
       0.00016441733 -0.00015656953 -0.0001416822 0.00011584898
000190 20 ad 47 b9 f7 27 07 39 30 e7 ff 38 27 f5 06 b9
       -0.00019042613 0.00012889491 0.000122024096 -0.00012870562
0001a0 84 63 99 38 1e 8d 09 39 b8 80 ca b8 88 79 c2 38
       7.314145e-05 0.00013117908 -9.656086e-05 9.273278e-05
0001b0 80 1f 1e 39 6b c7 bd 39 8e 3a aa 39 0c de 36 38
       0.00015079789 0.00036197467 0.00032468553 4.359898e-05
0001c0 34 c5 cd 39 98 94 fd b8 92 ea a6 b8 df 87 de 39
       0.00039247575 -0.00012091658 -7.959189e-05 0.00042444372
0001d0 38 4f 55 39 3e 04 80 b9 fe 13 03 3a 6c c3 d6 37
       0.00020342774 -0.00024417223 0.00050002325 2.5601788e-05
0001e0 aa 78 3b b9 94 12 14 3a 60 14 ba 39 c3 59 b7 b9
       -0.0001787866 0.00056485203 0.00035491865 -0.00034971358
0001f0 e2 e8 49 3a 71 0a 9e b7 ec 0f 81 3a b9 ae 51 b9
       0.0007702244 -1.883993e-05 0.0009846664 -0.00019996882
000200 bc 5f 3e b9 e9 81 87 3a 39 e5 cf b8 7e 61 6b b9
       -0.00018155476 0.0010338399 -9.913225e-05 -0.00022447665
000210 1a 85 83 3a 01 45 6c b8 9f b5 77 b9 02 61 6b 3a
       0.0010034174 -5.633105e-05 -0.00023623415 0.0008978994
000220 44 1e 17 b7 3f 34 7b b9 9c 79 75 3a cc 20 f7 b7
       -9.007348e-06 -0.00023956689 0.00093641295 -2.9459967e-05
000230 cf 31 c7 b8 b8 8d 6f 3a 8e 19 b3 b8 39 60 1e b8
       -9.498337e-05 0.0009138244 -8.540145e-05 -3.775975e-05
000240 d2 69 48 3a 89 04 05 b9 2c d6 f2 38 9d 30 2c 3a
       0.0007645163 -0.00012685558 0.00011579352 0.0006568523
000250 9e fb df b8 67 b7 31 b9 fa b0 13 3a 22 9f d3 b8
       -0.00010680336 -0.00016948358 0.00056339765 -0.00010090905
000260 1e fc 19 b9 84 de ca 39 bc d9 62 b8 74 fe 21 39
       -0.00014685138 0.0003869423 -5.408538e-05 0.00015448948
000270 6a b3 c3 39 18 6b ba 38 e9 73 8c 39 e6 83 5d 39
       0.00037326972 8.889119e-05 0.0002678924 0.00021125338
000280 92 f3 a4 39 d7 37 a1 38 03 3e 2e ba 3c 2e 3c 39
       0.00031461992 7.687479e-05 -0.00066468137 0.00017946301
000290 4b 39 63 39 24 33 1d ba 3b e7 f1 38 0a 6d be b8
       0.0002166975 -0.0005996695 0.000115348455 -9.080216e-05
0002a0 9f 37 fe b9 39 67 e9 38 7c ba eb b8 42 96 a3 b9
       -0.00048488096 0.000111295325 -0.00011240409 -0.00031201734
0002b0 0b 9f c9 b8 1e ef 50 b9 96 74 1e b9 39 ec 2b b9
       -9.614051e-05 -0.00019925504 -0.00015111486 -0.0001639583
0002c0 9e 9f 96 b8 10 9c be b7 80 74 dc b9 94 39 7a b8
       -7.1822884e-05 -2.2722437e-05 -0.0004204847 -5.965827e-05
0002d0 fd 7d ff 38 c8 54 6c 3a a4 b7 12 b9 76 ef 1e 39
       0.00012182815 0.0009015319 -0.00013992056 0.0001515726
0002e0 f9 65 81 3a ba 82 8c b9 74 aa 2d 39 67 85 8d 3a
       0.0009872309 -0.0002680028 0.00016562064 0.0010797203
0002f0 0b 82 0d b9 36 ed e6 38 0a 21 98 3a 80 e6 e6 b9
       -0.00013495253 0.000110114386 0.0011606526 -0.00044040754
000300 1d 41 80 39 fd f1 98 3a 30 0f aa b9 d7 b0 cf 39
       0.00024462576 0.0011668798 -0.00032436242 0.00039613873
000310 17 34 83 3a 28 40 9c b9 73 a0 0f 3a 16 5c 94 39
       0.0010010031 -0.0002980244 0.0005478926 0.0002829737
000320 f8 89 6c 37 f7 04 01 3a 6f 00 c0 39 13 37 79 b9
       1.40988195e-05 0.00049216993 0.00036621417 -0.00023767007
000330 7f 95 f2 39 f7 d6 cb 39 20 5b 38 b9 23 36 a5 39
       0.0004626922 0.00038879339 -0.00017581554 0.00031511587
000340 c6 a9 d3 39 f0 99 af b7 39 db ce 39 6c 79 09 3a
       0.00040371547 -2.0933308e-05 0.00039454715 0.00052442285
000350 38 e7 cc b7 be e5 e8 39 94 1a 08 3a f3 89 2a b9
       -2.4426365e-05 0.0004442166 0.0005191949 -0.00016263853
000360 d1 6f 4b bb 24 dd 0e b9 2c 46 2f 3a 2a 51 4b bb
       -0.003104199 -0.00013624557 0.00066861766 -0.003102372
000370 52 e0 03 ba 1a 3c 13 3a eb 2e 40 bb 46 27 39 ba
       -0.000503068 0.0005616561 -0.002932484 -0.0007063042
000380 ce 3c 32 3a b8 cd 1e bb 34 26 a1 ba 4c 6f 34 3a
       0.0006799222 -0.0024231505 -0.0012294711 0.00068830396
000390 1e e2 16 bb 30 99 b4 ba 6c 55 1c 3a bc 01 0c bb
       -0.002302296 -0.0013778564 0.00059636566 -0.0021363338
0003a0 77 50 c8 ba ae 0f a8 39 dd 54 ee 3a f6 2a cf b9
       -0.001528277 0.0003205514 0.001818325 -0.00039514125
0003b0 1f 84 22 ba 6f c4 f4 3a 3f 52 52 b9 c0 a8 42 b9
       -0.0006199497 0.0018674264 -0.000200578 -0.00018564146
0003c0 e9 13 ec 3a 7e 8c c6 b8 e5 70 fa b9 4d 99 d3 3a
       0.0018011305 -9.4675444e-05 -0.0004776783 0.001614371
0003d0 f2 ac fd 38 47 73 02 ba 54 9a ca 3a 58 4a 11 39
       0.00012096194 -0.0004976284 0.001545737 0.00013855973
0003e0 a9 e0 d4 b9 58 16 c3 3a ac 85 81 38 e0 4d 7b 36
       -0.00040603176 0.0014883978 6.176098e-05 3.7447244e-06
0003f0 c0 8e aa 39 18 81 12 b7 0b f1 f5 38 ea f0 84 39
       0.00032531284 -8.732335e-06 0.00011727408 0.00025356497
