Assets/Test/Config/results/CheeseWorld4/CheeseWorld4/CheeseWorld4-196925.pt (torch, 510698 bytes, 48 tensors)

discrete_act_size_vector f4 [1, 2]
10.0 10.0
00000000: 0000 2041 0000 2041

network_body.observation_encoder.processors.0.normalizer.running_mean f4 [18]
1.7914431 1.999914 9.438627 2.175601 2.3906872 10.183027 2.594344 2.8272243
10.815377 3.0659602 3.3022056 11.433478 3.57645 3.835072 12.01019 4.138829
4.404171 12.603744
00000000: 024e e53f 2ffd ff3f 9e04 1741 0c3d 0b40
00000010: 0501 1940 aeed 2241 bb09 2640 3ef1 3440
00000020: c90b 2d41 b138 4440 5657 5340 87ef 3641
00000030: 8fe4 6440 d271 7540 bd29 4041 4a71 8440
00000040: f8ee 8c40 efa8 4941

network_body.observation_encoder.processors.0.normalizer.running_variance f4 [18]
1.2986382e+06 1.4302771e+06 5.6442804e+07 1.5377342e+06 1.6516554e+06 5.8653652e+07 1.7337269e+06 1.8326725e+06
6.0179564e+07 1.8914722e+06 1.9578386e+06 6.1609492e+07 1.9902771e+06 2.0349434e+06 6.374078e+07 2.0343195e+06
2.0323134e+06 6.6620812e+07
00000000: 7286 9e49 2998 ae49 ed4f 574c 32b6 bb49
00000010: 3b9e c949 f5be 5f4c f7a2 d349 04b7 df49
00000020: 1b91 654c 82e4 e649 75fe ee49 8505 6b4c
00000030: 29f4 f249 fb67 f849 db26 734c 7c54 f849
00000040: cb15 f849 6323 7e4c

network_body.processors.0.normalizer.running_mean f4 [18]
1.7914431 1.999914 9.438627 2.175601 2.3906872 10.183027 2.594344 2.8272243
10.815377 3.0659602 3.3022056 11.433478 3.57645 3.835072 12.01019 4.138829
4.404171 12.603744
00000000: 024e e53f 2ffd ff3f 9e04 1741 0c3d 0b40
00000010: 0501 1940 aeed 2241 bb09 2640 3ef1 3440
00000020: c90b 2d41 b138 4440 5657 5340 87ef 3641
00000030: 8fe4 6440 d271 7540 bd29 4041 4a71 8440
00000040: f8ee 8c40 efa8 4941

network_body.processors.0.normalizer.running_variance f4 [18]
1.2986382e+06 1.4302771e+06 5.6442804e+07 1.5377342e+06 1.6516554e+06 5.8653652e+07 1.7337269e+06 1.8326725e+06
6.0179564e+07 1.8914722e+06 1.9578386e+06 6.1609492e+07 1.9902771e+06 2.0349434e+06 6.374078e+07 2.0343195e+06
2.0323134e+06 6.6620812e+07
00000000: 7286 9e49 2998 ae49 ed4f 574c 32b6 bb49
00000010: 3b9e c949 f5be 5f4c f7a2 d349 04b7 df49
00000020: 1b91 654c 82e4 e649 75fe ee49 8505 6b4c
00000030: 29f4 f249 fb67 f849 db26 734c 7c54 f849
00000040: cb15 f849 6323 7e4c

network_body._body_endoder.seq_layers.0.weight f4 [128, 18]
0.6253601 0.17419676 0.015767075 -0.25730324 -0.083445266 -0.24227943 0.057702936 0.22364815
0.115860455 0.21403006 -0.18551134 0.328737 -0.2036447 -0.026891291 -0.6085311 0.2705618
0.667209 0.19961762 -0.28004718 -0.030895704 -0.22663227 0.10155088 -0.052177876 -0.48639113
0.19563559 0.08581175 -0.12833832 -0.12842272 -0.04489994 -0.4012232 0.35184145 0.0695721
-0.22572029 0.026960814 0.22887337 -0.32282344 0.17910942 0.028956536 0.018146714 -0.048550498
-0.13938725 -0.41824532 -0.37347397 0.082728155 0.21613546 0.16584371 -0.34649003 -0.2136262
-0.2657125 -0.20417295 -0.24451008 -0.48685873 -0.30158713 -0.0023763515 0.13652106 0.15937918
0.22584197 -0.057504788 0.4166558 0.0083877845 -0.06866761 0.17484565 -0.15642491 -0.27154848
0.2751352 -0.09797625 -0.18872984 0.19568105 0.12322406 0.24077307 0.013661534 -0.18988092
0.44268084 0.28762442 0.01349556 0.026992984 0.34253797 -0.022053178 0.054645 0.31202912
-0.07864874 0.27190125 0.107574366 -0.029378545 -0.07566485 0.27912176 -0.15875116 0.20192528
0.24940953 -0.035378024 -0.02301459 -0.24376535 0.24701694 -0.10004639 0.2438843 0.254155
-0.27414808 0.04484368 -0.14726797 -0.41946185 -0.23613654 -0.08382014 -0.0917516 -0.10686996
0.1071705 -0.1545146 0.4152038 -0.2623773 0.35017037 -0.30178082 -0.013382573 0.15590113
0.043507136 0.15988533 -0.078273214 -0.21683985 0.04500143 -0.23558903 -0.050347112 -0.20148438
-0.32778627 0.5655283 -0.004276713 -0.04330844 -0.4148193 0.426013 0.14435612 -0.3176748
0.08590495 0.49537775 -0.1790237 0.24541989 0.10763981 -0.13888182 0.08856226 0.50610614
0.18858387 -0.23284616 0.43695113 0.11521209 0.15800792 -0.26137492 0.07401592 -0.19266734
-0.23070666 0.11700575 0.28880265 -0.32129192 0.043801904 0.18620548 -0.50660753 0.12996441
0.072042204 -0.06564223 -0.38450962 -0.024082443 -0.49641418 -0.2607572 0.10521395 -0.12420357
0.4249827 -0.0028130813 0.047704894 -0.66499287 0.043470316 -0.002725801 0.124107 0.0562816
0.041566607 0.20097585 -0.14800483 0.19070846 0.06698474 -0.08830933 0.49813566 0.005417857
0.0036054829 0.5691732 0.50620604 -0.35287166 0.2617244 -0.008864645 -0.255539 -0.12106259
0.1792478 -0.18794107 0.021876011 0.08711622 0.17090091 -0.30845764 0.60374224 0.3688848
-0.05799252 -0.02954024 -0.2854426 0.096561246 0.05742157 0.16575083 -0.25070187 0.06721323
0.042630345 0.14066102 -0.06795951 0.079855464 -0.21048784 -0.0055094054 -0.24613382 0.013429412
0.48341528 -0.14851615 -0.15078546 0.061731018 -0.41866022 -0.6002535 -0.018798083 0.44283566
0.027217608 0.008110798 -0.3809128 0.0627446 0.5835019 -0.057810027 0.20118831 -0.430399
0.019530032 0.20166117 0.20576285 0.21109118 0.36246142 0.27827778 0.31986114 0.6684063
0.057190217 -0.046280604 0.12530987 -0.07722631 -0.014835835 0.2546481 -0.17750396 0.13890725
-0.16497989 -0.3139295 0.1875455 -0.045425583 -0.47697094 0.31269175 0.17297128 -0.31176668
-0.19740869 0.3676205 0.29582673 -0.3185027 -0.37112418 0.10044527 0.21833567 0.042234536
00000000: 9917 203f a360 323e f429 813c 40bd 83be
00000010: 5ae5 aabd 1918 78be ea59 6c3d 0504 653e
00000020: 3f48 ed3d b22a 5b3e aff6 3dbe 3750 a83e
00000030: 3c88 50be 204b dcbc b2c8 1bbf 1487 8a3e
00000040: 36ce 2a3f 9068 4c3e 5862 8fbe fd18 fdbc
00000050: 4a12 68be e8f9 cf3d 78b8 55bd 4208 f9be
00000060: b254 483e 12be af3d 1f6b 03be 3f81 03be
00000070: 00e9 37bd 216d cdbe 9024 b43e d17b 8e3d
00000080: 3823 67be eddc dc3c c85d 6a3e 1d49 a5be
00000090: 7668 373e 4236 ed3c 6ba8 943c e3dc 46bd
000000a0: 88bb 0ebe 4024 d6be fb37 bfbe 616d a93d
000000b0: 9d52 5d3e efd2 293e 2467 b1be d4c0 5abe
000000c0: 780b 88be b712 51be da60 7abe 8c45 f9be
000000d0: a169 9abe 90bc 1bbb 2dcc 0b3e 4c34 233e
000000e0: 1e43 673e 248a 6bbd e953 d53e eb6c 093c
000000f0: 9ba1 8cbd bd0a 333e da2d 20be 6708 8bbe
00000100: 85de 8c3e c6a7 c8bd 6542 41be 9d60 483e
00000110: e55c fc3d 378d 763e a0d4 5f3c 2570 42be
00000120: 10a7 e23e 8243 933e 7b1c 5d3c 6420 dd3c
00000130: 2361 af3e dea8 b4bc 6fd3 5f3d 48c2 9f3e
00000140: 9712 a1bd a436 8b3e f34f dc3d 46ab f0bc
00000150: 2cf6 9abd 0ce9 8e3e aa8f 22be 80c5 4e3e
00000160: 3665 7f3e 8ce8 10bd 1889 bcbc a09d 79be
00000170: 02f2 7c3e 1fe5 ccbd cebc 793e 9b20 823e
00000180: 235d 8cbe 02ae 373d 6acd 16be b4c3 d6be
00000190: c7cd 71be e5a9 abbd 43e8 bbbd a3de dabd
000001a0: 357c db3d 1339 1ebe 9895 d43e 5156 86be
000001b0: 8849 b33e 0483 9abe 9442 5bbc 8ca4 1f3e
000001c0: 8a34 323d fbb8 233e b54d a0bd 440b 5ebe
000001d0: 6b53 383d 403e 71be c638 4ebd ec51 4ebe
000001e0: 9ad3 a7be 76c6 103f ab23 8cbb 3164 31bd
000001f0: 3263 d4be 601e da3e 17d2 133e 45a6 a2be
00000200: efee af3d 27a2 fd3e fd51 37be 5a4f 7b3e
00000210: 4372 dc3d 0937 0ebe 2160 b53d 2c90 013f
00000220: 211c 413e 396f 6ebe 0fb8 df3e 51f4 eb3d
00000230: d4cc 213e efd2 85be a995 973d 964a 45be
00000240: 5e3e 6cbe b6a0 ef3d f1dd 933e 6080 a4be
00000250: a069 333d a6ac 3e3e 08b1 01bf 6415 053e
00000260: dd8a 933d 6f6f 86bd 72de c4be 8b48 c5bc
00000270: 002a febe f881 85be 697a d73d 715e febd
00000280: 5597 d93e ac5b 38bb 3566 433d f93c 2abf
00000290: ee0d 323d 5aa3 32bb d02b fe3d 8987 663d
000002a0: bf41 2a3d 9dcc 4d3e 948e 17be 1449 433e
000002b0: 4c2f 893d 86db b4bd a30b ff3e 4788 b13b
000002c0: f749 6c3b 56b5 113f b896 013f 98ab b4be
000002d0: be00 863e 043d 11bc 02d6 82be aaef f7bd
000002e0: bc8c 373e a073 40be 5235 b33c fd69 b23d
000002f0: a600 2f3e 29ee 9dbe da8e 1a3f 78de bc3e
00000300: 9189 6dbd 60fe f1bc 8825 92be e7c1 c53d
00000310: e132 6b3d 96ba 293e ff5b 80be 17a7 893d
00000320: 289d 2e3d 7109 103e 5b2e 8bbd 438b a33d
00000330: 208a 57be 3e88 b4bb 810a 7cbe 0907 5c3c
00000340: 3582 f73e 9e14 18be 8167 1abe aad9 7c3d
00000350: a25a d6be 37aa 19bf 70fe 99bc 5bbb e23e
00000360: 76f7 de3c 27e3 043c 0107 c3be 3e80 803d
00000370: 6160 153f 35ca 6cbd 4f04 4e3e 425d dcbe
00000380: 72fd 9f3c 4480 4e3e 7fb3 523e 4928 583e
00000390: 8b94 b93e 6d7a 8e3e d7c4 a33e ad1c 2b3f
000003a0: 4a40 6a3d bb90 3dbd 3b51 003e d428 9ebd
000003b0: 0112 73bc 3c61 823e 99c3 35be b43d 0e3e
000003c0: 7df0 28be 5ebb a0be ed0b 403e 2d10 3abd
000003d0: 8935 f4be 2219 a03e 621f 313e e29f 9fbe
000003e0: 8125 4abe c138 bc3e 9a76 973e c912 a3be
000003f0: fd03 bebe 40b6 cd3d 6393 5f3e 1ffe 2c3d

network_body._body_endoder.seq_layers.0.bias f4 [128]
0.040739942 0.03436194 0.040270273 -0.021727636 -0.045519568 0.040393636 -0.025788296 0.057360165
0.083129846 0.060370214 0.07172266 0.08431505 -0.025842063 0.10256026 0.049447037 0.07885747
0.044875212 0.01683009 0.06723312 0.07760643 0.04549739 0.031304315 0.11111002 0.075740665
0.08064494 0.1387569 0.11723121 -0.042090986 0.12233192 0.048842754 0.032267816 0.059154544
0.0628283 0.05235033 0.089218915 0.14103377 0.10311192 0.062119987 0.040986773 -0.041975778
0.045893777 0.12099112 0.15570752 0.05925891 0.012747892 0.06774002 -0.03848607 -0.021209063
0.037375584 -0.019121109 0.06664056 0.026012704 0.04575515 0.14783356 0.08861655 0.03689539
0.14768405 0.032356735 0.0028510515 -0.008941697 -0.07116419 -0.015955407 0.15838405 0.05522764
0.105607376 0.079837985 0.09583068 0.08948464 0.010541415 -0.0019296895 0.008832713 0.042045727
0.0016373964 0.05223516 0.09891379 0.030420756 0.10705393 0.041840937 -0.010139417 0.03609613
0.029012892 0.002948657 0.03223848 0.09201677 0.082646 0.07323199 0.11292635 0.10958753
0.02842529 0.09772921 0.017941847 0.09612362 0.021978918 0.060984153 0.13604596 0.054187726
0.04213853 0.11566503 0.043036528 0.09055136 0.042459946 -0.0171942 0.14757589 0.0953211
0.15982422 0.052357823 0.08706286 0.058995254 0.00042492335 0.05789244 0.041688226 0.1031696
-0.027799796 0.05211542 -0.010450364 0.10307986 0.074470356 -0.00071692234 -0.02242399 -0.022247253
0.05227748 0.122608 -0.006570276 0.10025694 0.060149036 0.07106784 0.12546599 -0.007685516
00000000: edde 263d 1bbf 0c3d 71f2 243d 28fe b1bc
00000010: ba72 3abd cc73 253d fa41 d3bc 7ef2 6a3d
00000020: fb3f aa3d c246 773d 54e3 923d 5ead ac3d
00000030: bcb2 d3bc 1d0b d23d fa88 4a3d 0680 a13d
00000040: 12cf 373d 42df 893c 85b1 893d 1ff0 9e3d
00000050: 795b 3a3d f438 003d a68d e33d ec1d 9b3d
00000060: 2d29 a53d 4a16 0e3e eb16 f03d 9967 2cbd
00000070: 2889 fa3d 570f 483d 422b 043d 094c 723d
00000080: 20ac 803d 4d6d 563d 68b8 b63d 286b 103e
00000090: 582c d33d 8771 7e3d bfe1 273d cbee 2bbd
000000a0: 1dfb 3b3d 31ca f73d cb71 1f3e 79b9 723d
000000b0: 89dc 503c 48bb 8a3d 92a3 1dbd a1be adbc
000000c0: 2417 193d dfa3 9cbc d97a 883d 9818 d53c
000000d0: c169 3b3d ae61 173e 987c b53d 9f1f 173d
000000e0: 7d3a 173e 7f88 043d b5d8 3a3b 3280 12bc
000000f0: 88be 91bd eab4 82bc 6e2f 223e 6136 623d
00000100: ae48 d83d 1982 a33d e042 c43d b943 b73d
00000110: e6b5 2c3c a3ed fcba 15b7 103c 2438 2c3d
00000120: e89d d63a 89f4 553d 5093 ca3d f334 f93c
00000130: 173f db3d 6761 2b3d cc1f 26bc 89d9 133d
00000140: 72ac ed3c 413e 413b 7f0c 043d 4a73 bc3d
00000150: 4e42 a93d a7fa 953d ee45 e73d 6d6f e03d
00000160: 27dc e83c 4126 c83d c8fa 923c 76dc c43d
00000170: 220d b43c 85ca 793d a24f 0b3e f3f3 5d3d
00000180: 7499 2c3d cae1 ec3d 1247 303d fe72 b93d
00000190: 7bea 2d3d dada 8cbc 221e 173e b537 c33d
000001a0: f6a8 233e 2875 563d 034e b23d 02a5 713d
000001b0: 3fc8 de39 a020 6d3d 46c1 2a3d 954a d33d
000001c0: 66bc e3bc fb76 553d 0138 2bbc 891b d33d
000001d0: ea83 983d d8ef 3bba 84b2 b7bc df3f b6bc
000001e0: e920 563d e719 fb3d 784b d7bb 8353 cd3d
000001f0: d65e 763d 048c 913d 287a 003e c8d6 fbbb

network_body._body_endoder.seq_layers.2.weight f4 [128, 128]
0.11480335 -0.058208637 0.012160301 0.3256771 -0.04352229 -0.14126424 -0.18765089 -0.07293353
-0.18176293 0.23851503 0.012745368 -0.21261328 0.26326907 -0.046544313 -0.037492555 0.00014474394
0.056929503 -0.016578399 -0.019706577 -0.12872706 -0.05266274 -0.048514307 -0.03617058 0.095926024
-0.03735786 -0.08569863 -0.03628642 0.035287336 -0.07018415 0.04724928 0.07557498 -0.15474844
0.0555187 -0.031359684 -0.0575942 -0.046063133 -0.22084181 0.17929527 0.01199933 0.15514082
0.03092297 -0.24819127 -0.18194996 -0.16734782 -0.028610539 0.056998093 -0.035654597 0.010779147
0.035300724 0.18471088 0.023425525 0.058286186 0.08613066 0.009423588 0.038286343 0.12539779
-0.08559903 -0.06396195 0.14204413 0.11905537 -0.043933 -0.07366524 -0.32434326 -0.0325756
-0.12920447 -0.014992801 -0.2152979 -0.060803965 -0.1113392 -0.08556238 0.10056297 -0.0443872
0.052837294 0.097886875 -0.2529046 0.13180672 -0.28727534 -0.031085843 0.20888917 -0.023444794
-0.0085838 -0.0062308465 0.12027086 -0.072901785 -0.04496081 -0.14463057 -0.096462846 0.06440263
0.045997236 -0.12585036 0.11899354 0.057897214 0.023095319 0.05825599 -0.09162412 -0.2253064
0.026064375 -0.24708901 -0.18223923 0.08584934 -0.06933276 -0.07662327 -0.11243354 -0.047733575
-0.060698543 0.07661042 -0.07716949 0.18377265 0.077350534 0.026136983 -0.043462776 -0.28003007
0.0503528 0.16851266 0.13988781 -0.34581786 0.0536277 -0.13648865 -0.14552175 0.04803888
0.08648595 0.15460122 0.20138244 -0.11241654 -0.19653861 -0.021213185 -0.14824966 0.0648908
0.07330146 0.09949439 -0.10014628 0.006544978 0.043062456 -0.12937188 -0.065411225 0.001452364
-0.068781585 0.07106793 0.021184048 0.1555108 0.15842992 -0.11228954 -0.02440315 0.03478298
-0.03602851 0.085252896 -0.05749209 0.22786939 0.028707294 -0.09631147 -0.06659581 0.0066625113
-0.06514595 -0.16609132 -0.13570254 -0.007388951 -0.14913504 -0.026409112 0.20209804 -0.1679069
-0.012965905 0.042228464 0.013701018 -0.06522549 -0.029217679 0.019434312 0.118882306 -0.046255164
-0.06031809 -0.095137194 -0.05113747 -0.059708722 -0.07057134 0.026466113 -0.009319323 -0.0714411
0.12635338 -0.104120135 -0.11988862 0.013268777 0.21480972 -0.08131834 -0.008829937 -0.006043116
-0.16148664 0.18025032 0.11367717 0.022100015 0.016408399 -0.017389087 0.05665494 0.19130541
-0.041980334 0.1788073 -0.054512195 0.05078921 0.016638914 0.17885269 0.042585846 -0.053107813
0.072414 -0.10110778 -0.10431048 -0.031239267 -0.0074693956 -0.34734234 0.06282799 0.019625697
0.09406589 -0.003941033 0.13915066 0.07496226 0.11018101 -0.12079383 0.14011987 -0.18300906
0.14390229 0.2929452 -0.008278134 -0.08208371 0.14486857 0.06267047 0.079014726 -0.16637662
0.063358925 -0.062705554 -0.13954125 -0.13347156 -0.040889498 -0.012189431 0.08455008 -0.030673664
-0.038121328 0.124181636 0.037409894 -0.031152619 0.04419091 0.035831675 -0.006731734 0.08476018
0.03891182 0.068819925 0.07286256 -0.12260018 0.038065705 -0.19038574 -0.10436237 0.044273723
-0.18956332 -0.19653523 0.11977748 -0.10908948 -0.1018348 -0.05145292 -0.21312338 0.018166883
00000000: 051e eb3d 2e6c 6ebd 003c 473c 26bf a63e
00000010: 6e44 32bd 93a7 10be 8e27 40be 2d5e 95bd
00000020: 1020 3abe 493d 743e f3d1 503c 4cb7 59be
00000030: 34cb 863e 40a5 3ebd cb91 19bd 68c6 1739
00000040: e92e 693d 6ccf 87bc b06f a1bc 07d1 03be
00000050: e3b4 57bd f0b6 46bd 9a27 14bd dd74 c43d
00000060: 8e04 19bd c382 afbd 12a1 14bd 7489 103d
00000070: b5bc 8fbd 7688 413d 0ec7 9a3d 6076 1ebe
00000080: 9467 633d 0373 00bd e5e7 6bbd b2ac 3cbd
00000090: 5b24 62be 2e99 373e d698 443c 3cdd 1e3e
000000a0: 2b52 fd3c da25 7ebe 1751 3abe 3a5d 2bbe
000000b0: a660 eabc d576 693d 8e0a 12bd 059b 303c
000000c0: 7e97 103d d924 3d3e e3e6 bf3c 7fbd 6e3d
000000d0: 4565 b03d 6565 1a3c 24d2 1c3d 4768 003e
000000e0: 8b4e afbd 7cfe 82bd 0474 113e 4dd3 f33d
000000f0: 17f3 33bd cddd 96bd 5210 a6be fe6d 05bd
00000100: 2d4e 04be 5da4 75bc 0d77 5cbe 940d 79bd
00000110: ce05 e4bd 543b afbd f5f3 cd3d 5acf 35bd
00000120: eb6b 583d ea78 c83d b67c 81be 57f8 063e
00000130: c115 93be bda7 febc 0be7 553e 4c0f c0bc
00000140: 11a3 0cbc 212c ccbb 9250 f63d 884d 95bd
00000150: d428 38bd 091a 14be 508e c5bd 87e5 833d
00000160: 9967 3c3d ebde 00be e3b2 f33d a125 6d3d
00000170: 6532 bd3c d59d 6e3d 6da5 bbbd b9b6 66be
00000180: f584 d53c e704 7dbe ec9c 3abe c7d1 af3d
00000190: 56fe 8dbd a9ec 9cbd 8e43 e6bd 4884 43bd
000001a0: 099f 78bd ede5 9c3d 0a0b 9ebd e62e 3c3e
000001b0: f569 9e3d 3a1d d63c 0606 32bd 1a60 8fbe
000001c0: bd3e 4e3d 958e 2c3e c03e 0f3e 0a0f b1be
000001d0: b8a8 5b3d aec3 0bbe a703 15be 6bc4 443d
000001e0: 8c1f b13d c84f 1e3e 3337 4e3e a53a e6bd
000001f0: 6b41 49be 46c7 adbc c2ce 17be 78e5 843d
00000200: 131f 963d b7c3 cb3d 7e19 cdbd 4177 d63b
00000210: 4262 303d 107a 04be 52f6 85bd 405d be3a
00000220: 5cdd 8cbd 108c 913d 2b8a ad3c 393e 1f3e
00000230: 743b 223e 0ff8 e5bd 1de9 c7bc 9978 0e3d
00000240: a292 13bd 1299 ae3d d37c 6bbd 9856 693e
00000250: 8f2b eb3c f33e c5bd 6263 88bd 3251 da3b
00000260: 3d6b 85bd d813 2abe 9bf5 0abe 031f f2bb
00000270: dbb6 18be ec57 d8bc caf2 4e3e c9ef 2bbe
00000280: f26e 54bc c1f7 2c3d 3c7a 603c f194 85bd
00000290: ea59 efbc b534 9f3c 9178 f33d 0e76 3dbd
000002a0: 1a10 77bd 4ad7 c2bd 8675 51bd 2291 74bd
000002b0: b587 90bd 76cf d83c 13b0 18bc b64f 92bd
000002c0: c862 013e f03c d5bd 2a88 f5bd 4965 593c
000002d0: 14f7 5b3e 3b8a a6bd 71ab 10bc 5505 c6bb
000002e0: c15c 25be 8a93 383e 93cf e83d 170b b53c
000002f0: e86a 863c 8f73 8ebc 030f 683d 91e5 433e
00000300: 92f3 2bbd 4319 373e 2e48 5fbd 5908 503d
00000310: 554e 883c 2925 373e 7f6e 2e3d 9487 59bd
00000320: cb4d 943d 9911 cfbd bca0 d5bd 7ee9 ffbc
00000330: d5c1 f4bb dbd6 b1be f6ab 803d 12c6 a03c
00000340: 9ea5 c03d c823 81bb 837d 0e3e d085 993d
00000350: 95a6 e13d c162 f7bd 957b 0f3e ba66 3bbe
00000360: 1f5b 133e eafc 953e 03a1 07bc 811b a8bd
00000370: 6d58 143e 6059 803d 79d2 a13d a25e 2abe
00000380: 53c2 813d c56b 80bd e7e3 0ebe c5ac 08be
00000390: bf7b 27bd 2eb6 47bc 9828 ad3d 5647 fbbc
000003a0: 1c25 1cbd f152 fe3d 1e3b 193d c733 ffbc
000003b0: 8701 353d 3cc4 123d e195 dcbb bf96 ad3d
000003c0: 0062 1f3d 76f1 8c3d f738 953d ce15 fbbd
000003d0: c9ea 1b3d 7bf4 42be f0bb d5bd 5d58 353d
000003e0: e31c 42be 8840 49be e54d f53d 4e6a dfbd
000003f0: c38e d0bd 4cc0 52bd 043d 5abe b7d2 943c

network_body._body_endoder.seq_layers.2.bias f4 [128]
-0.04333827 -0.01985075 0.018016266 0.009593378 0.010283838 0.06780033 -0.0016440371 0.07305936
0.16231251 -0.0074485377 -0.07273691 0.043208335 -0.03423373 -0.005137204 0.058231488 0.031379145
0.108924225 -0.061179582 0.20974635 0.041129224 0.08492938 0.057650782 -0.057980437 0.03422753
0.064871125 -0.04439761 0.012676563 0.09027669 0.022295104 0.033544704 -0.062939554 0.015043905
-0.059874352 0.09063693 0.04944828 0.0044644014 0.08925553 0.19814086 -0.015368806 0.1941618
0.027800286 -0.04131003 -0.015199858 -0.044365853 0.055946756 0.07423437 0.11161095 0.014709845
0.041302256 0.11112721 0.01945731 -0.035970643 -0.0011353439 0.004904169 -0.0071855495 0.117699884
-0.07092787 0.029711425 -0.032812607 0.024707958 0.018391604 0.0679707 0.09999598 0.03625881
0.025563652 -0.017782675 0.06376947 0.028527722 0.10283804 0.05971354 0.084792964 0.11702735
0.1202195 0.013043292 0.016757544 0.043340627 0.086497515 -0.05273729 0.05326143 0.046969764
0.015925959 0.074651435 0.026362924 -0.020501046 -0.038038094 -0.020531684 0.00424767 0.07381352
0.059679594 0.09203153 0.08916914 -0.021859085 -0.074665196 0.04605158 0.09557218 -0.06888589
0.026744755 0.025176177 -0.05574589 -0.02597882 -0.050229523 0.10621925 -0.012697541 0.019038761
0.045665495 0.014036162 -0.07449019 0.07383541 0.04564897 0.05780219 -0.058307994 0.004393314
0.10095586 0.02937429 0.04795521 0.07187396 0.027889755 0.020098772 0.0041857017 0.060443494
-0.053058375 0.022585053 0.18013221 -0.059071276 0.01431991 0.08052813 -0.033970818 0.018843139
00000000: 7883 31bd 0a9e a2bc d996 933c 8b2d 1d3c
00000010: 8b7d 283c e6da 8a3d bb7c d7ba 25a0 953d
00000020: 4035 263e dd12 f4bb 17f7 94bd 39fb 303d
00000030: ab38 0cbd fe55 a8bb 2484 6e3d 6b87 003d
00000040: aa13 df3d 7197 7abd bfc7 563e 1e77 283d
00000050: 74ef ad3d 3a23 6c3d e57c 6dbd 2b32 0c3d
00000060: 27db 843d 45da 35bd 5cb1 4f3c fce2 b83d
00000070: 39a4 b63c 2c66 093d 74e6 80bd b67a 763c
00000080: cf3e 75bd db9f b93d 488a 4a3d 1d4a 923b
00000090: 9acb b63d 70e5 4a3e 72cd 7bbc 5ad2 463e
000000a0: 6dbd e33c b534 29bd d308 79bc f8b8 35bd
000000b0: 6d28 653d 3008 983d 4894 e43d 9001 713c
000000c0: 8e2c 293d aa96 e33d f064 9f3c f455 13bd
000000d0: d2cf 94ba 27b3 a03b c274 ebbb a30c f13d
000000e0: a242 91bd 6065 f33c 8366 06bd 5868 ca3c
000000f0: fda9 963c 3934 8b3d b1ca cc3d 1e84 143d
00000100: dd6a d13c f9ac 91bc 9199 823d f8b2 e93c
00000110: c09c d23d 2f96 743d efa7 ad3d 09ac ef3d
00000120: a435 f63d 88b3 553c 1e47 893c f185 313d
00000130: 9c25 b13d 0e03 58bd a828 5a3d 5e63 403d
00000140: 2877 823c dae2 983d 0ff7 d73c cff1 a7bc
00000150: d5cd 1bbd 1032 a8bc 0a30 8b3b 8b2b 973d
00000160: 9772 743d 077b bc3d 4f9e b63d d311 b3bc
00000170: 11ea 98bd 95a0 3c3d 59bb c33d 0c14 8dbd
00000180: d117 db3c 453e ce3c cd55 64bd 89d1 d4bc
00000190: 79bd 4dbd 7a89 d93d 5909 50bc 2df7 9b3c
000001a0: be0b 3b3d eef7 653c 508e 98bd 0537 973d
000001b0: 6afa 3a3d fdc1 6c3d 5dd4 6ebd caf5 8f3b
000001c0: f2c1 ce3d 5aa2 f03c af6c 443d a832 933d
000001d0: 0e79 e43c 2ea6 a43c 3628 893b 9993 773d
000001e0: bd53 59bd 4a04 b93c 9474 383e b9f4 71bd
000001f0: 0e9e 6a3c efeb a43d fc24 0bbd ed5c 9a3c

action_model._discrete_distribution.branches.0.weight f4 [10, 128]
0.038817246 -0.04666493 -0.034496576 0.03655716 0.06878456 0.06404193 -0.09125323 0.055978253
0.036161862 0.052395012 0.0019068078 -0.0064625232 -0.029272892 0.07795692 -0.044029053 -0.15152572
-0.039187532 -0.0018194348 0.0051030437 0.023192897 0.10443874 0.10914815 -0.006843599 -0.09160146
-0.03646497 -0.06401894 -0.08260545 -0.10390732 0.06546326 0.039542187 -0.037763327 0.056131855
-0.06765764 -0.03653951 -0.10067593 -0.026042355 0.06742756 0.058541145 -0.0788808 0.010548777
-0.01741682 0.025207877 -0.10790644 -0.036523107 0.12900093 0.055370744 -0.13601577 -0.032582123
0.077471755 -0.06650251 0.08897141 -0.10208387 -0.018592382 -0.020340791 -0.010155205 0.021248655
0.07393048 0.0465872 -0.02500765 -0.053843543 -0.07107393 -0.079300866 0.06596013 -0.06719463
-0.07508425 -0.0806307 -0.058582887 0.0050317007 -0.01438441 -0.018201532 0.08396385 -0.1187302
0.0049705515 -0.08546045 -0.07595105 -0.051483516 0.006931474 -0.026986333 -0.05728175 -0.047121365
0.0043157316 0.11604744 0.03115107 0.015763879 -0.06760639 -0.07993052 0.086413845 -0.0761239
0.006556231 -0.012131057 -0.08152534 -0.10085405 -0.05189558 -0.05100893 -0.11156701 -0.05342487
0.105216704 0.06672236 -0.067555875 0.006576648 -0.017751789 -0.02098086 -0.08610942 -0.060250793
-0.053604793 0.0701519 -0.049434893 0.0723283 -0.06604597 0.10269555 -0.03939366 0.029258443
-0.031489402 -0.010608853 -0.08670434 -0.013084508 -0.08163435 -0.05527974 -0.03378127 0.044234734
-0.0027240615 -0.067578755 0.038488563 -0.005819035 0.051105715 -0.075247295 -0.085453264 0.056842454
0.0019214709 0.026617846 0.024408275 0.0011880432 0.010540983 0.037213862 -0.02026948 0.022615936
-0.033929273 0.054264247 -0.050092973 0.017383834 -0.027331434 0.053239994 -0.036275167 -0.08821976
0.020675521 -0.047399033 -0.025736062 0.028445173 0.032235507 0.03396114 -0.029036298 -0.0069723763
0.014397098 0.00050396274 -0.0197428 -0.043844488 0.032519683 0.04101346 -0.016851455 0.052706383
-0.04677939 -0.026479628 -0.040280793 0.0046157246 0.03989821 -0.071782775 -0.039854992 -0.02147865
-0.09918193 0.04598935 -0.027592529 -0.029728627 0.054819185 0.02661355 -0.06690586 0.0075437943
0.06524559 -0.05271729 0.04890422 -0.10446259 0.036883164 0.0097063165 -0.004358905 -0.023476087
0.02313202 -0.03427796 -0.016704975 0.04444276 0.018211773 -0.022513127 0.027641604 -0.05165989
0.0028405949 -0.01253716 0.021497786 0.052975222 -0.020311158 0.00069861655 0.04066104 -0.056452453
0.026831018 -0.012769336 0.018175703 0.024483375 0.010326016 -0.03738537 0.0031619188 0.016871173
-0.05717928 0.0531883 0.050638765 0.015400024 -0.009321148 -0.0065417634 0.05278046 -0.020225726
-0.035899393 -0.001961604 -0.0028349624 -0.034192476 -0.003967343 0.027500108 -0.09711728 -0.03070765
0.058204204 0.054862216 0.011010265 0.050801907 -0.011974515 -0.022494376 0.0022515943 -0.004003977
0.0073149307 0.07192747 0.018327137 0.030747164 -0.0469918 0.05370414 -0.012927864 0.05973524
-0.008353952 -0.017227331 -0.0041000913 -0.005498295 -0.022201268 0.03074749 -0.019075979 0.034809113
0.01837314 0.0052823815 0.04027243 -0.002100467 0.0009617529 0.0077334126 0.010774236 0.037321925
00000000: d5fe 1e3d ba23 3fbd 484c 0dbd f6bc 153d
00000010: ebde 8c3d 6a28 833d f9e2 babd 7449 653d
00000020: 761e 143d 279c 563d daed f93a 93c3 d3bb
00000030: b4cd efbc e1a7 9f3d cf57 34bd 8f29 1bbe
00000040: 1b83 20bd 1a7a eeba 6f37 a73b 08ff bd3c
00000050: fae3 d53d 1189 df3d 4540 e0bb 8c99 bbbd
00000060: 4b5c 15bd 5d1c 83bd 0c2d a9bd 5ccd d4bd
00000070: 9a11 863d fdf6 213d b8ad 1abd 84ea 653d
00000080: 1790 8abd 74aa 15bd 2f2f cebd c756 d5bc
00000090: 7617 8a3d d7c8 6f3d 428c a1bd c7d4 2c3c
000000a0: b8ad 8ebc c080 ce3c 0dfe dcbd 4199 15bd
000000b0: d218 043e 6fcc 623d b847 0bbe d574 05bd
000000c0: 83a9 9e3d 7832 88bd a536 b63d 5911 d1bd
000000d0: 0d4f 98bc bba1 a6bc 0462 26bc a911 ae3c
000000e0: dd68 973d 38d2 3e3d d8dc ccbc 0c8b 5cbd
000000f0: 358f 91bd 7e68 a2bd 1b16 873d 579d 89bd
00000100: c5c5 99bd b521 a5bd 9cf4 6fbd f7e0 a43b
00000110: 97ac 6bbc 611b 95bc 3df5 ab3d d228 f3bd
00000120: 02e0 a23b e305 afbd 398c 9bbd 61e0 52bd
00000130: 6b21 e33b 7112 ddbc 45a0 6abd 5502 41bd
00000140: fb6a 8d3b 48aa ed3d 8730 ff3c 4023 813c
00000150: 3875 8abd 9db2 a3bd bef9 b03d d9e6 9bbd
00000160: a7d5 d63b 57c1 46bc c2f6 a6bd 918c cebd
00000170: 7690 54bd bdee 50bd 3f7d e4bd 09d4 5abd
00000180: db7b d73d bca5 883d bc5a 8abd ec80 d73b
00000190: 336c 91bc 0de0 abbc 235a b0bd 89c9 76bd
000001a0: b390 5bbd cdab 8f3d 3e7c 4abd dc20 943d
000001b0: 1c43 87bd 0b52 d23d 3f5b 21bd 67af ef3c
000001c0: 08fb 00bd c1d0 2dbc 0c92 b1bd 6760 56bc
000001d0: e92f a7bd 026d 62bd 3b5e 0abd 7b2f 353d
000001e0: 2b86 32bb bb66 8abd 2fa6 1d3d 9bad bebb
000001f0: 3a54 513d 411b 9abd 1f02 afbd a2d3 683d
00000200: ddd9 fb3a ab0d da3c ddf3 c73c 1db8 9b3a
00000210: 16b4 2c3c 906d 183d 2e0c a6bc 0e45 b93c
00000220: 6cf9 0abd 3044 5e3d 4a2e 4dbd 8b68 8e3c
00000230: 2ce6 dfbc 2e12 5a3d 4595 14bd 90ac b4bd
00000240: b65f a93c 7d25 42bd 6fd4 d2bc da05 e93c
00000250: 6109 043d d61a 0b3d 88dd edbc 8878 e4bb
00000260: cee1 6b3c 5e1c 043a a7bb a1bc 4796 33bd
00000270: 5c33 053d bbfd 273d 100c 8abc a6e2 573d
00000280: bf9b 3fbd ceeb d8bc 79fd 24bd 813f 973b
00000290: 4e6c 233d d902 93bd fd3e 23bd fef3 afbc
000002a0: e51f cbbd 545f 3c3d ba09 e2bc 7389 f3bc
000002b0: 158a 603d a904 da3c f105 89bd ef31 f73b
000002c0: 7b9f 853d 16ee 57bd cb4f 483d 7bf0 d5bd
000002d0: cd12 173d 3e07 1f3c 25d5 8ebb ec50 c0bc
000002e0: 5d7f bd3c 0c67 0cbd dfd8 88bc 9d09 363d
000002f0: db30 953c 736d b8bc a570 e23c 5299 53bd
00000300: 4629 3a3b a968 4dbc 201c b03c 8cfc 583d
00000310: 9663 a6bc 5d23 373a 318c 263d b03a 67bd
00000320: b9cc db3c 7a36 51bc 36e5 943c 5c91 c83c
00000330: 732e 293c 6721 19bd 3238 4f3b 6a35 8a3c
00000340: d234 6abd fadb 593d 986a 4f3d 6250 7c3c
00000350: bab7 18bc 4a5c d6bb 5330 583d 6cb0 a5bc
00000360: 3e0b 13bd 418e 00bb c7ca 39bb 690d 0cbd
00000370: 7c00 82bb e847 e13c 6de5 c6bd 9c8e fbbc
00000380: 8867 6e3d 34b7 603d 6664 343c a915 503d
00000390: c230 44bc 2046 b8bc 7c8f 133b cb33 83bb
000003a0: 16b2 ef3b b64e 933d cb22 963c 7ae1 fb3c
000003b0: 797a 40bd dff8 5b3d 64cf 53bc f0ac 743d
000003c0: 04df 08bc 5520 8dbc 0f5a 86bb 0b2b b4bb
000003d0: 6fdf b5bc 29e2 fb3c 3a45 9cbc 0094 0e3d
000003e0: 4483 963c d417 ad3b b4f4 243d fda7 09bb
000003f0: 251e 7c3a 9168 fd3b 6c86 303c e0de 183d

action_model._discrete_distribution.branches.0.bias f4 [10]
-0.030275641 -0.04149001 0.018722672 0.04012557 0.03206522 0.03036195 0.11680459 0.008123524
-0.07295695 -0.035754725
00000000: 9f04 f8bc 6ef1 29bd 4a60 993c b65a 243d
00000010: d256 033d a0b9 f83c 3f37 ef3d 8718 053c
00000020: 746a 95bd 8c73 12bd

action_model._discrete_distribution.branches.1.weight f4 [10, 128]
-0.0177426 -0.041566964 0.10160631 -0.062253278 -0.11773972 -0.028068198 -0.02788987 -0.08959811
-0.069028 0.005482178 -0.046991058 0.06508271 -0.06030032 -0.045086727 -0.08218447 0.012419241
-0.055518925 -0.04694515 -0.09382226 -0.07240314 -0.07125986 -0.07645599 -0.10026014 0.004300021
0.10221283 -0.04979426 0.041924793 0.10399237 -0.0378301 0.01975798 -0.05804199 -0.035681456
-0.018992426 0.111826636 -0.10830814 0.00034375506 -0.056776762 -0.12575881 -0.028223762 -0.110671535
-0.1056616 0.023842866 -0.035278324 -0.0091289105 -0.0746727 -0.06744766 0.06974574 -0.090118825
-0.09109021 0.02747687 -0.071481735 0.03223588 0.027599536 0.07562557 -0.09142513 -0.09295479
-0.03933204 -0.11612422 -0.029069217 0.10200403 0.09227548 -0.106790535 -0.10510593 -0.10990034
0.07005795 0.050940625 -0.03554671 -0.024646549 -0.07128246 0.09298157 -0.059417028 0.049593452
-0.083352186 -0.09498164 0.0023990832 0.032478858 -0.11169806 -0.092183426 0.08870987 -0.022281345
-0.099638596 -0.11227716 -0.01914713 -0.028483842 -0.029430265 -0.053722564 -0.055947725 -0.0016796122
-0.035977423 -0.07349854 0.115484245 -0.02802804 -0.036803525 -0.051478904 0.07109153 -0.02000963
-0.07003234 -0.05791107 -0.03661156 0.05083435 -0.03458219 -0.12962456 -0.01012573 -0.0509625
-0.014132776 -0.054337066 0.03524856 -0.04987924 -0.10964408 -0.08169539 -0.083523214 -0.009041899
-0.049353674 -0.07996547 0.045905948 -0.053315002 0.079462156 0.09977312 -0.10560202 -0.05235173
-0.018469257 -0.014395362 -0.024787012 -0.0842264 -0.10356868 0.090816036 -0.023270927 -0.017219653
0.052461226 -0.013341544 0.046195004 -0.025303109 -0.043222975 -0.00045731576 0.0007163266 -0.03792636
-0.063910544 0.04365046 0.012848635 0.006186026 -0.0022528905 0.0034566992 -0.0200622 -0.0377836
-0.0043868627 -0.015393799 -0.036781162 -0.013131721 -0.015661987 -0.0116525255 -0.019547777 -0.0030133415
0.043370128 -0.042577982 -0.0018848209 0.00036548002 0.0179011 0.010745073 -0.036036734 -0.008440441
-0.021130059 0.034973826 -0.017544692 0.005813238 -0.013725849 -0.06799582 0.022280974 -0.15173067
-0.07126009 0.021551112 -0.0046370546 -0.0067129233 -0.024771594 -0.010267515 -0.026295573 -0.016272563
0.025393331 0.013415684 0.033202205 0.0062117763 0.035085447 0.045566913 -0.00616573 -0.112994455
-0.010984459 -0.07430962 -0.022185612 0.043913614 0.02988624 -0.05318063 -0.027106559 -0.061785836
0.028360544 0.016384993 -0.005246642 0.021062588 -0.09035813 -0.008478909 -0.032917846 0.0012313855
-0.0067992313 -0.053856064 -0.027871508 0.018959742 -0.020312907 -0.0022938973 0.05105416 0.024483172
-0.06789814 -0.053098887 0.028579151 0.0072400905 0.028988343 -0.004977263 0.03402932 -0.003011171
-0.008067768 -0.03713384 0.05033272 0.003585566 -0.023435831 0.0050489306 -0.019731648 0.027153317
0.0075577414 0.0052324613 -0.0044994866 0.06277103 0.035511337 -0.09376792 0.016069463 -0.01430103
0.019606765 0.00938636 0.03065257 0.005543625 -0.032024235 0.020174455 -0.0024631014 0.01720569
-0.04571673 0.03823635 0.0069868346 -0.024665175 0.03591003 0.03684936 -0.035597373 -0.043264247
0.022152733 0.008637678 0.04337678 -0.021858664 -0.06469834 0.03013798 0.04172608 -0.004555257
00000000: ee58 91bc 1f42 2abd f816 d03d 4bfd 7ebd
00000010: 8621 f1bd 47ef e5bc 4c79 e4bc 377f b7bd
00000020: 8d5e 8dbd d8a3 b33b b279 40bd 154a 853d
00000030: 78fd 76bd dcac 38bd 5550 a8bd 127a 4b3c
00000040: d067 63bd 8f49 40bd e325 c0bd 1948 94bd
00000050: b1f0 91bd f594 9cbd 3055 cdbd 31e7 8c3b
00000060: f654 d13d 11f5 4bbd 55b9 2b3d f4f9 d43d
00000070: bcf3 1abd 7ddb a13c 70bd 6dbd b826 12bd
00000080: 0196 9bbc 5d05 e53d a8d0 ddbd 063a b439
00000090: c08e 68bd ebc6 00be 8535 e7bc c2a7 e2bd
000000a0: 1c65 d8bd 1d52 c33c 0180 10bd 6d91 15bc
000000b0: 00ee 98bd 0022 8abd dbd6 8e3d 3890 b8bd
000000c0: 818d babd 2c17 e13c 0465 92bd c509 043d
000000d0: 6c18 e23c 94e1 9a3d 193d bbbd 155f bebd
000000e0: a21a 21bd 89d2 edbd 9122 eebc 7de7 d03d
000000f0: edfa bc3d ffb4 dabd c741 d7bd 6e13 e1bd
00000100: 8b7a 8f3d 1ea7 503d 6d99 11bd 8fe7 c9bc
00000110: 8afc 91bd 1f6d be3d 455f 73bd 8122 4b3d
00000120: 8db4 aabd bc85 c2bd f039 1d3b 8d08 053d
00000130: f4c1 e4bd aaca bcbd 85ad b53d 5e87 b6bc
00000140: 520f ccbd 91f1 e5bd 71da 9cbc f256 e9bc
00000150: bd17 f1bc 310c 5cbd 7129 65bd 6f26 dcba
00000160: 105d 13bd 6786 96bd 0183 ec3d 0f9b e5bc
00000170: 4bbf 16bd 8bdb 52bd 7098 913d 3ceb a3bc
00000180: 1e6d 8fbd 2834 6dbd 01f6 15bd ae37 503d
00000190: 0ea6 0dbd 4dbc 04be 64e6 25bc 0ebe 50bd
000001a0: 298d 67bc 8b90 5ebd cb60 103d 2d4e 4cbd
000001b0: 138d e0bd ea4f a7bd 380e abbd 7924 14bc
000001c0: 1427 4abd f0c4 a3bd e007 3c3d d560 5abd
000001d0: 0ebd a23d d955 cc3d df45 d8bd c56e 56bd
000001e0: d74c 97bc 86da 6bbc 220e cbbc e47e acbd
000001f0: d11b d4bd c2fd b93d aca2 bebc 3b10 8dbc
00000200: 95e1 563d 7e96 5abc f936 3d3d 7748 cfbc
00000210: 930a 31bd e2c3 efb9 ddc7 3b3a ac58 1bbd
00000220: 88e3 82bd d3ca 323d 1583 523c 26b4 ca3b
00000230: 3ba5 13bb ca89 623b 7c59 a4bc fac2 1abd
00000240: acbf 8fbb 4636 7cbc d8a7 16bd 6e26 57bc
00000250: 914d 80bc 3cea 3ebc a922 a0bc 7b7b 45bb
00000260: e0a4 313d 4066 2ebd 180c f7ba e69d bf39
00000270: 54a5 923c 1a0c 303c 419b 13bd c749 0abc
00000280: f218 adbc b740 0f3d e3b9 8fbc fa7c be3b
00000290: 62e2 60bc 6441 8bbd 9786 b63c 495f 1bbe
000002a0: cff0 91bd f58b b03c 6ff2 97bb 15f8 dbbb
000002b0: cced cabc 1439 28bc d069 d7bc 0a4e 85bc
000002c0: ad05 d03c 75cd 5b3c 09ff 073d 288c cb3b
000002d0: c2b5 0f3d 5fa4 3a3d e409 cabb a369 e7bd
000002e0: 29f8 33bc a42f 98bd 9abe b5bc c3de 333d
000002f0: fdd3 f43c efd3 59bd 930e debc 2513 7dbd
00000300: 5f54 e83c d239 863c 06ec abbb 738b ac3c
00000310: af0d b9bd 1feb 0abc ddd4 06bd 7166 a13a
00000320: 16cc debb 2d98 5cbd ca52 e4bc 7651 9b3c
00000330: 4167 a6bc 3655 16bb 2b1e 513d ef90 c83c
00000340: 2e0e 8bbd 387e 59bd d31e ea3c 483e ed3b
00000350: f678 ed3c 4f18 a3bb 5462 0b3d 1157 45bb
00000360: ac2e 04bc a719 18bd af29 4e3d d1fb 6a3b
00000370: 80fc bfbc 8071 a53b 44a4 a1bc a270 de3c
00000380: eea6 f73b 1175 ab3b 6e70 93bb 198e 803d
00000390: 5674 113d 6509 c0bd 1ba4 833c de4e 6abc
000003a0: 5e9e a03c 3fc9 193c 191b fb3c 4ca7 b53b
000003b0: d82b 03bd e644 a53c fc6b 21bb f2f2 8c3c
000003c0: 7741 3bbd b89d 1c3d d1f1 e43b 9f0e cabc
000003d0: 6516 133d 5bef 163d 8dce 11bd da35 31bd
000003e0: a679 b53c 0c85 0d3c daab 313d f110 b3bc
000003f0: 9080 84bd ede3 f63c f7e8 2a3d 4444 95bb

action_model._discrete_distribution.branches.1.bias f4 [10]
0.001034533 -0.058829073 -0.013466816 -0.0075363168 0.04595253 0.05028787 0.079466455 0.0073137702
0.010243331 -0.07005811
00000000: 2b99 873a c1f6 70bd eca3 5cbc 35f3 f6bb
00000010: b838 3c3d a7fa 4d3d 4fbf a23d 5aa8 ef3b
00000020: a5d3 273c a07a 8fbd

exp_avg f4 [128, 18]
0.00019330932 0.00016458805 6.0701626e-05 0.00021607106 0.0001490717 0.00035598964 0.00028685044 2.2949607e-05
-0.00026665925 0.00021685916 3.8496793e-05 -0.0002069719 0.00027204514 -6.374791e-05 -0.00028646566 0.00020593902
-9.491514e-05 0.00010049193 0.00048722557 0.0006428606 0.0004913699 0.00058089395 0.00064052024 0.00037907469
0.00062286254 0.00043353936 0.0002521691 0.00044645532 0.0005236297 0.00033839105 0.00061891915 0.0003430506
0.00013257994 0.00039200537 0.00047367532 0.00045320534 -2.0507105e-06 0.00018705956 0.00018845062 0.00014002834
0.00016871864 0.00014262114 3.1667856e-05 0.00024625094 -1.6236056e-05 4.2511383e-06 0.00024780986 5.5523487e-05
9.211348e-06 0.00033971117 0.00014559136 8.069485e-05 0.00033926938 -0.0003459722 0.0003036337 0.00015823048
-4.3437685e-05 0.000493087 -4.9035094e-05 0.00043343916 0.00041022035 -7.5704054e-05 0.00043701526 0.0005178334
-0.00016550258 0.00013045777 0.00046414018 -0.0001053412 0.0005052256 0.0005541591 -0.00024990487 0.00030708394
0.00022672306 0.00028288498 -0.00017983811 0.0003404005 0.00016317295 0.00055925775 0.00030940137 9.013255e-05
0.00030751637 0.00031472233 5.076018e-05 0.00010380217 0.0003274294 3.1505944e-05 0.00013251572 0.0003239709
-2.2115244e-05 0.0002655589 0.0003488297 0.0009701925 0.000819679 0.00072088774 0.0009773076 0.000175357
0.0006286294 0.00093251886 0.00019754295 0.00046440572 0.0010158209 0.00034409328 0.000648858 0.001017343
0.0005161589 0.0005340058 0.0012165497 -1.0586446e-05 0.00012196603 0.00019252521 6.137545e-05 0.00017101745
0.00017472179 0.00010373423 0.0001583049 0.00012048811 7.1614784e-05 9.204089e-05 0.00013570578 5.1840172e-05
0.00015374582 9.798315e-05 0.0001352008 0.00015922872 0.00011263146 3.3655302e-05 -0.00023074872 -0.00029045998
8.892099e-05 -0.00040349906 -0.00015199184 -0.00029449133 -0.00034780471 -0.00022788363 -0.00011958131 -0.00047874358
-0.00013200848 1.2294462e-05 -0.0004397187 -0.00026100554 -0.00027321462 -0.00053037447 -0.00020282157 5.29764e-05
0.00054692524 0.0011258705 0.0008991256 0.0009632617 0.001067396 0.00042368213 0.0008286126 0.0010019578
0.0004033683 0.00069103745 0.0010596511 0.0004518054 0.0008927956 0.0010599969 0.0008002751 0.000890573
0.0011694344 0.0001441456 4.3506123e-05 -1.3037317e-05 -5.137358e-05 -9.7050004e-05 8.226026e-05 0.0001930277
-9.302232e-06 -5.318891e-05 -3.40774e-05 -0.000148616 3.887011e-05 6.3521846e-05 -0.0001398784 -8.599603e-05
-0.00016653491 -0.00026907856 -5.8908932e-05 0.00029820175 0.00036816162 -0.00012824236 0.00030639255 0.0004034122
-0.00022809251 0.00043004804 0.00047089678 -0.00031712692 -0.0003061034 0.0005090471 -0.000365817 -0.00012570649
0.00049974566 -0.00039104332 -9.9097044e-05 0.00047184312 -0.00042906363 0.00022803186 0.0005788765 0.0011069459
0.0009900862 0.001028336 0.0011020775 0.0004163481 0.00097892 0.0010150461 0.00032335718 0.00085258816
0.0011078725 0.00035671267 0.001103676 0.0010924785 0.00054668693 0.001003388 0.0012562859 0.00011965004
2.4731773e-05 0.0002274935 -0.00017870107 1.2322945e-05 0.0002626466 0.0003065198 2.8484734e-05 0.00015087651
0.00027161613 -7.137102e-05 0.00023676704 0.000116453455 -1.4935779e-05 0.00015906859 0.0001350854 -0.00011082851
0.00018732043 0.00031119405 -0.00031846596 -0.00059919327 -0.00035713683 -0.00063197344 -0.00052421214 -0.00036850956
-0.0006063255 -0.0004743762 -9.048157e-05 -0.00057722314 -0.00048182276 -0.00020189853 -0.00067484693 -0.00050266663
-0.00035084196 -0.00062102947 -0.0005303443 -5.85495e-05 0.00060717994 0.0011252423 0.0008663515 0.0009985125
00000000: 13b3 4a39 4595 2c39 e099 7e38 2291 6239
00000010: 2150 1c39 1fa4 ba39 6a64 9639 e883 c037
00000020: 66ce 8bb9 b064 6339 9e77 2138 9906 59b9
00000030: 48a1 8e39 66b0 85b8 c530 96b9 56f1 5739
00000040: 2e0d c7b8 32bf d238 4f72 ff39 a585 283a
00000050: 47cf 003a 2247 183a 96e8 273a 8bbe c639
00000060: 9947 233a ab4c e339 9035 8439 3812 ea39
00000070: 3244 093a 146a b139 f63e 223a 79db b339
00000080: 2805 0b39 1286 cd39 a057 f839 319c ed39
00000090: f09e 09b6 6b25 4439 d49a 4539 92d4 1239
000000a0: 11ea 3039 928c 1539 1ad3 0438 3e1b 8139
000000b0: aa32 88b7 00a5 8e36 7aec 8139 e4e1 6838
000000c0: 708a 1a37 431b b239 e2a9 1839 b83a a938
000000d0: f7df b139 9a63 b5b9 0631 9f39 acea 2539
000000e0: dc30 36b8 8242 013a 08ab 4db8 383f e339
000000f0: d812 d739 4ec3 9eb8 321f e539 36bf 073a
00000100: c38a 2db9 7ecb 0839 d757 f339 a0ea dcb8
00000110: 1e71 043a fd44 113a aa05 83b9 1c00 a139
00000120: 82bc 6d39 2e50 9439 ed92 3cb9 c877 b239
00000130: 6819 2b39 279b 123a 2637 a239 8b05 bd38
00000140: 263a a139 5101 a539 54e7 5438 5eb0 d938
00000150: d5aa ab39 4025 0438 ebf3 0a39 a3da a939
00000160: 2084 b9b7 b63a 8b39 21e3 b639 8454 7e3a
00000170: badf 563a f5f9 3c3a 0019 803a 09e0 3739
00000180: 9bca 243a 4874 743a 8823 4f39 7b7b f339
00000190: 4b25 853a 6b67 b439 2018 2a3a 5e58 853a
000001a0: d64e 073a 86fc 0b3a a274 9f3a 709c 31b7
000001b0: 04c8 ff38 98e0 4939 b2b6 8038 2653 3339
000001c0: 8635 3739 e48b d938 a6fe 2539 90ae fc38
000001d0: e52f 9638 1406 c138 3e4c 0e39 f66e 5938
000001e0: d436 2139 4e7c cd38 b0c4 0d39 a2f6 2639
000001f0: 8e34 ec38 1b29 0d38 23f5 71b9 e148 98b9
00000200: 187b ba38 ba8c d3b9 0060 1fb9 f565 9ab9
00000210: 8f59 b6b9 0cf4 6eb9 bac7 fab8 e0ff fab9
00000220: c26b 0ab9 5044 4e37 0b8a e6b9 92d7 88b9
00000230: 3f3e 8fb9 d408 0bba 80ac 54b9 fa32 5e38
00000240: 885f 0f3a f291 933a 4cb3 6b3a 6683 7c3a
00000250: dee7 8b3a a721 de39 4037 593a 2054 833a
00000260: 2d7b d339 bd26 353a fee3 8a3a 4be0 ec39
00000270: 800a 6a3a 98ef 8a3a 8ec9 513a 5875 693a
00000280: b547 993a ca25 1739 587a 3638 daba 5ab7
00000290: f679 57b8 5387 cbb8 2483 ac38 7b67 4a39
000002a0: c810 1cb7 2817 5fb8 54ee 0eb8 ced5 1bb9
000002b0: 7608 2338 0837 8538 52ac 12b9 c458 b4b8
000002c0: e09f 2eb9 1d13 8db9 fc14 77b8 f657 9c39
000002d0: d105 c139 cc78 06b9 50a3 a039 1281 d339
000002e0: 1e2c 6fb9 1278 e139 b2e2 f639 0e44 a6b9
000002f0: 817c a0b9 9371 053a 20cb bfb9 14d0 03b9
00000300: 5d01 033a f204 cdb9 52d2 cfb8 b661 f739
00000310: f2f3 e0b9 d61b 6f39 bfbf 173a f116 913a
00000320: c8c5 813a 3bc9 863a 9673 903a 4c49 da39
00000330: 1b4f 803a 4c0b 853a 4488 a939 3980 5f3a
00000340: 0836 913a 2a05 bb39 39a9 903a 7f31 8f3a
00000350: 8a4f 0f3a 1d84 833a f6a9 a43a a0ec fa38
00000360: 1477 cf37 528b 6e39 b461 3bb9 a5be 4e37
00000370: d4b3 8939 64b4 a039 80f2 ee37 9b34 1e39
00000380: b367 8e39 06ad 95b8 ab44 7839 7938 f438
00000390: af94 7ab7 a6cb 2639 b6a5 0d39 9a6c e8b8
000003a0: 726b 4439 c227 a339 c7f7 a6b9 2e13 1dba
000003b0: 183e bbb9 05ab 25ba 486b 09ba 8434 c1b9
000003c0: d1f1 1eba b2b5 f8b9 ecc0 bdb8 ca50 17ba
000003d0: 289d fcb9 b9b4 53b9 36e8 30ba 63c5 03ba
000003e0: 36f1 b7b9 95cc 22ba ce06 0bba 0c93 75b8
000003f0: 282b 1f3a de7c 933a dd1b 633a 85e0 823a

exp_avg_sq f4 [128, 18]
1.269311e-06 9.550786e-07 4.8075276e-07 1.3483723e-06 1.0289857e-06 4.3690477e-07 1.414782e-06 1.0865505e-06
5.3586507e-07 1.3794356e-06 1.1007959e-06 6.541666e-07 1.3241954e-06 1.1031275e-06 5.41025e-07 1.2138371e-06
1.1083544e-06 8.1527446e-07 2.3446144e-06 2.354967e-06 1.2993617e-06 2.802489e-06 2.7331023e-06 1.432995e-06
3.3782296e-06 3.061573e-06 1.4268572e-06 3.8932353e-06 3.3904976e-06 1.4017689e-06 4.334774e-06 3.3782471e-06
1.2444524e-06 4.5668585e-06 3.3124286e-06 1.2795259e-06 1.9550823e-06 2.0369648e-06 1.293631e-06 2.4048286e-06
2.452283e-06 1.356856e-06 2.8388279e-06 2.927274e-06 1.3129265e-06 3.3381475e-06 3.4654358e-06 1.3381577e-06
3.8125804e-06 3.959407e-06 1.1358462e-06 4.09924e-06 4.637868e-06 1.1596e-06 1.5287864e-06 1.4441683e-06
6.876949e-07 1.4774971e-06 1.5834033e-06 7.7362915e-07 1.6603797e-06 1.6700362e-06 6.626181e-07 1.7267762e-06
1.8714841e-06 7.200438e-07 1.9648378e-06 1.9926192e-06 7.9075517e-07 2.1221251e-06 2.30857e-06 8.276811e-07
1.1376848e-06 1.634084e-06 6.2457735e-07 1.1079211e-06 1.6499388e-06 6.516427e-07 1.124901e-06 1.6375973e-06
5.8050597e-07 1.1147546e-06 1.5426344e-06 6.662768e-07 1.0642116e-06 1.4829477e-06 6.8820265e-07 1.065816e-06
1.3932683e-06 6.6206644e-07 7.064432e-06 8.160843e-06 4.7264425e-06 8.696591e-06 9.699425e-06 5.0318454e-06
1.0462761e-05 1.1327726e-05 5.0893095e-06 1.2359086e-05 1.278313e-05 4.9443174e-06 1.4086155e-05 1.3251854e-05
3.8258054e-06 1.4864162e-05 1.354456e-05 3.411561e-06 6.1102367e-07 6.743942e-07 4.0668087e-07 7.5188575e-07
8.137024e-07 4.39084e-07 9.1944526e-07 9.609194e-07 4.4585178e-07 1.0948844e-06 1.1400534e-06 4.4524018e-07
1.2691718e-06 1.1993293e-06 3.2754193e-07 1.2453991e-06 1.3221778e-06 2.7756198e-07 1.4503288e-06 1.6328919e-06
6.881805e-07 1.4384741e-06 1.7601058e-06 7.822373e-07 1.6656811e-06 1.8114004e-06 6.317685e-07 1.816283e-06
2.0380244e-06 7.274268e-07 2.0677205e-06 2.1463663e-06 8.894929e-07 2.1638957e-06 2.3876273e-06 8.3698103e-07
9.165608e-06 1.09331495e-05 6.14156e-06 1.1278431e-05 1.2999875e-05 6.546314e-06 1.3574175e-05 1.498227e-05
6.5124e-06 1.574206e-05 1.7108026e-05 6.3943953e-06 1.7831782e-05 1.7886749e-05 4.964182e-06 1.815334e-05
1.8818515e-05 4.223885e-06 1.1182553e-06 1.7887668e-06 5.6155426e-07 1.21142e-06 1.9764045e-06 6.326879e-07
1.3916379e-06 2.1365388e-06 6.4156507e-07 1.5888572e-06 2.2800593e-06 8.2196584e-07 1.8530205e-06 2.4748233e-06
9.3373916e-07 2.1713045e-06 2.730031e-06 1.0650787e-06 8.9650035e-07 1.4418772e-06 4.462024e-07 9.324877e-07
1.6340205e-06 4.9638106e-07 1.0914695e-06 1.7168836e-06 6.220495e-07 1.1973247e-06 1.8125072e-06 7.0789577e-07
1.3953132e-06 1.8856141e-06 6.38499e-07 1.5764094e-06 1.995194e-06 7.730207e-07 8.403954e-06 1.0289751e-05
5.5494625e-06 1.0255743e-05 1.2098805e-05 5.9534123e-06 1.2376452e-05 1.380184e-05 6.068876e-06 1.4626347e-05
1.5623504e-05 5.990234e-06 1.7061759e-05 1.6423714e-05 4.825455e-06 1.7963604e-05 1.672777e-05 3.5179785e-06
9.854289e-07 3.3084436e-06 5.4270834e-07 9.58696e-07 3.226455e-06 6.027371e-07 9.355007e-07 2.94552e-06
6.8796305e-07 1.0189023e-06 2.5453917e-06 8.076366e-07 1.0000145e-06 2.287307e-06 9.753307e-07 1.1874416e-06
2.0008097e-06 9.240291e-07 2.5822646e-06 2.6142623e-06 1.5520155e-06 3.1352395e-06 3.0803542e-06 1.6371622e-06
3.6528677e-06 3.5288128e-06 1.5583854e-06 4.125666e-06 3.9650117e-06 1.5343722e-06 4.4962817e-06 4.264901e-06
1.2378251e-06 4.6413084e-06 4.5434676e-06 1.195656e-06 6.620905e-06 7.2369944e-06 4.398213e-06 8.138892e-06
00000000: 325d aa35 4030 8035 140d 0135 b8f9 b435
00000010: ae1b 8a35 bc8f ea34 8ae3 bd35 97d5 9135
00000020: 5ed8 0f35 0c25 b935 0fbf 9335 fd99 2f35
00000030: 02bb b135 2c0f 9435 f43a 1135 20eb a235
00000040: c4c2 9435 3cd9 5a35 2b58 1d36 060a 1e36
00000050: ba65 ae35 6512 3c36 576a 3736 5555 c035
00000060: 8bb5 6236 6c75 4d36 7182 bf35 a3a2 8236
00000070: 4e88 6336 6a24 bc35 6d73 9136 d8b5 6236
00000080: 0f07 a735 043d 9936 174b 5e36 2dbc ab35
00000090: 0f34 0336 cab2 0836 d3a0 ad35 a462 2136
000000a0: e791 2436 381d b635 b182 3e36 2f72 4436
000000b0: d037 b035 f004 6036 bc8f 6836 c09a b335
000000c0: a2db 7f36 0cdb 8436 6173 9835 348c 8936
000000d0: fc9e 9b36 8da3 9b35 b330 cd35 3fd5 c135
000000e0: 099a 3835 6a4e c635 5385 d435 64ab 4f35
000000f0: 36da de35 0226 e035 c5de 3135 94c3 e735
00000100: b42f fb35 0849 4135 a8db 0336 f0b8 0536
00000110: 4844 5435 d569 0e36 eeec 1a36 d02d 5e35
00000120: 8db2 9835 b352 db35 a1a8 2735 e1b3 9435
00000130: 7773 dd35 8cec 2e35 4efb 9635 6acb db35
00000140: 11d4 1b35 ad9e 9535 840c cf35 31da 3235
00000150: 08d6 8e35 b209 c735 edbc 3835 290d 8f35
00000160: 5600 bb35 dcb8 3135 020b ed36 8eea 0837
00000170: d597 9e36 93e7 1137 b7ba 2237 39d7 a836
00000180: 3789 2f37 360c 3e37 d6c4 aa36 df59 4f37
00000190: 2077 5637 5de7 a536 9353 6c37 4854 5e37
000001a0: 6b5f 8036 1761 7937 713d 6337 2cf2 6436
000001b0: 3a05 2435 0408 3535 cb55 da34 32d5 4935
000001c0: 346d 5a35 3fbb eb34 cccf 7635 f0f8 8035
000001d0: 675d ef34 f1f3 9235 f003 9935 5809 ef34
000001e0: 6958 aa35 a4f8 a035 05d9 af34 9627 a735
000001f0: af75 b135 d403 9534 eba8 c235 bd29 db35
00000200: 67bb 3835 9811 c135 c63c ec35 f0fa 5135
00000210: 5e90 df35 3e1f f335 cd96 2935 02c7 f335
00000220: fec4 0836 6444 4335 2bc3 0a36 4b0a 1036
00000230: 7dc5 6e35 7237 1136 203b 2036 e6ac 6035
00000240: fdc5 1937 856d 3737 9913 ce36 7e38 3d37
00000250: 0a1a 5a37 69a8 db36 a3bc 6337 5c5c 7b37
00000260: 1785 da36 d10d 8437 3583 8f37 708f d636
00000270: 7695 9537 800b 9637 0092 a636 0048 9837
00000280: 74dc 9d37 e5ba 8d36 f616 9635 8f15 f035
00000290: b7bd 1635 1398 a235 5fa2 0436 fbd5 2935
000002a0: 50c8 ba35 7561 0f36 0438 2c35 b840 d535
000002b0: 1f03 1936 10a5 5c35 4db5 f835 2415 2636
000002c0: 11a6 7a35 bab6 1136 9335 3736 d3f3 8e35
000002d0: 09a7 7035 8686 c135 978d ef34 1150 7a35
000002e0: 8450 db35 0c3f 0535 9b7e 9235 ac6f e635
000002f0: ebfa 2635 c3b3 a035 4645 f335 3a06 3e35
00000300: 9946 bb35 3515 fd35 5165 2b35 0495 d335
00000310: 2ce5 0536 9481 4f35 b5fe 0c37 25a2 2c37
00000320: 8535 ba36 1510 2c37 f9fb 4a37 6cc3 c736
00000330: 75a4 4f37 748e 6737 3fa3 cb36 af63 7537
00000340: 380f 8337 b8ff c836 d91f 8f37 a8c5 8937
00000350: 58ea a136 8cb0 9637 9d52 8c37 6916 6c36
00000360: 1443 8435 a106 5e36 a2ae 1135 8bac 8035
00000370: 1386 5836 c7cb 2135 1e1f 7b35 a6ab 4536
00000380: 76ac 3835 37c1 8835 7fd1 2a36 5dcc 5835
00000390: 3d38 8635 a37f 1936 1ce8 8235 2f60 9f35
000003a0: a645 0636 cc0a 7835 f84a 2d36 af70 2f36
000003b0: d94e d035 0167 5236 15b8 4e36 77bc db35
000003c0: ca23 7536 8bd0 6c36 b729 d135 336f 8a36
000003d0: 310b 8536 a1f0 cd35 c4de 9636 381b 8f36
000003e0: 5923 a635 89bc 9b36 1774 9836 6d7a a035
000003f0: 2429 de36 4fd5 f236 5d94 9336 468c 0837
