Assets/Config/results/CheeseWorld3/CheeseWorld3.onnx (onnx, 93872 bytes, 11 tensors)

discrete_act_size_vector f4 [1, 2]
0	0x41200000	10.0
1	0x41200000	10.0

network_body.observation_encoder.processors.0.normalizer.running_mean f4 [18]
0	0x3fbe7590	1.4879627
1	0x3fe5ec85	1.7962805
2	0x4068005b	3.6250217
3	0x3ff3e2c8	1.9053583
4	0x400f85c0	2.2425385
5	0x40816080	4.04303
6	0x4017a83c	2.3696432
7	0x402fdc49	2.7478201
8	0x408e7a99	4.4524655
9	0x4038b1aa	2.8858438
10	0x4053b951	3.3081858
11	0x409af0e9	4.841908
12	0x405c9869	3.4468024
13	0x407bf70a	3.936953
14	0x40a71286	5.221011
15	0x408275a2	4.0768595
16	0x40929e89	4.5818524
17	0x40b3885f	5.610397

network_body._body_endoder.seq_layers.0.weight f4 [128, 18]
0	0x3e4d4fcd	0.20049973
1	0xbe43a395	-0.1910537
2	0xbed036c8	-0.40666795
3	0x3e97f2f6	0.29677552
4	0x3e2ec563	0.17067485
5	0xbcc579d0	-0.024105936
6	0xbd6cc6db	-0.05780683
7	0xbe95329a	-0.29140168
8	0x3dae01f0	0.08496463
9	0x3e23c3ae	0.15992615
10	0xbebf1ce9	-0.37326744
11	0x3e7e636c	0.24842614
12	0xbeb42284	-0.35182583
13	0xbe8a0bfb	-0.26962265
14	0x3d26fa26	0.040765904
15	0xbdbe303a	-0.09286542
16	0xbf142d79	-0.57881886
17	0x3e8a7b01	0.2704697
18	0xbe953a59	-0.29146078
19	0x3dbd56cf	0.09245073
20	0xbe800235	-0.25001684
21	0xbe088a49	-0.13334002
22	0x3d935400	0.07193756
23	0xbefdf3b0	-0.4959998
24	0xbd2fb260	-0.04289472
25	0xbd143e36	-0.03619214
26	0xbe89badd	-0.26900378
27	0x3dca7b2a	0.09886773
28	0x3ebec7a7	0.37261698
29	0xbd862f9e	-0.06552051
30	0x3ec15204	0.37757885
31	0xbde0e638	-0.10981411
32	0xbee7f82b	-0.45306525
33	0xbe60bd2a	-0.2194716
34	0x3e825dc0	0.2546215
35	0x3d5fd8f9	0.05465028
36	0xbee61b07	-0.44942495
37	0x3d35e153	0.04440434
38	0xbea4866b	-0.32133803
39	0xbd66751f	-0.05626404
40	0xbd473200	-0.048631668
41	0xbf01a01d	-0.5063494
42	0x3ea61b7e	0.3244285
43	0xbe72f788	-0.23727238
44	0xbf3a1db5	-0.7270158
45	0x3dd06892	0.10176195
46	0x3daf7e58	0.0856902
47	0xbf563ca3	-0.83686274
48	0xbca64395	-0.020295897
49	0xbe2bb85a	-0.16769543
50	0x3e556681	0.20839883
51	0xbdb54c1c	-0.08852407
52	0xbe03339a	-0.12812653
53	0xbdff2c1a	-0.124595836
54	0xbeaaf6ae	-0.33391327
55	0xbc255846	-0.010091847
56	0xbf270cc0	-0.6525383
57	0xbebc4ba3	-0.36776456
58	0x3e708143	0.2348681
59	0xbd0d1f49	-0.034453664
60	0xbeb3d0f6	-0.35120362
61	0xbe3277e0	-0.17428541
62	0xbddf99e6	-0.10918026
63	0x3daf4684	0.08558372
64	0x3e2cf121	0.16888858
65	0x3e35b1db	0.17743628
66	0xbe8990c0	-0.26868248
67	0x3e8613ad	0.26186886
68	0xbec31ebd	-0.3810939
69	0x3e8711d4	0.2638079
70	0xbdd48a5b	-0.10377952
71	0xbe43e333	-0.19129638
72	0x3e05e820	0.1307683
73	0x3e880bb0	0.26571417
74	0x3e906542	0.28202254
75	0x3ea480ac	0.3212942
76	0xbea18f54	-0.31554663
77	0x3e905541	0.28190044
78	0x3eae1251	0.3399835
79	0x3d961765	0.07328681
80	0xbdf869c9	-0.12129552
81	0xbe2f54c6	-0.17122182
82	0x3e978cd3	0.29599628
83	0xbe24c7b3	-0.16091804
84	0x3acec790	0.0015776027
85	0x3ded00ed	0.11572442
86	0x3e97335f	0.2953138
87	0x3eb72546	0.35770625
88	0x3bc9aeb1	0.006154858
89	0x3d27b7cf	0.040946778
90	0x3dc8a5ec	0.09797272
91	0x3e9ed8a9	0.31024674
92	0xbf150e99	-0.582254
93	0x3c3ee94c	0.011652302
94	0xbe3a95b4	-0.1822117
95	0x3c76b87f	0.015058636
96	0xbe70267d	-0.23452182
97	0x3eda3c28	0.4262402
98	0x3e09f142	0.13470939
99	0xbb48600f	-0.0030574834
100	0xbeeceeaa	-0.46275836
101	0xbcc598c4	-0.024120696
102	0x3da2903b	0.07937666
103	0xbdecd204	-0.11563495
104	0x3cecd293	0.028909003
105	0xbd75c7fd	-0.060005177
106	0xbecc2321	-0.3987055
107	0xbe30319d	-0.17206426
108	0xbdc4742f	-0.09592473
109	0xbf20c779	-0.6280437
110	0xbe0c384b	-0.13693349
111	0x3e08086a	0.1328446
112	0x3dc0b676	0.09409802
113	0x3e852947	0.26008055
114	0xbe40e092	-0.18835667
115	0xbe431c21	-0.19053699
116	0x3e04b4e9	0.12959637
117	0xbd948aa2	-0.072530046
118	0x3dd3364f	0.10313093
119	0x3e8edb1c	0.27901542
120	0xbe36b294	-0.1784156
121	0xbbf316c5	-0.007418486
122	0xbe69ed9d	-0.22844549
123	0x3d69eed2	0.057112522
124	0x3c2c7f59	0.010528409
125	0xbd701c6e	-0.058620863
126	0xbe054b3a	-0.13016978
127	0xbcec7d63	-0.028868383
128	0xbf517c5c	-0.8183038
129	0xbeaf5e49	-0.3425162
130	0x3e384842	0.17996314
131	0x3c55d8f2	0.013052212
132	0xbe3f9acb	-0.18711393
133	0x3e751881	0.23935129
134	0xbee6e941	-0.45099834
135	0x3dd16050	0.10223448
136	0xbe328b69	-0.17435993
137	0xbe94d02a	-0.29065067
138	0x3ee3de7d	0.44505683
139	0xbd8e15df	-0.06937765
140	0xbf3adb56	-0.7299093
141	0xbdbd4d63	-0.09243276
142	0xbd4eb6d4	-0.050467327
143	0x3e0e53ab	0.13899104
144	0xbeda72ac	-0.42665613
145	0xbedd28ce	-0.43195194
146	0x3e7fb37b	0.2497081
147	0xbe75d78f	-0.2400801
148	0xbe0e65a6	-0.13905963
149	0xbe45da67	-0.19321595
150	0xbc412fdb	-0.011791195
151	0xbdb08b53	-0.08620324
152	0xbf19ff00	-0.60154724
153	0xbe78a6e7	-0.24282418
154	0x3e8fb2c6	0.2806608
155	0xbe1889ef	-0.14896367
156	0x3e7db2e6	0.24775276
157	0x3ea55b39	0.3229616
158	0xbe8ddaba	-0.27705938
159	0xbd254b4c	-0.04035501
160	0xbe5c877e	-0.21536061
161	0xbee7e7e3	-0.45294103
162	0xbc867afd	-0.016416067
163	0x3e7283fa	0.23683158
164	0xbead51a6	-0.33851355
165	0xbe0ff389	-0.14057745
166	0x3e918ee2	0.28429323
167	0x3e2a1beb	0.16612212
168	0x3ee73dba	0.4516428
169	0x3ca8da7f	0.020612
170	0x3db338e5	0.08751086
171	0x3e368873	0.17825489
172	0xbdf5087e	-0.119645104
173	0x3ed7458c	0.42045248
174	0x3d05dfad	0.032684017
175	0x3eb95da6	0.3620426
176	0x3eb78100	0.35840607
177	0x3eced6aa	0.4039815
178	0x3d9fb32a	0.07797845
179	0xbda81f63	-0.082091115
180	0x3ee49f8f	0.44652984
181	0xbdc12a16	-0.094318554
182	0x3eaa0485	0.33206573
183	0xbeb28cf7	-0.34873173
184	0x3e2d75c1	0.16939451
185	0x3c1c2f66	0.009532785
186	0x3d858f73	0.065215014
187	0xbd852fd6	-0.065032646
188	0xbd874459	-0.06604833
189	0xbca09c2b	-0.019605717
190	0x3e9d4670	0.30717802
191	0xbdee105f	-0.11624216
192	0x3e951a70	0.29121733
193	0x3a1158d9	0.00055445504
194	0xbebd6010	-0.36987352
195	0x3e93b9af	0.28852603
196	0x3e217f0c	0.15771121
197	0xbd09b61c	-0.03362094
198	0x3e67f7e0	0.2265315
199	0xbe840973	-0.2578846
200	0xbe8eca7a	-0.27888852
201	0x3d376607	0.044775035
202	0x3e3a4324	0.18189675
203	0x3ed65bd1	0.41866925
204	0x3ddb4128	0.10705787
205	0x3e51f5ab	0.20503871
206	0x3e6327c2	0.22183135
207	0x3f0897f2	0.5335685
208	0xbe05aa50	-0.1305325
209	0x3e86e648	0.26347566
210	0x3e77db71	0.24204804
211	0x3eb57b30	0.35445547
212	0x3da98597	0.08277433
213	0x3e55cca1	0.20878841
214	0xbd802353	-0.062567376
215	0xbe3f870a	-0.18703857
216	0xbf4df554	-0.80452466
217	0xbee392e4	-0.44448006
218	0xbe1405ec	-0.14455384
219	0xba778c23	-0.0009443184
220	0xbe90d972	-0.28290898
221	0xbd9a37a0	-0.07530141
222	0xbe7e4dad	-0.24834318
223	0x3eb847c9	0.35992268
224	0xbe0b14ce	-0.13582155
225	0xbeac815e	-0.3369245
226	0x3d465d09	0.04842857
227	0xbe02be1a	-0.1276783
228	0x3e8a3284	0.26991665
229	0x3e9403d2	0.28909165
230	0xbe0b08f2	-0.13577631
231	0x3ef43723	0.47698316
232	0x3e6ff607	0.23433696
233	0xbefe4bf7	-0.49667332
234	0x3c8eaabb	0.017415395
235	0x3d8a886e	0.06764303
236	0xbcfc064b	-0.03076472
237	0xbf152d70	-0.5827246
238	0xbd2c8ba5	-0.042125363
239	0x3defe101	0.11712838
240	0xbed7c8bf	-0.42145345
241	0x3ea1f7d0	0.31634378
242	0x3e25c2af	0.16187547
243	0x3ea784d2	0.3271852
244	0xbe41453a	-0.18874064
245	0xbf34c3d6	-0.7061132
246	0x3b03f6f2	0.0020136205
247	0x3e123cc2	0.1428099
248	0xbf5a5c23	-0.8529684
249	0xbe5c5108	-0.21515286
250	0x3e31c279	0.17359342
251	0xbefb2814	-0.49054015
252	0xbd8f13ae	-0.069861755
253	0x3e442f4a	0.19158664
254	0x3eae809f	0.34082505
255	0x3e19f432	0.1503456

network_body._body_endoder.seq_layers.0.bias f4 [128]
0	0x3d91e0e5	0.07122973
1	0x3e5739c9	0.21018137
2	0x3e8d360d	0.275803
3	0x3e6d321e	0.2316365
4	0xbd099749	-0.033591542
5	0x3e597a00	0.21237946
6	0x3e36740e	0.17817709
7	0x3e1e7dbd	0.15477653
8	0x3e8e7621	0.278245
9	0xbcb557e1	-0.02213663
10	0xbdd8f028	-0.10592681
11	0xbd24d1d2	-0.040239163
12	0x3e57ab0b	0.21061341
13	0x3df43871	0.11924828
14	0xbd2addee	-0.041715555
15	0x3dbb845c	0.09156105
16	0xbd82ff8b	-0.06396397
17	0xbdc8ad0c	-0.09798631
18	0x3cc72090	0.02430752
19	0x3e86e95f	0.26349923
20	0x3c7e0d1c	0.015506055
21	0xbe29fbd3	-0.1659997
22	0x3dc16a3b	0.0944409
23	0xbe0b45d0	-0.1360085
24	0xbbc08c4b	-0.005876099
25	0x3e4649a8	0.19364035
26	0xbde6e06b	-0.11273273
27	0xbd86cbb7	-0.06581824
28	0x3dee37cf	0.116317384
29	0xbdc9b628	-0.09849197
30	0x3e1293ac	0.14314145
31	0x3da2e887	0.07954507
32	0x3d621a07	0.055200603
33	0xbd58681e	-0.05283367
34	0x3e8e776c	0.27825487
35	0x3e5e3813	0.21701078
36	0xbd97fd17	-0.0742132
37	0xbd68f3f5	-0.05687328
38	0x3bea9d27	0.0071598473
39	0x3cca311c	0.02468162
40	0xbd855d3a	-0.06511922
41	0x3d5cd7be	0.053916685
42	0xbd5bcbf4	-0.0536613
43	0x3daa9c08	0.08330542
44	0xbd71e84e	-0.059059434
45	0x3d0567b6	0.03256961
46	0x3d5c86c5	0.053839464
47	0x3e45786c	0.19284219
48	0x3cd32421	0.025774064
49	0xbbc85866	-0.0061140535
50	0x3cf2d0ec	0.029640637
51	0x3e395b83	0.18101315
52	0x3ddef1dd	0.108859755
53	0x3eb72d1b	0.357766
54	0x3db438dd	0.08799908
55	0x3da176de	0.07884
56	0xbdaa0149	-0.083010264
57	0x3e59fb3c	0.21287245
58	0xbe45daf7	-0.1932181
59	0xbccc8270	-0.024964541
60	0x3da4091d	0.08009551
61	0xbdfe5c8d	-0.124199964
62	0xbce84a15	-0.028355638
63	0x3e7580df	0.23974942
64	0x3c8763e5	0.016527126
65	0x3e04f6db	0.12984793
66	0xbdca5c83	-0.098809265
67	0x3e0d2812	0.13784817
68	0xbd30c6ae	-0.043158226
69	0x3e3cc7c5	0.18435581
70	0x3e2627fb	0.16226189
71	0xbc31a864	-0.01084337
72	0xbd3fa4fc	-0.0467882
73	0x3d16f69f	0.03685629
74	0x3e4c3b0f	0.19944404
75	0x3df3dfc6	0.11907916
76	0xbc5f8614	-0.013642807
77	0x3e3504e3	0.17677645
78	0x3e3c7938	0.18405616
79	0xbd222e9a	-0.039595224
80	0x3e41c155	0.18921407
81	0x3da082c6	0.07837443
82	0xbda25c7e	-0.07927798
83	0x3e50aad4	0.20377666
84	0xbd4d7fa3	-0.050170552
85	0xbd65996f	-0.05605453
86	0x3d1beeb3	0.03806944
87	0x3e8b9f92	0.2727018
88	0x3de65cad	0.11248145
89	0xbdd3a809	-0.103347845
90	0x3e269cbc	0.16270727
91	0x3e02e331	0.12781979
92	0x3b3e5e9a	0.0029048086
93	0x3e94d646	0.29069728
94	0x3bedc7d5	0.007256488
95	0xbcfa6d19	-0.0305696
96	0x3e90c8e2	0.2827826
97	0x3e49a7bb	0.1969289
98	0x3cde1d1d	0.027113492
99	0xbd22a5e1	-0.039708976
100	0x3e525b64	0.20542675
101	0xbcee1713	-0.029063737
102	0x3d68d06a	0.056839384
103	0x3db55c02	0.0885544
104	0x3e39567a	0.18099394
105	0x3cd12537	0.02553044
106	0xbd2402ae	-0.040041618
107	0xbd8364ed	-0.064157344
108	0x3d4752c0	0.0486629
109	0x3e875207	0.2642977
110	0x3e72d659	0.2371458
111	0x3dbeebf5	0.09322349
112	0x3b91885d	0.0044413046
113	0x3e451c5d	0.19249101
114	0xbd193a7d	-0.037409294
115	0x3d138ab5	0.036020953
116	0xbbac78ef	-0.00526344
117	0xbd6d464a	-0.05792836
118	0xbd98ab69	-0.07454569
119	0x3e81d0d7	0.25354645
120	0xbcee54a6	-0.029093098
121	0xbd0545b5	-0.03253718
122	0xbd32f3a3	-0.04368938
123	0x3c63f15f	0.013912528
124	0x3de59af8	0.112111986
125	0x3e55ee30	0.20891643
126	0x3b9a64d4	0.0047117267
127	0xbdb0de39	-0.086361356

network_body._body_endoder.seq_layers.2.weight f4 [128, 128]
0	0xbdca7959	-0.098864265
1	0x3d8ad95c	0.06779739
2	0x3e7374af	0.2377498
3	0x3db5f12d	0.08883891
4	0xbd9efe01	-0.07763291
5	0xbc95b9de	-0.018277105
6	0x3cb38294	0.02191285
7	0x3df4347e	0.119240746
8	0x3dc13469	0.094338246
9	0xbb40dee8	-0.0029429737
10	0xbe50906b	-0.20367591
11	0xbd4fb1ea	-0.05070678
12	0x3eb45e0c	0.35228002
13	0x3e3598c4	0.17734057
14	0xbd7c651e	-0.06161987
15	0xbd26cff7	-0.040725674
16	0xbe929a91	-0.2863355
17	0xbd6436b5	-0.055716235
18	0xbd9aef5e	-0.07565187
19	0x3da92f99	0.08261032
20	0xbea95769	-0.330745
21	0xbd5791c9	-0.052629266
22	0x3d219dbb	0.039457064
23	0xbda5e587	-0.081004195
24	0xbe1d8978	-0.15384471
25	0x3dccd12b	0.10000833
26	0xbe783ee6	-0.24242744
27	0xbd826d3e	-0.063684925
28	0x3e85899b	0.26081547
29	0xbd827601	-0.06370164
30	0xbd90e24c	-0.07074413
31	0x3e0d4339	0.13795175
32	0x3c0c984d	0.008581233
33	0xbe3d8f2d	-0.18511648
34	0x3e825959	0.25458792
35	0x3e79f86a	0.24411169
36	0xbe2d708d	-0.16937466
37	0xbdf14d77	-0.11782353
38	0xbdd489fc	-0.10377881
39	0x3e49d47c	0.19709963
40	0xbda2cfaf	-0.07949769
41	0xbcefab51	-0.029256495
42	0x3dcddf47	0.100523524
43	0xbe23c2af	-0.15992235
44	0xbea15ccf	-0.3151612
45	0xbdd2911b	-0.10281583
46	0xbcc4b02e	-0.02400979
47	0x3e9f1868	0.31073308
48	0xbebd3f38	-0.36962295
49	0x3d5325a4	0.05154957
50	0xbde69536	-0.112589285
51	0x3d9c06ef	0.0761851
52	0xbb59d51c	-0.0033238595
53	0x3e903c0d	0.28170815
54	0xbcbaf33a	-0.022821058
55	0x3da5ffbe	0.081054196
56	0x3db5db5a	0.088797286
57	0x3db519a5	0.08842782
58	0xbe59a7f6	-0.21255478
59	0xbcfa8977	-0.030583126
60	0x3e182167	0.14856492
61	0xbd263013	-0.04057319
62	0xbd52d91f	-0.051476594
63	0x3e575436	0.21028218
64	0x3ca809d3	0.020512497
65	0x3ddb80ed	0.1071795
66	0x3d929fff	0.07159423
67	0x3e53c1d2	0.20679405
68	0xbde9905f	-0.1140449
69	0x3e56a877	0.20962702
70	0x3e362e4f	0.17791103
71	0xbe335414	-0.17512542
72	0x3e24b14c	0.16083258
73	0x3b17c2cb	0.0023156877
74	0x3e20ba3c	0.15696043
75	0x3e0f950a	0.14021698
76	0xb9af0cce	-0.0003338814
77	0x3c6c7b45	0.014433687
78	0x3e9da342	0.30788618
79	0xbd525ab8	-0.051356047
80	0x3d382dc1	0.04496551
81	0x3dbe175e	0.09281801
82	0xbd96b0a9	-0.07357914
83	0x3e072be7	0.13200341
84	0xbdb2cadb	-0.08730098
85	0x3ccb001e	0.02478033
86	0xbe061c3f	-0.13096713
87	0x3e7ca7ae	0.2467334
88	0x3d863ad9	0.06554193
89	0x3e3e9629	0.18611969
90	0x3e3085c4	0.17238528
91	0x3dc92cff	0.098230354
92	0xbda614d7	-0.08109444
93	0x3eab2d95	0.33433214
94	0xbe4c28b9	-0.1993741
95	0xbdb6cb81	-0.08925534
96	0x3e3aeb0d	0.18253727
97	0x3dda907d	0.1067209
98	0xbe906e04	-0.28208935
99	0x3dd8db88	0.10588747
100	0x3d9d5045	0.07681326
101	0xbd5a5604	-0.053304687
102	0x3d489687	0.04897168
103	0x3df5da7d	0.12004564
104	0x3e1f835c	0.15577453
105	0xbe0cd2c7	-0.1375228
106	0xbce3c616	-0.027804416
107	0xbe24436c	-0.16041344
108	0x3d241b9f	0.040065404
109	0x3e4ee39d	0.20204015
110	0x3e703acd	0.2345993
111	0xbd109b8f	-0.035304602
112	0xbdfc4537	-0.12317889
113	0x3df6016d	0.12011991
114	0xbdb500df	-0.08838057
115	0xbdf914c7	-0.12162166
116	0xbcfa75c5	-0.030573735
117	0xbe3a1b7d	-0.18174548
118	0xbd016af8	-0.031596154
119	0x3e3f1688	0.18660939
120	0xbe02084e	-0.1269848
121	0xbd382101	-0.04495335
122	0xbe1358f9	-0.14389409
123	0xbe17fbff	-0.14842223
124	0x3c42efd7	0.011898003
125	0xbdaa65f4	-0.08320227
126	0xb9def5ff	-0.0004252642
127	0xbdc27dce	-0.094966516
128	0xbe01a246	-0.12659559
129	0x3cf19a68	0.029492572
130	0xbd38613e	-0.045014612
131	0x3bce8eef	0.00630366
132	0x3e6893f9	0.22712697
133	0xbe998fa5	-0.29992405
134	0xbd094718	-0.033515066
135	0x3de28c76	0.11061947
136	0x3d34a727	0.04410472
137	0x3e85c9f8	0.26130652
138	0xbdc4d443	-0.09610798
139	0xbbca614a	-0.0061761485
140	0x3d04f789	0.03246263
141	0xbe0da89e	-0.13833854
142	0x3e1bbb69	0.1520821
143	0xbe532f5a	-0.20623532
144	0xbd2e22ca	-0.042513646
145	0xbda707b5	-0.08155767
146	0xbe7d9b80	-0.2476635
147	0x3e1c61f3	0.1527174
148	0xbd89a247	-0.06720405
149	0x3d1e8663	0.03870238
150	0xbe14def5	-0.14538176
151	0xbdc0ddf0	-0.09417331
152	0xbdb256cb	-0.08707961
153	0xbdee76fc	-0.11643788
154	0x3ddb9de8	0.107234776
155	0xbcc77cc3	-0.024351483
156	0xbe00ddba	-0.12584582
157	0xbeb734d7	-0.357825
158	0x3d8af2bf	0.067845814
159	0xbd8f87b2	-0.07008304
160	0xbe0aa5da	-0.1353983
161	0x3e970ff6	0.29504365
162	0x3e28f818	0.1650089
163	0xbe476161	-0.19470741
164	0x3d68293f	0.05667996
165	0xbe417c6f	-0.18895124
166	0x3cb5d3ff	0.022195814
167	0xbb94c8b3	-0.004540527
168	0x3e23d3bc	0.15998739
169	0xbd9afca9	-0.07567722
170	0x3df1fb8d	0.11815558
171	0xbdd96e9b	-0.106167994
172	0xbe290d53	-0.16508989
173	0xbc1b17c1	-0.009466113
174	0x3dbc25ee	0.09186922
175	0x3e084105	0.13306053
176	0x3d9fb2b4	0.07797757
177	0xbe09d956	-0.13461813
178	0xbe27b5ca	-0.16377941
179	0xbd55d9b8	-0.052209586
180	0x3e14f9b1	0.14548375
181	0x3e262cd5	0.1622804
182	0x3e0b5f6e	0.13610622
183	0xbe7f204e	-0.24914667
184	0x3dd723e5	0.10504893
185	0x3d92e1ec	0.071719974
186	0xbb723c83	-0.0036962337
187	0x3e67a820	0.22622728
188	0x3e182c3c	0.14860624
189	0x3d309aab	0.043116253
190	0xbcb18598	-0.021670148
191	0x3e8d44af	0.27591464
192	0x3e854127	0.2602627
193	0xbb1d87a3	-0.0024037145
194	0x3e78dc06	0.24302682
195	0x3d2e6bf7	0.042583432
196	0xbdd00076	-0.10156338
197	0x3cbd13d2	0.02308074
198	0x3df91460	0.12162089
199	0xbe1105be	-0.14162347
200	0x3cf1be71	0.029509755
201	0x3e2910dd	0.16510339
202	0xbd8ce225	-0.06879071
203	0xbdf58a3a	-0.11989255
204	0x3e4057b6	0.18783459
205	0xbc687f45	-0.0141905
206	0xbd242e08	-0.04008296
207	0xbd0605a5	-0.032720227
208	0x3e7f27d3	0.24917535
209	0xbe521820	-0.20517015
210	0xbb23c8a7	-0.0024991424
211	0x3d1c0ad8	0.03809628
212	0xbe5360f4	-0.20642453
213	0xbd669fe8	-0.056304842
214	0xbe81e4b1	-0.2536979
215	0x3d2a5482	0.0415845
216	0xbe33898d	-0.1753294
217	0x3c64f4f0	0.013974413
218	0xbd948c3b	-0.07253309
219	0x3d52e28b	0.05148558
220	0x3e2e1169	0.16998829
221	0x3e067838	0.13131797
222	0xbdd3c3e6	-0.10340099
223	0xbe1b3040	-0.15155125
224	0xbd1bdba5	-0.038051266
225	0x3da5d9a8	0.08098155
226	0xbd8e1113	-0.069368504
227	0x3e9a8c8d	0.30185357
228	0x3aec523a	0.0018029877
229	0xbbef08d4	-0.0072947536
230	0x3e04e2b7	0.1297711
231	0xbdc4756a	-0.095927075
232	0x3cf2d5f0	0.029643029
233	0xbe4ead03	-0.20183186
234	0xbdefe555	-0.117136635
235	0x3e1904de	0.14943263
236	0x3db9e414	0.090767056
237	0x3e3762f2	0.17908838
238	0x3c52f760	0.012876362
239	0xbd7e42ef	-0.06207555
240	0xbe5f57f6	-0.21810898
241	0xbb86f0f1	-0.004118078
242	0x3e34c14e	0.17651865
243	0xbdf6ceff	-0.120512
244	0xbe30dfa3	-0.1727281
245	0x3d9f3bed	0.07775102
246	0x3e373092	0.17889622
247	0xbd364b9d	-0.044505704
248	0x3de1edb8	0.110316694
249	0xbddaff36	-0.10693209
250	0xbd69f347	-0.057116773
251	0xbdbf9276	-0.09354107
252	0x3e01ed81	0.12688257
253	0xbe5992e4	-0.2124744
254	0x3dde3ca2	0.108514085
255	0x3d8b4062	0.067993894

network_body._body_endoder.seq_layers.2.bias f4 [128]
0	0x3e889325	0.26674762
1	0x3db5f3ba	0.08884378
2	0x3b6d93e5	0.0036251482
3	0x3cddffcd	0.027099514
4	0x3e63bbe7	0.22239648
5	0xbdbd8ab4	-0.09254971
6	0x3d49e35d	0.049289096
7	0x3d341a3f	0.043970343
8	0x3dda9903	0.10673716
9	0x3e544651	0.20729949
10	0x3cb919cf	0.022595314
11	0x3d5fc06f	0.05462688
12	0xbdb0b481	-0.086281784
13	0x3dc7dc5d	0.09758828
14	0x3dcb4df5	0.099269785
15	0x3e28943d	0.16462798
16	0xbcfa67cd	-0.030567074
17	0xbcef1ff4	-0.029190041
18	0x3e384bac	0.17997617
19	0x3e3a90bb	0.18219273
20	0x3e1427ef	0.14468358
21	0x3e20fa55	0.15720494
22	0xbd71736e	-0.058947973
23	0x3dbadc06	0.091239974
24	0x3c8c9168	0.017159179
25	0x3df59b52	0.119925156
26	0xbdbaa77c	-0.09113976
27	0xbd1692cb	-0.036761086
28	0xbde39d39	-0.11113972
29	0x3e0f6c71	0.14006211
30	0x3c352fd3	0.011058765
31	0x3e12d0bf	0.14337443
32	0xbde3ee07	-0.111293845
33	0xbc32e9a0	-0.010919958
34	0xbdacdb34	-0.08440247
35	0xbd00cac9	-0.03144339
36	0xbd8e3ff2	-0.0694579
37	0x3e13ea81	0.14444925
38	0xbd15eed4	-0.036604717
39	0x3c6071af	0.013698979
40	0xbd590bc9	-0.052989755
41	0xbdc78836	-0.09742777
42	0xbc1e8bb7	-0.009676865
43	0x3d97f28a	0.074193075
44	0x3da2ac27	0.07942992
45	0x3e62adc2	0.22136596
46	0xbd90bde7	-0.07067471
47	0x3c36ac83	0.011149528
48	0x3e18917c	0.14899248
49	0xbdc8a93f	-0.09797906
50	0xbda769ed	-0.081745006
51	0x3d9c8fd2	0.07644619
52	0xbc94b5bb	-0.018153062
53	0xbd1b4b70	-0.03791374
54	0xbd4aae28	-0.049482495
55	0x3c0d6323	0.008629593
56	0xbcd4ac9d	-0.025961215
57	0xbd3f95c7	-0.0467737
58	0x3ccca02e	0.024978723
59	0x3e218dd3	0.15776758
60	0xbbf197c1	-0.007372827
61	0x3dcf147f	0.10111331
62	0x3d94f3e5	0.07273082
63	0xbd17ca8d	-0.0370584
64	0x3dd0783c	0.10179183
65	0xbd6e09cc	-0.05811481
66	0xbd52fff8	-0.051513642
67	0x3e8d8430	0.27639914
68	0x3da3a8be	0.079911694
69	0x3e447ead	0.19188948
70	0xbcfd1627	-0.030894352
71	0xbddead3f	-0.10872888
72	0x3e2b4339	0.16724862
73	0xbd5bfba2	-0.053706773
74	0x3daf4258	0.08557576
75	0xbdb6e157	-0.08929699
76	0x3e8f4868	0.2798493
77	0xbda35a28	-0.0797618
78	0x3e059878	0.13046443
79	0xbce77605	-0.028254518
80	0xbc039343	-0.008030715
81	0xbd8d9dad	-0.0691484
82	0x3e237a32	0.15964583
83	0x3e667ad9	0.225078
84	0x3e33478e	0.17507765
85	0x3d7c4580	0.061589718
86	0x3d94dfcc	0.07269248
87	0xbdc80b71	-0.09767807
88	0x3dd262c6	0.10272746
89	0x3e2e4a71	0.17020585
90	0x3e63265a	0.22182599
91	0x3e60cb37	0.2195252
92	0x3dfed992	0.12443842
93	0x3dc326bc	0.09528872
94	0x3d208937	0.03919336
95	0xbc80a142	-0.015701894
96	0x3e13e701	0.1444359
97	0xbc947835	-0.018123725
98	0x3e358ee6	0.17730293
99	0x3dac1f48	0.08404404
100	0xbdb2e6b2	-0.08735408
101	0x3d38d8e1	0.045128707
102	0xbd6babdc	-0.057536945
103	0xbdd069dd	-0.10176442
104	0x3c1af4fb	0.009457822
105	0x3cadb8d5	0.021206299
106	0x3cb5f4f7	0.022211535
107	0xbd761226	-0.0600759
108	0x3e08e332	0.13367918
109	0x3dbe9446	0.09305625
110	0x3b86256e	0.0040938174
111	0x3db04b20	0.08608079
112	0xbc99b13a	-0.018761266
113	0x3e242c22	0.1603246
114	0x3bde18e8	0.0067778714
115	0x3e1ebbc4	0.15501314
116	0x3e9488a0	0.29010487
117	0xbd2959c4	-0.041345373
118	0xbdabf7c1	-0.08396865
119	0x3d62a35a	0.055331565
120	0xbd045e72	-0.032316633
121	0xbda1f5eb	-0.07908233
122	0xbdcba8fe	-0.09944342
123	0xbe0f535e	-0.13996646
124	0x3d1368b2	0.035988517
125	0x3cbeee1f	0.023306904
126	0xbdaf16f9	-0.085493036
127	0xbd911a98	-0.070851505

action_model._discrete_distribution.branches.0.weight f4 [10, 128]
0	0xbd153227	-0.036424782
1	0xbcc8d2df	-0.024514614
2	0xbc5f9cae	-0.013648195
3	0xbce8fc2b	-0.028440556
4	0xbc478a0a	-0.012178907
5	0xbd2ea790	-0.04264027
6	0x3c34d3f5	0.011036863
7	0xbcd205ac	-0.02563747
8	0xbcc26fe8	-0.023735002
9	0xbd35bac9	-0.044367585
10	0xbb6e5592	-0.0036366922
11	0xbbcd3d76	-0.00626343
12	0xbcaa8835	-0.020816902
13	0xbc091a52	-0.008368092
14	0xbc8e6b55	-0.017385164
15	0xbcee1c7b	-0.029066315
16	0x3c85af42	0.016318921
17	0xbbd69ff5	-0.00654983
18	0xbc1aeff2	-0.0094566215
19	0xbc605f20	-0.013694555
20	0xbcf6362d	-0.03005513
21	0x3c146519	0.009057307
22	0xbc760587	-0.015015966
23	0xbd4968fb	-0.049172383
24	0x3b12dba0	0.0022408739
25	0xbd3fdb8f	-0.046840247
26	0xbd1aaccb	-0.037762444
27	0x3b9a41d7	0.0047075558
28	0xbc45fd4e	-0.012084318
29	0xbcc0a254	-0.023514904
30	0xbb0acb9a	-0.0021178485
31	0xbad15138	-0.001596964
32	0x3bd70645	0.0065620267
33	0xbd1ee1c3	-0.038789522
34	0xbd2b102b	-0.041763466
35	0xbcb3051b	-0.02185302
36	0xbcaf1a90	-0.02137497
37	0xbc752cbf	-0.014964282
38	0x3b7ca3de	0.003854982
39	0x3af28928	0.001850401
40	0xbce7a3a3	-0.02827627
41	0xbc1b356d	-0.009473187
42	0x3c286445	0.010277812
43	0xbb644980	-0.0034833848
44	0xbcd4c1fc	-0.025971405
45	0xbd062c5e	-0.032757156
46	0xbc96b4f5	-0.018396834
47	0xbcd9b5a4	-0.02657587
48	0xbd31b27e	-0.043383114
49	0xbd0c7de4	-0.034299746
50	0xbd03277a	-0.03202007
51	0xbc864378	-0.016389593
52	0xbd29c61c	-0.041448697
53	0xbc583da4	-0.01319829
54	0xbd047138	-0.032334536
55	0xbd1a3767	-0.037650492
56	0xba3b2e6b	-0.00071404007
57	0xbd019344	-0.031634584
58	0xbb89c7a5	-0.0042047077
59	0xbc9a0240	-0.018799901
60	0x3c6aa1dd	0.014320818
61	0xbd048fa3	-0.032363545
62	0xbca66c11	-0.020315202
63	0xbd77f0a2	-0.06053222
64	0xbba3cea8	-0.0049990006
65	0xbd850f09	-0.06497008
66	0xbcf6216c	-0.030045234
67	0x3cf7a347	0.030229224
68	0xbce22de5	-0.027609775
69	0x3c014518	0.007890008
70	0xbc8b5563	-0.017008489
71	0xbb41640e	-0.00295091
72	0xbc84480d	-0.016147638
73	0xbc20f199	-0.009823226
74	0xbd246cb6	-0.040142737
75	0xbca934b1	-0.020655008
76	0xbd14435a	-0.036197044
77	0xb7bd9861	-2.2601513e-05
78	0xbcd9e572	-0.026598666
79	0xbd1ca48b	-0.038242858
80	0xbd057b7c	-0.032588467
81	0xbcc00234	-0.02343855
82	0xbbbe0717	-0.005799185
83	0xbd815595	-0.063151516
84	0xbccacc9b	-0.024755767
85	0xbd521a56	-0.051294647
86	0xbc91ab6d	-0.017781937
87	0xbd2ab037	-0.041671958
88	0xbc6ea50f	-0.01456572
89	0xbd3895a3	-0.04506458
90	0xbd377c49	-0.044796262
91	0xbcf2bcd6	-0.02963106
92	0xbc18208e	-0.009285105
93	0xbc960a5f	-0.018315492
94	0xbc49b8ab	-0.012312095
95	0xbc83cb72	-0.016088221
96	0x3c1eab93	0.009684461
97	0xbc2b917c	-0.010471698
98	0x3c3d4057	0.011550984
99	0xbd2d9654	-0.042379692
100	0xbc00654c	-0.007836651
101	0xbcfec242	-0.031098489
102	0xbcb1ad69	-0.021689134
103	0xbd073f51	-0.033019368
104	0xbb131173	-0.002244082
105	0xbbf89614	-0.00758625
106	0x3bf141ad	0.0073625655
107	0xbce3a7dd	-0.027790004
108	0xbbca8b03	-0.0061811223
109	0xbd3c05d9	-0.045904014
110	0x3b58f513	0.003310506
111	0x3c7ea68c	0.015542638
112	0xbd1bdb30	-0.03805083
113	0xbc89f7a8	-0.016841725
114	0xbd27e827	-0.040992882
115	0xbc73b5ad	-0.014874858
116	0x3b927cb7	0.0044704336
117	0xbc3e3c0d	-0.011610997
118	0xbab2e415	-0.0013648296
119	0x3ca0337d	0.019555802
120	0x3c8804c1	0.01660383
121	0x3cb72ee7	0.022361232
122	0x3ce31283	0.027718788
123	0x3b771b33	0.003770542
124	0xbc3858a5	-0.011251603
125	0xbc879081	-0.016548397
126	0xbbf42fe3	-0.0074519976
127	0xbd2f4dd9	-0.04279885
128	0xbde581ee	-0.11206423
129	0xbc60edf8	-0.013728611
130	0xbcf302d0	-0.029664427
131	0xbd0077da	-0.0313643
132	0x3c141809	0.009038934
133	0xbd364d7b	-0.044507485
134	0x3c03fe7c	0.008056279
135	0x3d7c213f	0.061555143
136	0x3d10983d	0.035301436
137	0xbc5d6ec2	-0.013515176
138	0x3b3692a4	0.00278584
139	0x3d571771	0.05251259
140	0x3c5e3bba	0.013564045
141	0xba0e9c00	-0.0005440116
142	0x3cf3e336	0.029771429
143	0x3bfdf9ed	0.0077507407
144	0x3d81898a	0.063250616
145	0x3d6e5639	0.058187697
146	0xbdb5c57c	-0.08875558
147	0x3cdd4d54	0.027014412
148	0xbc31e775	-0.010858406
149	0x3d14a22b	0.036287468
150	0x3c5e3cf1	0.013564334
151	0xbe01399b	-0.12619631
152	0xba6c2681	-0.0009008423
153	0xbc8c7ca3	-0.017149275
154	0x3d4ea2b8	0.05044815
155	0x3dd0b805	0.10191349
156	0x3ccf0078	0.025268778
157	0xbd93ba17	-0.07213228
158	0x3c22058b	0.009889017
159	0x3c1d9ca1	0.009619863
160	0x3b127cd2	0.002235223
161	0xbdaefa5a	-0.085438445
162	0xbcff69ae	-0.031178322
163	0xbcf64647	-0.030062808
164	0x3c63d70e	0.0139062535
165	0x3c8526a1	0.016253771
166	0x3b5cbdeb	0.0033682536
167	0x3d83e9e6	0.06441097
168	0xbbb60126	-0.005554336
169	0x3d53c93c	0.051705584
170	0x3dab7a0d	0.08372889
171	0x3d40ade2	0.047040828
172	0x3d4f28d6	0.050576054
173	0xbc873e05	-0.016509065
174	0x3dc6db9c	0.09709856
175	0xbc2e9670	-0.010655984
176	0xbd162355	-0.03665479
177	0x3c3d8092	0.011566298
178	0x3abd7ade	0.0014456173
179	0x3ca57770	0.020198554
180	0xbdb22077	-0.086975984
181	0x3c53958c	0.012914073
182	0xbbb02d5a	-0.0053765
183	0xbbf19d86	-0.0073735146
184	0x3dc92630	0.09821737
185	0x3c3e2047	0.011604375
186	0x3d4574ba	0.048207022
187	0xbc9bfccf	-0.019041447
188	0x3dee2931	0.116289504
189	0x3d0c2f6b	0.03422491
190	0x3d137c7d	0.036007393
191	0xbcb1a5b8	-0.021685466
192	0x3cb68f0a	0.022285003
193	0x3d890a36	0.06691401
194	0x3cd1a2bd	0.025590295
195	0x3c6bc67e	0.014390586
196	0xbd0f21bd	-0.034944285
197	0x3cfb4974	0.030674674
198	0x3d875830	0.06608617
199	0x3c272f52	0.010204153
200	0xbc32d232	-0.010914372
201	0x3c93683c	0.017994039
202	0xbd1c5fe7	-0.038177397
203	0x3da11f39	0.078672834
204	0xbe0e5529	-0.13899674
205	0x3d07c7fd	0.033149708
206	0xbc76fb2f	-0.015074535
207	0xbca06202	-0.019577984
208	0x3cc8a322	0.02449185
209	0x3c626c46	0.01381976
210	0x3bb2cc5e	0.0054564914
211	0xbe0e719d	-0.13910528
212	0xbca8037b	-0.020509472
213	0xbdb862cd	-0.0900322
214	0x3cd7c24d	0.026337767
215	0x3c6a5ba0	0.014304072
216	0xbdb6b26c	-0.0892075
217	0xbc72a99a	-0.014810944
218	0xbdf1dd74	-0.11809817
219	0xbde0aa84	-0.10970023
220	0x3c8a4789	0.016879814
221	0xbc95e9f1	-0.018300029
222	0x3d7512db	0.059832435
223	0x3cd5268a	0.026019353
224	0x3d31d6cf	0.043417748
225	0x3b253df9	0.002521394
226	0xbd0bcca8	-0.034130722
227	0xbc27bbf8	-0.010237686
228	0x3ce11dda	0.027480055
229	0x3d5023da	0.05081544
230	0x3b5cdd33	0.003370118
231	0x3c947b76	0.018125277
232	0x3d6efb2a	0.058344997
233	0xbb8872af	-0.004164062
234	0x3d08bda4	0.03338398
235	0xbbb4ec34	-0.0055213217
236	0xbc0f1a6e	-0.008734329
237	0xbdc80138	-0.097658575
238	0x3d971c72	0.073784724
239	0x3c97e37c	0.01854109
240	0x3c7fc85d	0.015611735
241	0xbc8e2cb3	-0.017355299
242	0xbd17ef1b	-0.037093263
243	0x3d4db029	0.050216828
244	0x3be03d98	0.00684328
245	0x3d5f76f4	0.054556802
246	0x3dcfaa64	0.10139921
247	0x3ce80dea	0.028326947
248	0xbc8a1303	-0.016854769
249	0x3cc6d68a	0.024272222
250	0x3de8f466	0.1137474
251	0x3dbbea2f	0.09175526
252	0x3b68ce62	0.0035523404
253	0xbc83ba81	-0.016080143
254	0x3d632869	0.05545846
255	0x3d37fc35	0.044918258

action_model._discrete_distribution.branches.0.bias f4 [10]
0	0xbd4ad778	-0.049521893
1	0xbc7662d1	-0.015038208
2	0xbb22906b	-0.0024805318
3	0x3c823db6	0.015898567
4	0x3d2e1e2e	0.04250925
5	0x3d4afc6f	0.049557146
6	0x3d35b926	0.044366024
7	0x3d300727	0.04297557
8	0xbd93c96e	-0.07216154
9	0xbd1729d5	-0.03690513

action_model._discrete_distribution.branches.1.weight f4 [10, 128]
0	0xbd07a7ca	-0.033119
1	0xbd1db5e1	-0.03850353
2	0xb989541b	-0.0002619334
3	0xbd0d00d5	-0.03442462
4	0xbd65725c	-0.056017265
5	0xbc9dfeca	-0.019286532
6	0x3bc33ff0	0.0059585497
7	0x3c99e4f7	0.018785937
8	0xbccb48d9	-0.02481501
9	0xbdab07da	-0.08351107
10	0xbcf772c0	-0.030206084
11	0xbc7aad78	-0.015300147
12	0xbc3efaf4	-0.011656512
13	0xbd032fc9	-0.032027993
14	0xbca2830c	-0.019837879
15	0xbd108194	-0.035279825
16	0x3bf84e21	0.007577673
17	0xbc886bfa	-0.01665305
18	0xbd805618	-0.06266421
19	0xbd093b5c	-0.033503875
20	0xbd24232a	-0.040072598
21	0xbd1b5522	-0.037922986
22	0x3c013124	0.007885251
23	0xbd6407b3	-0.055671405
24	0xbcbdbb1c	-0.02316051
25	0xbd49cbb4	-0.049266532
26	0xbcb53e3e	-0.022124406
27	0x3b0f7115	0.002188747
28	0xbcbe75ea	-0.023249585
29	0xbd5b66fc	-0.05356501
30	0x3cbb6d57	0.022879286
31	0xbc093a6c	-0.008375745
32	0x3d42b3d1	0.047534768
33	0xbd309120	-0.043107152
34	0xbcd94130	-0.026520342
35	0x3b1fdf26	0.0024394481
36	0xbb927c6e	-0.0044703996
37	0xbd4b574f	-0.04964381
38	0x3d58d829	0.05294052
39	0xbb367479	-0.002784042
40	0xbc3f8239	-0.011688762
41	0x3a283719	0.00064169016
42	0xbc268480	-0.010163426
43	0xbcfef3e4	-0.031122155
44	0x3c8a96f0	0.016917676
45	0xbd6262b2	-0.055269904
46	0xbc099ee4	-0.008399699
47	0xbc7bbad4	-0.0153643675
48	0xbc640980	-0.013918281
49	0x3bcf8458	0.0063329153
50	0x3c48cb58	0.012255512
51	0xbd3c3c06	-0.04595568
52	0xbd05f0ca	-0.032700337
53	0xbcadf42b	-0.021234592
54	0xbd4da198	-0.050202936
55	0xbcf446bd	-0.029818887
56	0x3bba7c75	0.005691106
57	0xbb866fbf	-0.0041026766
58	0xbc400a8f	-0.011721267
59	0xbd236a96	-0.03989657
60	0x3cb11f67	0.02162142
61	0xbce7fbe8	-0.02831836
62	0xbcc19e50	-0.02363506
63	0xbca43b98	-0.020047948
64	0xbca6a7fe	-0.020343777
65	0x3c27da1a	0.010244871
66	0xbce53df1	-0.027983638
67	0xbd044994	-0.032296732
68	0xbd8429eb	-0.06453308
69	0x3c3e3088	0.01160825
70	0x3bc46e6b	0.005994608
71	0x3d0dc900	0.034615517
72	0xbd08f88f	-0.03344017
73	0xbc9e92cb	-0.019357106
74	0xbd0eff7c	-0.034911618
75	0xbd1fc856	-0.039009415
76	0xbdce1bbb	-0.10063883
77	0x3c3ae452	0.011406975
78	0xbd98bf49	-0.0745836
79	0xbd553373	-0.05205102
80	0xbc204915	-0.009783049
81	0x3c4b17c6	0.012395805
82	0xbd3b145d	-0.045673717
83	0xbd7b4702	-0.061347015
84	0xbd1b7e0c	-0.037962005
85	0xbd11fc72	-0.03564114
86	0xbccd51bf	-0.025063394
87	0xbae6d0a1	-0.0017609784
88	0x3c6cd3b8	0.014454775
89	0xbd27347f	-0.04082155
90	0xbd856cc4	-0.06514886
91	0xbc9a7b69	-0.018857675
92	0xbd17fd4e	-0.037106805
93	0xbb28aab8	-0.0025736522
94	0xbc486d0f	-0.012233033
95	0xba5261bd	-0.00080254284
96	0x3cbf6f9f	0.023368655
97	0x3c2c7f38	0.010528378
98	0x3b070e52	0.00206079
99	0xbcfe8e8e	-0.031073835
100	0x3cd21ad3	0.025647556
101	0x3d7657f3	0.06014247
102	0xbbe22a8d	-0.006902045
103	0x3c5e69e9	0.013575056
104	0xbce5ab7a	-0.028035868
105	0xbcb1d593	-0.021708285
106	0xbc87ccb3	-0.0165771
107	0xbb7c87f7	-0.003853319
108	0xbd15d6b4	-0.03658171
109	0xbcaa292a	-0.020771582
110	0xbc5f011d	-0.013611105
111	0x3d3affaf	0.045653995
112	0xbcc84cff	-0.024450777
113	0xbd92bc19	-0.07164783
114	0xbcd8af04	-0.026450641
115	0xbd17f4c4	-0.03709866
116	0xbd156cef	-0.03648084
117	0xbcd742eb	-0.026277026
118	0x3d1e0d65	0.038586993
119	0x3d6948f2	0.05695433
120	0x3d5d38a8	0.05400911
121	0x3d250d67	0.040295985
122	0x3d034548	0.032048494
123	0xbc4b53ef	-0.012410148
124	0xbc4a3ed3	-0.01234408
125	0xbcfeb1a9	-0.031090574
126	0x38aaf44f	8.151738e-05
127	0xbc920f65	-0.017829606
128	0xbdd69599	-0.10477752
129	0x3ad6d132	0.0016389249
130	0xbbabf9bd	-0.005248277
131	0xbd2b5f58	-0.041838974
132	0xbc1a33b6	-0.009411743
133	0xbbdd2249	-0.006748472
134	0x3c6ec1b5	0.014572551
135	0x3ceb9c79	0.028761135
136	0x3c2bea19	0.010492825
137	0xbcd74da0	-0.026282132
138	0x3b3c2d91	0.0028713683
139	0x3b7c0ec2	0.0038460945
140	0x3ce81701	0.028331282
141	0x3c80cb5f	0.015721975
142	0x3b9d8754	0.004807392
143	0xbcac054c	-0.02099862
144	0x3d1f9d22	0.038968213
145	0x3d177765	0.036979098
146	0xbcf99525	-0.030466625
147	0xbc0564cc	-0.008141708
148	0xb8b6eca2	-8.7225126e-05
149	0xbb89a954	-0.0042010937
150	0xbcbccfbe	-0.023048278
151	0xbdf8cc62	-0.12148358
152	0x3d0af002	0.033920296
153	0xbc19ef9f	-0.009395509
154	0x3cd5e792	0.026111398
155	0x3d22d865	0.03975715
156	0x3bd3aec1	0.0064600413
157	0xbd248696	-0.040167414
158	0x3cad0f38	0.02112542
159	0xbd0711f6	-0.032976113
160	0x3d014fb2	0.031570144
161	0xbd276d21	-0.040875558
162	0xbc5bf006	-0.013423925
163	0x3c1bd2d6	0.009510716
164	0xbc89ea55	-0.016835371
165	0xbb8a25aa	-0.0042159157
166	0x3b339a6c	0.0027405275
167	0x3cd984b4	0.026552536
168	0x3b5dfdbb	0.003387316
169	0x3d2e224f	0.042513188
170	0x3d315ef4	0.043303445
171	0x3cd1e472	0.025621627
172	0x3c575656	0.013143143
173	0xbc42933a	-0.011875922
174	0x3d30aa82	0.04313136
175	0x3c00a28d	0.007851255
176	0x3c5a4f43	0.0133245615
177	0xbcfe512d	-0.031044567
178	0x3c1a833a	0.009430701
179	0xbc62462b	-0.013810675
180	0xbd589f63	-0.052886378
181	0xbc3a890f	-0.011385216
182	0xbd2323fb	-0.039829236
183	0x3c8d6fee	0.017265286
184	0x3d71aadd	0.05900084
185	0x3ce33d1c	0.0277391
186	0x3cf6c606	0.030123722
187	0xbcf728b0	-0.030170768
188	0x3d13839c	0.036014184
189	0xbbddef31	-0.0067728986
190	0x3c8be9cc	0.017079256
191	0xbce4c6a3	-0.027926749
192	0xbafb7248	-0.0019183839
193	0x3cf6fc68	0.030149654
194	0x3bac332e	0.0052551245
195	0x3c40b13e	0.011761008
196	0xbcf5ed35	-0.030020336
197	0x3d8de078	0.0692758
198	0xbbbd4f8a	-0.005777304
199	0x3c70f5b3	0.014707017
200	0xbd07f815	-0.033195574
201	0x3c6d4290	0.014481202
202	0xbc435dad	-0.0119241895
203	0x3cf58641	0.029971244
204	0xbe037dc1	-0.1284094
205	0x3ccb4722	0.024814192
206	0x3a071e0f	0.00051543204
207	0xbc9a0770	-0.018802375
208	0x3c68846b	0.014191727
209	0x3b247414	0.0025093602
210	0x3bf23057	0.0073910165
211	0xbdd6fffa	-0.104980424
212	0xbca42fa9	-0.020042257
213	0xbd9a1983	-0.07524397
214	0x3c365c50	0.011130407
215	0xbcde2936	-0.02711926
216	0xbd565665	-0.052328486
217	0xbd3d7cfa	-0.046261765
218	0xbdb579bc	-0.088611096
219	0xbde2ebae	-0.110801086
220	0xbc87ea81	-0.016591312
221	0xbc42cdb0	-0.01188986
222	0x3d3af695	0.045645315
223	0x3cf401c1	0.029785993
224	0x3c1cb8c4	0.009565536
225	0x3c31f38d	0.01086129
226	0xbd0852e2	-0.03328217
227	0x3c95e2ad	0.018296564
228	0x3d48ba6d	0.049005914
229	0x3c9ef30f	0.019403009
230	0x3c6f47a9	0.014604487
231	0xbcb5db7c	-0.022199385
232	0x3d112779	0.035438035
233	0x3cde5716	0.027141135
234	0x3c2216e5	0.009893154
235	0xbcbe311d	-0.023216778
236	0x3bdaa5fc	0.006672619
237	0xbd2f9484	-0.042866245
238	0x3d2ec473	0.042667817
239	0x3d7706ec	0.060309336
240	0x3ade4da4	0.0016960395
241	0xbbe83999	-0.0070869443
242	0xbcb586c9	-0.022158997
243	0x3b52a8c9	0.003214406
244	0x3ca1784e	0.019710686
245	0x3c394e12	0.011310117
246	0x3cfcbca9	0.030851679
247	0x3c8b1237	0.016976459
248	0x3c9f0a04	0.019413956
249	0x3d4e8489	0.050419364
250	0x3db0bf1e	0.08630203
251	0x3d305caf	0.04305714
252	0x3c78942b	0.015172045
253	0xbc30b4cc	-0.010785293
254	0x3cdf31b7	0.027245386
255	0x3d14b1ae	0.03630226

action_model._discrete_distribution.branches.1.bias f4 [10]
0	0xbd82916f	-0.063753955
1	0xbd8ed982	-0.0697508
2	0xbc70a844	-0.014688555
3	0xbb132855	-0.002245446
4	0x3cbf2274	0.023331858
5	0x3d6db7b7	0.058036532
6	0x3dcb4f4d	0.09927235
7	0x3d818bba	0.06325479
8	0xbc2a5f41	-0.010398687
9	0xbdb08fd7	-0.08621185

onnx::Div_65 f4 [18]
0	0x3fdaecf9	1.7103568
1	0x3ff0f68b	1.8825239
2	0x41067716	8.404074
3	0x3ff78fcc	1.9340758
4	0x4004ce04	2.0750742
5	0x410e4809	8.892587
6	0x40080d33	2.1258056
7	0x400fc338	2.2462902
8	0x41164d72	9.393908
9	0x40121299	2.282385
10	0x40181915	2.376531
11	0x411ee3d6	9.930624
12	0x40184338	2.3791027
13	0x401e3694	2.4720812
14	0x412832e4	10.512424
15	0x401c37a7	2.4408967
16	0x401b3e39	2.4256728
17	0x4132bece	11.171583
