Assets/Config/results/CheeseWorld4/CheeseWorld4/CheeseWorld4-349592.pt (torch, 510698 bytes, 48 tensors)

discrete_act_size_vector f4 [1, 2]
00000000: 0000 2041 0000 2041
10.0 10.0

network_body.observation_encoder.processors.0.normalizer.running_mean f4 [18]
00000000: 7c38 da3f d604 fa3f 50df c940 e321 0640
00000010: eeea 1740 da61 da40 760d 2240 3e8c 3640
00000020: 58cc e740 c4fb 4140 c0a2 5640 6ad0 f540
00000030: cd59 6340 e3ef 7a40 6685 0141 1e5b 8440
00000040: 1050 9040 f4a5 0741
1.7048488 1.9532726 6.30851 2.0958183 2.373714 6.824445 2.5320716 2.8523097
7.2436943 3.0309916 3.3536835 7.681691 3.552356 3.9208915 8.095068 4.1361227
4.5097733 8.478016

network_body.observation_encoder.processors.0.normalizer.running_variance f4 [18]
00000000: 615e d949 57f1 ee49 d29d 714c 1387 014a
00000010: 007d 0c4a 4c2c 7d4c a923 144a 0243 204a
00000020: 23c4 824c f473 254a 5f7b 2b4a 5b82 864c
00000030: b8fb 2d4a 3552 334a 3d7f 8b4c 759b 324a
00000040: 2e52 2f4a 5e56 924c
1.7806841e+06 1.9574189e+06 6.333831e+07 2.1221808e+06 2.30176e+06 6.636779e+07 2.4271142e+06 2.6257285e+06
6.855913e+07 2.710781e+06 2.8095598e+06 7.052156e+07 2.850542e+06 2.9379972e+06 7.3136616e+07 2.9263012e+06
2.8724595e+06 7.672293e+07

network_body.processors.0.normalizer.running_mean f4 [18]
00000000: 7c38 da3f d604 fa3f 50df c940 e321 0640
00000010: eeea 1740 da61 da40 760d 2240 3e8c 3640
00000020: 58cc e740 c4fb 4140 c0a2 5640 6ad0 f540
00000030: cd59 6340 e3ef 7a40 6685 0141 1e5b 8440
00000040: 1050 9040 f4a5 0741
1.7048488 1.9532726 6.30851 2.0958183 2.373714 6.824445 2.5320716 2.8523097
7.2436943 3.0309916 3.3536835 7.681691 3.552356 3.9208915 8.095068 4.1361227
4.5097733 8.478016

network_body.processors.0.normalizer.running_variance f4 [18]
00000000: 615e d949 57f1 ee49 d29d 714c 1387 014a
00000010: 007d 0c4a 4c2c 7d4c a923 144a 0243 204a
00000020: 23c4 824c f473 254a 5f7b 2b4a 5b82 864c
00000030: b8fb 2d4a 3552 334a 3d7f 8b4c 759b 324a
00000040: 2e52 2f4a 5e56 924c
1.7806841e+06 1.9574189e+06 6.333831e+07 2.1221808e+06 2.30176e+06 6.636779e+07 2.4271142e+06 2.6257285e+06
6.855913e+07 2.710781e+06 2.8095598e+06 7.052156e+07 2.850542e+06 2.9379972e+06 7.3136616e+07 2.9263012e+06
2.8724595e+06 7.672293e+07

network_body._body_endoder.seq_layers.0.weight f4 [128, 18]
00000000: 7e84 1e3f 1a1d 353e 66db f93c b893 7cbe
00000010: 1e3e 89bd a669 94be a3e6 983d 0d64 713e
00000020: 7f9c a33d cc8f 693e 2947 26be 9fe1 953e
00000030: bfee 2ebe 74d0 c1bb 8d6a 27bf 5e46 9f3e
00000040: 6c39 323f 80fa 1e3e 5b16 c7be 6698 aabd
00000050: 3f03 80be 9836 263d 0df1 92bd 2994 13bf
00000060: 979c 313e d3ef 943d 066b 5fbe 43dc 13be
00000070: f8be d7bc 2cc8 00bf eee2 b93e f540 af3d
00000080: 2a9f adbe cdc0 653d 2f28 7b3e 209b eabe
00000090: af3a 493e 26a3 0f3c de89 b6bc 0619 88bd
000000a0: 4f9b 33be 8d19 c0be db77 cfbe ca22 663d
000000b0: ea0b 543e a49a 0f3e 585e cfbe ffe9 49be
000000c0: 4687 a5be f195 80be 1f11 5ebe d41d 0fbf
000000d0: 8158 b9be 490b 443d 4b78 4b3e 2ea7 493e
000000e0: b7b0 863e c6b7 30bb 8c90 e63e e95a 1f3d
000000f0: d8de 07bd fd02 643e b057 0fbe 49cb 5bbe
00000100: 2e12 9c3e 5038 9ebd 89d0 18be 4244 7c3e
00000110: bbde fe3d 493d 973e 0069 3c3d dcd5 26be
00000120: a5c0 f03e 4830 983e 6989 7e3d 777e 563d
00000130: a51e b63e b926 8abc d43e 8e3d d3a9 a93e
00000140: a2a6 9fbd 6112 993e 8643 f43d 8957 eebc
00000150: 84ad 5bbd d01a 9a3e b862 31be 4bf6 6f3e
00000160: ce73 883e 2aa7 d6bc ac35 0cbd 5a3b 85be
00000170: 8ed5 5c3e 99b6 f1bd e583 6e3e ba09 8b3e
00000180: ec72 91be d3f1 443d ff4b 2fbe c6f0 d5be
00000190: 7f69 77be 96f5 b6bd b70e cfbd 3724 cbbd
000001a0: df69 c43d 07e4 22be 3eb7 cd3e 4681 8dbe
000001b0: 7f0c ac3e 3ad4 b1be 563a 23bc a508 f43d
000001c0: d617 88bc 0d41 4c3e aad2 04be 87f3 8bbe
000001d0: a35b 493d 0cc4 92be aa52 07be 4968 3bbe
000001e0: b9f7 cdbe 543b f43e 23bf a53b a6fc 0abe
000001f0: 69a9 febe 4a2d f93e cf9f b93d 2708 adbe
00000200: 126e a63d 91f5 ec3e 22fe 46be 1b85 463e
00000210: b6e6 b63d db92 35be a867 a63d 014d ed3e
00000220: d0a3 353e ce88 84be 189d d83e 95da 9c3d
00000230: 2da3 153e c120 92be 96a2 873d 7646 68be
00000240: 9841 6abe f73f b73d b060 803e 7966 b1be
00000250: 0239 1f3c 907a 703e f599 09bf 2364 ea3d
00000260: 4be8 7d3d 3ff1 a3bd c537 dbbe 29ef debb
00000270: 6220 0abf da48 91be 7900 003e 882d 2dbe
00000280: bb07 c23e df39 ef3c c03e 45bd 3b95 2fbf
00000290: 691d 8b3d 0497 1cbd 1e6e 113e 2c17 b1bd
000002a0: 8f9d 5a3d 0faa 123e 2ed4 5cbe aacb 043e
000002b0: c4e7 d93d 6154 2fbe cd7e 0b3f 54f9 20bd
000002c0: a0e7 b0bd 486b 1d3f af44 0f3f 0a2b e9be
000002d0: f749 493e a540 d3bc 0c66 9dbe b0c5 21be
000002e0: 86a9 3a3e 5189 9bbe b171 c13c 8fbb 883d
000002f0: 8d4e b93d 5a21 acbe 0ad7 1f3f ca5c 9f3e
00000300: 1a51 24bd 71ce 19bd dc30 bcbe 89a3 df3d
00000310: e51d a13d 273c 9b3d 17d8 97be 89da 393d
00000320: f984 703c 58b6 e53d 7a60 a1bd 068e 373d
00000330: cfe7 61be 1545 70bc 6425 98be 1587 023b
00000340: d4f9 f63e def1 3fbe ffa7 20be 32e0 7a3d
00000350: 1cfd f0be 4381 19bf c3ce d4bc a775 c43e
00000360: 34f2 3e3d 264a 7a3c e0ee b6be c978 aa3d
00000370: 817d 193f 3256 93bd e977 5f3e 4608 d3be
00000380: 7d8f 623c 8167 6a3e cd28 663e fdd1 463e
00000390: a510 cb3e 2872 9a3e a786 923e c361 343f
000003a0: 4413 b63d a23b 87bd 2b8c a43d 9ab0 98bd
000003b0: 0cae 1bbc 176e 7a3e 62cf 2abe e2e8 603d
000003c0: f8fe 21be 38b2 a7be b5b8 243e 3771 83bd
000003d0: 6f68 e9be df71 853e 05f0 403e 490f a5be
000003e0: 0a7b 81be f39c c13e 4db3 a23e 4f4c cbbe
000003f0: 5d3f dabe 74c5 4e3d a629 3d3e ce8c d3bb
0.6192092 0.17686883 0.030500125 -0.24665725 -0.06701301 -0.28986853 0.074658655 0.23573323
0.07988834 0.2280876 -0.16238083 0.29273698 -0.17083262 -0.005914742 -0.6539696 0.31108373
0.6961887 0.15525246 -0.38884243 -0.08329849 -0.25002477 0.04057941 -0.07174883 -0.5764795
0.1734489 0.07272305 -0.2181817 -0.14439492 -0.026336178 -0.5030544 0.36305946 0.085573114
-0.33910495 0.056092072 0.24527048 -0.45821476 0.19651292 0.008766925 -0.022282537 -0.06645398
-0.17539714 -0.37519494 -0.4052113 0.05618552 0.2070767 0.14023834 -0.40501666 -0.19718169
-0.32329768 -0.25114396 -0.21686219 -0.5590489 -0.36200336 0.047862325 0.19870107 0.1969268
0.26306698 -0.0026965006 0.45032156 0.038905058 -0.033171505 0.22266765 -0.13998294 -0.21464266
0.3048262 -0.077255845 -0.149233 0.24635413 0.12444826 0.29538944 0.045998573 -0.16292518
0.47021976 0.29724336 0.062142763 0.0523667 0.35570255 -0.016864168 0.06945577 0.33137378
-0.077954546 0.29896834 0.119269416 -0.029094474 -0.053632274 0.3009858 -0.17322814 0.23433797
0.26650852 -0.026202757 -0.034230873 -0.26021844 0.2156584 -0.11802406 0.23292501 0.27155858
-0.2840799 0.048082184 -0.17118834 -0.41785258 -0.24161337 -0.089335606 -0.101102285 -0.09919017
0.09590506 -0.15907298 0.40178865 -0.2763769 0.33603284 -0.3473223 -0.009962639 0.11915711
-0.016612928 0.1994669 -0.12970987 -0.27334234 0.049159657 -0.28665197 -0.13215128 -0.183015
-0.4022806 0.47701514 0.0050581857 -0.1357294 -0.49738625 0.48667365 0.09063684 -0.33795282
0.08126463 0.46281102 -0.19432881 0.19386713 0.08930723 -0.17731802 0.081252396 0.46347812
0.17738271 -0.25885624 0.42307353 0.07658879 0.14613028 -0.28540614 0.06622808 -0.22683129
-0.22876585 0.08947747 0.25073767 -0.34648493 0.009718182 0.23484254 -0.53750545 0.11444881
0.06198911 -0.080049984 -0.42815986 -0.0068034125 -0.5395566 -0.28375894 0.1250018 -0.169119
0.37896523 0.0292024 -0.048155546 -0.6858708 0.06792719 -0.038229957 0.14202163 -0.08646998
0.053372916 0.14322685 -0.21565315 0.12968317 0.10639909 -0.17122032 0.5449036 -0.039300278
-0.08637929 0.61491823 0.5596418 -0.4554065 0.19657122 -0.02578766 -0.30741918 -0.15798068
0.1822873 -0.30378202 0.023613783 0.06676399 0.090481855 -0.33619195 0.624375 0.3112548
-0.040116407 -0.037550393 -0.36756027 0.10919864 0.0786703 0.075798325 -0.2965705 0.045374427
0.014680141 0.1121642 -0.078797296 0.04481318 -0.22061084 -0.014664908 -0.29716027 0.001991694
0.4823748 -0.18744609 -0.15689085 0.061248966 -0.47068107 -0.5996286 -0.025977498 0.38371012
0.0466177 0.015276467 -0.35729122 0.08323819 0.5995713 -0.07194175 0.21823086 -0.4121725
0.013828156 0.22891046 0.22476502 0.19416042 0.39661136 0.3016522 0.28618357 0.7046167
0.088903934 -0.06603171 0.080345474 -0.07455559 -0.009501945 0.24456058 -0.16680673 0.054909594
-0.15819919 -0.32753158 0.16086085 -0.064180784 -0.4558749 0.2606344 0.1884156 -0.32238224
-0.25289184 0.37815055 0.3177742 -0.39706656 -0.42626467 0.050481275 0.18472919 -0.006455994

network_body._body_endoder.seq_layers.0.bias f4 [128]
00000000: 66ba 833d acd9 223e b3cf f53b 13e4 aebd
00000010: 19f6 d3bd 28f8 7a3d ddfe d6bd e503 e33d
00000020: 5a07 6c3d c2f2 273e 32ed 553e 06e5 163e
00000030: 6a53 29bd d544 3e3e 1ac8 b43d 3d74 bf3d
00000040: be2c 273c 3d7d 3b3c cd75 8c3d a7c0 323e
00000050: 6acd 903d 6fb3 b4bb 6673 393e c62b 3a3e
00000060: 7d79 2e3e 73cb 813e a90b 8a3e 36f0 a9bd
00000070: 14f9 943e 6a32 333e a674 c83c 35ae 253e
00000080: e48e 0f3d 4e7d cb3d 41b3 713e 1285 743e
00000090: 81e8 383e 1e8f 263e 2ea8 083e 7bc4 bebd
000000a0: 4c8c af3c 250d 1b3e f35e 173e f5d9 233e
000000b0: 52ba 94bc 3cff 123e 9f68 41be a06e cbbd
000000c0: c6ac 1b3e 32f2 41bc 87cc e23c a746 e1bc
000000d0: 4ed7 e03d 5dd8 253e f9a5 263e 9291 313e
000000e0: 8de8 8c3e d583 dc3d 4d66 803c 1d61 8bbc
000000f0: 14b7 00be f2e6 8cbd 4e2f 563e 0078 d83d
00000100: 56bd ba3d 9d15 3e3e ffc9 0e3e d6b5 273e
00000110: 0024 a73d 0739 df3c 9d0e b6bc ee41 ed3c
00000120: aafb fd3b 158a 213e ec5b d23d eb37 41bc
00000130: 4225 223e 01f8 82bb ce4a e9bb e7e0 4fbc
00000140: 4c40 d73d 6376 0dbc d73d 663d f552 a53d
00000150: 0d6c 4e3d ad64 053e 6aad 333e 0786 4b3e
00000160: ecdc cf3d 98fb 2e3e 1292 9abd e216 863d
00000170: 58aa 9b3d 5ecf e03d f0ae 163e 664d 8a3d
00000180: fcf2 a03d 0f7d 033e a01d 343d 8350 ad3d
00000190: 7842 cc3c e800 a1bd fade 1c3e 9dea 8e3d
000001a0: bf35 763e 9e67 1e3e e476 e03d 461b 7e3d
000001b0: d32a cb3d aac7 913d 8ada a13d 35ea 4c3e
000001c0: 151b fcbc a68d 0e3e 11ab 763c 19e0 443e
000001d0: 6cc4 693d 8906 e93d c80e 9fbd f244 84bc
000001e0: bcfc 0c3e e37b 113e 4c70 713c f122 f33d
000001f0: 4c14 093e 21c4 3e3e 11b5 3c3e f405 b03d
0.06432037 0.15903348 0.0075015663 -0.085395955 -0.10349674 0.061271816 -0.1049783 0.11084727
0.0576242 0.16401199 0.20891264 0.14735803 -0.041339315 0.18580945 0.08827229 0.093483426
0.010203538 0.011443433 0.06858406 0.17456304 0.070704296 -0.005514554 0.18110427 0.1818076
0.17038532 0.25350532 0.2696202 -0.0829777 0.29096282 0.174997 0.024469685 0.16179736
0.03504838 0.09936009 0.23603536 0.23878887 0.18057443 0.16265532 0.13345405 -0.093148194
0.021429203 0.15141733 0.14782314 0.16001113 -0.01815525 0.14355177 -0.18887566 -0.099332094
0.15202627 -0.011837529 0.027685417 -0.02749951 0.10978566 0.16195817 0.16274251 0.17340687
0.27521172 0.107673325 0.01567378 -0.01701408 -0.12569839 -0.06879987 0.20916483 0.10569763
0.09118144 0.18562932 0.13944243 0.16377959 0.08161163 0.027248872 -0.022223765 0.028962102
0.007750948 0.1577533 0.10271439 -0.011793117 0.15834525 -0.0039968495 -0.007119513 -0.012687898
0.105103105 -0.008634183 0.05621132 0.080724634 0.050396014 0.13026686 0.17546621 0.19875346
0.101495594 0.17088163 -0.07547392 0.06547333 0.0760085 0.10977052 0.14715171 0.06753044
0.078588456 0.12840675 0.043973565 0.08462622 0.024934039 -0.07861501 0.15319434 0.06978343
0.2404394 0.15469214 0.109601766 0.06203773 0.099202774 0.07118161 0.07903011 0.20011218
-0.030774632 0.13921222 0.015055434 0.19226111 0.057072088 0.113781996 -0.07766491 -0.016146157
0.13768286 0.14207415 0.014736246 0.11871899 0.13386649 0.18629505 0.18428446 0.085948855

network_body._body_endoder.seq_layers.2.weight f4 [128, 128]
00000000: bd79 103e de40 6fbc 85df 803c 51d8 a93e
00000010: 9627 f0bc 330f eebd e359 5ebe 8522 6abd
00000020: b998 2fbe fd00 8b3e c498 153d 1639 45be
00000030: 7aa6 8d3e 359f cc3b 7bec 253c 68d9 60bc
00000040: e696 803d c1ca a7ba 038f 693c ee1b 09be
00000050: 540b abbd a5e4 77bd b760 53bd c2ec 023e
00000060: 96b2 583c 432b afbc ba0b 013d 3d96 323d
00000070: 70cd 04bc 45e1 ae3d 7a2d c33d b912 d0bd
00000080: 2e7c 773d f3a2 1d3d 03d0 653b f958 af3c
00000090: 6b19 42be 5e7c 523e ce98 fa3c 513e 1f3e
000000a0: dd1e 133d b6ad 62be c1ac 68be 6479 11be
000000b0: 4805 86bd 9b26 7d3d 85d3 78bd fc69 3bbc
000000c0: 584f 6e3d e6c5 2f3e 286b b43b 66dd eb3c
000000d0: 8e58 e63d 02dd 883c 7482 a13d 04aa 183e
000000e0: 4c60 7ebd 77f7 36bd 72ca 263e a3fd 103e
000000f0: bc9c 9bbd 56c1 bcbd 4a1c 9abe 956c 60bc
00000100: 645b 1fbe d139 a73c f46b 43be b9d4 5cbd
00000110: 00d8 6fbd 2d05 6fbd 6f03 ec3d 58ef 633b
00000120: 0b16 8b3d f218 f23d ca82 63be bece 0c3e
00000130: afec 9cbe 58ce dbbc 2f2c 6a3e c77c 0abd
00000140: 110f 073d 62a5 c1bc 591e 123e a7ba 8fbd
00000150: 27e3 1fbd 878a d4bd 8ee7 06bd 1f6b b13d
00000160: 7acc 8d3d dbcd a3bd a1e6 c53d 90db 923d
00000170: 69a5 3d3d 8d5f ec3d 865a c2bd 5e6b 70be
00000180: e66b 813d 2868 85be a1ee 2cbe f001 bb3d
00000190: 136c 17bd f59b e4bd 1d6e 04be 8559 69bd
000001a0: 19a1 b0bb fa1d cf3d 34f6 bfbd 2569 653e
000001b0: 70b3 d33d b1ea 463d 2d86 11bd 1f8e 70be
000001c0: df98 7c3d ecb4 433e af50 253e c0f5 a1be
000001d0: 7450 413d 8fa4 54bd bfad 2ebe c174 533d
000001e0: d02b cd3d 64c9 033e 7120 633e a465 05be
000001f0: 5667 32be dd49 fe3c c3e6 09be 9fca c83d
00000200: ea3c e03d cf1a fe3d d457 f0bd ba5a 093d
00000210: b0fc 923d f518 07be 8059 aabd 8ff9 ec3c
00000220: 04de 94bd 21da ec3d 5e63 273d 23e2 143e
00000230: 9335 423e a157 b1bd 68a1 c1bc 6969 923c
00000240: a22c 1cbd 54f2 c23d 82ba 7cbd 8bf1 553e
00000250: 4c18 2c3c adfd efbd 9e73 b2bd 7ad8 dd3c
00000260: 8acf 7ebd 267d 17be 131b 0bbe 3cab b83c
00000270: 4a1f 1abe 4c26 043c def9 753e 7070 26be
00000280: 3e9b cabc cca3 3d3d e3d2 f03c 8c05 78bd
00000290: 21fa 67b9 7b31 543d ac52 1b3e 6bdc e6bc
000002a0: 3571 92bd 92f4 d4bd ca93 adbd 48cc 7bbc
000002b0: 2ea1 c5bd c657 3e3d 8c08 d2bc 4de8 a1bd
000002c0: c900 1e3e 3588 01be d68b 14be 06b3 7bbb
000002d0: fc55 823e 73da cabd 64fa bf3c 784c 9e3c
000002e0: 7c4c 3abe 1089 5c3e c041 1a3e ee68 543d
000002f0: 5897 fdbc 2809 6ebc 5d3a 463d a847 553e
00000300: 7e26 85bd 7529 3f3e cd39 85bd 3265 773d
00000310: a3c0 9f3c 3c6d 5f3e e099 903d 2d95 83bd
00000320: 1755 c73d 3a48 85bd 568f b4bd a1d0 1dbd
00000330: 97ea 2bbd 9d4f aebe e946 c73d 54b3 9e3b
00000340: d30c ea3d 700c a0bc f912 353e 4333 803d
00000350: 45c3 bc3d 9843 f0bd bace 143e 9d0a 18be
00000360: e8be 2f3e 464c 9c3e 3ddb 4ebc d75e b0bd
00000370: 7b66 283e a912 8b3d 371c 893d 740d 1cbe
00000380: 85c2 813d fd54 9abd 2b4d 1fbe 75fb 08be
00000390: 65b1 f6bc 50fb d6bc c12d 953d c2fb 29bd
000003a0: 28c7 26bd 87c2 1d3e 219b b13c be74 44bd
000003b0: da3c 9a3d 42ba 243d b027 113c 8e03 a73d
000003c0: bc0c 823d 50ef d33d eb6b c13d 730d 00be
000003d0: 08f1 753c 9771 26be 9b38 03be 70d8 8b3d
000003e0: 1229 25be cc4e 79be 3681 1a3e 5461 00be
000003f0: b2d3 8bbd cc06 79bc 14b8 63be 7414 0a3d
0.1410894 -0.014602868 0.015731582 0.3317285 -0.029315751 -0.11623993 -0.21713977 -0.057161827
-0.17148103 0.27149191 0.03652264 -0.19260058 0.27666074 0.006244565 0.010127182 -0.013723709
0.062787816 -0.0012801514 0.014255288 -0.1338956 -0.0835177 -0.060520787 -0.051605906 0.12785628
0.013226172 -0.021382933 0.031505324 0.04360031 -0.008105621 0.085390605 0.09530158 -0.10159821
0.06042116 0.03848548 0.0035066612 0.02140473 -0.18955009 0.20555255 0.030590441 0.15551116
0.035918105 -0.22136578 -0.2272215 -0.14206463 -0.06543976 0.061804395 -0.060748596 -0.011438843
0.058181137 0.17165336 0.005505938 0.028792094 0.11247359 0.016706947 0.0788621 0.14908606
-0.062103555 -0.044669595 0.16288164 0.14159255 -0.07598254 -0.092165634 -0.30099708 -0.013697763
-0.15562207 0.020413311 -0.1908415 -0.053913806 -0.058555603 -0.058354545 0.115240924 0.003478011
0.06791314 0.11821164 -0.22217861 0.13750741 -0.30649325 -0.02683179 0.22868417 -0.033810403
0.032973353 -0.023638431 0.14269389 -0.07018023 -0.03903499 -0.103779845 -0.03293567 0.0866301
0.069237664 -0.07998248 0.096631296 0.071707845 0.046300326 0.11541662 -0.09489922 -0.23478457
0.06319408 -0.26056027 -0.16887905 0.09131229 -0.036968302 -0.11162559 -0.1293263 -0.056970138
-0.005390298 0.101131395 -0.093731314 0.2240339 0.10336959 0.048563663 -0.03552835 -0.23491715
0.061669227 0.19111985 0.1614406 -0.31632805 0.047195867 -0.051914748 -0.17058466 0.051625017
0.10018122 0.12869793 0.22180344 -0.13027054 -0.17422232 0.03104108 -0.13466935 0.09804272
0.109491184 0.12407457 -0.11735502 0.03353379 0.071771026 -0.13193114 -0.08317852 0.028927593
-0.072689086 0.11565042 0.04086625 0.1453939 0.1896575 -0.08659292 -0.023636535 0.01787253
-0.038128503 0.09518877 -0.061701305 0.20892923 0.01050384 -0.11718307 -0.087134585 0.027080763
-0.062209643 -0.14793834 -0.13584547 0.022542588 -0.15050998 0.008065771 0.24021098 -0.16253829
-0.024732228 0.046298787 0.029397434 -0.060552165 -0.00022123057 0.051805 0.15168256 -0.028181275
-0.07150499 -0.103982106 -0.08475454 -0.015368529 -0.09649883 0.046470426 -0.025638841 -0.07905636
0.15429987 -0.12649615 -0.14506468 -0.0038406267 0.25456226 -0.09904947 0.023434825 0.019323573
-0.18193239 0.2153666 0.15064144 0.05185788 -0.030955955 -0.01452855 0.048395503 0.20828116
-0.065014824 0.18668158 -0.06505165 0.06039924 0.019501036 0.21819013 0.07060599 -0.064249374
0.097330265 -0.06507917 -0.08816402 -0.038529042 -0.04197177 -0.34045115 0.09730322 0.004843155
0.11428227 -0.01953718 0.17683019 0.062597774 0.09216932 -0.117316425 0.14531985 -0.14847799
0.17162669 0.30526942 -0.012625513 -0.08611839 0.16445343 0.067906685 0.06694835 -0.15239507
0.0633593 -0.075357415 -0.15556781 -0.13377173 -0.030113885 -0.026242882 0.072841175 -0.04149986
-0.040717274 0.15406238 0.021680417 -0.047962897 0.07531138 0.04021669 0.00885956 0.08154975
0.06350085 0.103483796 0.09444412 -0.1250513 0.01501108 -0.16254269 -0.12814562 0.068283916
-0.16128948 -0.24346465 0.15088353 -0.12537128 -0.06827487 -0.015199374 -0.22238189 0.033710912

network_body._body_endoder.seq_layers.2.bias f4 [128]
00000000: 4985 2fbc e0ea c8bc 02f6 7039 c387 d23b
00000010: 78c9 44bc 0d6f fa3d 2cc2 2a3d a080 d53d
00000020: 4848 963e 79e9 11bd 60f9 02be 9462 093e
00000030: facc 67bd 3bc9 01bc dcac 3e3e 6f5b b73d
00000040: 09a4 863e 8c17 10be 7721 bc3e b24c bd3d
00000050: 8358 c73d 4f96 973d 1db7 d4bd 96af 7c3d
00000060: ff4a a83d 88e6 d7bd bbee 173a d925 083e
00000070: 728e 1f3d 7db0 3f3d 5b0c fabd a629 0b3c
00000080: f075 09be b333 033e 660b 1e3e 9034 eebc
00000090: 4be7 023e 6b0c 9e3e 1d9c 51bb 0b19 a33e
000000a0: 1101 9e3d 62b5 a4bd abb2 dcbc 79a0 e7bd
000000b0: 5299 853d 37ab 0e3e bf23 573e d762 b73c
000000c0: 9e38 2e3d c755 653e 9cb5 923c c39b 99bd
000000d0: b727 2c3c d804 4e3b fe5b 2abd f741 513e
000000e0: 2b4a abbd b88a 5f3d 0c2c 9fbd 226a 8f3c
000000f0: 11ba ffb7 8b06 4f3e 5f01 3b3e c9a2 bf3d
00000100: 4f58 de3c 97fb 5fbd 7316 1c3e 953b 4d3d
00000110: ac97 603e 4572 b13d 3237 cd3d abcd 323e
00000120: e5ec 683e 7bfb b83d d96e 803d 36bb a93d
00000130: 115c 1f3e 6098 f8bd 274a 923d f025 0c3e
00000140: c3cc 8f3d 0960 cb3d bbd6 623d 47b0 7bbd
00000150: 907b dbbc 5eca 70bc e473 0e3b a717 3e3e
00000160: bb9f 113e 8dc6 503e 7cfd 053e 307b 89bd
00000170: e59c 16be 5953 9a3d b7f5 0f3e d041 ecbd
00000180: aba2 9c3c 7b3b bf3c 95e5 f2bd 18a5 4ebd
00000190: 6f62 8fbd f957 5a3e 8b8d ecbb 35b5 593d
000001a0: 4b68 ca3d 0f47 d03b 3860 18be acc3 e73d
000001b0: eba0 0f3e dfd2 8f3d 3888 10be 017e 20bc
000001c0: fbc4 6f3e 309b 183e 02f6 a13d 057a 2e3e
000001d0: 392a e53c ba15 af3b 794d ae3d 754d e83d
000001e0: 9525 ddbd 04b5 963d a0e9 a33e 0d19 cebd
000001f0: 8201 f03c 92a6 f83d 30d7 61bd 3d1d 963d
-0.01071293 -0.02452606 0.00022979829 0.0064248755 -0.0120109245 0.122282125 0.041689083 0.10424924
0.2935202 -0.035623048 -0.12790442 0.13416511 -0.056591965 -0.007921512 0.18620628 0.089529864
0.26297024 -0.14071482 0.36744282 0.09243144 0.09733679 0.07401716 -0.103864886 0.06169089
0.08217429 -0.10542017 0.00057957665 0.13295688 0.038954206 0.04679917 -0.12209388 0.0084938165
-0.13423896 0.1281269 0.15434036 -0.029077798 0.12783544 0.3086885 -0.003198392 0.31855044
0.07715047 -0.080424085 -0.026940664 -0.113099046 0.06523384 0.13932501 0.2100973 0.022385998
0.042534463 0.22396003 0.017908864 -0.07500412 0.010507516 0.0031435993 -0.041591637 0.2043532
-0.08363756 0.054575652 -0.07772073 0.017506663 -3.0485013e-05 0.2021734 0.18262242 0.09357221
0.027141718 -0.054683294 0.15242939 0.05010565 0.21932858 0.08664373 0.10020293 0.17461269
0.22746618 0.09032341 0.062711425 0.08287661 0.15562464 -0.12138438 0.0714305 0.13686347
0.07021477 0.099304266 0.055380564 -0.061447408 -0.026792318 -0.014696686 0.0021736557 0.1856371
0.14221089 0.20388241 0.13084978 -0.06712949 -0.14708288 0.075354286 0.14058577 -0.1153599
0.019120535 0.023343792 -0.118601955 -0.050450414 -0.070011966 0.21322621 -0.0072190217 0.053151328
0.098831736 0.006356127 -0.14880455 0.11316618 0.14026229 0.07022642 -0.14114463 -0.009795667
0.23414986 0.1490295 0.079082504 0.17038734 0.027974235 0.005343166 0.085108705 0.11342899
-0.10798184 0.07358745 0.3201418 -0.10063372 0.029297594 0.12141146 -0.05513686 0.073297955

action_model._discrete_distribution.branches.0.weight f4 [10, 128]
00000000: ebf5 bb3d 3945 02bd b003 25bd 774e c13c
00000010: 89aa 633d e1a1 483d ad47 9bbd ab3d 273d
00000020: 9e6a c1bb 3a21 403d d295 313d 49c9 b2bc
00000030: 434a 943b 972e 893d eedd 07bd bb06 3dbe
00000040: fb8c e4bc e082 043d 42e2 8dbd 4f24 af3b
00000050: 6191 bb3d bf0a c43d 49d5 e43c 8caa eebd
00000060: eb7e 43bd c39d 27bd 521a b1bd e931 f6bd
00000070: 5e08 653d 7fc5 f63c dcff 47bc 3590 2b3d
00000080: 029e 8abd 19b6 49bd eb73 cfbd 82ad efbb
00000090: ac01 4f3d 7138 b23c ae93 54bd 76e2 c2bc
000000a0: b73a 6ebd e0be a43c d5aa b3bd 3cc6 37bb
000000b0: 9679 ec3d eb95 0f3d 802c 29be 982b 173b
000000c0: 04bf 8a3d d51d d3bd b018 a33d 98dd b8bd
000000d0: 0499 e1bc dcec e6bc 2ef7 8a3c 523c 54bc
000000e0: 7f41 833d c1b3 b03c 827f 4b3c 11d4 5dbd
000000f0: 7d84 9dbd 680f ebbd 76c5 3d3d 2f0d d0bd
00000100: 4865 a8bd 9121 a1bd e153 58bd 0362 73bb
00000110: 2e8b 23bd 9715 0cbd 149b 8e3d ad01 11be
00000120: 063f 3c3d d63d d8bd ea57 89bd 938c 7bbd
00000130: e69b 233d ba03 183c 48d6 8abd d2c3 0cbd
00000140: fc4a 06bd 6436 cc3d 31a9 a73c 4c55 4c3d
00000150: bcb7 50bd cf80 9abd f148 9f3d 8c52 cbbd
00000160: 9ec7 19bd 7b4d 803c 475d bfbd 6286 aabd
00000170: b6a3 17bd 96bc 29bd 9d30 0ebe 7970 15bd
00000180: ffc7 be3d 6ec2 593d d552 5dbd 0c48 3d3b
00000190: 62ca d13c e3c3 7bbd efaf 83bd 7adc 5abd
000001a0: 06fb 1bbd bc23 723d 84ea 53bd 6d9c 6d3d
000001b0: f314 cfbd 436a b93d 239f 89bb 9462 a93c
000001c0: e7a3 21bd 9fb8 113d d05b d3bd 5f32 8b3c
000001d0: ee86 bcbd b02b 80bd 5d1c 91bb d070 de3c
000001e0: 6cbc 223d dd9b 73bd b55f 8d3d 1461 fe3c
000001f0: 64ea 103d 5872 b3bd 6463 88bd f501 2c3d
00000200: 6337 4d3d 635a 563d 784a 353d 5ffd 6ebc
00000210: b928 1dbc 6c21 2e3d 2e01 353b d0f8 a03c
00000220: 8a7b b2bd 037c 9f3d 02ee 1fbc 5989 903c
00000230: 2096 a1bb bcf8 743d fb09 35bd d6f1 07be
00000240: 4cc3 1a3d 3e30 d6bc 93e3 04be 6100 0d3d
00000250: 6aca 063d bb3a 0d3d afa4 5abb 9360 e53c
00000260: e198 d43c dd6c 9e3c 0bdf 4e3c 6446 2bbd
00000270: 0b6d 393d 5305 653d 2d8f 9fba c973 543d
00000280: 8f7f 46bd e2cd 97bc ce4f 63bd ce34 713d
00000290: b749 243d c184 f7bd 2d17 0bbc 3bf7 b7bd
000002a0: 6d28 22be 612a 923d b0ba 77ba a769 a9bb
000002b0: 873f 5e3d 2016 213c 965f c6bd de75 223d
000002c0: 531f a53d eb7c 98bd 0593 803d 281e 39bd
000002d0: add7 603d 7ea9 db3c b35f 323c b216 a2bd
000002e0: ea5b 243d 075a b5bd 242a ab3c 5a34 9b3d
000002f0: c02d 383d dd2e c1bd 95d7 653c 2b03 d0bd
00000300: 01ee cf3c 0c47 2e3d e888 df3c 7ccc 913d
00000310: 7f16 c6bd a4ad 063b bf74 1c3d 2347 72bd
00000320: 8257 963d 9f17 77bd 4b23 073d ce2c 313d
00000330: df8e 413d 9fee eabb 8c3e 8d3c 8ab1 063d
00000340: 98fd 0abe 05b2 373d 5539 853d 2bce 4f3d
00000350: 6757 5e3c a7e4 583a ccb5 8c3d 75ad 98bd
00000360: bf95 9fbd 2385 ad3c f1a0 cf3b b3bb 8dbc
00000370: a9cc 793c 5011 483d f778 e7bd 07d6 f5bb
00000380: 8863 833d 1157 743d d151 fb3c 9273 a03d
00000390: 05ee bc3c 7c50 b2bd 719c c63c 0d30 89bc
000003a0: 7a28 d43c abbd a53d 9f4b 863d 5ffd 133d
000003b0: 7640 e8bd 822b 733d f572 403c f9d3 a33d
000003c0: 62ff 34bd b94f d13c 32e5 ca3b 81b6 153d
000003d0: 3ecc 12bc 9b31 433d c270 5cbc 868b d63c
000003e0: 2419 633d 93f7 c63c c6c0 9c3d 98e1 c33c
000003f0: f68f 9abc 8f0e 913c 07bc 1b3d 4ef7 223d
0.091777645 -0.031804297 -0.04028672 0.023596985 0.055582557 0.048982505 -0.075820304 0.040830296
-0.0059026023 0.046906687 0.04335577 -0.021824496 0.0045254542 0.066983394 -0.033170633 -0.18459599
-0.027899256 0.032351375 -0.06927921 0.0053449045 0.09158588 0.09572362 0.027933734 -0.11653623
-0.04772846 -0.040921938 -0.08647598 -0.12021238 0.055916183 0.03012347 -0.012206998 0.041885573
-0.06768419 -0.049245927 -0.101295315 -0.007314385 0.050538704 0.021755429 -0.05189865 -0.023789626
-0.058161464 0.020110548 -0.08772818 -0.002804174 0.11546628 0.035055082 -0.16520882 0.0023066755
0.067747146 -0.103084244 0.07963693 -0.09026641 -0.027538784 -0.028189115 0.016963568 -0.012953835
0.06408977 0.021570088 0.012420537 -0.05415732 -0.07691286 -0.11477548 0.04633089 -0.101587646
-0.08222443 -0.078677304 -0.05281437 -0.0037137277 -0.039927654 -0.034200277 0.069631726 -0.14160796
0.04595854 -0.10558669 -0.067062214 -0.06141336 0.0399436 0.009278232 -0.06779152 -0.034366436
-0.032786354 0.09971312 0.020466419 0.049886033 -0.050956473 -0.075440995 0.07777584 -0.09927854
-0.037543885 0.015661946 -0.09343963 -0.08326413 -0.03702136 -0.041439615 -0.13885732 -0.036484215
0.0931549 0.05316394 -0.054034073 0.0028882055 0.025609199 -0.06146611 -0.06430041 -0.05343292
-0.03808119 0.05911611 -0.051737323 0.058010507 -0.101114176 0.09053471 -0.004199879 0.020676889
-0.03946295 0.03557646 -0.10320246 0.016991792 -0.09205423 -0.06258333 -0.00442843 0.027153403
0.039730474 -0.059474815 0.0690302 0.03105215 0.035379782 -0.08762044 -0.06659582 0.041994054
0.05010165 0.052332293 0.044260472 -0.014586776 -0.009592229 0.042512342 0.0027619111 0.019649893
-0.087149695 0.07787325 -0.009761335 0.017643617 -0.0049312264 0.059807524 -0.04419897 -0.13275847
0.037783906 -0.02614605 -0.12977438 0.03442419 0.03290788 0.034479838 -0.003336232 0.028000152
0.025951805 0.01933902 0.01262642 -0.041815177 0.045270007 0.05591328 -0.0012173407 0.051868234
-0.048461493 -0.01853079 -0.05549603 0.05888825 0.040109362 -0.12085868 -0.008489412 -0.08982702
-0.15835734 0.071369894 -0.0009450121 -0.0051700654 0.054259803 0.009831935 -0.096862 0.03966319
0.08062615 -0.07445701 0.06278042 -0.045194775 0.054893184 0.026814219 0.010887074 -0.07914485
0.04012672 -0.08855062 0.020894118 0.07578345 0.044965506 -0.094327666 0.01402845 -0.10156854
0.025382044 0.042548224 0.027286962 0.071190804 -0.096722595 0.0020550275 0.038197275 -0.059149873
0.073409095 -0.06032526 0.032992642 0.04325562 0.047255393 -0.007169559 0.017241739 0.03288416
-0.13573301 0.044847507 0.06505076 0.050733726 0.013570643 0.0008273818 0.068706125 -0.07454959
-0.07792234 0.021181649 0.0063363244 -0.017301416 0.015246549 0.048844635 -0.11302369 -0.0075023207
0.064154685 0.059653345 0.030678662 0.07834543 0.023062715 -0.087067574 0.024244519 -0.016746545
0.025898207 0.08092817 0.06557392 0.036130305 -0.1134042 0.059367664 0.011746158 0.07999415
-0.044188865 0.02555071 0.006191873 0.036551002 -0.008959828 0.04765473 -0.013454618 0.026189577
0.055443898 0.024287974 0.07653956 0.023911282 -0.018867474 0.017707137 0.038021114 0.03978663

action_model._discrete_distribution.branches.0.bias f4 [10]
00000000: 1528 86bd db66 89bd 3658 f63a 8caf 8f3d
00000010: 22c4 b73d 2d3d 273d b497 353e 8240 3f3b
00000020: c7dd 05be d061 82bd
-0.06550614 -0.06709071 0.00187946 0.07015905 0.08972956 0.040829826 0.17733651 0.0029182737
-0.13072883 -0.063663125

action_model._discrete_distribution.branches.1.weight f4 [10, 128]
00000000: ff29 263c 8fb2 a4bc 47f4 c13d 33f4 94bd
00000010: 17bc 07be 0313 23bd 03ab 27bc cc30 d0bd
00000020: 9f84 c0bd bb44 2bbb a135 27bd fa7d 633d
00000030: 4dee 5fbd fe65 61bd 3007 9fbd 5c58 f83b
00000040: 0ac8 31bd ec7f 24bd 8bb8 dcbd 56eb a9bd
00000050: 52ad a7bd 1661 b4bd 6450 bbbd 137e a937
00000060: 5f42 be3d 520e 36bd 6bd1 163d f8a3 c13d
00000070: 58fa 3fbd 48b1 2b3c 313a 33bd cd06 41bd
00000080: 1fb2 61bc 37e1 d13d ad27 d5bd 5ab1 963a
00000090: 0fb5 8ebd d6c8 14be 3f85 d1bb 5206 0fbe
000000a0: 5687 febd a5fc 823c bcac 91bc eeef bfbb
000000b0: db79 afbd c803 a4bd 4dcd 663d 8491 aabd
000000c0: 97ab cebd 1ce6 c33c e2b4 a6bd 623d f73c
000000d0: a0eb 973c 149b 8a3d b3be 98bd c893 febd
000000e0: 48ee 54bd 9cdc 0abe f700 c4bc f0b0 c43d
000000f0: b223 ae3d af9a e8bd 83bf f3bd 98ba 00be
00000100: a918 803d d0f5 333d a6a4 cbbc 2137 0abd
00000110: 448f b3bd 1b97 a73d 3d41 90bd de8e 323d
00000120: d19f a1bd 5a9b c9bd e165 793c d502 c23c
00000130: 8451 d4bd 27bd a2bd fc60 a33d 19c3 e9bb
00000140: d9ba f1bd f009 00be 80bb efbc b93b babc
00000150: 3e29 33bc 1a99 2cbd 2989 85bd 8d8a 24bb
00000160: d09f 1fbd 0017 8cbd 0919 d93d cb31 64bc
00000170: f2eb b1bc 75ce 03bd d656 773d 6be7 f0ba
00000180: 7fe6 a4bd bb6b 8dbd 000c b1bc f39c 323d
00000190: 839b 5bbc 8292 2cbe 6134 a33b 84ba 42bd
000001a0: f6f1 1b3c 1a7b 83bd b29c f23c fc64 7abd
000001b0: b0e8 0cbe 45f3 bcbd 28de 9bbd de4f 90bc
000001c0: 528f 32bd 799d 8cbd 20c7 153d e304 42bd
000001d0: 4469 923d 3106 bd3d 17ce cbbd 9ec9 85bd
000001e0: 5e90 0d3b 3457 dab9 b696 2cbc e7e9 9bbd
000001f0: cd71 f2bd 931c a73d 51f6 1abb 051f ecbc
00000200: 4e51 bc3d 55de 553c ad6d 8b3d 928e 31bd
00000210: 0856 5fbd e3cf 583c 11a5 db3c 373e 07bd
00000220: 0f37 f9bd ed0c 923d 68f9 013d 5721 483c
00000230: 59bd 173c 0ebf 8e3c c85d 38bc 8799 82bd
00000240: fa11 293c 1362 acbb 0ee1 09be c7d4 173c
00000250: 86f5 09bc 1d47 a9bb 6c98 d0bb 80d3 713d
00000260: c8e9 713d 7b7c 27bd 60fa dc3c e279 e63b
00000270: c65d 1d3d dfb2 ff3c be9c cfbc 0514 8eba
00000280: 740d 35bd b9f9 493d 167a 4cbc cddd 4b3d
00000290: 4f58 19bb 9dba f8bd 1cb9 603d 33b5 6fbe
000002a0: a0de 1ebe 1306 543d c4ab 543c d08c 823b
000002b0: b45b a6bc 33b6 f4ba 5794 27bd c2f0 8c3a
000002c0: 2abb 543d 9c91 c23c d30e 5d3d c8a9 1f3d
000002d0: 4e01 7f3d f10b 8b3d c54a 4f3a 09f6 3fbe
000002e0: 34a8 d13b 7c81 fcbd 20aa 8bbb 8fe0 a93d
000002f0: 4756 773d fa9d e0bd 0e5f a4bc f85f 14be
00000300: 65f7 703d 79aa a43d 8636 5f3c 4e24 5c3d
00000310: 1773 40be 213d 60bb 1e1e f3bc b969 09bc
00000320: c830 663c 9f31 f2bd 9f70 01bc dcc5 373d
00000330: 1691 533b fc34 913c fc9f 943d e800 1f3d
00000340: 8077 23be 93f7 53bd dbb0 523d 3ec8 c03c
00000350: e690 633d 273e 873c fba5 6a3d 8ec7 72bc
00000360: 7aa0 1fbd 2e50 89bc b6da 8b3d 0b99 903c
00000370: a5bf 1dbc 5d7b 1f3d 7a25 30bd adc1 5b3d
00000380: dbbe a23c b5e6 8c3c 9638 5e3c ca17 c33d
00000390: 5854 8f3d 1873 34be eea2 1d3d 521a a0bc
000003a0: 4c46 343d 338a cd3c 55a9 a53d cedf c63c
000003b0: 42b3 ffbd 0926 0c3d 48cb 3c3c a4d4 3c3d
000003c0: 109a 53bd 6aa6 7f3d 3b35 e03c 6c20 88ba
000003d0: face 663d ef1f 703d 3b80 cdbc 3e5b 46bd
000003e0: e1a5 303d 93bb d43c 9d76 743d 4753 d1ba
000003f0: e5c5 b6bd 2363 3c3d 9532 aa3d b0f5 ec3b
0.010141849 -0.020104675 0.0947042 -0.0727314 -0.13255344 -0.039813053 -0.010233643 -0.10165557
-0.094002955 -0.0026133496 -0.04082263 0.055540062 -0.05467062 -0.055028908 -0.07765043 0.0075788926
-0.043403663 -0.04016106 -0.10777386 -0.0829684 -0.08187355 -0.0880758 -0.09146193 2.0205078e-05
0.09290003 -0.04444725 0.03682081 0.09455103 -0.046869606 0.010479279 -0.043756668 -0.047125626
-0.0137753775 0.102480344 -0.10407958 0.0011496947 -0.06968128 -0.14529738 -0.006394058 -0.13967255
-0.12428157 0.01598961 -0.017782561 -0.0058574593 -0.08568164 -0.08008534 0.056348134 -0.08328536
-0.10091322 0.023913436 -0.081399694 0.030180637 0.018544972 0.0676786 -0.07458248 -0.12430531
-0.051985055 -0.13560718 -0.023926241 0.09604061 0.08502902 -0.113576286 -0.11901762 -0.1257118
0.062547036 0.043935597 -0.024858784 -0.03374398 -0.0876756 0.08183118 -0.07043693 0.04359328
-0.07891811 -0.09844084 0.015222044 0.023682991 -0.1036711 -0.07946234 0.07977483 -0.007133853
-0.118032165 -0.12503791 -0.029264212 -0.022733556 -0.010935126 -0.042138197 -0.06520302 -0.0025106997
-0.03897077 -0.068403244 0.10600478 -0.013927887 -0.021718953 -0.032179315 0.060385548 -0.0018379515
-0.08051776 -0.069053136 -0.021612167 0.04360671 -0.013403776 -0.16852763 0.0049806093 -0.047541156
0.009518137 -0.06419964 0.029615734 -0.061131462 -0.13760638 -0.092260875 -0.07610732 -0.017616209
-0.043593712 -0.06865973 0.036566854 -0.04736794 0.07148984 0.092296965 -0.09951418 -0.06532596
0.0021600942 -0.00041645172 -0.010533979 -0.07612973 -0.11838112 0.08159747 -0.0023645351 -0.028823385
0.09195195 0.013053496 0.06808028 -0.043348856 -0.054525405 0.013233158 0.026812108 -0.033018317
-0.12168705 0.07131372 0.031731993 0.01221498 0.009261453 0.017425086 -0.011252828 -0.06376939
0.010319227 -0.005260715 -0.13464758 0.009267039 -0.008420354 -0.005165948 -0.0063658264 0.059039593
0.05906084 -0.0408902 0.026974857 0.0070335725 0.038419507 0.031213222 -0.025343295 -0.0010839707
-0.044202283 0.04931042 -0.012480279 0.049772073 -0.0023398583 -0.12144969 0.054864034 -0.23408966
-0.15514612 0.051763605 0.012980405 0.0039840713 -0.0203074 -0.0018670022 -0.040912952 0.0010752904
0.051936306 0.023751073 0.053969216 0.038980275 0.062257104 0.06789387 0.0007907565 -0.18746199
0.006398225 -0.12329385 -0.004262224 0.08294784 0.060385015 -0.10967632 -0.020064857 -0.14489734
0.058829684 0.080403276 0.013623839 0.05374556 -0.18793903 -0.0034216123 -0.029677447 -0.008387023
0.014049716 -0.11825871 -0.007900386 0.044866428 0.0032282523 0.01772546 0.07257077 0.038819224
-0.15963554 -0.051749777 0.051438194 0.023532983 0.055558108 0.016509129 0.057287198 -0.014818085
-0.0389714 -0.016761865 0.06828825 0.017651102 -0.009628211 0.038936008 -0.04300449 0.0536515
0.019866398 0.017199853 0.013563296 0.09526022 0.06998509 -0.1762203 0.03848546 -0.0195438
0.044012353 0.025090313 0.08088938 0.02427664 -0.124853626 0.03421596 0.011523075 0.046101227
-0.051660597 0.062414564 0.027369132 -0.0010385639 0.056349732 0.058624204 -0.02508556 -0.04842686
0.043126944 0.025968349 0.05968343 -0.0015970253 -0.08924464 0.04599298 0.08310429 0.0072314367

action_model._discrete_distribution.branches.1.bias f4 [10]
00000000: 5f60 87bc b8cf 9abd 6655 e1bc 11ad 2dbc
00000010: ea81 9c3d 01d9 d23d 4f6a 1a3e 6427 db3b
00000020: 6049 f1bc 4f77 14be
-0.016525446 -0.075591505 -0.027506541 -0.010600344 0.07641967 0.102952965 0.15079616 0.0066880453
-0.029453933 -0.14498638

exp_avg f4 [128, 18]
00000000: d673 a039 f186 e338 e79a a539 7c05 a8b8
00000010: 5bad 4b39 10dc 7e39 28e1 bc38 3e93 b4b8
00000020: 9647 113a 9a10 b8b8 c062 2638 d6ff 3a39
00000030: 4638 a6b8 ecd9 44b9 42d7 9b39 87fa 7fb9
00000040: 26e1 acb8 0685 1fb8 09c8 3e3b 44c8 113b
00000050: f814 3b3a 6b4c 223b 5c91 093b 7323 603a
00000060: 13d3 213b a548 db3a 08b9 00ba 0749 003b
00000070: 1235 ee3a ba38 e539 d0cf 163b 9d7f f73a
00000080: ceb1 cb3a 680a 0d3b 8377 133b a456 d039
00000090: c418 72ba b15a 4cba e1d6 48ba 14b9 3cba
000000a0: b790 5bba 7498 06ba c3ea 72ba 90c4 08ba
000000b0: 1260 b339 9cde 20ba 7829 27ba 4004 9db6
000000c0: bf28 44ba 4a1a 19ba 082e 23ba cde6 42ba
000000d0: 0517 42ba 15fa 1b39 ea8c abb7 3770 bcb8
000000e0: 7374 a639 a2d6 bfb9 6cd6 af38 bd82 0b39
000000f0: c1e8 40b9 3bf1 a6b9 705a 5f3a fd82 c7b9
00000100: 45c5 7eb9 a45b a6b8 ef98 a8b9 7ade 08ba
00000110: d51e 9cb8 7d62 01ba 5e41 94b9 2abf 0bb9
00000120: 3ee5 8939 9cf1 be38 1c1d 9639 a953 49b9
00000130: 7a87 7d39 66f9 7439 502e d7b6 cb4d 37b9
00000140: b00c 863a a483 77b9 04b5 d0b8 d36d 1638
00000150: a272 3db9 31f2 bdb9 db47 5838 d6b3 d2b9
00000160: 7d2e 37b9 f49a 0cb8 b440 6e3a 7dbc 373a
00000170: 0432 c3b8 9437 603a 8774 393a 9eb3 c638
00000180: 06ef 4c3a 35d1 143a c0f5 7839 c5b2 2b3a
00000190: 41cc 2a3a 40e4 8039 923a 513a 981f 083a
000001a0: 255b be39 ba30 2a3a 550b 4c3a 56ad 0f3a
000001b0: b60d a2ba 78f9 86ba 96a1 63ba 32ec 89ba
000001c0: e017 8bba b567 0eba 6431 9aba 7d64 31ba
000001d0: eb02 003a 900a 52ba e10d 4aba 7005 21b8
000001e0: d2e3 89ba 7592 4fba 4e01 4eba 619c 87ba
000001f0: 363d 88ba 8250 5139 800b 5437 c88b 7937
00000200: 2fd1 31b8 0659 9a37 38d4 b9b7 e639 f837
00000210: 2cb4 7638 8ad8 6538 4e5f 8eb9 57fd 8838
00000220: 6b91 a538 e45c 98b7 e5f8 3838 cc26 f338
00000230: ca2e 0a39 952a 9538 5fe9 0b38 94c2 ddb7
00000240: 4acc c1b8 541c 1ab9 b159 1bba e498 11b8
00000250: 94ee b3b8 e6e0 8eb9 5fbd e8b8 80a0 beb7
00000260: 0325 0e3a 8e7b 3ab8 fc1c 4b38 d2b1 9138
00000270: 5866 a1b7 bda1 13b9 4739 84b9 2988 39b9
00000280: 0e60 f8b7 1403 f239 5e84 023a 291d 5739
00000290: 4d39 6439 10bc 32b8 02dd 2939 ee8b c339
000002a0: b4f4 7a39 3094 5738 1034 5838 f096 b238
000002b0: c21e 6039 7820 7639 9001 94b6 7e5b aa38
000002c0: 56b3 3f3a 5000 19b9 10fb deb7 5094 86b8
000002d0: 54e8 603a 7a58 083a 1653 003a 8511 143a
000002e0: 9506 183a b22e bc39 1b66 423a 769f d639
000002f0: dce7 b3b9 ff3d 093a 65fa 223a 4475 9739
00000300: 6408 213a 66b7 fe39 49d2 643a e57e 003a
00000310: b27d 1d3a c523 71b9 8f04 ba3a 12cc 863a
00000320: 423f 7cb8 27e2 a13a e0d4 863a 468b 6a39
00000330: 91c7 9c3a 62a2 633a 0fde 1239 c009 843a
00000340: 545d 853a c638 b239 9bb4 9c3a b817 613a
00000350: 1bf8 393a 447c 783a 29d5 993a 4632 0f3a
00000360: ba21 be39 960b 5f39 04db ab39 9b6e eeb8
00000370: a807 9939 5e4f 6e39 42ef 0c39 0c2a f6b8
00000380: db28 3e3a b2b2 22b9 4549 1a38 feef 7238
00000390: a2f2 cbb8 f39b 6ab9 23cd 8439 d5d1 9ab9
000003a0: 7c32 d4b8 be9e 2d37 c8b0 8537 829d d738
000003b0: 96d8 8a38 ec6c 2739 ccf9 b6b8 64d1 2139
000003c0: bcc3 5a38 5bbc 0339 c81e 41ba e218 3439
000003d0: aee5 6ab7 3629 0238 6426 c138 fde2 9139
000003e0: d644 6639 5842 8d39 2a35 b838 ced9 e4b8
000003f0: b2a9 f43a 4ac7 cb3a e152 8b39 f666 e93a
0.00030603883 0.00010849338 0.00031586664 -8.011886e-05 0.00019424169 0.00024305307 9.006477e-05 -8.610495e-05
0.0005541978 -8.776896e-05 3.9669452e-05 0.00017833649 -7.9259786e-05 -0.00018773199 0.00029724283 -0.00024412024
-8.243536e-05 -3.803244e-05 0.002911093 0.0022244612 0.00071366085 0.0024764787 0.0020991182 0.0008550204
0.002469246 0.0016730024 -0.00049103843 0.0019574778 0.0018173775 0.00043720548 0.002301205 0.0018882636
0.0015540661 0.0021521095 0.0022501654 0.00039737404 -0.0009235258 -0.00077954965 -0.0007661414 -0.00071992096
-0.0008375751 -0.00051344116 -0.00092665496 -0.00052172784 0.00034213118 -0.0006136687 -0.0006376724 -4.6794594e-06
-0.0007482878 -0.0005840404 -0.0006224816 -0.00074349047 -0.0007403943 0.00014875115 -2.0450407e-05 -8.98544e-05
0.0003174875 -0.00036590273 8.3845895e-05 0.00013304777 -0.00018397254 -0.00031841718 0.0008520251 -0.00038053832
-0.00024296816 -7.932566e-05 -0.000321574 -0.000522114 -7.4444026e-05 -0.00049356354 -0.00028277462 -0.00013327287
0.00026301475 9.104909e-05 0.00028631918 -0.0001920002 0.00024178429 0.00023362561 -6.412891e-06 -0.0001748122
0.001022717 -0.00023604796 -9.95193e-05 3.586507e-05 -0.00018067149 -0.00036229336 5.1565334e-05 -0.0004018831
-0.00017469558 -3.3522912e-05 0.0009088621 0.0007008983 -9.307641e-05 0.00085532037 0.0007074554 9.474832e-05
0.00078175997 0.0005676926 0.00023742672 0.0006549771 0.00065154216 0.00024584122 0.0007981445 0.0005192696
0.00036307532 0.0006492246 0.0007783671 0.0005480846 -0.0012363705 -0.0010297736 -0.0008683441 -0.0010522662
-0.0010611974 -0.00054323237 -0.0011763987 -0.0006766988 0.00048832473 -0.0008012438 -0.00077077566 -3.8390455e-05
-0.0010520166 -0.0007918247 -0.0007858471 -0.0010346287 -0.0010394219 0.00019961785 1.2638862e-05 1.4874102e-05
-4.2394906e-05 1.8399685e-05 -2.215254e-05 2.9590865e-05 5.881877e-05 5.4799522e-05 -0.00027155358 6.5321736e-05
7.894899e-05 -1.8163068e-05 4.410082e-05 0.000115943694 0.00013178136 7.112805e-05 3.3357526e-05 -2.643586e-05
-9.241009e-05 -0.00014697138 -0.0005926146 -3.4713084e-05 -8.579824e-05 -0.00027251913 -0.00011097895 -2.2724504e-05
0.00054223853 -4.4460925e-05 4.8425965e-05 6.9472604e-05 -1.9240353e-05 -0.00014079265 -0.00025219677 -0.00017693698
-2.9608633e-05 0.0004616013 0.00049788307 0.00020514861 0.0002176512 -4.2613654e-05 0.00016199428 0.00037297554
0.00023933017 5.1398005e-05 5.15469e-05 8.515816e-05 0.00021373763 0.00023472484 -4.4109256e-06 8.1232734e-05
0.0007312795 -0.00014591333 -2.6581372e-05 -6.417243e-05 0.00085795415 0.00052011723 0.0004895193 0.00056483626
0.00057993206 0.00035892945 0.00074157276 0.00040936068 -0.0003431429 0.00052353734 0.0006217121 0.00028888334
0.0006142913 0.00048583298 0.00087288447 0.0004901721 0.0006007805 -0.00022996876 0.0014192032 0.0010284206
-6.0140395e-05 0.0012350724 0.001028683 0.00022367862 0.0011961331 0.000868356 0.00014006368 0.0010073707
0.0010174909 0.00033993105 0.001195568 0.0008586603 0.00070941605 0.0009478966 0.00117365 0.00054625084
0.00036264752 0.00021271253 0.0003277884 -0.00011369326 0.00029188138 0.00022727015 0.00013440571 -0.00011738026
0.0007254013 -0.00015516093 3.67847e-05 5.7920806e-05 -9.724988e-05 -0.00022374075 0.0002532984 -0.00029529506
-0.00010118351 1.0348564e-05 1.5937156e-05 0.00010281337 6.620695e-05 0.00015966938 -8.7249646e-05 0.0001543216
5.2157542e-05 0.00012563301 -0.00073669525 0.00017175407 -1.4000963e-05 3.1032796e-05 9.210108e-05 0.00027825675
0.00021960153 0.00026943046 8.783706e-05 -0.000109124565 0.0018666296 0.0015547064 0.00026573896 0.0017807174

exp_avg_sq f4 [128, 18]
00000000: 189b bc35 ea2c 9235 9175 5735 14fd c835
00000010: 2fdb b335 b611 7f35 9073 ce35 4b96 d035
00000020: b19c 9f35 30ff cb35 ef53 d935 2a90 ac35
00000030: 44b6 cf35 e3a0 f635 bb1a c135 545f d535
00000040: 7ce6 0c36 eed4 c835 3734 2238 3fa0 2038
00000050: 950f 5e37 f0fe 2d38 3540 2e38 ba25 8937
00000060: 8f09 3b38 0d4b 4538 e78c 8537 5099 5438
00000070: 95a5 4038 b490 4937 5c76 5238 16b2 2b38
00000080: 7040 8037 7288 1f38 b2da 1338 918d 8637
00000090: 74aa 3a37 b905 2e37 b919 8336 df6d 3837
000000a0: dde6 2a37 032e 9036 7ccc 3237 2d8c 3337
000000b0: 3e4a 8f36 4a63 3b37 d7b3 2437 12b1 6136
000000c0: 2fec 3837 24f2 0c37 b19d 9736 82b2 0a37
000000d0: a709 0837 2bbd a236 653d bf36 171c 9e36
000000e0: 01b0 0d36 b08d de36 15b2 d236 aa85 3836
000000f0: fc3e f036 6d8b f236 869e 6c36 182a d936
00000100: ce43 0337 2e97 5d36 ef15 e136 7923 0d37
00000110: 6fc7 7436 17fd e936 c9a4 1137 22f4 7936
00000120: f354 ca36 4c61 ac36 c85f 1936 0513 f136
00000130: dba5 e936 7997 4636 6958 0637 a131 0437
00000140: 6cc3 8236 1663 eb36 d1c3 1237 f9fe 6c36
00000150: 95b8 fa36 e250 1b37 3820 8436 ad3f 0137
00000160: caf8 1e37 3c47 8436 002b 5936 c1ba 5336
00000170: 3c6c b835 3576 6136 feb8 6236 7d82 bb35
00000180: 3471 7636 1984 8036 7d54 d535 62cb 8d36
00000190: df7f 8b36 59d7 c135 d4bb 9c36 16b7 8336
000001a0: d306 bd35 3544 7936 9b54 5636 2aef d335
000001b0: f4fe 4537 a710 5c37 24bc 9c36 a500 6a37
000001c0: c97c 7337 e798 9e36 bb4a 8237 06fa 8737
000001d0: 3a83 a836 6cac 9237 3e1c 8437 c2d4 5436
000001e0: 8684 9137 a151 5a37 8bf0 9136 32d6 5937
000001f0: 7149 5137 9a09 8d36 60e3 ae35 b0f3 8535
00000200: 84e2 e334 18c4 9935 19ca 8335 4beb 1e35
00000210: 79b5 8935 5bf0 9035 bef1 2735 c8de 7935
00000220: 6500 8635 c778 2935 3b5c 6a35 df69 9035
00000230: fb7a 4535 3ebf 6735 09ea 9335 4e21 5a35
00000240: d02b 1337 801f 0137 3d91 4636 73ab 0837
00000250: 7d0c df36 055f 5236 bee9 e836 33f0 df36
00000260: 274a 5836 f502 e636 87e6 c236 4a41 3b36
00000270: 61c9 db36 4a7b aa36 15af 7436 f34a a736
00000280: 4443 b236 cf7d 8436 e11d 3f37 f5ab db36
00000290: 44b0 3536 2395 d736 e5ee 7a36 fb15 a336
000002a0: 933f 6136 361b 7c36 9f47 8336 7c70 3d36
000002b0: c857 a535 509c 9c36 6df5 f735 b2c7 1436
000002c0: aa29 cc36 ccce b535 7c3b f235 4cc6 ed36
000002d0: e26f d036 c63e 9336 bf29 db35 d6d9 a436
000002e0: 5f0c 8b36 d2a8 2936 3125 9036 a3f1 8f36
000002f0: 3df0 1d36 7610 7f36 54bd 7d36 908b 2336
00000300: d2ad 7036 e09a 8436 1543 5036 5494 5b36
00000310: 0f1c 7a36 bae0 5936 2ae6 a436 2ae4 a536
00000320: 3929 0c36 a1f0 b636 b366 c036 be80 1a36
00000330: 3ffb d336 6691 de36 70b6 3036 3620 f036
00000340: 5b78 ed36 afc4 1536 0773 0037 97c5 e236
00000350: f741 2036 1c46 d136 e458 c136 b7ab 1f36
00000360: 7dad 6b36 69c4 4536 88a4 ca35 f73f 7f36
00000370: ee7a 8236 9a7e f135 b688 9336 b756 8d36
00000380: 85e2 1e36 f8f6 7e36 8de6 a136 4c9c 1e36
00000390: acd3 9036 91ee ac36 7802 2f36 ae67 9136
000003a0: 0724 ad36 6744 2e36 3e8d 8d36 e321 5a36
000003b0: 5656 a535 3425 7836 4994 4836 7036 f235
000003c0: 6e69 5336 36a3 5936 7720 f835 f358 4936
000003d0: 626d 3136 881f e135 ce95 3436 37db 3736
000003e0: 850f 0f36 c9d6 1736 c1c2 3e36 5098 1e36
000003f0: 1c9a 1237 9853 1f37 5057 7536 39b4 2937
1.405223e-06 1.0890919e-06 8.0264823e-07 1.4974817e-06 1.340033e-06 9.5020675e-07 1.5381829e-06 1.5540949e-06
1.1892026e-06 1.5198948e-06 1.6192188e-06 1.2856956e-06 1.5475748e-06 1.8375252e-06 1.43874e-06 1.5897481e-06
2.0995785e-06 1.4963132e-06 3.867244e-05 3.8296213e-05 1.3235859e-05 4.1483843e-05 4.154463e-05 1.634924e-05
4.4593176e-05 4.7038357e-05 1.5920448e-05 5.0687522e-05 4.5930577e-05 1.2014225e-05 5.0178132e-05 4.0935432e-05
1.5288795e-05 3.803563e-05 3.5251207e-05 1.6039967e-05 1.1126151e-05 1.0372541e-05 3.9070987e-06 1.0992836e-05
1.0186542e-05 4.296891e-06 1.0657237e-05 1.0701869e-05 4.270375e-06 1.1169186e-05 9.817034e-06 3.3630681e-06
1.1022245e-05 8.401028e-06 4.5185084e-06 8.267003e-06 8.108479e-06 4.8499983e-06 5.699391e-06 4.712037e-06
2.1113085e-06 6.63261e-06 6.279219e-06 2.749594e-06 7.1598897e-06 7.2283933e-06 3.5259013e-06 6.4720043e-06
7.8239955e-06 3.3019564e-06 6.708076e-06 8.412514e-06 3.647492e-06 6.9734047e-06 8.6810405e-06 3.7245995e-06
6.0299585e-06 5.1373263e-06 2.2854529e-06 7.184574e-06 6.9632492e-06 2.9592468e-06 8.007607e-06 7.879368e-06
3.897052e-06 7.015081e-06 8.74787e-06 3.5315154e-06 7.472069e-06 9.257552e-06 3.9376573e-06 7.703825e-06
9.47546e-06 3.9421993e-06 3.236055e-06 3.1550155e-06 1.3740569e-06 3.3596418e-06 3.3784304e-06 1.3970563e-06
3.672275e-06 3.8300755e-06 1.5894326e-06 4.2258043e-06 4.157409e-06 1.4442295e-06 4.6710284e-06 3.9254182e-06
1.4083583e-06 3.7143593e-06 3.1937732e-06 1.5790331e-06 1.1801476e-05 1.3116899e-05 4.6710647e-06 1.3947637e-05
1.45129825e-05 4.726567e-06 1.5532007e-05 1.620968e-05 5.022067e-06 1.7484846e-05 1.5748778e-05 3.1714303e-06
1.7347058e-05 1.3012818e-05 4.3493396e-06 1.2984079e-05 1.247447e-05 4.203245e-06 1.3030185e-06 9.980195e-07
4.2446857e-07 1.1456459e-06 9.819079e-07 5.9201983e-07 1.0260111e-06 1.0798789e-06 6.256413e-07 9.308392e-07
9.983893e-07 6.313316e-07 8.7306006e-07 1.0759649e-06 7.356718e-07 8.63325e-07 1.1020467e-06 8.1259793e-07
8.772084e-06 7.696333e-06 2.958884e-06 8.14615e-06 6.6473717e-06 3.1347747e-06 6.94135e-06 6.6738808e-06
3.222967e-06 6.8548784e-06 5.8084875e-06 2.7903175e-06 6.550152e-06 5.0807475e-06 3.6460744e-06 4.985713e-06
5.312644e-06 3.9485526e-06 1.1391444e-05 6.546727e-06 2.7073702e-06 6.424861e-06 3.7391958e-06 4.8603374e-06
3.3564618e-06 3.7566765e-06 3.912442e-06 2.822867e-06 1.2319006e-06 4.6673595e-06 1.8474362e-06 2.2169957e-06
6.084524e-06 1.3545737e-06 1.8047717e-06 7.086235e-06 6.211908e-06 4.388249e-06 1.6328921e-06 4.9129403e-06
4.143963e-06 2.5281229e-06 4.295864e-06 4.2898623e-06 2.353466e-06 3.8007543e-06 3.7810141e-06 2.4370129e-06
3.5863964e-06 3.9519364e-06 3.1033462e-06 3.2719881e-06 3.7269235e-06 3.2466328e-06 4.9143755e-06 4.943945e-06
2.088562e-06 5.4520356e-06 5.7340017e-06 2.3022726e-06 6.317539e-06 6.633042e-06 2.6332236e-06 7.156307e-06
7.0771616e-06 2.2317215e-06 7.656176e-06 6.7583273e-06 2.3880255e-06 6.236847e-06 5.7621965e-06 2.3792797e-06
3.5118712e-06 2.9469613e-06 1.5098058e-06 3.8035193e-06 3.888613e-06 1.7992745e-06 4.3968566e-06 4.2122224e-06
2.3675686e-06 3.7992704e-06 4.8250135e-06 2.3634811e-06 4.3161763e-06 5.1537722e-06 2.607847e-06 4.3334067e-06
5.159996e-06 2.5967836e-06 4.21857e-06 3.2504256e-06 1.2318585e-06 3.6976535e-06 2.9888636e-06 1.8046248e-06
3.1502818e-06 3.243052e-06 1.8486888e-06 3.000311e-06 2.6438724e-06 1.6772983e-06 2.6909288e-06 2.7396725e-06
2.1317694e-06 2.2625775e-06 2.8425568e-06 2.3632492e-06 8.7381595e-06 9.496602e-06 3.6558667e-06 1.0115146e-05
