Assets/Config/results/CheeseWorld6/CheeseWorld6/CheeseWorld6-295490.pt (torch, 519914 bytes, 48 tensors)

discrete_act_size_vector f4 [1, 2]
000000 00 00 30 41 00 00 30 41
       11.0 11.0

network_body.observation_encoder.processors.0.normalizer.running_mean f4 [20]
000000 80 6f 81 bd 80 84 55 bd 4e c2 bb bd ac 0d ab bd
       -0.06320095 -0.052128315 -0.0916792 -0.08352217
000010 40 ed 11 be f2 35 04 be bc c9 41 be 61 05 37 be
       -0.1425066 -0.12911204 -0.18924612 -0.17873146
000020 b2 c4 74 be 3f a3 67 be 54 f8 93 be b5 9d 8c be
       -0.23903158 -0.22620867 -0.28900397 -0.2746407
000030 03 cf ad be 6f 39 a9 be 61 42 c7 be b2 86 c2 be
       -0.33947 -0.3305163 -0.3891783 -0.3799339
000040 20 38 e2 be c2 17 db be d1 dd fa be 37 21 f6 be
       -0.44183445 -0.42791563 -0.48997357 -0.48072216

network_body.observation_encoder.processors.0.normalizer.running_variance f4 [20]
000000 80 cd 83 46 4f 60 5a 46 1f ff b4 46 3d 77 a5 46
       16870.75 13976.077 23167.56 21179.62
000010 ab 4b 05 47 ed 11 f4 46 c6 40 27 47 49 95 1f 47
       34123.668 31240.963 42816.773 40853.285
000020 18 7e 45 47 92 92 3d 47 f0 70 5d 47 07 33 56 47
       50558.094 48530.57 56688.938 54835.027
000030 a0 38 6b 47 24 d1 67 47 c8 18 77 47 f0 a5 74 47
       60216.625 59345.14 63256.78 62629.938
000040 6c ce 7c 47 b0 b4 7a 47 00 da 7b 47 36 89 7b 47
       64718.42 64180.688 64474.0 64393.21

network_body.processors.0.normalizer.running_mean f4 [20]
000000 80 6f 81 bd 80 84 55 bd 4e c2 bb bd ac 0d ab bd
       -0.06320095 -0.052128315 -0.0916792 -0.08352217
000010 40 ed 11 be f2 35 04 be bc c9 41 be 61 05 37 be
       -0.1425066 -0.12911204 -0.18924612 -0.17873146
000020 b2 c4 74 be 3f a3 67 be 54 f8 93 be b5 9d 8c be
       -0.23903158 -0.22620867 -0.28900397 -0.2746407
000030 03 cf ad be 6f 39 a9 be 61 42 c7 be b2 86 c2 be
       -0.33947 -0.3305163 -0.3891783 -0.3799339
000040 20 38 e2 be c2 17 db be d1 dd fa be 37 21 f6 be
       -0.44183445 -0.42791563 -0.48997357 -0.48072216

network_body.processors.0.normalizer.running_variance f4 [20]
000000 80 cd 83 46 4f 60 5a 46 1f ff b4 46 3d 77 a5 46
       16870.75 13976.077 23167.56 21179.62
000010 ab 4b 05 47 ed 11 f4 46 c6 40 27 47 49 95 1f 47
       34123.668 31240.963 42816.773 40853.285
000020 18 7e 45 47 92 92 3d 47 f0 70 5d 47 07 33 56 47
       50558.094 48530.57 56688.938 54835.027
000030 a0 38 6b 47 24 d1 67 47 c8 18 77 47 f0 a5 74 47
       60216.625 59345.14 63256.78 62629.938
000040 6c ce 7c 47 b0 b4 7a 47 00 da 7b 47 36 89 7b 47
       64718.42 64180.688 64474.0 64393.21

network_body._body_endoder.seq_layers.0.weight f4 [128, 20]
000000 a5 66 81 bd 94 06 d0 bd ad 00 cb 3e 87 05 8a be
       -0.06318406 -0.10157505 0.39648953 -0.26957342
000010 f2 4f 75 3d 19 bb 80 bd 79 35 b5 be ba f5 d0 bc
       0.059890695 -0.06285686 -0.3539236 -0.025507797
000020 14 42 8b be eb d2 63 3e 5e 47 b1 be 1b d4 cd 3d
       -0.2719885 0.22248428 -0.3462476 0.100502215
000030 27 0c 93 be 21 97 01 3e 38 e8 15 be a0 b2 47 be
       -0.2872021 0.12655307 -0.14639366 -0.19501734
000040 ef 4f 5a be 77 5e 23 3e 2b ec 9a 3e 58 71 56 be
       -0.21319555 0.15954004 0.30258307 -0.20941675
000050 fc 4a 9d bd dd 70 d2 3e b0 85 69 be e8 5f 6f 3e
       -0.07680318 0.41101733 -0.22804904 0.23376429
000060 ab e6 a4 3d 66 c3 cb bd 30 87 52 3d f9 50 25 3e
       0.08051809 -0.09949379 0.051398456 0.1614417
000070 f3 fb db 3d d5 75 79 3e 67 8a eb 3c d7 fe 9d 3e
       0.10741415 0.24361356 0.028752519 0.3085849
000080 01 29 00 bf 1e 1b 84 bd a6 f1 86 3e 5a 65 52 bd
       -0.50062567 -0.06450485 0.26356238 -0.051366188
000090 26 30 65 be b6 44 62 bf 01 8c f2 bd 78 01 91 be
       -0.22381648 -0.88386095 -0.1184311 -0.28321433
0000a0 21 0b f4 3e c1 16 63 3e 23 12 1a bf 98 3f 34 3d
       0.4766474 0.22176649 -0.60183924 0.04400596
0000b0 f0 aa 8c 3e 28 bf 7d be b6 d4 7c be 8f ee f4 bd
       0.27474165 -0.24779952 -0.24690518 -0.11959564
0000c0 7d 34 ac 3d 63 98 20 bd 98 90 10 3e 32 9e ff 3d
       0.08408449 -0.039207827 0.14117658 0.12481345
0000d0 c5 9e f3 bc e2 71 f9 3e 2d d7 80 3e d5 82 dc 3d
       -0.029738793 0.48719698 0.25164166 0.10767142
0000e0 ac 57 b4 be 32 81 2f bf a6 46 4e be 96 21 db 3e
       -0.35223138 -0.6855651 -0.20144138 0.42799062
0000f0 15 d6 ac 3d 03 94 6a 3e bb 05 c8 3e a7 c1 16 3d
       0.084392704 0.22908024 0.39066872 0.036805775
000100 40 67 33 3d a1 36 41 be a2 6c a8 3e e2 35 04 3f
       0.04379964 -0.18868496 0.3289538 0.5164472
000110 79 c9 e5 bd 7c d4 a3 bd 24 1d e0 3e da 1b 90 3e
       -0.112200685 -0.079995126 0.43772233 0.2814625
000120 a0 d0 63 3e 3d 6f e1 be 3e 29 c3 3e a9 aa 0f 3e
       0.22247553 -0.4403018 0.38117403 0.14029945
000130 67 df 78 be 0f 5c 21 bd f0 df 13 3e 20 49 64 3e
       -0.24303971 -0.039394435 0.14440894 0.2229352
000140 87 44 8a 3d d0 6d 22 3e 34 ef 90 be 20 28 28 3e
       0.06751352 0.15862203 -0.28307498 0.16421556
000150 27 82 aa bd 51 3a cf bd 73 05 8b be 8d 54 d1 bc
       -0.08325606 -0.10118545 -0.27152595 -0.025553012
000160 95 44 44 3f f5 42 2f be 28 7d e4 3d 14 d0 0a 3e
       0.7666715 -0.17115386 0.11156684 0.13555938
000170 f3 95 8a 3e cb 98 fe bc 84 55 70 3e fb c1 02 bd
       0.27067527 -0.031078717 0.23470122 -0.031923275
000180 f8 ff 2c bf 3b 31 87 3d 22 86 47 3e 4f 76 8d 3d
       -0.6757808 0.06601187 0.19484761 0.06907331
000190 b2 d1 f4 3d ef 63 86 3d e1 b0 5a 3e 49 33 94 3d
       0.11954059 0.065620296 0.21356536 0.07236344
0001a0 18 cd 40 3e bd a8 74 bd db 73 4b 3e ee e3 f3 be
       0.18828237 -0.059731234 0.19868414 -0.47634834
0001b0 da 33 17 3f d0 37 27 3e 11 5c 80 3d 12 27 07 3e
       0.59063494 0.16329885 0.0626756 0.13198498
0001c0 f3 41 0a 3e 05 10 15 3d 9c 4a 8a 3e 8e 81 04 3d
       0.1350172 0.03639223 0.27010047 0.032350115
0001d0 ab fe d5 bd c0 d7 f7 3e ad b7 ac bb 1b f8 d9 3e
       -0.10448965 0.48406792 -0.0052709193 0.42572102
0001e0 4d 8d 90 bd 18 4b 0b 3e 76 59 8c bc 82 fc 54 bd
       -0.07058201 0.13602865 -0.017132502 -0.051998623
0001f0 19 84 d3 3e 74 b1 6c 3e 99 69 30 be 72 db db bd
       0.4131172 0.23114568 -0.17227782 -0.10735215
000200 0a a7 76 3e f9 49 9c 3e 40 c0 9c be ec 8a ac 3e
       0.24087158 0.30525187 -0.30615425 0.3369974
000210 4e 62 11 3e a8 7c ae bb b4 64 8b 3e 6a 66 c9 be
       0.14197657 -0.005324919 0.27225268 -0.39335948
000220 48 a4 ed bd 66 55 bb 3e 2c 3c 00 bf 62 d5 59 3c
       -0.116036 0.3658859 -0.50091815 0.013295503
000230 63 5e 34 bb 54 2a 12 3f d1 b1 09 3e c8 db 79 3d
       -0.002752208 0.5709584 0.13446738 0.061000615
000240 a8 00 25 be e8 4d 0c 3e 57 f9 04 bc 39 ba 65 3c
       -0.16113532 0.13701594 -0.008116088 0.01402145
000250 fd 46 36 3e ad e8 02 3e d9 05 e8 3d b9 cd 27 3f
       0.17800517 0.12784071 0.1132924 0.6554828
000260 3d 26 84 bd 51 0d af be 99 1f 17 bd c6 34 c5 bd
       -0.06452606 -0.34189847 -0.03689537 -0.09629206
000270 52 ae 10 3f 30 f1 03 be 81 0a 10 3e ee b4 94 3d
       0.5651599 -0.12884974 0.14066507 0.07261072
000280 9f 83 c7 be 6e 0c d0 bc 4e ae a8 3e cd db 17 3e
       -0.38967606 -0.025396552 0.32945484 0.14829941
000290 6d 8f ad 3d 15 b3 82 3e 8f 12 8f 3e 45 83 ac 3d
       0.08474622 0.25527254 0.27943847 0.08423475
0002a0 4e e7 f4 3e d3 d2 16 bd e3 82 98 3e 4d 87 12 be
       0.4783272 -0.03682215 0.2978736 -0.14309426
0002b0 69 52 2e 3e 8c 0a 2b be bc f7 3a 3e 2e 5e 90 bc
       0.17023624 -0.16703242 0.18258566 -0.017623033
0002c0 37 e3 65 3e 5f bc af 3d e9 5e 5b 3e 3b 0e 53 3d
       0.22449957 0.08580851 0.21422924 0.051527243
0002d0 c7 c0 f4 3e 84 f9 da 3c df 48 c3 bd 19 78 13 3f
       0.47803327 0.026730306 -0.095353834 0.5760513
0002e0 04 35 62 3e d6 63 04 3e e7 10 b8 3e 98 14 ca 3d
       0.22090536 0.1292871 0.35950395 0.09867209
0002f0 03 d7 2e 3d e1 3f 60 3e 93 30 94 3c 41 29 a4 3e
       0.04268552 0.21899368 0.018089568 0.32062724
000300 40 a4 17 3e f8 d8 53 ba 3f ca aa be 26 6a 44 3e
       0.1480875 -0.0008081342 -0.33357427 0.19181117
000310 b6 05 02 3e d9 a1 fc bd fe ee b0 3e 19 01 02 3e
       0.12697491 -0.123355575 0.34557337 0.12695731
000320 46 35 cf 3d 6c d3 b2 bd 33 80 eb 3e dc 7e 9e 3b
       0.10117583 -0.08731732 0.45996246 0.0048369
000330 44 06 62 3d 3c 22 c0 be 3c a2 8e bd 61 79 5b 3e
       0.055181757 -0.3752612 -0.069645375 0.21433021
000340 b9 96 ca bd 34 7d 38 be 90 7d 09 bf 9a d5 3c 3e
       -0.09892029 -0.18016511 -0.5370722 0.18440858
000350 1c 8f 00 bc 83 9e 7b be 50 66 e2 bd f6 ab 0d bf
       -0.00784662 -0.24572186 -0.11054671 -0.55340517
000360 38 f5 6b 3c 86 f6 43 3e a1 04 d4 be 81 c3 c3 bd
       0.014401726 0.1913701 -0.41409782 -0.09558774
000370 82 67 a6 be 7d 62 72 bd eb 30 9b 3e 3b 60 6b 3e
       -0.32500845 -0.059175957 0.3031076 0.22985928
000380 12 81 53 bd 7e ee 71 3d 23 0e 21 bf a6 f5 dc be
       -0.051636763 0.059065334 -0.62912196 -0.43156165
000390 3b 67 4b 3e 2c 75 cc be 11 8b 86 be 07 1d c4 3e
       0.19863598 -0.39933145 -0.26277974 0.38303396
0003a0 42 12 5c be e2 ea 89 be 99 83 96 be 78 de 68 be
       -0.2149134 -0.26937014 -0.29397276 -0.22741115
0003b0 11 df 43 bd ae fa 45 be 45 4a 3f be 78 cc 47 be
       -0.047820155 -0.19333908 -0.18680675 -0.19511592
0003c0 a5 06 fe bd 65 1a ce 3e 2b 60 4c bd 3f 02 81 3e
       -0.12403611 0.40254512 -0.0498964 0.25197026
0003d0 09 cf 0c 3e be 79 8c bd ad dd d2 3e 34 ed f9 3c
       0.13750853 -0.06859158 0.4118475 0.030508615
0003e0 cd 32 b9 3e 96 60 dd 3e 11 61 87 3e cc 85 c1 bd
       0.3617157 0.43237752 0.26441243 -0.09449348
0003f0 bf d8 75 3e 95 3c 02 3e c5 64 79 3e 0f 6e cc 3e
       0.24008463 0.12718423 0.24354847 0.39927718

network_body._body_endoder.seq_layers.0.bias f4 [128]
000000 5f 94 15 3e b3 47 21 3e 57 e4 3b 3d 50 e5 8f 3d
       0.1460738 0.15750007 0.04587206 0.0702616
000010 b0 28 12 3e c3 a4 98 3d 82 a4 5c 3d cb 71 ee 3d
       0.14273334 0.07453301 0.053867824 0.11642798
000020 13 f8 92 3d 5a 78 ee 3d 2e 7d 21 3e 3e 3e 2b 3e
       0.07176223 0.11644049 0.15770409 0.16722962
000030 aa e1 e8 3d 3c 87 88 3d 1c 33 d1 3d 98 f1 31 3e
       0.11371167 0.06666419 0.102148265 0.17377317
000040 31 6b bd 3d 7b 7c dc 3d ac 75 13 3e c6 5b 38 3e
       0.09248961 0.1076593 0.14400357 0.18003759
000050 1a e6 0b 3e 6f f5 3a 3e cc 63 3e 3e 2a 14 a0 3d
       0.13661996 0.18257688 0.18592757 0.07816346
000060 21 f9 0f 3e 0a 08 15 3e 97 42 78 3d 53 34 ad 3d
       0.14059879 0.14553848 0.06061038 0.08457246
000070 a1 c1 02 3e 30 7b 1a 3e 35 5d 03 3e 71 26 06 3e
       0.12769176 0.15086055 0.12828524 0.13100602
000080 65 31 d2 3d e2 a1 1e 3e 96 8a dd 3d 9d 99 da 3c
       0.102633275 0.15491441 0.10817449 0.026684577
000090 7f 97 ce 3d 79 13 ef 3d d5 24 0d 3e 04 a5 aa 3d
       0.10087489 0.11673636 0.13783582 0.083322555
0000a0 e5 14 70 bc 15 44 03 3e fe 34 16 3e 3c ca cb 3d
       -0.014653419 0.1281894 0.14668652 0.099506825
0000b0 1c 5a 89 3d 47 71 8c 3d 7c 02 d0 3d 64 ef 04 3e
       0.0670664 0.068575434 0.10156724 0.12981945
0000c0 0e 28 90 3d 9c d7 07 3e 0d db 9c 3d 5a 88 09 3d
       0.0703889 0.13265842 0.07658968 0.0335773
0000d0 93 67 e3 3d a0 90 be 3d 4c 41 03 3e 70 27 e1 3d
       0.111037396 0.09304929 0.12817878 0.1099385
0000e0 4b 53 cd 3d e4 f3 3a 3d 57 c1 f2 3d 66 a5 23 3e
       0.100256525 0.04564275 0.11853283 0.15981063
0000f0 ea 29 e8 3d 44 d0 a6 3d 3d ad 4b 3e 45 ba f5 3d
       0.113361195 0.08145192 0.19890304 0.11998419
000100 c7 2d a8 3d e8 8d 1f 3e b3 1e d9 3d 69 c0 d4 3d
       0.08211856 0.15581477 0.106015585 0.10388262
000110 7a 3d 42 3d eb 60 0c 3d 48 ea a0 3c 53 a2 c1 3d
       0.04742191 0.034272116 0.019642964 0.09454789
000120 23 d6 d9 3d d6 a1 a8 3d 43 52 1b 3e d1 39 07 3e
       0.106365465 0.08233993 0.15168099 0.13205649
000130 cb 63 8c 3d d3 01 c4 bb ad 91 b7 3d e4 85 12 3e
       0.068549715 -0.005981663 0.08963332 0.14308888
000140 01 e5 e6 3d dc 50 38 3e bf 4b 3e 3e b0 7e e8 3d
       0.11274148 0.17999595 0.18583582 0.11352289
000150 ad 37 84 3d f2 24 8b 3d 6e fc 41 3e ee 92 d5 3d
       0.06455932 0.06794156 0.1894395 0.10428415
000160 46 e3 24 3e da 85 0e 3d 83 38 d6 3d 6d 67 1a 3e
       0.16102323 0.03479562 0.104599975 0.15078516
000170 ab 71 94 3d 7f 83 95 3d 3b 6d 7a bc bc d7 c3 3d
       0.07248243 0.073004715 -0.015284832 0.095626324
000180 5b e7 1a 3e 68 6b 0b 3e bd 7f 50 3d 99 73 b4 3d
       0.15127318 0.13615191 0.05090307 0.08811111
000190 41 a0 e8 3d 95 eb d7 3d 05 5d e4 3d e9 b5 0f 3e
       0.11358691 0.105429806 0.111505546 0.14034237
0001a0 d4 6c f0 3d 3e 19 f5 3d d7 12 ba 3d 32 02 f1 3d
       0.11739507 0.11967705 0.09085625 0.11767997
0001b0 d2 9c 21 3e 9b 16 c4 3c f2 30 87 3d 3f b2 09 3e
       0.15782478 0.02393656 0.066011325 0.13446902
0001c0 e4 8b 0c 3e 91 45 3c 3c 6a 1e cd 3d 03 26 bd 3d
       0.13725239 0.011491195 0.10015567 0.09235766
0001d0 86 90 51 3e e9 fa 34 3e 8d 4e d6 3a 9e 17 2c 3e
       0.20465288 0.1767384 0.0016350314 0.16805884
0001e0 bc 12 92 3d 0d fc 02 3e c0 79 02 3e 48 01 33 3e
       0.071324795 0.12791462 0.12741756 0.17480958
0001f0 83 af 8b 3d e1 aa 08 3d 5e 53 1f 3e 86 72 22 3e
       0.068205856 0.033366088 0.15559146 0.15864

network_body._body_endoder.seq_layers.2.weight f4 [128, 128]
000000 d4 cf 4d 3e ea 19 4e bb a8 2e de bb 3b 82 07 bd
       0.20098811 -0.0031448551 -0.006780464 -0.03308318
000010 4a 8d 74 3d ac 8a 8a b9 f5 35 62 3e 2e 7a c3 3c
       0.059705056 -0.0002642473 0.22090895 0.02386197
000020 aa 9c 9c bd 94 c6 13 be 86 07 1a 3e e6 57 47 3e
       -0.07647069 -0.1443122 0.15041932 0.19467124
000030 7c 24 49 be 91 f2 16 3d 3e f2 14 3e 43 10 a4 3d
       -0.19642824 0.036852423 0.14545533 0.08010914
000040 59 a3 23 bc 4a 5a 89 3d ff b6 0f 3d 9b df ea bd
       -0.009987676 0.067066744 0.035086628 -0.114684306
000050 d4 36 91 bd 0e 06 f4 3d 73 9f 94 3e 23 82 c4 3d
       -0.07090536 0.11915217 0.290279 0.09595134
000060 90 d5 b2 3d a8 c6 4e 3e 35 19 1f bc 3a 6e 0f 3e
       0.0873214 0.20192969 -0.0097106 0.14006892
000070 eb 1c 03 bd 0f 59 27 3e bd a4 13 3e 33 83 29 3e
       -0.03201 0.16342567 0.14418311 0.16553955
000080 6b 59 7d 3d f8 b5 b8 3c fd b7 89 3e 7d df f5 bd
       0.061852854 0.022547707 0.26898184 -0.12005518
000090 62 17 4d 3d bf 3e 0b 3e e2 14 19 be d0 cf db bc
       0.050071128 0.13598154 -0.14949372 -0.026832491
0000a0 b0 3f 20 be d4 e9 0b be b9 c9 2e bd 7d 00 d6 3d
       -0.15649295 -0.13663417 -0.042672846 0.10449312
0000b0 bc 83 87 3d 40 69 e9 3b 8e 5e 8d bd 0d 75 50 3e
       0.06616923 0.0071231425 -0.069028005 0.20357151
0000c0 c0 18 0f be d7 87 a4 bc 9e fa a7 bd e4 cc c4 3d
       -0.13974285 -0.020084305 -0.08202098 0.09609392
0000d0 31 0c 0a be 32 57 cb 3d f1 d8 ee 3d 6e dc cb 3d
       -0.13481213 0.099287406 0.11662472 0.09954153
0000e0 a1 ff ad 3e c4 dc a6 3c 35 c0 68 3d ca f7 a7 ba
       0.33984092 0.020368941 0.056823928 -0.0012814936
0000f0 40 4b fe 3c 26 94 d3 3b fa d7 31 3e 6a bd ba bd
       0.031041741 0.0064568697 0.17367545 -0.09118159
000100 71 c9 07 3e 76 56 88 3d 58 dd 3a 3d 2a 76 86 3d
       0.13260438 0.06657116 0.045621246 0.06565507
000110 d2 66 8d be f8 10 9f 3d 12 0f 0f 3e 92 95 aa bd
       -0.27617508 0.077669084 0.13970593 -0.083293095
000120 42 6e 0e 3e 8a 0b ac 3d 87 e0 52 3d 90 18 b9 bb
       0.13909248 0.084006384 0.051483657 -0.00564868
000130 ce fa 89 3d 5d df 3a 3d 5f ad 2b 3e 0c 0c f3 3c
       0.0673729 0.045623172 0.16765355 0.02966883
000140 3a a3 22 bc e6 b5 22 3e a7 c6 e4 bc 43 04 3c 3d
       -0.009926612 0.15889701 -0.027926756 0.0459025
000150 b6 af 4c 3c b3 6f 18 bd 68 1e af 3d f0 06 f7 3b
       0.012493065 -0.0372159 0.085507214 0.007538669
000160 28 5e 13 3e 41 2a b1 bc 67 da 68 3e c0 3f 98 3d
       0.14391387 -0.021626594 0.22739564 0.07434034
000170 ca c0 1b 3d 45 91 69 bc 06 a4 e2 3c 44 71 40 3e
       0.038025655 -0.014255826 0.027666103 0.18793207
000180 16 38 67 3e 04 e5 74 3e 74 f1 17 bd 82 9e 25 3d
       0.22579989 0.23915488 -0.037095502 0.040434368
000190 6c b9 37 3d 37 6b ca 3c 3c 97 0c 3e 35 98 01 be
       0.044854566 0.024709327 0.13729566 -0.12655719
0001a0 b5 e4 ed 3d d5 d5 3a 3d 0d f8 80 3d 6e 55 15 3e
       0.11615888 0.045614082 0.06297312 0.1458337
0001b0 0d d0 11 3e 92 67 9c bd 72 c8 c7 bc c3 1b 51 3e
       0.14239521 -0.07636942 -0.024387572 0.20420747
0001c0 aa 9b b0 3d 3d a6 8c 3d 62 71 f8 bd 9a 19 b5 3b
       0.086234406 0.06867645 -0.12131001 0.0055267336
0001d0 89 0a 16 3e d4 51 27 3e 4e 5f 99 3c d9 df cd 3d
       0.14652456 0.16339809 0.018722203 0.10052461
0001e0 fd 96 c5 bd 0d 82 d2 3b cd 9a 82 bd 6e c0 c1 3c
       -0.09647939 0.0064241947 -0.06377182 0.023651328
0001f0 4c 32 85 3c 48 a4 98 bd f2 7d 21 3d 50 69 87 3b
       0.016259335 -0.07453209 0.03942675 0.0041324273
000200 c2 30 00 3e 8d 50 01 bc b3 c5 41 3e 61 b0 f1 bd
       0.125186 -0.00789274 0.18923073 -0.1180122
000210 ec 74 e5 3d 0e cc f1 3d 6c 8e 64 bd da e0 54 3e
       0.11203942 0.118064985 -0.055799887 0.20788899
000220 cf 60 31 be ee 66 b7 bd 5d e7 ef bd 85 bc ee bd
       -0.17322086 -0.08955179 -0.11714051 -0.11657051
000230 2e d0 45 3d 15 b7 80 3d e6 3b 15 3d b0 b5 04 3e
       0.04829424 0.0628492 0.036434077 0.12959933
000240 a8 9f 5c 3e 6e 00 38 be 28 d8 0b be 68 cd 53 3c
       0.21545279 -0.17968914 -0.13656676 0.012927391
000250 4c a9 86 3d 7a f5 d6 bd e2 85 1e 3e 36 3c ac bc
       0.065752596 -0.1049604 0.1548076 -0.021024805
000260 53 8b b4 bd 52 bb 69 b9 3d 3e a6 bc 27 3f da 3d
       -0.088156365 -0.00022290394 -0.02029335 0.106565766
000270 e7 06 a7 3c c7 62 b5 bd 86 9b 8c bc e4 1b 30 3e
       0.020389033 -0.08856731 -0.017164003 0.1719814
000280 fe 43 bc 3d 1f 99 a5 bd 25 e9 80 3d 73 d6 f3 bc
       0.09192656 -0.08085846 0.06294469 -0.029765343
000290 61 82 21 be df ba b1 bd 3d ce 36 3d 24 d5 12 3e
       -0.15772392 -0.08678221 0.044630278 0.14339119
0002a0 a8 0b 8b bd ae 98 16 bd 33 a7 d7 bd 5c 47 9e 3d
       -0.06789333 -0.0367667 -0.105299376 0.077284545
0002b0 61 75 13 3d 8c cd 42 3d 26 5f e7 bc ed 36 b7 3b
       0.036000613 0.047559306 -0.028243612 0.0055912645
0002c0 fc bb 11 be fe 3c 77 3c 5f 93 3f 3e 4e e8 20 bd
       -0.14231867 0.015090225 0.18708561 -0.039284043
0002d0 39 7d 36 3e 7e 0b 15 be f5 db 39 bd 9e 72 23 bd
       0.17821206 -0.14555165 -0.045375783 -0.03990423
0002e0 32 83 85 be b9 a2 e4 3d 05 b7 cb bd a4 17 aa 3d
       -0.26076657 0.111638494 -0.099470176 0.0830529
0002f0 2a bc 54 3e da 88 fb 3d bc 12 27 3d 46 da ad 3d
       0.20774904 0.12281962 0.04078935 0.08488898
000300 5e fa 06 3e 54 5b c3 3d 45 10 aa bd c0 64 89 3d
       0.13181445 0.09538904 -0.083038844 0.0670867
000310 fa 88 5f bd 04 99 b3 3b d3 d9 9c 3d 8f 7e a4 3e
       -0.05457399 0.0054808874 0.07658734 0.32127807
000320 e9 69 9b bd 5b b4 1b bc 80 50 fb 3d a5 5e f1 3d
       -0.0758856 -0.009503449 0.122712135 0.1178563
000330 1b 7f 13 3e a3 d3 7f 3d 85 4e 84 3d 83 b6 c6 bb
       0.14403956 0.062457692 0.06460289 -0.0060642376
000340 dd c0 3d 3e 9d aa 89 bc f5 06 fc 3a 5f d8 39 be
       0.18530603 -0.016804988 0.0019228148 -0.18148945
000350 69 0f aa bd 72 86 66 bc 65 63 b1 bd 67 04 74 3d
       -0.083037205 -0.01407014 -0.08661536 0.05957451
000360 f9 1a 2b 3e ea 3c 5a bd e9 29 70 3d c6 73 12 be
       0.16709508 -0.05328075 0.05863372 -0.14301977
000370 c5 ca ba 3d c5 db 24 3d a0 f5 32 bc 68 f7 04 3e
       0.091207065 0.04024865 -0.010922819 0.12985003
000380 24 b1 07 3d 49 2c e7 bd 55 99 9a 3c c0 c4 20 3e
       0.03312792 -0.112877436 0.018871943 0.15700054
000390 14 33 4f 3d 0e af 10 3d b2 c1 08 bd e6 7f 21 3d
       0.05058582 0.035323195 -0.033387847 0.039428614
0003a0 e4 32 dd 3d f6 7f 61 be bb 86 06 3d 23 be 96 bd
       0.10800722 -0.2202147 0.032843333 -0.073604845
0003b0 d8 d6 02 3d f1 27 be 3b 8e fc f8 3b af 74 e6 bd
       0.031943172 0.005803101 0.0075984662 -0.112527244
0003c0 d3 d7 3c bd c6 e7 45 3d 27 f2 1c 3e 15 38 0e bc
       -0.046104264 0.04831674 0.15326749 -0.008680363
0003d0 86 37 5e bd b5 92 a3 3d d7 25 2d bc 41 90 d5 3d
       -0.05425217 0.079869665 -0.010568104 0.10427905
0003e0 56 87 e5 3d 24 fc 9e 3d 13 84 99 3e c1 40 e4 3d
       0.11207454 0.07762936 0.29983577 0.11145163
0003f0 02 18 33 bd f1 ba d7 3c 25 95 f5 3d 4b 2e b5 3d
       -0.043724068 0.026334258 0.11991338 0.0884672

network_body._body_endoder.seq_layers.2.bias f4 [128]
000000 9b c1 c2 3d 5c be e3 3d 3f e1 0d 3e dc f7 a5 3d
       0.095095836 0.111202925 0.13855456 0.08103916
000010 1e 15 ba 3d 06 84 59 3d 6b c9 d5 3d 1a ee 64 3d
       0.09086059 0.053104423 0.10438808 0.055891134
000020 8b fb bb bc 5b 9f 79 3d 0a 04 ce 3d b2 cd 71 3d
       -0.022947093 0.06094299 0.10059364 0.059034057
000030 27 56 cb 3d f1 90 6e 3d 74 c5 bf 3c d4 24 1e 3d
       0.09928542 0.058243696 0.023409583 0.03860934
000040 c9 9f ef 3d 9c 5a 13 3e 8e cf ce 3d a4 26 15 3d
       0.117003985 0.14390033 0.10098182 0.036413804
000050 81 51 b3 3d ae 61 6a bd 83 b1 ca 3d dc fc cc 3d
       0.0875578 -0.05722206 0.09897139 0.100091666
000060 f5 fd 9f 3d a9 1d ed 3d 8b a8 a1 3d c8 9e b4 3d
       0.0781211 0.11577923 0.07893475 0.088193476
000070 ed a9 96 bd cf 3c 9a 3d 82 b1 86 3d 1f ec e2 3d
       -0.073566295 0.075311296 0.06576826 0.11080193
000080 ba f0 89 3c 06 72 2e 3d 5d 89 d6 3d 56 c0 db 3d
       0.01683842 0.04258921 0.10475419 0.107300445
000090 be 05 f9 3d 16 47 e8 3c 1b 16 74 3d b5 16 c4 3d
       0.12159298 0.028354209 0.059591394 0.095746435
0000a0 7d ff 9d 3d cf cb 1f 3d a8 ad c0 3d 73 b3 85 3d
       0.07714746 0.039012726 0.09408122 0.06528368
0000b0 af 61 da 3d e5 1d bc 3d 47 f0 e8 3d f5 c7 dd 3d
       0.10663163 0.091853894 0.11373954 0.108291544
0000c0 ac 71 a5 3d 36 bc cb 3d 9e 65 84 3d 25 bb b6 3c
       0.08078322 0.09948008 0.064646944 0.022306034
0000d0 1e 93 46 3d 8d ce 41 bd 3f 2c f0 bb 7f 5c ef 3d
       0.048480146 -0.047316123 -0.0073294933 0.11687564
0000e0 b3 d8 c6 3d 40 ab 85 3d 7c 79 6a 3d 81 8d 35 bd
       0.09709301 0.06526804 0.057244763 -0.0443244
0000f0 2b e6 3d 3d 94 17 b4 3d c3 a1 60 3d 33 46 66 3d
       0.046362083 0.0879356 0.054841768 0.05621929
000100 40 98 e2 3c cc 21 c4 3d 4f dc af 3d e1 a9 d8 3d
       0.02766049 0.09576759 0.085869424 0.10579277
000110 9b c4 84 3d 71 7e 53 3d bb a8 70 3d e8 63 a5 3d
       0.06482812 0.051634256 0.058754664 0.08075696
000120 49 f4 0a 3e 3e 56 cb 3d a6 7b 34 3d e7 ac 45 3d
       0.1356975 0.09928559 0.044063233 0.048260596
000130 3e 53 49 3d b4 89 43 3d be 9a fe 3d c1 85 12 3d
       0.04915165 0.047738746 0.124318585 0.03577209
000140 3a e6 32 3d fc 06 db 3c 90 2b a3 3d 3e 76 a6 3d
       0.043676592 0.026736729 0.07967293 0.08128022
000150 56 58 fd 39 b8 05 87 3d 55 11 db 3d 8a ae 7b 3d
       0.00048321736 0.06592888 0.10696665 0.06144575
000160 7a d2 e1 3d 4a d9 0c 3e 80 eb c0 3d a5 c5 8f 3d
       0.11026473 0.13754764 0.09419918 0.070201196
000170 ef 6a f0 3d fe 36 d7 3d e8 c2 00 bc e9 b5 25 3d
       0.11739146 0.10508536 -0.007858969 0.040456686
000180 ed 89 ab 3c 52 b5 78 3c 4a d7 d9 3b 1c ed 43 3d
       0.020939792 0.015179949 0.006647979 0.047833547
000190 bc 53 93 3d 99 11 60 3d 18 79 de 3d e3 ab 4b 3c
       0.071937054 0.054704282 0.108629405 0.012431118
0001a0 94 f3 e1 3d 5a bb 1f 3d d6 4a bc 3d 4d db ed 3d
       0.11032787 0.03899703 0.09193961 0.11614094
0001b0 46 72 82 3d ff f5 2c 3c 73 20 be 3d 6f 44 2c 3d
       0.06369452 0.010556697 0.09283533 0.04205745
0001c0 a9 be 19 3d 31 fd 74 3d 35 4c 59 3d 23 27 f7 3d
       0.037535343 0.059811775 0.053051192 0.120680116
0001d0 a0 23 e1 3d 7b ca da 3d 68 8a eb 3d 8e 74 31 3d
       0.10993123 0.10683151 0.11501008 0.043324046
0001e0 53 3b 61 3b 42 6d c9 3d e9 a3 66 3d b6 46 47 3d
       0.0034367635 0.098352924 0.05630866 0.04865142
0001f0 ff 8e d4 3d be a3 aa 3d 37 06 d8 3d f9 ad b7 3d
       0.10378837 0.083320126 0.105480604 0.089687295

action_model._discrete_distribution.branches.0.weight f4 [11, 128]
000000 9b d6 93 bd ab 89 79 bc d8 4f bc bd ca e9 0f bb
       -0.07218667 -0.0152305765 -0.091949165 -0.0021959417
000010 75 eb 72 bc c6 51 b4 bc 8a ad c7 3b 53 9c 1b bc
       -0.014826645 -0.022011649 0.0060936855 -0.00949772
000020 7a 13 9f 39 c3 b1 a5 bc ce 95 89 bc f5 70 18 3d
       0.00030341354 -0.020226365 -0.016795065 0.0372171
000030 11 48 03 bd 9a f7 16 bd a8 ea b3 3c 41 6b b9 bb
       -0.03205115 -0.036857225 0.021962479 -0.0056585376
000040 cc 9c 9b bd 57 85 5e bd df 34 25 bd 28 b0 a3 3c
       -0.07598266 -0.05432638 -0.040333625 0.019981459
000050 06 58 4f bd 0c 91 74 3c 06 fa de bb c9 5c e9 bc
       -0.050621055 0.01492716 -0.0068047075 -0.028486626
000060 d8 bf cf 3c 00 e9 50 bb 2f 15 d2 3b ea a6 d3 3c
       0.025360033 -0.003187716 0.0064112167 0.025836427
000070 7d c1 81 3b 48 27 c9 bc 19 d1 39 bc 30 6f 7f bd
       0.003959833 -0.024554864 -0.011341357 -0.062361896
000080 85 d8 45 3d cb d2 90 bc 4f cd de bc ec 48 fd bc
       0.048302192 -0.017678639 -0.027197508 -0.03091856
000090 e5 7b c0 3c 7f 78 04 3d 4d e9 75 bb d8 be 55 3c
       0.023496578 0.032341477 -0.0037523091 0.013045989
0000a0 f5 39 dd ba a5 bc 46 bc 3d c5 8d bc 08 0a c9 b8
       -0.0016878234 -0.012129937 -0.017305965 -9.586295e-05
0000b0 70 97 5a bd 78 d5 da 3c b4 1b 0d bd d3 6d 98 bd
       -0.05336708 0.026713118 -0.034450248 -0.07442822
0000c0 74 a8 bf bc 8d 93 cb 3a 5b f7 88 3c ff a0 25 bd
       -0.023395754 0.0015531644 0.01671951 -0.04043674
0000d0 f5 d9 34 3d ec 27 91 3c 05 b5 b3 3c 45 29 d9 bc
       0.044153173 0.017719232 0.021936903 -0.026508937
0000e0 37 c4 c8 bc 58 89 31 3d f8 2e d9 bb 40 2b c8 3c
       -0.024507625 0.04334387 -0.0066279136 0.024434686
0000f0 06 e2 87 bc b7 a4 02 3c ae 84 95 3c 86 1f 32 bd
       -0.016587269 0.007973841 0.018251743 -0.043487094
000100 c2 72 89 bc 5d 59 b1 bd 11 af 9d bb c6 51 84 bc
       -0.016778354 -0.08659623 -0.0048121293 -0.016152274
000110 b9 3d 62 bd c5 40 0b bb bd bd cd bc 4e a9 92 bc
       -0.055234645 -0.0021248322 -0.025114888 -0.017902996
000120 b2 ab 85 bd 96 bc 1f 3d db dc 16 3d 4a f1 51 3c
       -0.06526889 0.03899821 0.036831718 0.012813875
000130 de e7 9c 3c 49 d5 ef 3b c1 0b 97 bd 7e a0 bd b9
       0.019153532 0.0073191267 -0.07375289 -0.00036168465
000140 a4 c4 35 bb e4 a0 cd 3b e3 e7 f6 bc b8 e6 18 bd
       -0.0027735615 0.006275283 -0.03013987 -0.037329406
000150 ae b0 0b 3d 8c 97 fe bc f0 50 2e bd 7c 40 fe 3b
       0.03410404 -0.031078123 -0.042557657 0.007759152
000160 5e 04 4b bd 68 1a 99 bd 8e 43 5a bc a9 f8 c5 bc
       -0.04956471 -0.0747574 -0.01332177 -0.024166422
000170 aa c1 38 3c c5 14 8c bd 5b 20 5d bc a9 47 28 bd
       0.011276642 -0.06839899 -0.013496484 -0.041083965
000180 56 06 c5 bb 31 2a c8 3c 98 f3 3a 3d a7 40 31 bb
       -0.006012718 0.02443418 0.045642465 -0.0027046592
000190 05 35 3a bd 2a bf 56 3c 9b e9 f3 bc dd 88 c3 3b
       -0.04546072 0.0131071005 -0.029774478 0.005967243
0001a0 43 72 37 bd bd 1e 4b bd cd dc df 3c 52 13 03 bd
       -0.044786703 -0.04958986 0.027326966 -0.032000847
0001b0 dd 86 92 bc fc a6 6e 3b e6 92 da bc 34 85 15 bc
       -0.017886573 0.0036415448 -0.026681375 -0.009125996
0001c0 c4 26 23 3c bc 05 0c bd 59 86 b0 3c ca dc 14 bd
       0.009957973 -0.034185156 0.021548437 -0.036343373
0001d0 ca b7 bf bc b7 07 d9 bb d7 29 47 3c d1 9c 33 3d
       -0.023403067 -0.006623234 0.0121559715 0.043850724
0001e0 28 e9 d1 3c 04 1b 87 3c b7 d4 0e 3c ac 46 4d 3d
       0.025623873 0.016492374 0.008717707 0.050116226
0001f0 02 ff 6d bb 58 92 8e bd 21 04 10 bd fb 82 3c bd
       -0.0036315327 -0.069615066 -0.035160188 -0.04602335
000200 7b a9 7b bd f8 4f 3f bc d3 ff 80 bd 26 a9 cb 39
       -0.061440926 -0.011676781 -0.062987946 0.00038845203
000210 4f 21 ab bd c0 16 cc bc 34 66 be 3c 57 15 83 b6
       -0.083559625 -0.024913192 0.023242094 -3.9065885e-06
000220 66 4f c7 3c 88 7d 82 bc 02 47 b8 bc 61 96 49 3c
       0.024329852 -0.015928999 -0.022494797 0.0123039195
000230 b3 11 56 bd e4 d6 47 bd 94 f2 70 3b 4a 32 3f bc
       -0.052262973 -0.04878892 0.0036765682 -0.011669705
000240 a8 6a a7 bd 03 74 87 bd 53 0d d6 bc 7b e1 08 3d
       -0.0817464 -0.06613924 -0.0261294 0.03341816
000250 ef 4a 4b bd 49 07 d8 3c 36 e7 03 bc 3c 76 dd bc
       -0.04963201 0.026370661 -0.00805073 -0.027033918
000260 42 2a d7 3c cf ba 88 3c 2c 6e 1a 3b 0f 55 7f bb
       0.026265267 0.01669064 0.0023564203 -0.003896061
000270 db a1 02 3c 1c a0 26 bd c1 2f 87 bc b6 0f 90 bd
       0.00797316 -0.040680036 -0.016502263 -0.070342466
000280 d2 63 71 3d bb 0f c7 bc 5c cf 38 bd 03 a7 30 bd
       0.058933087 -0.024299493 -0.04511963 -0.043128025
000290 09 b3 d7 3c 88 80 f6 3c fa 6f e7 bc 08 f6 0f 3d
       0.026330488 0.030090585 -0.028251637 0.035146743
0002a0 4b ff dd 3c 38 0e ab bc 6b 81 66 bd 89 4b a3 3c
       0.027099272 -0.020880803 -0.056275766 0.019933479
0002b0 e1 3f 9b bd 68 59 0d 3d 19 be 86 bd 23 43 9f bd
       -0.07580543 0.034509093 -0.06579227 -0.07776477
0002c0 24 43 36 bd 94 d4 98 3b b2 72 dd 3b 60 1e e0 bc
       -0.044497624 0.004664013 0.0067580575 -0.027358234
0002d0 df f9 30 3d 26 49 01 3d 70 ea 7f 3d 48 bf 26 bd
       0.043207046 0.0315639 0.062479436 -0.040709764
0002e0 76 93 12 bd 6e 28 84 bc 86 a6 b7 3c dc 7b 09 3d
       -0.03578516 -0.01613256 0.022418272 0.033565387
0002f0 8e 5a 39 bc c2 51 65 3c 82 34 96 bb 6c b6 04 bd
       -0.011313094 0.013996543 -0.004583896 -0.032400534
000300 bc 9d 06 bd 63 65 1d bd 1e 2d 4e bc 23 4d e4 bc
       -0.03286527 -0.038426768 -0.012583999 -0.027868813
000310 09 51 82 bd c9 ea ff 3b ec 0c 66 bd 1c 16 c8 bc
       -0.063631125 0.007809971 -0.056164667 -0.024424605
000320 3a 5d 95 bd ee 7f 18 3c d2 f8 91 3c 29 d4 b8 bc
       -0.07293172 0.009307845 0.017818842 -0.022562103
000330 62 d6 0d 3c e7 51 bf bb 2a 0c 69 bd 2b 76 73 bc
       0.00865707 -0.005838621 -0.056896366 -0.014859716
000340 8e c2 c1 bc a5 61 ac bc 94 95 5b bb 31 e5 58 bd
       -0.023652341 -0.021042654 -0.0033505904 -0.05295295
000350 08 32 b6 3c 16 30 78 3c c1 74 4a bd 01 13 01 bc
       0.022240654 0.015148183 -0.04942775 -0.007878066
000360 9d 63 4f bd 7a b3 b8 bd 14 71 fb 3c 03 fb f7 ba
       -0.050632108 -0.090186074 0.030693568 -0.0018919412
000370 05 21 93 3b 5c f4 e3 bc c8 1f c8 bc 36 d3 6e bd
       0.00449002 -0.02782648 -0.024429217 -0.058306895
000380 c0 07 52 3b 54 24 c2 3c d4 07 74 3c bf 04 b5 3c
       0.0032048076 0.023698963 0.0148944445 0.02209699
000390 ed 97 5a bd ff cf 22 3d 55 b2 09 bd ff 06 01 bc
       -0.053367544 0.03974914 -0.033617336 -0.007875203
0003a0 6f 4f da bc 28 30 60 bd fe 5a 8e bb f3 e0 9a bb
       -0.026649205 -0.054733425 -0.004344343 -0.004726523
0003b0 d6 4c 85 bd 35 ab c5 3c ad d4 38 bd e6 c9 54 bc
       -0.06508796 0.02412949 -0.0451247 -0.012987589
0003c0 91 34 34 bc 45 0f ff bc 54 3c bb 3c ea 0a e5 bc
       -0.010998861 -0.03113521 0.022855915 -0.027959306
0003d0 cb ee 77 bc 80 c5 0d bd da 35 44 bb 95 e3 19 3d
       -0.015132616 -0.03461218 -0.0029939325 0.037570555
0003e0 58 0a 26 3d 42 b0 14 3d f9 a4 0a 3c 07 41 3c 3d
       0.04053721 0.036300905 0.008462184 0.045960452
0003f0 49 60 a9 bc c6 0c 86 bd fb 40 57 bd 67 ff 52 3c
       -0.020675795 -0.06545405 -0.052552205 0.0128782755

action_model._discrete_distribution.branches.0.bias f4 [11]
000000 94 a7 a1 bc df 58 b1 bc 84 44 af bc 85 37 9c bc
       -0.019733228 -0.021648822 -0.021394975 -0.019069443
000010 be 49 0f bc 1e f1 67 3d 8d b0 81 3d 18 c5 ac bc
       -0.008745609 0.05662643 0.063325025 -0.021090075
000020 b1 46 5f bc e4 67 f2 bc a2 c5 08 bd
       -0.013627694 -0.029590555 -0.033391602

action_model._discrete_distribution.branches.1.weight f4 [11, 128]
000000 49 0f 99 bd bc 8e 08 3c cd 36 9f bd 69 6a ec 3c
       -0.074736185 0.008334812 -0.07774124 0.028859334
000010 bd 81 29 3d 55 9e 31 3a 61 46 bc bd dc e4 b5 bc
       0.041383494 0.00067756075 -0.09193111 -0.022203855
000020 2a 85 f2 bb 6e 1b 8a bb 3f 76 fe bd ca e0 2d bc
       -0.0074011283 -0.0042146957 -0.124248974 -0.010612676
000030 20 63 a7 bd f3 9b a7 bc f0 e9 86 3d 1f b0 1a 3d
       -0.081732035 -0.020460105 0.06587589 0.03776562
000040 10 f8 33 bd a5 6e 65 bc 47 fa 5f bd 51 6e 52 bd
       -0.043937743 -0.0140034305 -0.054682042 -0.051374737
000050 94 d3 42 bd f4 68 0f 3c 73 8e 0c 3d e9 19 3a 3b
       -0.047565058 0.00875305 0.034315538 0.0028396791
000060 18 7d 2f 3c 62 18 52 bd ea 8c 16 3d a9 6d 67 bd
       0.010710977 -0.051292785 0.03675548 -0.056501064
000070 1d 8e b7 3b f2 36 13 bd 43 f7 64 bc 51 ac 53 bd
       0.005601658 -0.03594107 -0.013974967 -0.051678006
000080 13 1c fd bc b4 ae 1c 3d 47 ac 50 3d d2 bc 8d bc
       -0.030897176 0.038252547 0.050945546 -0.01730195
000090 43 a3 84 3c de 74 84 bd 4f a4 e5 bb d2 77 b0 bb
       0.01619113 -0.06467603 -0.0070081125 -0.0053853774
0000a0 ec a8 36 3d bf dc 28 bd 69 8f 79 bc 0b ab 74 bc
       0.04459469 -0.041226145 -0.015231946 -0.014933358
0000b0 b0 4a 58 3d 60 26 a3 bd 35 fe a6 3b de b1 24 bd
       0.052805603 -0.07966304 0.005096222 -0.04020869
0000c0 e4 e6 2f bd 94 ba 66 bb e3 e3 c2 bc 86 2e 20 bc
       -0.042944804 -0.0035206424 -0.023790305 -0.009776717
0000d0 da 1e 1d bd f3 d7 0d 3d a6 1f 33 bb 71 98 a7 bc
       -0.0383595 0.034629773 -0.0027332096 -0.020458432
0000e0 00 27 10 bd ca 30 05 3c b0 f0 3b bd 9e bb 31 3d
       -0.035193443 0.008129308 -0.045883834 0.043391816
0000f0 14 bb 34 3d 1a fa 4c 3c 54 c4 f9 bc 2b 60 f1 bc
       0.044123724 0.012510801 -0.030489124 -0.029464802
000100 f4 2b 37 bb 30 96 4f bd fd ad 5a bb 35 88 9c 3c
       -0.0027949782 -0.05068034 -0.0033367865 0.019107917
000110 41 21 e9 bc 00 3d be 3c 61 c1 eb 3c 36 97 64 bd
       -0.02845824 0.023222446 0.028778734 -0.05580827
000120 8a 8c 17 bd a0 c5 d0 3b 2a 97 23 bd 56 b1 73 3d
       -0.036999263 0.006371215 -0.039939083 0.059495293
000130 fd 60 86 bd 87 93 96 bd d7 a1 91 bd 74 bb c0 3c
       -0.06561468 -0.07352357 -0.071109466 0.023526885
000140 5b 35 8e 3d d2 83 1d ba e9 e3 8e bd fe f2 6d bd
       0.069437705 -0.00060087175 -0.06977064 -0.058093064
000150 d6 0f 03 3d b3 ac 23 bd d1 df bc bd 63 18 2b 3d
       0.031997524 -0.03995962 -0.09222377 0.041771304
000160 d8 5a 35 bd 2d aa 79 bd 8d d9 30 3c 90 4e 05 bd
       -0.04427609 -0.060953308 0.010794056 -0.032545626
000170 85 86 4f bc 4d b0 94 bd 26 5e dd bc 5f d3 9b 3b
       -0.012666349 -0.07260189 -0.027022433 0.004755422
000180 be e7 47 bc 14 9d 2e 3a 78 44 fe 3c d2 a3 c1 bc
       -0.012201248 0.00066609797 0.031038508 -0.023637686
000190 00 6d 87 bd b2 ca 02 3b 24 a4 7c bd 12 24 55 bd
       -0.06612587 0.0019957242 -0.061679974 -0.052036352
0001a0 15 40 c9 bd 29 71 8e 3d 39 ce 7d bd 51 5b d6 bd
       -0.09826676 0.06955177 -0.061964247 -0.10466636
0001b0 94 c4 69 bb 72 51 d2 3c be 65 c8 bc 78 9c f8 bc
       -0.0035670148 0.025673602 -0.024462577 -0.030348048
0001c0 fc e7 e1 3b 84 f6 1c bd 14 45 ae 3c 2a 7a bf bd
       0.00689411 -0.038321033 0.021273173 -0.09349473
0001d0 bb 36 8b bd 14 ef f6 bb 3d 11 78 3c f2 db 56 3d
       -0.067975484 -0.0075358246 0.015140829 0.05245585
0001e0 0c 50 ed bb 69 13 1f bb f3 9f 9b bd 09 96 91 bd
       -0.0072422083 -0.0024273044 -0.07598867 -0.07108695
0001f0 ed 80 90 bd 20 56 46 bd 7c 2f e4 bc ee 4d 98 bd
       -0.07055841 -0.04842198 -0.027854674 -0.07436739
000200 5d 5e 56 bd 5a 9a c2 3c 9d 4b 33 bd ad a6 31 3d
       -0.052336086 0.023755241 -0.043773282 0.043371845
000210 43 d0 0f 3d 86 a6 d5 3c 0e 5b a5 bd b1 49 60 3b
       0.035110723 0.026080381 -0.08074008 0.003422361
000220 95 b5 b8 3c 59 43 86 bc ef 8d a1 bd 83 65 70 bc
       0.022547523 -0.016389536 -0.078884 -0.01467264
000230 ec 77 f5 bc 6a 33 84 bc db 37 20 3d 13 cf 7c 3d
       -0.02996441 -0.016137797 0.039115768 0.06172092
000240 44 24 6a bc 60 b4 45 3a 1c 79 15 bd b9 12 24 bd
       -0.014290873 0.00075418316 -0.036492452 -0.040056918
000250 0a 8b 15 bd 57 a3 a1 3c 75 a1 06 3d 06 4e d5 3c
       -0.03650955 0.019731207 0.03286882 0.026038181
000260 98 55 16 3b 0e 99 85 bd 01 34 e2 3b 3b 3e c0 bd
       0.0022939201 -0.065233335 0.006903172 -0.093868695
000270 fc 74 14 bb df fb f0 bc 73 75 99 bc 63 7c 99 bc
       -0.0022652736 -0.029416976 -0.018732762 -0.01873607
000280 a8 7c 17 bd 82 3c 4c 3c 0a 82 42 3d 19 ec 80 bc
       -0.036984116 0.012465598 0.047487296 -0.01573758
000290 6c 71 1d 3d 75 d1 0c bd 23 a4 76 bc 17 75 ab bc
       0.038438246 -0.03437944 -0.015053782 -0.020929856
0002a0 da bf c7 3c 9e de ac bc 47 07 fd 3b bb 3a d4 bc
       0.024383474 -0.021102246 0.007721815 -0.025906911
0002b0 f9 8e 56 3d 68 fd b5 bd 9b 19 1b 3d 12 a2 05 bc
       0.052382443 -0.08886224 0.037866216 -0.008156316
0002c0 f2 42 f2 bc 42 a9 75 3b 2e 2f 02 bd e0 d5 0e 3c
       -0.029572938 0.0037484919 -0.031783275 0.008717984
0002d0 60 b9 f6 bc 2c 9c 84 3b 7b 47 bd bc 24 1f 3b bc
       -0.03011769 0.0040469375 -0.023105374 -0.011420999
0002e0 9b eb 7f ba d9 b1 00 bc 91 6b df bc 93 9c 3e 3d
       -0.0009762586 -0.007854902 -0.027272971 0.04653604
0002f0 e9 85 48 3d 0e f4 fa bb 17 41 20 bd 8a c1 12 bd
       0.04895583 -0.007658488 -0.039124575 -0.035829104
000300 d5 f8 97 3c ad 01 cf bc 0a f2 59 bc 9f 10 f1 3c
       0.01855127 -0.025269354 -0.0133023355 0.02942687
000310 c3 31 6f 3c 78 3d 84 3c 3c e8 25 3d f7 22 66 bd
       0.014599266 0.016142592 0.04050468 -0.05618569
000320 7e af 98 3c 50 5e af bc 7c c0 83 bd 1f 5a f3 3c
       0.018638369 -0.021407276 -0.06433198 0.029706059
000330 56 ba af bd 7c ec c1 bd 00 cf e5 bc c6 8d c7 3c
       -0.08580463 -0.09468934 -0.028052807 0.024359595
000340 8a 2b 99 3d c8 4d b0 3c 4f 5e 63 bd b1 1a ab bc
       0.074790075 0.021521464 -0.05550986 -0.02088675
000350 31 49 38 3d 90 69 fd bb 2f 70 0f bd 59 07 ed 3c
       0.044991676 -0.0077335313 -0.035019096 0.028934168
000360 b0 3b de 3a 76 d7 38 bd 37 49 ae bc 2b 18 d3 3b
       0.0016955044 -0.045127355 -0.021275146 0.00644209
000370 4f 75 80 bc f0 54 c2 bc 28 5c 8e bc 53 ad 62 bb
       -0.015680937 -0.023722142 -0.017377928 -0.0034588173
000380 75 e6 50 bc a7 8b 01 3d 20 6f 04 bc a9 d0 3b 3b
       -0.012750258 0.031627323 -0.008083135 0.0028658307
000390 2c 41 3e bd ac 21 65 bc bb 6d ff bc 56 46 f9 bc
       -0.04644887 -0.013985079 -0.031180253 -0.030429047
0003a0 73 ca a7 bd fc da b8 3d 88 1d 54 bd e2 8d aa bd
       -0.08192911 0.09026143 -0.051785976 -0.08327843
0003b0 73 89 de 3c 6d 46 e0 3c 23 d3 c0 bc c0 1f 16 bd
       0.02716515 0.027377332 -0.023538178 -0.036651373
0003c0 ce bb 35 bd 2b 81 29 bd ef b1 80 3c 6f 0b aa bd
       -0.044368558 -0.04138295 0.015709845 -0.08302962
0003d0 62 d6 3a bd 99 c9 6b 3b 65 1d 0a 3a 22 ad 04 3d
       -0.045614608 0.0035978316 0.00052686624 0.032391675
0003e0 ff b7 a7 3a f8 de b9 bc 04 42 6f bd 07 71 2c bd
       0.0012795924 -0.022689328 -0.058412567 -0.04209998
0003f0 37 54 81 bd 98 33 4d bd c0 ea 8c bc 8a 51 31 bd
       -0.06314891 -0.05009803 -0.017201781 -0.043290652

action_model._discrete_distribution.branches.1.bias f4 [11]
000000 d5 0f 9c bc 83 ab bc bc 7a 26 19 bd eb b6 23 bc
       -0.019050518 -0.023031002 -0.03739021 -0.0099923415
000010 38 33 ba bc 1b d4 25 3d 4c 68 9b 3d 53 eb 12 3b
       -0.022729501 0.040485483 0.075882524 0.0022418096
000020 ad c2 54 bc d7 9e 8d bb 02 c6 c6 bc
       -0.012985867 -0.0043219137 -0.02426434

exp_avg f4 [128, 20]
000000 00 d3 45 b5 c0 4c 33 b5 40 09 6a b5 00 d6 00 b6
       -7.3695264e-07 -6.679438e-07 -8.7185254e-07 -1.919805e-06
000010 e2 b3 e1 b7 a8 68 83 b6 65 64 fa b8 18 ea 8b b6
       -2.6905855e-05 -3.916288e-06 -0.00011939629 -4.169775e-06
000020 ca 96 31 b9 40 cd 5c b6 c4 fb b5 b9 e6 0e 1f b9
       -0.00016936209 -3.2902026e-06 -0.0003471059 -0.00015168972
000030 68 05 2c b9 6c 18 34 b9 01 12 75 b9 ad 9a 14 b8
       -0.00016405212 -0.00017175236 -0.00023371728 -3.5430003e-05
000040 19 4a 40 38 9c fd 53 b9 63 fc f8 b8 20 1a 71 b8
       4.5845376e-05 -0.00020217005 -0.00011872572 -5.748321e-05
000050 9a c8 11 b8 00 1c 04 b8 9a e7 34 b8 14 11 2a b8
       -3.475752e-05 -3.149733e-05 -4.313104e-05 -4.0547064e-05
000060 c7 79 20 b9 60 84 60 b8 3d bc 72 b9 46 78 88 b8
       -0.00015304155 -5.3529046e-05 -0.00023149043 -6.507388e-05
000070 0d 31 4b b9 12 05 ed b8 aa 3a 00 ba 1c fa 7a b9
       -0.00019377861 -0.00011301985 -0.0004891554 -0.00023935031
000080 5a 3a ad b9 60 a3 39 b7 b3 bd 3c ba 70 d5 11 b9
       -0.00033040607 -1.1064898e-05 -0.0007199898 -0.00013907789
000090 97 a2 a7 ba 06 f2 ad ba 4b a8 06 3a 11 30 08 3a
       -0.0012789544 -0.0013270981 0.0005136772 0.0005195151
0000a0 73 37 02 b8 62 00 ec b7 da d2 23 b8 5e 83 24 b8
       -3.1046056e-05 -2.813357e-05 -3.90586e-05 -3.9222992e-05
0000b0 24 7b 29 b8 74 59 c3 b7 76 fd be 38 6e 17 12 b8
       -4.0407424e-05 -2.3287466e-05 9.107117e-05 -3.4830933e-05
0000c0 36 9b ad 38 58 ad b5 b8 64 6b 3c 39 e4 e6 43 b8
       8.278193e-05 -8.66304e-05 0.00017969083 -4.6706657e-05
0000d0 ce 06 c1 38 f6 79 90 b8 90 f4 83 b9 80 6f be b9
       9.2042246e-05 -6.889172e-05 -0.0002516848 -0.00036322698
0000e0 44 33 a3 ba 64 ad 79 ba 1c a7 0a 39 3f dc 5f 3a
       -0.0012451191 -0.00095244334 0.00013222959 0.0008539594
0000f0 38 de 8a 39 4c af 7b 39 c3 e6 ab 39 d6 dc a3 39
       0.00026486977 0.00024002529 0.00032787592 0.00031254318
000100 6e 6f e4 39 5c 2c bc 39 8a 50 03 3a 90 b7 e5 39
       0.0004357057 0.00035891205 0.00050092547 0.00043815048
000110 c1 d9 01 3a b2 89 0d 3a 86 72 19 3a 46 c2 2d 3a
       0.00049534073 0.00053992413 0.0005853552 0.0006628375
000120 a2 08 43 3a 51 07 bb 39 2e 0b 6a 3a c3 eb 31 3a
       0.0007439946 0.0003567287 0.00089280575 0.00067871454
000130 24 c3 b9 3a a3 ee c3 3a 9a de cd ba 81 73 02 ba
       0.0014172536 0.0014948439 -0.0015706599 -0.0004976318
000140 81 3d 13 b9 e1 6d 05 b9 bc 91 36 b9 fc c6 2d b9
       -0.00014041924 -0.00012724801 -0.00017411163 -0.00016572693
000150 00 a3 69 b9 b3 e4 70 b9 12 22 92 b9 e1 e4 94 b9
       -0.00022281334 -0.0002297338 -0.00027872674 -0.00028399288
000160 a5 19 aa b9 a2 55 ae b9 b8 30 a1 39 bd 4b 3c b9
       -0.00032444033 -0.00033251668 0.0003074461 -0.00017957292
000170 01 ee f8 38 98 19 fe b8 18 2f 84 39 26 aa d6 b9
       0.00011869893 -0.00012116431 0.0002521209 -0.0004094403
000180 14 97 28 39 a0 d0 d8 b9 ad ce 28 ba c3 16 fb 39
       0.0001607801 -0.00041354168 -0.00064394885 0.0004789141
000190 09 87 02 3a 76 91 ec 39 60 93 21 3a eb c8 1a 3a
       0.0004979228 0.00045121805 0.0006163623 0.0005904573
0001a0 e6 3f 4f 3a 90 75 30 3a 57 8b 76 3a e6 64 57 3a
       0.0007905945 0.00067313854 0.00094049185 0.0008216634
0001b0 3c 50 91 3a b6 1e 84 3a 66 69 2d 3a ec f6 9c 3a
       0.0011086534 0.0010079953 0.0006615132 0.0011975444
0001c0 ad af b6 3a 64 82 24 3a 49 f4 c1 3a 27 5c b8 3a
       0.0013937854 0.0006275533 0.0014797534 0.001406555
0001d0 ad 9a 34 3b 70 6b 2c 3b 7e 64 31 bb 24 36 88 ba
       0.0027558014 0.0026309155 -0.0027067955 -0.0010392112
0001e0 22 6c ab b7 d4 57 9b b7 b2 fd d4 b7 e8 f0 ca b7
       -2.0435142e-05 -1.8518338e-05 -2.5390505e-05 -2.4192457e-05
0001f0 90 e4 8c 36 41 cf 00 b8 72 20 75 38 d6 04 35 b8
       4.1989333e-06 -3.07106e-05 5.844277e-05 -4.3158267e-05
000200 12 ed 41 38 04 81 83 b8 9e 9c 2d 3a ce 21 3a b8
       4.6235575e-05 -6.270598e-05 0.0006622764 -4.437734e-05
000210 06 94 ea 39 d7 2a 9f 39 e4 93 19 3a 34 bb 44 39
       0.00044742244 0.0003035876 0.0005858524 0.00018761755
000220 2a 93 30 3a ba bd f7 b8 f1 89 0b ba 94 55 3b 39
       0.00067357963 -0.00011813217 -0.0005322984 0.0001786559
000230 5e 7c 9f b9 be 86 90 b9 21 6b c5 b9 64 f9 bb b9
       -0.00030419504 -0.0002756621 -0.00037654585 -0.0003585323
000240 4a 7f fa b9 64 c8 ee b9 b9 74 0d ba 50 a3 10 ba
       -0.00047778554 -0.000455442 -0.0005396116 -0.00055174995
000250 7d 51 25 ba de 4f 2d ba 6e 90 42 ba 61 52 2a ba
       -0.0006306393 -0.00066113274 -0.00074220344 -0.0006497261
000260 25 b7 3f ba ba ee 57 ba b9 48 8c ba ce b4 82 ba
       -0.00073133624 -0.0008237172 -0.0010702825 -0.0009972097
000270 9e 17 d4 ba 23 05 b6 ba b6 a2 56 3a 08 21 c7 3a
       -0.0016181355 -0.0013887029 0.0008187698 0.0015192339
000280 e8 e8 4e b6 80 81 3b b6 d0 87 7f b6 e0 bd 75 b6
       -3.0831961e-06 -2.794055e-06 -3.8077014e-06 -3.6618367e-06
000290 f8 53 cc b6 fc e8 8c b7 10 fe 10 b7 9c f5 5a b7
       -6.089449e-06 -1.6797792e-05 -8.642222e-06 -1.3050998e-05
0002a0 e2 a6 dd b7 a6 71 81 b7 8f bd e0 38 4e c7 23 39
       -2.6422964e-05 -1.543092e-05 0.000107164604 0.00015619138
0002b0 5a 3c 12 39 3a c4 a7 b8 78 5c 23 39 c6 bf 06 b9
       0.00013946128 -7.9997306e-05 0.00015579339 -0.00012850677
0002c0 66 fc 06 39 91 48 8e 39 f8 60 2d ba cc 4d d0 39
       0.00012873262 0.00027138417 -0.0006613876 0.00039730815
0002d0 12 c5 74 b9 83 cf 5d b9 3c 92 97 b9 12 49 90 b9
       -0.00023343068 -0.00021153507 -0.00028909917 -0.00027520262
0002e0 3a ff b7 b9 ff 62 b8 b9 b6 af 9f b9 87 c7 de b9
       -0.0003509464 -0.00035168973 -0.00030457758 -0.000424918
0002f0 ce f6 b2 b9 55 5b 03 ba d2 2c 90 b8 2a e3 ce b9
       -0.0003413469 -0.0005010863 -6.8748035e-05 -0.00039460632
000300 a1 eb 2e b9 77 36 f2 b9 7d 03 d7 b9 58 7a 3c ba
       -0.00016681712 -0.00046198416 -0.00041010595 -0.00071898615
000310 db 3b 9b ba 96 1c 92 ba 5e cb 8a 39 16 ac a4 3a
       -0.00118434 -0.0011147435 0.00026472931 0.0012563493
000320 c9 54 9a b9 dd da 8b b9 cf 31 bf b9 85 94 b7 b9
       -0.0002943634 -0.00026675212 -0.0003646747 -0.00035015136
000330 8c 14 85 b9 ed 5f c5 b9 ec 53 2b b9 6d 7d f2 b9
       -0.00025383045 -0.00037646238 -0.00016339094 -0.00046251286
000340 37 74 86 b9 69 cb 1e ba 22 ba 5c 3a 34 a3 1a ba
       -0.00025645058 -0.0006057532 0.000842007 -0.0005898953
000350 72 bf 78 39 fe 0e 85 39 1a 3f 97 39 ae 66 83 b9
       0.00023722442 0.00025378907 0.0002884798 -0.0002506277
000360 70 f6 1a 39 89 44 6f ba 46 fe 88 39 a3 f3 44 3a
       0.0001477839 -0.0009127339 0.0002612939 0.00075131113
000370 af 42 10 b9 94 ba 02 b9 63 f3 32 b9 b6 d2 2c b9
       -0.00013757752 -0.00012467272 -0.00017066071 -0.00016481694
000380 80 0d 5f b7 8c 2b 15 b9 3a 41 25 39 47 6e 3c b9
       -1.3294979e-05 -0.0001422597 0.00015759925 -0.00017970159
000390 53 f2 c0 38 fd 16 8c b9 e6 c8 37 3a 40 b0 62 b9
       9.20041e-05 -0.00026720008 0.0007010832 -0.00021618698
0003a0 ef 9f ec 39 2c 11 a0 39 b2 25 b2 39 92 92 e4 38
       0.00045132588 0.00030530372 0.0003397889 0.00010899188
0003b0 73 3a 6b 39 c6 91 92 b9 21 68 af b8 ae 9d 01 3a
       0.0002243312 -0.000279559 -8.364046e-05 0.00049444556
0003c0 af ff 2e b9 8b 95 1e b9 23 a5 58 b9 d4 68 4e b9
       -0.00016689183 -0.00015123763 -0.00020660883 -0.00019684742
0003d0 90 69 8d b9 b4 31 88 b9 fc 3d a9 b9 fe fe a3 b9
       -0.00026972266 -0.00025976973 -0.00032280374 -0.00031279767
0003e0 67 cf c5 b9 2c 25 bf b9 ff 8c e3 b8 a2 03 2e b9
       -0.00037729295 -0.00036458054 -0.00010850466 -0.00016595286
0003f0 fc d1 ea b8 5f 52 c7 b9 f3 fb 37 b9 c2 1b 13 ba
       -0.00011197102 -0.0003801761 -0.00017546098 -0.0005611741
