Assets/Test/Config/results/CheeseWorld2/CheeseWorld2/CheeseWorld2-200020.onnx (onnx, 224729 bytes, 15 tensors)

discrete_act_size_vector f4 [1, 2]
00000000: 0000 2041 0000 2041
10.0 10.0

network_body.observation_encoder.processors.0.normalizer.running_mean f4 [12]
00000000: 2f14 f63f df0c 0340 a69d 1240 1603 1c40
00000010: e70a 2c40 5d87 3740 db2b 4840 54a2 5440
00000020: 3055 6640 1453 7440 85cb 8340 3410 8b40
1.922491 2.0476606 2.290872 2.4376884 2.6881654 2.867637 3.1276767 3.3224077
3.5989494 3.8175707 4.1185937 4.345728

network_body._body_endoder.seq_layers.0.weight f4 [128, 12]
00000000: d3d2 32bf 3760 56be ee1b 5abe ea08 a5be
00000010: 25ee f7be 3a98 663f 5a68 2ebe 57de 36be
00000020: 6b55 babe e2ef 03be 8ccd c33d 034a 103d
00000030: c7b9 f03e 4269 5b3e f1f6 eb3e 42cc 13be
00000040: 34f0 cb3d b219 fb3d 3210 513e 5be3 813d
00000050: 304f 10bf 27ff 03bf 7902 60be 7759 3dbe
00000060: 4e16 cabd 5764 f8be 71b5 d3be d626 75be
00000070: 7a43 e83d 3920 21be 7c9a 3bbf 3e48 edbe
00000080: e742 923e 84bc 963e 9894 823e 31e7 373d
00000090: 574b 24be 67be ccbe 6dff 0ebf 84ea 353e
000000a0: 2a7c f0ba 3191 113f 4993 91be 71ec 0ebf
000000b0: a495 12bf 1bea fe3d 3f46 a23e 1185 153d
000000c0: 1ac5 93be a7d9 7e3e 7fca 6e3c d266 abbe
000000d0: b0e4 b33e ff1f c6bc 6a9e 633b 3106 15bd
000000e0: a6db f63c 2673 90bd d686 373d d780 073f
000000f0: 15be aebd 0b1d 25be 1d35 6e3d bf6b 8e3e
00000100: f960 1bbe 627d 653e 1a11 9ebd e756 85bd
00000110: 8fd5 7ebe a821 8dbe 543b 02bf a70c 913e
00000120: 7dcf 0ebf a008 52be 50c3 38be ad23 c03e
00000130: ff1e 063e a79e 243f 087b 503e c31e 3fbe
00000140: f79e e0bd f198 9abe 974c 9d3e 7dcb 43be
00000150: 8f41 fe3e f461 35be 1856 f83d ab08 19bf
00000160: 5e02 0a3e 1280 e13c ab48 62be 134c 6f3e
00000170: e6cc f6bd 61b0 01bf 33b4 2d3e 9d9c 163e
00000180: a539 16be 8bfd edbd 6212 95be 7508 2dbb
00000190: d7ac 663e a277 46bd fa98 7a3e ce66 683e
000001a0: 5431 9abe 779b 813e b777 063f ff09 58be
000001b0: b082 eb3e 750c bbbd ad7d 88be 6b7b 0a3f
000001c0: 8514 fe3d e5d4 8fbe 65a5 923e f955 29bd
000001d0: fe70 77be b05e 0abf 7cb0 58be ce94 d7be
000001e0: 89c9 ca3e 9986 143e bed6 ab3e 0698 26bf
000001f0: a584 1bbf f679 2e3d 8363 d6be 5831 8cbe
00000200: b487 1cbc ddd0 2cbe 410e 9abe 2a20 1b3d
00000210: 64f2 6d3e 8cad 553e ee21 e03c aca5 1d3f
00000220: 9da9 ef3c ce2d 0e3f b4b5 623c d535 b83d
00000230: 7896 e03e a759 78bd 5ea5 8e3e a72e adbe
00000240: 1aa8 20bf 1773 a9bc dc02 e6be d328 ca3e
00000250: 2078 753d c29f c93e 1001 be3c 439c aabe
00000260: 77ef 01be 30e6 92be 980a 033e 8eab c43e
00000270: 3954 06bb 1d40 b83e eb40 09bf 0e89 d7bc
00000280: bafc 223d 6105 55be dbe4 2cbe 6b77 d3be
00000290: 3c23 b7be 63ca 6c3e ef84 bb3e 0a2b 8e3e
000002a0: 3f55 b3be 6c0b b3be 2350 93be 8718 b83d
000002b0: bbc8 2d3e 917d 8fbe 0c9b 9dbe ee70 193f
000002c0: 986d 033d a902 8ebe 618f 33bd 9a7d f0be
000002d0: 4e21 aabe 56db 0bbe d4eb ccbe 80bc 983c
000002e0: 5428 f2be d44a 253e dbff 81be 95d9 203e
000002f0: 725a 103f 5900 05be 7c5a debe c302 89be
00000300: 7a7a 093f 75d9 9f3e b798 993e 378b eabd
00000310: 2269 53be b033 09bf 2e2c d3be 9991 b23e
00000320: 52f4 0b3f f236 f7be 1ecf a7be 5896 5b3e
00000330: e899 bc3d 34a7 7f3e 1f19 a4be c205 5ebd
00000340: 4172 c2bd 5ade a83e 5b90 d8bc adcc a73e
00000350: 4a8a 10be 9f9f 853d a315 0e3d 9706 08bf
00000360: c588 b4be 7adc bfbe 4470 29bb 5eb8 073f
00000370: 933e 773b d1b6 233d 8be1 50be 2ed8 8a3d
00000380: 12c5 4abe d6a4 0c3f a1c1 1b3e 233a 443e
00000390: 1971 3fbe feb8 1f3d 514d 0dbd 8aac 42be
000003a0: afcd 713d 8e53 91be 56d6 0a3e 53a8 26be
000003b0: 360b 1e3c a31c 0abe c4d6 503e cd9b 4cbe
000003c0: f3a4 e1be d0ac 62bd b5bd 05bd 6a41 203d
000003d0: 6b0a 21be b58d 5f3d f07e 3f3d cbf3 b83d
000003e0: 4ec9 dabd 4e34 a23d 47a4 b2bd d5ff 35bf
000003f0: d637 ebbd 3854 fcbe 9a3f 03bc fa1c aa3e
-0.6985294 -0.2093514 -0.21299717 -0.32233363 -0.48423877 0.9007603 -0.17031994 -0.17858253
-0.36393294 -0.12884477 0.09560689 0.035226833 0.47016737 0.21426871 0.4608684 -0.14433387
0.099579245 0.1226076 0.20416334 0.06342193 -0.5637083 -0.51561207 -0.21875943 -0.1849116
-0.098675355 -0.48514053 -0.41349366 -0.23940596 0.11340995 -0.15734948 -0.732826 -0.4634418
0.28566667 0.294407 0.25503993 0.044898216 -0.16044365 -0.39989015 -0.558585 0.17765242
-0.0018347551 0.5686217 -0.28432682 -0.5582953 -0.57259583 0.12446996 0.3169422 0.036503855
-0.28861314 0.24887715 0.014574646 -0.33476883 0.35135412 -0.024185179 0.0034731873 -0.036382858
0.030134033 -0.07053213 0.044806324 0.5293097 -0.08532349 -0.1612436 0.05815612 0.2781658
-0.15173711 0.22411111 -0.077181056 -0.06510716 -0.24886154 -0.2756474 -0.5087178 0.28329965
-0.5578535 -0.20511103 -0.18043256 0.37527218 0.13097762 0.64304584 0.20359433 -0.18664078
-0.1096782 -0.3019481 0.30722496 -0.19120593 0.49659392 -0.17713147 0.12125796 -0.5977885
0.13477466 0.027526889 -0.22098033 0.23368864 -0.120508 -0.5065976 0.16963272 0.1470818
-0.14670427 -0.11620625 -0.29115587 -0.0026402746 0.2252687 -0.048453934 0.24472418 0.22695467
-0.3011576 0.25313923 0.5252642 -0.21097563 0.45998144 -0.09133235 -0.26658383 0.5409457
0.124062575 -0.28092113 0.2864181 -0.041341756 -0.24164197 -0.5405073 -0.21161073 -0.42105716
0.39606884 0.1450447 0.33562273 -0.6507572 -0.60749274 0.04259678 -0.41872796 -0.27381396
-0.0095538385 -0.1687655 -0.30089 0.03787247 0.23236996 0.20866984 0.027359929 0.6158092
0.029255683 0.5553864 0.013837267 0.08994643 0.438648 -0.060632374 0.2786054 -0.33824655
-0.627565 -0.020684762 -0.44924057 0.3948427 0.059929013 0.39379698 0.023193866 -0.33322343
-0.12689005 -0.28691244 0.1279701 0.38412136 -0.0020496978 0.35986415 -0.5361468 -0.02631047
0.0397918 -0.20802833 -0.16884176 -0.41302046 -0.3576907 0.2312408 0.36624858 0.2776721
-0.35025975 -0.34969652 -0.28772077 0.08989053 0.16971104 -0.28025487 -0.30782354 0.5993794
0.03208694 -0.27736405 -0.04383791 -0.46970826 -0.33228534 -0.13657889 -0.40023673 0.018644571
-0.47296393 0.16141826 -0.25390515 0.15708001 0.5638801 -0.12988414 -0.4342841 -0.2675992
0.5370251 0.31220594 0.29999325 -0.114523344 -0.20645574 -0.53594494 -0.41244644 0.34876707
0.5466968 -0.48284107 -0.32775205 0.2144407 0.09209043 0.24966127 -0.32050416 -0.05420471
-0.094944485 0.3298214 -0.026436022 0.32773343 -0.14115253 0.06524586 0.034688603 -0.53135055
-0.35260597 -0.37472898 -0.002585427 0.53015697 0.0037726506 0.03996927 -0.20398538 0.06779514
-0.19801739 0.5493902 0.15210582 0.19162802 -0.18695487 0.03899478 -0.034497563 -0.19011131
0.059034046 -0.2838406 0.13558325 -0.16275148 0.009646228 -0.13487487 0.20394427 -0.19981308
-0.4407116 -0.055340588 -0.03265162 0.039124884 -0.1572663 0.0545785 0.046751916 0.09030875
-0.10682927 0.079201326 -0.0872274 -0.71093494 -0.11485259 -0.49283004 -0.008010769 0.33225232

network_body._body_endoder.seq_layers.0.bias f4 [128]
00000000: d8a5 563d 03de c5bc 4611 14bd 6ae9 843c
00000010: 8e09 ccbc ae86 6b3d 135c 5b3d 65f0 453d
00000020: f268 343c 896a 7e3d 0468 cebc 8bfa c9ba
00000030: 9295 d73c bf1c 973c e975 cabc 81bb 373c
00000040: 148b bb3c 7155 ec3c ab87 413c 121f 4b3d
00000050: d6a1 de3c 20b5 403d 3164 443d 28bb c43c
00000060: 9d8e 1f3d 6c5c b23c f33c c63b 735a 563d
00000070: 5d32 d53a 8a6d 943c c204 56bc 4aae 423d
00000080: 19c3 a73b 147e 343c e030 7abc 2f12 293c
00000090: 456b f93c adbf ce3b 373f 853c 1bc4 a43c
000000a0: 3827 353c 2289 5d3d 344e 893b c20c 7c3c
000000b0: a27d f8bb 669d ce3c 9b1b 033d fec6 b43b
000000c0: 1c16 63bc 5e80 dd3c 389a ee3c 8e5a 15bc
000000d0: ca33 f33c 4996 8b3c 8f0b a43c a93e 8dbc
000000e0: f55c 463d 7596 1a3d 598d 073d a447 1dbd
000000f0: 36d2 b4b9 5226 ec3c ccf0 4d3d b32a 863c
00000100: 43b3 123d 2f1c b73c 71d8 cf3b b44f ba3b
00000110: 7593 213c 6697 4f3c eefa a63a 1c71 94bb
00000120: e057 bc3b 1eab 163c 01a0 ce3c e458 133d
00000130: 6a4e 933c 335a 8b3c 789e 1e3d d936 693c
00000140: 8cc1 a73c 3abd 5b3d ca22 233c ae04 163d
00000150: 230c 173d ad30 153d b344 323c 8bf7 503d
00000160: d413 883c 82fe c63c a4bb 3b3d da78 293d
00000170: b222 033d 02e4 183c e1ff c13c e0ba 493c
00000180: 8ccd 563d 5dfb 893c 5691 76ba 35ae e63c
00000190: 2659 593b c0f6 2639 4b9c f23c c8d7 093d
000001a0: 7942 b9b9 5508 103d 08f5 343d 3c43 ebbb
000001b0: 7763 9b3c 7c8f 153d d906 203c 59ab c03c
000001c0: ec4f e83b ce7a 073c 6b7c 723b f75f 3e3d
000001d0: 7916 06bc 4f0b d3bb 6e7e 813b a042 afbc
000001e0: 17f5 843b 5320 8d3b cff0 ed3c 0b61 da39
000001f0: 8824 9a3c c443 193d ab98 b73c c24b c6bc
0.052404255 -0.024153715 -0.036149286 0.016224582 -0.0249069 0.057501487 0.053554606 0.04832496
0.011011349 0.06211332 -0.025196083 -0.0015409751 0.026316438 0.018446324 -0.024714427 0.011214138
0.022893466 0.028849335 0.011812131 0.049590178 0.027176779 0.047047734 0.047947112 0.024015024
0.038954366 0.021772586 0.006049746 0.052332353 0.001626562 0.018118639 -0.013062658 0.047529496
0.005119693 0.0110163875 -0.015270442 0.010319277 0.030446658 0.0063094706 0.016265495 0.020113042
0.011056714 0.05408586 0.0041902307 0.015383901 -0.007583336 0.025221538 0.03200875 0.005516886
-0.013860252 0.02703875 0.029126272 -0.009115828 0.02968778 0.017039435 0.020025043 -0.017241793
0.048428494 0.037741143 0.033093784 -0.0383984 -0.00034488895 0.028826866 0.05027847 0.016377782
0.03581549 0.022352306 0.0063429405 0.005685771 0.009861817 0.012670374 0.0012739578 -0.0045300853
0.00574778 0.009196071 0.02522278 0.035973445 0.017981727 0.017010784 0.038725346 0.014234268
0.020478033 0.053647257 0.009957025 0.036625557 0.03687681 0.036423374 0.010880637 0.051017325
0.016611017 0.02429128 0.045833245 0.04137502 0.03201551 0.009331705 0.023681583 0.012312621
0.05244212 0.016843492 -0.0009405812 0.02815924 0.003316471 0.00015922915 0.029615542 0.03365305
-0.00035335476 0.035164196 0.044178993 -0.007179646 0.018968327 0.03651379 0.009767258 0.023519205
0.0070896056 0.008269025 0.0037000428 0.046478238 -0.008184069 -0.006440557 0.003951839 -0.021394074
0.0040575373 0.004306832 0.02904549 0.00041652503 0.018816248 0.037418142 0.022411665 -0.024206046

network_body._body_endoder.seq_layers.2.weight f4 [128, 128]
00000000: 5261 053d 1078 51be b106 0cbe 05c1 2ebe
00000010: 7026 343d 54b2 bb3c 6896 383e ff53 00be
00000020: 886f ea3d b6b7 b13c 7c45 1fbe 1c46 47be
00000030: e79c 603d 74f9 69bd 135e c43c 2622 ad3d
00000040: adb1 e63d 2a98 d23d 72fa 103d 1fdd e3bd
00000050: 24c2 80bd f4f3 b2bd a4d4 e63d ae91 693e
00000060: 2bfd 903c 611e ab3c a237 d53d 3b13 353e
00000070: 0e76 6ebc a803 45bd 3d2f 0d3e 91f9 063e
00000080: 8682 59be f3d5 02bb f6c7 86bc 7c23 debd
00000090: c95c e3bd daad 383c 1487 eebc e9d0 d73c
000000a0: 6be1 883c f602 213d 33ef 063e 9528 183e
000000b0: eb4f 3a3d 10fc 79be 47c0 133d 1ef9 fb3c
000000c0: d7af 33bc 22ce 95bd 4a61 40be f6e6 6bbd
000000d0: bf1a 563d 16e9 873d 9f88 ae3d 81e6 9bbd
000000e0: 6a30 ef3b 3b44 80bb cef3 103e b2cf 80bc
000000f0: 277f 09be dc4d 343d b188 823c f546 5c3d
00000100: 4ed1 92bd 02ce e4bd 3797 abbd 8251 b7bc
00000110: 08c1 3a3e af44 9b3d a197 063d 4f29 12bd
00000120: 0c5b 383c aaa2 00be 958c d73d 7bbc f03b
00000130: 0d43 143d 150e 19be 8555 c0bd 1643 153d
00000140: 2607 2d3e bfb7 763d a417 0dbe 1636 6b3e
00000150: 0efb 55bd b258 123d 677c cf3c a02a 063e
00000160: f4ff d73c 0536 cfbc eaa5 0f3c 8a7c cabc
00000170: 8f74 223b 4a5e b23c 7ecf e83d ea8d f1b8
00000180: a3f9 663d be42 2d3d 4df6 553c 2eb5 a93c
00000190: db18 46bd b079 f23c 4d00 26bd 41d7 91be
000001a0: b46f cd3d 7752 cc3d 19e1 f53d 2369 89bd
000001b0: 390c d63d 24af 97bc a9b9 ca3d 46f4 593d
000001c0: d1b0 1e3e e484 9c3d e4c5 883d d5f2 f7bd
000001d0: ff91 29bc 61de f939 278b 4cbe b86e ccbd
000001e0: 42bb 333d 23a3 abbd ed3c 093d 3cae 8b3d
000001f0: 8ade 4bbd f388 1ebe 78db fabd de92 df3b
00000200: cb84 8bbd e8b1 6f3c e5c7 8c3c c2e4 5fbd
00000210: d768 5abd ca27 e93d 8b86 03be cac5 e73d
00000220: b71b 8dbd b34f 87bd 1b5f d8bd 4106 063d
00000230: 7203 15be 6838 a43c e1b7 8f3d 9f14 d8bc
00000240: 11b0 d8bb 030f 01bd 3824 8c3c b0ec 313e
00000250: 93db 283d 6918 933d 7781 453d d80f 083e
00000260: 0a92 ba3b 4ba2 51be ff8f 45be c711 253e
00000270: 54b8 23bd 1e9d 32bd 6cca 873e d909 bdbd
00000280: 9684 3a3e 5988 db3d a58f 9dbd 47b1 613c
00000290: 4a73 9f3d f751 1b3d 8639 48bd 0ba7 e3bd
000002a0: 74ad 13bd 6f48 45bd d57e 633d 6722 763d
000002b0: c9b2 28be 8873 903d 641e 9cbd abc2 b13c
000002c0: 91ab 703e 4bc4 ddbd a73f acbd c476 b7bc
000002d0: 73f6 0cbd 4848 a2bc eba3 5cbd 6d10 b03d
000002e0: d4b4 f03d c31f 12bd 3f74 1f3e a8f0 a3bd
000002f0: 2f53 cb3d 5699 1bbd 331a 07bd 59bc a13d
00000300: 6361 4abe bf04 293e d4a6 3b3c a887 25bd
00000310: 4302 5dbe 51a5 f2ba b554 2e3e 799d 243d
00000320: 8d69 f6bc 60d5 55bd 1450 8b3d 53a9 0ebc
00000330: 0c93 a03d de54 993d daad e83d f37e 8bbc
00000340: f99b 4d3d 82f3 953d c671 42bd 5768 503d
00000350: 86e7 11bd 8070 213d 79e8 2dbd b663 d8bd
00000360: 787a b83d 7d4d d03c 4262 98bd 9a13 7b3d
00000370: 764f 2e3e eac0 66bd d860 833d 0762 fa3c
00000380: 8b92 2cbe adfb 1a3c e86e 09bd 0533 e03b
00000390: 83de cebc 3bb8 abbc 7994 06bd 46c2 c33d
000003a0: 8ebd 4c3d c108 293d cb20 6fbd ed22 813d
000003b0: c607 77bc 2e89 b0bd 3401 343d 601c 3d36
000003c0: 524a c63d c2b2 de3d 5efc 3d3d 13f5 423d
000003d0: de19 bdbd 8dfe 55ba c688 bc3d 8c9f 533e
000003e0: 7568 c8bd 4259 a93c d8ca 69bb ca62 edbc
000003f0: df3a ff3c 23cb a43a 846e d33d 57d7 243e
0.032563515 -0.20455956 -0.13674428 -0.17065819 0.04398197 0.022912182 0.18026125 -0.12532042
0.11447054 0.021694046 -0.1555385 -0.19460338 0.054837134 -0.057122663 0.02397064 0.08453779
0.11264358 0.10282929 0.035395093 -0.1112616 -0.062870294 -0.087379366 0.11271027 0.22809479
0.017698845 0.02088851 0.10411002 0.17683117 -0.014554514 -0.04809919 0.13787551 0.1318114
-0.21241197 -0.001996395 -0.01645277 -0.10846612 -0.11101682 0.011271918 -0.029117145 0.026344733
0.01670905 0.039309464 0.13177185 0.14859231 0.045486372 -0.2441256 0.03607204 0.030758437
-0.010967216 -0.07314707 -0.18787113 -0.05759331 0.0522716 0.066362545 0.08522152 -0.076123245
0.0072994726 -0.0039143837 0.14155504 -0.015724037 -0.13427411 0.044019565 0.01593432 0.053778607
-0.07168828 -0.11172105 -0.08378451 -0.022377733 0.18237698 0.0758146 0.03285945 -0.035683926
0.011252176 -0.12562051 0.10524861 0.0073466874 0.036196757 -0.14946778 -0.093913116 0.03644093
0.16897258 0.060233828 -0.1377855 0.22969851 -0.052241378 0.035729118 0.025327874 0.13102198
0.026367165 -0.025294313 0.008767584 -0.024717588 0.0024788713 0.021773476 0.11367701 -0.00011518209
0.056390416 0.04229998 0.013059211 0.020716276 -0.048363548 0.02959904 -0.04052763 -0.28484538
0.10031071 0.099766664 0.120058246 -0.06709506 0.1045155 -0.01851613 0.09898693 0.053211473
0.15497138 0.076425344 0.0667837 -0.121068634 -0.01034975 0.00047658666 -0.19974957 -0.099820554
0.043879755 -0.08380725 0.03350537 0.06820342 -0.049772777 -0.1548193 -0.122488916 0.006822928
-0.068124376 0.0146298185 0.01718516 -0.05466152 -0.05332264 0.11384542 -0.12844293 0.11317022
-0.06890052 -0.06606998 -0.10565015 0.032720808 -0.14552096 0.020046428 0.07017494 -0.02637702
-0.0066127856 -0.031508457 0.017107114 0.17375445 0.041225027 0.0718239 0.04821917 0.13287294
0.0056936787 -0.20472066 -0.19293211 0.16120063 -0.03997071 -0.04360687 0.26521623 -0.09230394
0.1821464 0.107193656 -0.07693414 0.013775176 0.077856615 0.037919965 -0.048882984 -0.11115845
-0.03605409 -0.04816478 0.05554088 0.060091402 -0.16474451 0.07053286 -0.07622984 0.02169927
0.23502947 -0.108284555 -0.08410578 -0.022395499 -0.03441472 -0.019809857 -0.05386726 0.08596883
0.1175324 -0.03567482 0.15571688 -0.08004886 0.099279754 -0.03798803 -0.03298397 0.078972526
-0.19763713 0.16505717 0.011453349 -0.040412575 -0.21582894 -0.0018512403 0.170245 0.04018924
-0.030079627 -0.052205443 0.06802383 -0.008707362 0.07840547 0.0748689 0.113612846 -0.017028308
0.050197575 0.07321836 -0.047471784 0.050880756 -0.03562119 0.03941393 -0.04245803 -0.10565893
0.09007734 0.025427574 -0.07440616 0.06129799 0.170225 -0.05633632 0.06414956 0.030564321
-0.16852777 0.009459418 -0.033553034 0.0068420195 -0.025252586 -0.020961871 -0.03285644 0.09558539
0.04998546 0.041268114 -0.058380883 0.0630549 -0.015077537 -0.08619915 0.04394646 2.817971e-06
0.09682144 0.10873939 0.046383254 0.047597002 -0.092334494 -0.0008163236 0.09205775 0.20666331
-0.097855486 0.020672444 -0.0035673883 -0.02897777 0.031156002 0.0012572746 0.103238136 0.1609777

network_body._body_endoder.seq_layers.2.bias f4 [128]
00000000: f7f4 463d 8d77 a83c 5d54 06bc e846 b43b
00000010: f9ba d93b 6b2e 63bc 89c7 dc3c c1bd 6a3c
00000020: 334c 123b f396 4e3d 1ca4 213d fd2f 3d3d
00000030: d5a4 e4bb f857 133d eb8e 5abc 8510 1c3d
00000040: a0f5 7f3b 58f2 d73c 2245 d73b 51b9 283c
00000050: fc11 39b9 095c 23bc 7f8e 403d 0b36 e63c
00000060: e85c 83bc 69ee 0dbc cf02 263d 0809 d73c
00000070: d230 903c e278 28bc a422 543c 9cc6 363d
00000080: 3b33 f83c b0a0 643d b93f 3e3d e3be 603c
00000090: b21e c53c 8450 c53a 9470 f73a 7f7a 12ba
000000a0: a328 103a abc6 873c 6f8a 2e3d ffd1 d93b
000000b0: e3e5 143d 1afb 1f3d 0437 9b3b 595f 1a3d
000000c0: 2c41 5538 fcbc 413d dc5b 823c efca 543b
000000d0: a4d2 323d c041 20bb 0f2a 3fbb fa2f a03b
000000e0: 392f ea3c faf0 033d d1cc 0bbc fe11 2b3d
000000f0: 5d87 2d3d 25ef 393c c79d ecba 10a0 393d
00000100: 4d40 3d3d 5205 97bc 0afc e73b 9604 4a3d
00000110: 1be4 813b f376 6a3c b5cf f33b bdc2 503d
00000120: b435 853b 5431 123d f6e2 3cbc 9a3d d43a
00000130: aabd e93c fbdd 1c3d 0194 51b8 82f6 113d
00000140: 2ed4 8c3c bcf3 06bc 4548 803c 189e 113d
00000150: c995 b03c 524e 243c 9539 823b d26b 6a3d
00000160: c2af 683c 961c dc3c dd34 72bb a1a5 413b
00000170: 3926 70bb 6d7d 163c b816 19bb 99e4 cb3c
00000180: c0fa e83c 9ae0 493c a35f 2b3b bf90 17bb
00000190: d6ae dd3c 4bba 4b3c c9d7 163d 3e01 d33c
000001a0: 877b c6bb e96b ed3c 9b5c a03c f1d3 483d
000001b0: b788 fd3c efe1 4a3c fe14 103d ddf5 40bc
000001c0: 57bf 2abc d176 c238 0bf6 083c b776 bd3c
000001d0: 9eb0 543b 5d96 8f3c 48df be3b 5457 393c
000001e0: ab12 0f3d 9983 043d 9579 1e3d 94b3 acbb
000001f0: 8fa1 fdbb 51c1 653d 12de 6cbb 87a9 743d
0.04857346 0.020564819 -0.008198825 0.0055016167 0.0066446033 -0.013866047 0.026950615 0.014327467
0.002232325 0.050436925 0.039463148 0.046188343 -0.0069776573 0.035972565 -0.013339738 0.03810169
0.0039056316 0.026360676 0.0065695206 0.010298089 -0.00017649675 -0.009970673 0.047010895 0.028101942
-0.016035512 -0.008662798 0.040530022 0.026249424 0.017601404 -0.010282727 0.012947712 0.044623002
0.030297866 0.055817306 0.04644749 0.013717386 0.024062488 0.0015053903 0.0018878155 -0.00055877113
0.00054992194 0.016574224 0.04261249 0.006647348 0.03635205 0.03905783 0.004736783 0.037688587
5.0843853e-05 0.04729937 0.015912943 0.003246959 0.043657914 -0.0024453253 -0.0029169356 0.0048885318
0.02858697 0.032212235 -0.008532719 0.041765206 0.04236542 0.01134852 -0.0018052392 0.045318663
0.0462039 -0.018435154 0.007079606 0.04932078 0.00396396 0.014310586 0.007440532 0.050966967
0.00406524 0.035691574 -0.011528721 0.0016192675 0.028532822 0.038297635 -4.9967322e-05 0.03563548
0.017191019 -0.008236822 0.01565946 0.03555116 0.021555798 0.010028439 0.0039741495 0.05723173
0.01420206 0.0268691 -0.0036957779 0.0029548185 -0.0036643876 0.009185177 -0.0023359489 0.024889277
0.02843988 0.012321616 0.0026149533 -0.0023127047 0.027060907 0.012434552 0.036826883 0.025757428
-0.006057206 0.02898212 0.019575408 0.049030248 0.03094898 0.012382968 0.03517627 -0.011777368
-0.010421596 9.272772e-05 0.008359442 0.023127897 0.0032453905 0.017527753 0.005824957 0.011312325
0.034929913 0.032352064 0.03869017 -0.005270431 -0.0077402066 0.056092564 -0.0036143106 0.059731986

network_body._body_endoder.seq_layers.4.weight f4 [128, 128]
00000000: df2d 783a 77bc 273e b50f 883d cea5 9ebd
00000010: 5776 8b3d 0d64 ae3d b519 9e3d 1b0e 083d
00000020: 525c 393e f627 2e3d c9d4 29bb 3e8d e43d
00000030: a5dd 7abc 2208 a1bd e798 82bd cde1 87bd
00000040: 51d0 073d db72 c9bd 2255 903d 6c56 083d
00000050: c6b5 db3d baff ce3b f843 323d 8ef7 4d3b
00000060: 07ea c73d 4a00 243e 3b0e 55bd 5e68 89bb
00000070: c901 c33c 7899 88bd 0b5e 003c e9d2 65bc
00000080: daf1 cebd 7518 7ebd e7cc 61be aa9b 743e
00000090: 26d1 0e3e 02e2 8e3d f31e abbc 96c3 b23d
000000a0: d43a 61bd a5a1 e03d 769e 27be f658 583e
000000b0: 6a1c 64bd d465 503c c5f1 6dbd b28e 67bd
000000c0: f862 883d 62cf c8bd c685 193e 4947 be3d
000000d0: 353e 16be a993 343e b930 c03c 7784 413c
000000e0: a8ad 5abd f456 7fbd c579 af3d 7be7 0abd
000000f0: d888 ecbb f610 41bd 37e9 5d3e ff95 70bd
00000100: 944e 97bc 438e 293d c352 ad3c 1b9a 44be
00000110: 3516 1d3d acc8 85bd 1cef 81bc 14cd 993c
00000120: 371c 853d daec f2bd c07b 26bd 1cfc 933d
00000130: c60d 3abd a635 2bbe c69e 6d3e 88a8 98bd
00000140: f4cb 36bb e414 253d 0c51 853c 732e 43be
00000150: 67cf 173d d10a 98bd 9096 a3bd c7fd 21bc
00000160: a21b 0ebd 4a28 abbd 8593 ecbc ee25 18bc
00000170: 29c4 453e 7b65 8e3d 0ff8 d4bc 5f35 613d
00000180: 21bb 13be d461 29bd 6d15 0cbc bbe9 e53c
00000190: b99f eebd 15e4 013d 47e2 89bb 9dc4 af3d
000001a0: 4028 403b fcdb f73d 258f 893d ae7c 44bd
000001b0: 243e e3bd 3c4d c73c c558 a4bd ae62 433d
000001c0: e5a9 32be fc29 7a3d ba34 cfbc 87ac 2cbc
000001d0: f10d cf3d e7e0 153e e5bf e43d a4dc 33bc
000001e0: 6a0e 81bc 2452 b6bd 262d 6abd 8075 d53d
000001f0: e68b 11bd aec0 5b3c 0d71 f03c e3cf 833d
00000200: 0e8a f0bd cf59 68bd 7d2d 193e 024f 11be
00000210: c6cf 7e3d 0d56 e73d c515 693e 18e9 b9bd
00000220: 2719 89bc ba01 9dbd 2054 46bb f35e c8bd
00000230: c981 003e 55ee 14bd 57ae 48bd 7098 013e
00000240: 4d73 7d3d 92d3 95bd 4044 b7bc e03e 183b
00000250: 99b9 79bd 79f8 003d 6e8e 94bd 2bce 4bbd
00000260: c3ed 07be 871e d43d a927 97bb f029 8b3d
00000270: 1c53 db3d 134b 98bd 50ad ac3d a99d ba3d
00000280: c577 a7bd b753 30bc bb09 21bd c6b0 023e
00000290: 0d00 96bd d9bb 763d 64ef 863e d06b bd3d
000002a0: dbe8 073c 115d 77bd 0ec2 8b3d 2b27 793c
000002b0: f695 903d 7752 44bd a968 5c3e aa6f 963c
000002c0: 885f b7bc 23ce 0b3e 9308 c93d cd5d acbc
000002d0: e274 c8bd 7813 e93d 698e 0a3d 7594 5f3d
000002e0: 9948 3ebd d6c3 75bd 3cb9 4d3d c006 d83c
000002f0: 19a6 283c 8ea0 023e 0532 0ebd 9612 1ebe
00000300: c961 873d d6cb 1ebe 92f9 d23d a295 1cbd
00000310: 9fe4 b1bd 1a22 abbc 31ee 35bd 3e29 053d
00000320: db56 5c3d 4e52 68bc d60e 19bd 6d18 c23d
00000330: e58a f0bd 9e07 18be 6b15 96bc 8dd6 81bd
00000340: deb3 a0bc c09f eabd 4115 0b3e f2c4 bc3d
00000350: 11f1 013e 91e8 603d 2b93 dcbd 3c8c 673c
00000360: 29e2 7abd 063b a63d 8d93 b73d d92b 253c
00000370: bae9 bcbd 4373 843d 0f1f 30be 8ae4 df3d
00000380: f6d7 debb 730c 1fbd 0a2b 3f3e 58df 82bc
00000390: 45de 80bd 7ab0 5ebd cc2a ddbc eb9a 823c
000003a0: 6a40 25be 0ed7 f63d c4a7 1a3d d836 d03d
000003b0: 311a f8bd dd25 053e b2ce 74bd 992b 893d
000003c0: 101b 14bd b20c f63d e240 11be b037 c0bd
000003d0: 4551 80bd 6bb8 57be 262e 28bd 4195 6a3c
000003e0: d0e1 dbbc 28ec e63d 91b4 173c 2682 ba3d
000003f0: 7f29 5fbc 8708 34bd d9a3 a23c 58b5 3bbe
0.00094672845 0.16380487 0.06643621 -0.077464685 0.06809681 0.08515177 0.07719747 0.033216577
0.18101624 0.04251858 -0.0025914183 0.11159752 -0.015311633 -0.07862879 -0.0637682 -0.06634865
0.03315765 -0.0983636 0.07047488 0.033285543 0.1072803 0.006317106 0.04352185 0.0031428072
0.09761434 0.16015735 -0.052015524 -0.0041933497 0.023804562 -0.06669897 0.007834922 -0.014027336
-0.10104723 -0.062035043 -0.2205082 0.23887506 0.13946971 0.06976701 -0.020888781 0.08728711
-0.054987743 0.10968331 -0.16369042 0.21127686 -0.05569116 0.01271959 -0.058091898 -0.05653257
0.06659502 -0.0980518 0.14992437 0.0929094 -0.14672168 0.17634453 0.023460733 0.011811367
-0.053388268 -0.062338784 0.085681476 -0.033912163 -0.0072184615 -0.047135316 0.21670996 -0.058736797
-0.018470086 0.041395437 0.021157628 -0.19199412 0.038351256 -0.06532416 -0.015861087 0.018774547
0.06499522 -0.11861582 -0.04064536 0.072258204 -0.04542329 -0.16719684 0.23205099 -0.0745402
-0.0027892562 0.040303126 0.016273998 -0.19060688 0.03706303 -0.07423938 -0.07987702 -0.009887165
-0.03469432 -0.08357294 -0.028878937 -0.009286387 0.1931311 0.069529496 -0.02599719 0.05498254
-0.14426853 -0.04135306 -0.00855003 0.028065553 -0.116515584 0.031711657 -0.0042078826 0.08582423
0.0029320866 0.121025056 0.06716756 -0.047970466 -0.11095837 0.02432882 -0.08024744 0.04770153
-0.17447622 0.061075196 -0.025293697 -0.010539181 0.10110081 0.14636575 0.111694135 -0.010977898
-0.015753943 -0.08902386 -0.057171963 0.10422802 -0.03553381 0.013412638 0.029350782 0.064361356
-0.11745082 -0.056726273 0.14958759 -0.14190295 0.062209867 0.1129571 0.2276221 -0.09077662
-0.016735626 -0.07666345 -0.0030262545 -0.09783735 0.12549509 -0.036360104 -0.04899439 0.12655807
0.061877538 -0.073157445 -0.022371411 0.0023230836 -0.060968015 0.031486962 -0.07253729 -0.049757164
-0.13274293 0.10357385 -0.004612882 0.06795108 0.10709211 -0.07436194 0.08431494 0.091121025
-0.08177141 -0.010762147 -0.03931592 0.12762746 -0.073242284 0.06023774 0.26354516 0.09249079
0.008295263 -0.06039149 0.06824122 0.015207092 0.07059853 -0.047930207 0.215243 0.018363792
-0.02238442 0.13652854 0.098160885 -0.021040821 -0.097879186 0.113806665 0.03382722 0.05458494
-0.046455953 -0.060001217 0.05022548 0.026370406 0.010293507 0.12756559 -0.03471567 -0.15436777
0.06610448 -0.15507445 0.10301508 -0.03822864 -0.08686184 -0.020890284 -0.04441661 0.032510035
0.05379377 -0.014179779 -0.037367664 0.09477315 -0.11745242 -0.14846656 -0.01832076 -0.063397504
-0.019617017 -0.11456251 0.13582326 0.09217252 0.12689616 0.054909293 -0.107702576 0.014132556
-0.06125084 0.081167266 0.0896369 0.010081255 -0.09224267 0.06467297 -0.17199348 0.10932262
-0.006800647 -0.038830232 0.18668762 -0.01597564 -0.062923945 -0.05436752 -0.026997946 0.015943011
-0.16137853 0.12052737 0.03775765 0.101667106 -0.121143706 0.13002725 -0.059767433 0.06697769
-0.03615862 0.1201414 -0.14184907 -0.093856215 -0.06265501 -0.21066444 -0.041059636 0.0143178115
-0.026841074 0.11275512 0.009259359 0.09106855 -0.013620733 -0.043953445 0.01985352 -0.18330896

network_body._body_endoder.seq_layers.4.bias f4 [128]
00000000: 439a e0bb c38e 923b 778d 2dbc ba8e f03c
00000010: d7ff 3d3d 44d9 3a3d 83d5 9a3c 7e3d 0b3d
00000020: 8d90 393c 8e9a f43c ecac f23c 7d59 86bb
00000030: 8246 68ba a3c2 4ebc e4b0 213c d0ca f93c
00000040: ebfd 113c 56e5 e03c 63bd 2ebc 6923 383c
00000050: a719 ec3c 18e2 d53c 9c19 f83b 9ee1 27ba
00000060: 4f8a 7fbb 31c4 52bc 67ab 193d 1de4 9bbc
00000070: e297 03bc 0098 f33c 33a0 d53c 5ee9 91bb
00000080: b759 f5bc 7a71 cc3b 0004 0abc 4489 833a
00000090: c6c5 0b3d 374c 90bb c691 bb3c 36de 8b3c
000000a0: e6cc d93c 926f 90bc 9ad4 143b 710f 813c
000000b0: bcb8 123d d1a1 b83c b330 b1bc 3d03 fd3b
000000c0: d61e 743c 29ba bf3c 44d1 4bbc d830 483d
000000d0: 49cd 1339 8d9d 283d c59d da3a 6ccb 823c
000000e0: 4316 17bb 2a9b 213d 04b1 a53c 2449 a33c
000000f0: a494 40bc d27c cebb f33e b6bb b4ea c6bc
00000100: 2e72 c13c c8bd ae3b 4a42 a1bc e4ce 963c
00000110: 5eab a73c 1193 0d3d c510 3c3c e18b 80bc
00000120: fa5c 213d 7d4c 77bb 3a2e 133d e7e3 2e3c
00000130: d67a 2b3d d78c 803a d872 0d3c 708a 96bb
00000140: 9ace b7bc 40ca fe3c 5ce4 1ebd 71cb 043d
00000150: c5a7 84bb d1f0 03bc 32f2 b63c 1409 963c
00000160: b9bd c53c 791a 693b 728e 4cba ab48 8b3c
00000170: 2b55 ab3c 9114 433d de45 883c ddd2 113d
00000180: 7a55 39bb 0b04 4a3c ede0 193b 5996 b1bc
00000190: e5af 92bc 1caf ec3c bf2f 98bb 15ab ff3c
000001a0: dcfb 47bc f65e 7b3a ae93 493d 0d72 c3bb
000001b0: 3cad 473c c194 87bb d73d 043d 1ddc 0c3d
000001c0: 214a 3a3d 93b5 143d af6d 30bc 80b1 da3c
000001d0: f993 8dba 0c9c 7ebc f5f1 17bb 26b6 143d
000001e0: 36e7 94bc 284d fdbb 7fe2 4cbc 7b1d fb3c
000001f0: 9e70 033d deeb 123c 3eb4 92bc d415 21ba
-0.006854327 0.004472585 -0.01059281 0.029364932 0.046386566 0.045617357 0.018900638 0.03399419
0.0113259675 0.029858854 0.029623471 -0.0041000233 -0.0008860604 -0.012619647 0.009868834 0.030492216
0.008910636 0.027453106 -0.0106652705 0.011238911 0.028820826 0.026108786 0.0075714123 -0.0006404164
-0.003899235 -0.0128641585 0.037516978 -0.019029671 -0.008031817 0.029735565 0.026077366 -0.0044528684
-0.029950006 0.0062391134 -0.008423805 0.0010035415 0.03412416 -0.004403617 0.022896659 0.017073732
0.026586961 -0.017631326 0.0022709728 0.015754433 0.035820708 0.022538098 -0.021629667 0.0077213333
0.01489993 0.023404198 -0.0124400295 0.048874706 0.00014095487 0.041165877 0.0016679099 0.01596614
-0.002305404 0.039454617 0.02022601 0.019932337 -0.011754189 -0.006301501 -0.0055617034 -0.024281837
0.023614015 0.0053326823 -0.01968493 0.0184092 0.020467456 0.03456408 0.011478608 -0.0156917
0.03939531 -0.00377348 0.035932757 0.010674453 0.041865192 0.0009807599 0.008633338 -0.0045941398
-0.022437382 0.0311023 -0.038792 0.03242058 -0.00404832 -0.008053021 0.022332285 0.018314876
0.024138318 0.0035568757 -0.00078032084 0.017002424 0.020914635 0.047627036 0.016634878 0.035601486
-0.0028279708 0.0123300655 0.0023480013 -0.021678137 -0.017906139 0.028892092 -0.0046443637 0.031209508
-0.012206044 0.00095890404 0.049213104 -0.0059645236 0.012187298 -0.004137606 0.032285538 0.034389604
0.04548085 0.036305975 -0.010768338 0.026695967 -0.0010801546 -0.015540134 -0.002318499 0.036306523
-0.018176656 -0.007730145 -0.012505173 0.030653706 0.032089822 0.008967368 -0.017908212 -0.0006144915

network_body._body_endoder.seq_layers.6.weight f4 [128, 128]
00000000: 4bd5 07be 339a 203d 0942 afbc 2197 b3bd
00000010: d37b 8f3d d916 0c3e 06aa be3d 9be4 a6bd
00000020: c09a 393e 4a23 093d aea9 293d 110f 093e
00000030: d91f e63d a2c3 723d e7d5 193d aec8 b23d
00000040: 5c2c 9eba 8420 f6bd e487 923d 49c4 4d3d
00000050: d33a 8a3d b581 443e 717e 2ebd 0874 2f3e
00000060: d549 cabd c8be 0e3e 477e 60be b17c 00be
00000070: 78a1 6b3d 4380 b53d 1d58 0bbe 4e5c fc3d
00000080: 6082 fc3c b22e 303e 47ef 4ebe 9934 023e
00000090: 2899 60be 37d7 333b c7c2 283d c44b 843d
000000a0: bb81 273c 262b 223e 294d e6bd ddb1 25bd
000000b0: 2b00 e03d b450 273d 01e9 c4bd effe f2bd
000000c0: cdf6 62bd a432 0cbd 1f04 723e 8615 0c3c
000000d0: 865a cbbb 698d 4abd 722e bfbe 694e 553c
000000e0: c566 973d eb5b f7bd ddd3 7d3c acca ac3d
000000f0: 776a bbbc f71c 99bd 3fa8 a43d e9b9 e13b
00000100: fd0d 803b 7a66 7f3d ad86 3e3e 28cc 43bc
00000110: dd24 9b3d beab fcbb f429 cabd 8aed 2dbe
00000120: 5ae7 3c3d f902 1c3c 404d b8bd a54b ffbd
00000130: 53eb cabd 91b5 293c 42ae 233d f4a0 3cbd
00000140: 8014 3dbe c4bc f9bd d18c 5cbd c343 783a
00000150: b412 75bd 95f6 b03d c07a 893c 2d75 503d
00000160: bf1a 91bc 5e65 d93d e659 7c3c f836 2c3e
00000170: d1f6 1bbe fdd7 b4bc 11be 0fbe be71 813d
00000180: d74e c93d c073 1ebe cfa6 6ebd 64c1 1dbd
00000190: 78db 0cbe 45fd 70bd 1cb6 943c 6250 28be
000001a0: 8170 6cbd bf9d 9c3e bd8a 44be 0446 bc3d
000001b0: 486b 7ebd 1540 f7bb 823c b4bd 6919 14bd
000001c0: b4a6 6c3d 0030 73bd 4f4b 1dbe 062c 96bb
000001d0: c77b 5cbd c625 393d 7be4 923d c37f 6ebd
000001e0: 9be5 2ebe b21d 2bbb 0030 dc3d edf2 143e
000001f0: 5e9e b9bd 6f71 babd f6d9 883d 130e 87bd
00000200: 6d0c b13d 5798 87bd 7795 073d 0e40 43bd
00000210: 3f44 3b3e a8aa 7dbd f621 92bd 323e c43d
00000220: 864a 3b3e fdf4 b83d 3deb 2a3c 9a6f 18bd
00000230: 096b 37be fffd 413d b6c4 353d 66a6 3c3d
00000240: ad2b b9bd 5c03 823d dcf9 c43d c60a 97bd
00000250: 15a0 36bd 876c 9a3d 418e 9fbd 8367 a8bd
00000260: c325 ff3c a1a8 9c3d dcf3 1a3e ceb3 4ebd
00000270: 4c37 ee3d 8f95 32bd 53b8 d5bd 5158 443c
00000280: 6107 e3bd 8ce6 b3bd 844d 24bd 06e7 e53c
00000290: e69d 843d c666 65bd 217c 41bc 0931 8cbd
000002a0: afb1 63bd 7608 773e bb83 fbbc d19b c3bd
000002b0: 1b8c 28bc d865 d4bd c835 bfbb be47 3cbe
000002c0: 2c2e 673c 86d4 16bd 1796 65bd c992 a3bd
000002d0: eabe 853d b20b fb3d d1ac 973e 5cf3 fe3c
000002e0: d8e5 55bc 0c65 51bd 9c23 05bd a9c3 e3bd
000002f0: b86f 853d cc52 aabd e362 93bd 854a 98bd
00000300: 9acd 223e bf4f 79bd aa45 16bd 82a2 00bd
00000310: 36c5 393e c6c2 d83c d11b d53c f024 293c
00000320: 2a69 a23d b82b 48be 0a3d 823d 388b bbbc
00000330: a769 a33d 28ae 313d 1036 c3bd cad7 38bc
00000340: a6ad 21bc 4d5d 453d ad9d 07be a2cb 04bc
00000350: dd40 a9bd dddf a9bd 0325 893c 6571 21bd
00000360: 94ab 063e 33be a43c e09d aabd 2869 86bd
00000370: 0074 a1bd 7ed9 f63d 5bb7 783d 02c5 223d
00000380: d7ad ac3d 6776 b73c 2b02 68bd 71ec 303a
00000390: d195 223e 5d21 213e c421 32bd 9074 72bc
000003a0: d93a 30bd 7b33 0ebe e417 033e 62c2 ddbc
000003b0: bf01 42bb a0da 75bd 613e 75bc 5242 64bd
000003c0: 6737 86bd 32a2 a83d 3344 1ebe ae8c 0e3e
000003d0: 9faa d9bd 2573 54bc 45f7 143d 661f 873d
000003e0: 71ed 02be 9961 413d 8892 603c 7c3b b1bc
000003f0: 0b13 8fbd 4bbb ab3d b6ac ffbd aa55 56be
-0.13264959 0.039209556 -0.021393793 -0.0876906 0.070060395 0.1368059 0.09309773 -0.08149072
0.18125439 0.03348092 0.041421585 0.13384654 0.11236543 0.0592686 0.03755751 0.08729683
-0.0012067663 -0.120179206 0.07154825 0.05023602 0.06749501 0.19190104 -0.042601053 0.17134106
-0.098773636 0.13939965 -0.21923171 -0.12547566 0.057527035 0.088623546 -0.13607831 0.12322293
0.030823886 0.17205313 -0.20208465 0.12715377 -0.21933424 0.002744151 0.04120138 0.06459764
0.010223801 0.15836772 -0.11245186 -0.040452827 0.10937532 0.04084845 -0.096147545 -0.11865031
-0.05541115 -0.034227982 0.23634385 0.008550053 -0.0062058596 -0.049451265 -0.37340122 0.013019183
0.073926486 -0.12078079 0.015492407 0.08437094 -0.022877915 -0.07476228 0.08039903 0.0068886173
0.0039079175 0.06235359 0.18606062 -0.01195053 0.075753905 -0.007710903 -0.09871283 -0.16985145
0.04611907 0.009522193 -0.08999109 -0.124656 -0.09908166 0.01035823 0.039961107 -0.046051934
-0.18464851 -0.12194207 -0.05384523 0.00094705465 -0.05983229 0.08640782 0.016782165 0.050892998
-0.017712949 0.106150374 0.015402293 0.16817844 -0.15230872 -0.022075647 -0.14037348 0.06320523
0.09829491 -0.15473843 -0.05826455 -0.03851451 -0.13755596 -0.058835287 0.018153243 -0.16436914
-0.05772448 0.305891 -0.1919355 0.09193042 -0.06211403 -0.007545481 -0.088006034 -0.036157046
0.057776168 -0.05937195 -0.15360759 -0.0045828847 -0.05382898 0.04520204 0.071724854 -0.05822731
-0.17079775 -0.002611023 0.10751343 0.14545794 -0.09063409 -0.09103667 0.06682198 -0.06594481
0.08644948 -0.066208534 0.033101525 -0.04766851 0.18287753 -0.06193033 -0.07135384 0.09582175
0.18290147 0.09031103 0.010432062 -0.037215807 -0.17911924 0.04736137 0.04437705 0.046057127
-0.090415336 0.06348297 0.096179694 -0.07375102 -0.04458626 0.07540231 -0.07790805 -0.08222868
0.031145936 0.07649351 0.15132087 -0.050464444 0.11631641 -0.04359966 -0.10435548 0.011983947
-0.11085392 -0.08784208 -0.040112987 0.028064262 0.06475429 -0.056006216 -0.01180938 -0.0684529
-0.055589374 0.24124321 -0.030702462 -0.09551204 -0.01028731 -0.10370988 -0.0058352686 -0.18386742
0.014110129 -0.036823772 -0.05605134 -0.079869814 0.065305546 0.1225809 0.29624036 0.031121902
-0.013055287 -0.051121756 -0.032504663 -0.111213036 0.06515449 -0.083165735 -0.071965955 -0.074360885
0.15898743 -0.060867067 -0.03668753 -0.03140498 0.18141636 0.026460063 0.02601424 0.010323748
0.07930215 -0.19547927 0.063592985 -0.022893533 0.07979136 0.04337898 -0.09531796 -0.011281917
-0.009868061 0.04818468 -0.13243742 -0.0081051905 -0.08264325 -0.08294652 0.016741281 -0.039414782
0.1315139 0.020110225 -0.083308935 -0.06563026 -0.07883453 0.12053202 0.060721736 0.039738663
0.08431595 0.022395326 -0.056642693 0.00067490997 0.15877463 0.15735383 -0.043489233 -0.0147982985
-0.04302487 -0.13886826 0.12802082 -0.027070228 -0.0029603092 -0.06002295 -0.014968486 -0.05572731
-0.06553536 0.08234061 -0.15455703 0.13920853 -0.106282465 -0.012966906 0.036368627 0.06597786
-0.12785889 0.047212217 0.013706811 -0.02163481 -0.06986054 0.08385333 -0.12484114 -0.20931116

network_body._body_endoder.seq_layers.6.bias f4 [128]
00000000: 284d 1abc 3e2f b23c 0495 a7b9 ada8 83bc
00000010: 3a79 bb3c 468b 233c 9a42 bfbc 2907 f53a
00000020: 6a18 f93c a03d ba3b f717 333c 1201 4a3c
00000030: 33f4 61bc 2c0d 3a3d 3dc0 9dbc 4dfd 463b
00000040: a2ed 2fba d4e6 a0bc 4433 153d 73a9 893c
00000050: 8387 fe3c 23c2 abbc 30dc 6d3c 39b1 3b3c
00000060: 46bd d93c 2e3a ad3c 8242 1fbc affe d5bc
00000070: 6565 503c 4393 723c e109 163c 6436 2a3d
00000080: 484b 063d 11c8 503c 9f33 66bc 7c75 81bc
00000090: 63f1 893c fd75 6a36 493a 33bc bf8e 2f3c
000000a0: 1a7f e9ba 82ce 4b3c 7a52 7abc 159d 87bc
000000b0: 6e72 363c 5648 8dbb bbb1 2cbc 37cb f9bb
000000c0: bf18 553c e455 773c c51b 79bc d5ad 57bb
000000d0: 63db c23c 8304 d1bb 0d0f d43b 5aa4 603c
000000e0: 8737 1eba 917d dd3b 9851 d53c fcc0 b5bc
000000f0: 0eb6 dd3c df87 9f3c 7edd 7f3c 5ebc 2eba
00000100: 7cac 5e3c 13f4 9b3a 908a 363b 9325 193c
00000110: 9065 933b 7791 a6bc 604f 5ebc c772 9b3b
00000120: 7807 dc3b bd1f 81bc 9021 10bc f79a b33c
00000130: 5738 593c b3e3 fc3b ec77 8e3c bb62 1bbc
00000140: 2e7f 463d 1e7c 9dbc 615d 8d3c e0de 36bc
00000150: ebd9 38bb 1b65 b53c 9a52 633c 6f53 003c
00000160: 1b20 6ebb 7a9e 78bc f477 43bc ceb4 ab3c
00000170: 137b 163d f7ba f73b 9ed5 c2bb 085c d33a
00000180: b4ff 563c ddc8 fa3c a7fd 833c b9ae cc3c
00000190: a80f 553a 7e9e 0dbc 01f1 2d3c e301 153d
000001a0: fe7c 8d3a 9a33 d33c 4110 3f3c 8358 dfb7
000001b0: df1f 2e3c f566 1ebc 75a8 b03c 9b34 223c
000001c0: 02cf 1abd 0c8d b7bc 99c9 c1bc 88b9 143d
000001d0: 818d ee3b c33d 43bc 03e5 d43c ac56 af3c
000001e0: b953 c1bc f7c9 02bd cbca 9d3b 8d05 4ebc
000001f0: bace 993c 9fa0 483b 17c2 b3bc 41b0 ffbb
-0.00941781 0.021751042 -0.00031963747 -0.016071642 0.022884954 0.009981936 -0.023347188 0.001869415
0.03040715 0.005683616 0.010931007 0.012329357 -0.013791132 0.045422718 -0.019256705 0.0030363381
-0.000671113 -0.019641317 0.036425844 0.016804432 0.031070476 -0.020966595 0.014517829 0.011455827
0.02657951 0.021145906 -0.009720447 -0.02612242 0.012719487 0.014805618 0.009157629 0.041555777
0.032786638 0.012743012 -0.014050393 -0.015803091 0.016838735 3.4937395e-06 -0.010939189 0.010715186
-0.0017814368 0.012439372 -0.015278453 -0.016554395 0.011135681 -0.0043116016 -0.010540421 -0.007623102
0.013006388 0.0150961615 -0.015204375 -0.0032910008 0.023786252 -0.0063787117 0.0064715208 0.0137110595
-0.0006035496 0.0067593534 0.026039883 -0.022186749 0.02706435 0.019473968 0.015616773 -0.0006665642
0.013590928 0.0011898301 0.0027853586 0.009347337 0.004498191 -0.020333035 -0.013568729 0.004743907
0.0067147575 -0.015762204 -0.008797064 0.021924479 0.013258061 0.0077175735 0.017391168 -0.009483988
0.04846113 -0.019224223 0.01725644 -0.011161536 -0.002820606 0.022142937 0.013874674 0.007832392
-0.0036335054 -0.0151745025 -0.0119304545 0.020960238 0.036738466 0.0075601297 -0.0059458753 0.001612545
0.013122488 0.030613357 0.016112162 0.024985658 0.0008127638 -0.0086437445 0.010616542 0.036378752
0.0010794697 0.025781441 0.01166159 -2.6624888e-05 0.010627716 -0.009668102 0.021564702 0.009900237
-0.037795074 -0.022406124 -0.0236557 0.03630975 0.007280052 -0.011916581 0.025988108 0.021403633
-0.023599492 -0.03193089 0.0048154346 -0.012574566 0.018775333 0.0030613316 -0.021943135 -0.0078029935

action_model._discrete_distribution.branches.0.weight f4 [10, 128]
00000000: d01e c4bc be01 5e3c a789 6b3c ee4c d1bb
00000010: bfb1 f03b 9db8 293c 5246 09bd c954 1a3c
00000020: 5fcb 753c 61fb a83c 513f 23bc c6b1 91bc
00000030: 1d03 78bc d698 6f3c 0fc8 a8bc 3d4e 4bbc
00000040: 28a6 4dbd 1100 673c 94d7 7f3c da7e f5bc
00000050: 2145 a1bb 9449 33bd 9c49 bf3b a0d2 adbc
00000060: eed3 b0ba 610b 8bbc dc83 663c 37a1 8ab9
00000070: c751 c039 be81 8b3c 3438 48bb 6d1c 6f3c
00000080: d19d 3c3b a3e1 373c 777a 63bd df2c 18bd
00000090: 8bd1 fe3c 539e 02bc 59b1 0dbc 010f dabc
000000a0: 9bfe b8bb b8d1 8f3c 554d b2bc 8fa0 753c
000000b0: 9c51 053d 2847 b3bc 4c25 593b f77f 10bd
000000c0: f831 343c 5407 ae3c c92a 2abc 0415 fb39
000000d0: f264 fc3a b99f 04bd 7836 73bc de2e b83c
000000e0: 916e b039 ece7 85bc 62ad c83b d38d 22bc
000000f0: 02ce 6339 75dd 99bb 0ba0 85bb d71e c6bc
00000100: 7439 7d3b 525b bbbb 0c2c a03c 7e6e d73c
00000110: b17c 993c 1bb9 c6bc 459e 13bd 6f93 3a3c
00000120: 8ac8 a03b 071b 5ebb 0805 44bc 5603 9c3b
00000130: db86 27ba 81e4 ddbb adeb cfbc 5772 53bc
00000140: a723 a9bc ced5 e5bc 1491 80bb 6ae5 323b
00000150: d172 253b 2370 d23c dcbf 82bc 9e7a e2ba
00000160: 031d d1bb 07ed babc 18c4 203c a6d2 b2bb
00000170: 911c babb f1f4 38bc 697a 45bc 9de1 cfba
00000180: 1fce 0b3d a7ef c63c 0595 debc bf67 56bc
00000190: 74f3 a0bc bfce cd3a a10d 7ebc c306 9a3c
000001a0: fae9 a93c f64d ef3b 2a2b 063d 02dd 01bd
000001b0: 0321 29bd 196f 20bd fe02 9c3c 896f 403b
000001c0: fa3c 1abd dc48 a3bc 2492 80bc 9e4b bb3b
000001d0: aa48 fbbc 8c6e 323c a4d9 c13c 330c 65bc
000001e0: 7d7f 20bc 8316 8bbc a4d4 bb3c 8714 e3bc
000001f0: 3202 053d 67e4 ccbc c2bb d9bc 0a0c 73bc
00000200: 4462 d2bb c082 153d e9b0 3d3d 1b5c 433c
00000210: df3f 253d e76e dfbc 5521 b1bb b28b e6bc
00000220: 661a fcbc 0df8 dfbc cce6 9abc 2e14 beb9
00000230: 8d80 abbc 8cf7 ecbc e6c7 6d3b f1a6 b4bb
00000240: bfa4 d1bc c3c1 9bbc 6f7c a13c 9120 3dbc
00000250: e0f1 9bbb 845d a6bb 394e a33c 98ba 543c
00000260: c05f 71bc 5580 823c 6602 3bbc be52 c7bc
00000270: 5b39 2c3d 9fea afbc 0c4f 993c 9c23 443d
00000280: 7918 12bb 5009 fe3b 59b5 79bc 541d 93bc
00000290: 328a 6b3d 1020 db3c 2fae 25bc 37e2 253c
000002a0: a801 47bc c5b0 b93c ace4 253a bd3c dd3c
000002b0: af6e 793d fd5c 043b 1c56 933b 5aee cb3b
000002c0: 3bb5 dfbc 9d2c ce3c 8562 0dbb 8eed 80bc
000002d0: 9de1 bd3c cb46 f4bb 3175 033c f2d2 a6bc
000002e0: eae4 d8bc 3fd2 a13c cb10 cc3c dfa4 b2bc
000002f0: 374a 7fbc fef9 eb3b 1f20 8fbc 5098 8abc
00000300: c63d 963c 5820 e6bc b7ad 88bb b024 723d
00000310: 277d fa3b f4af 3c3c 2d0c ba3a 95b1 97bc
00000320: 0b24 4d3c 84ed d43a 307d dfbb f8ab 33bc
00000330: 2f81 efbb e336 52bc bda2 a43c 9ece b0bb
00000340: b6ab 33bd 7a98 a13a 0e2a 083a c7af d3bc
00000350: c973 35bc 74cb 7f3b 79cf a73c 6320 d6bb
00000360: 1ed3 29bb 6b6e 4fbc 1980 12bd aa11 9dbb
00000370: 8aa1 f4bb fc27 a83a 8f88 28bc d511 bf3c
00000380: 9939 833c e5fd 023d f54c dcba e30f a83b
00000390: 6717 60bc 02c3 55bc 5caf 94bb 6c30 b7ba
000003a0: ebec f23b dde8 c0bb c376 e2bb dc20 d13a
000003b0: 51bb a4bc 83f1 ff3a 1b14 4ebc 7256 ff3b
000003c0: 6526 3fbc 5460 c9bc c736 72bc d3ca 94bc
000003d0: 89b9 fe3b a0a8 0e3b 619c 893d 95be 24ba
000003e0: a7a8 7ebc 2017 3a3c 3bec 3cbc 6561 20bc
000003f0: 75bf 5c3d 0a33 c83c 8f84 a13c aa33 dfbc
-0.023940474 0.01355022 0.014376081 -0.0063873446 0.0073454077 0.010358957 -0.03351433 0.009419628
0.015002101 0.02062768 -0.009963826 -0.017784964 -0.015137461 0.014623841 -0.020603208 -0.01240879
-0.050207287 0.014099137 0.015615363 -0.029967714 -0.004921571 -0.04377134 0.0058376323 -0.021218598
-0.0013490894 -0.0169732 0.014069524 -0.00026441526 0.00036682023 0.01702964 -0.0030551078 0.01459418
0.002878059 0.01122323 -0.055536713 -0.037152167 0.031105777 -0.007972318 -0.00864824 -0.026618483
-0.0056455857 0.017556056 -0.02176539 0.014991893 0.032548532 -0.021884516 0.0033133803 -0.035278287
0.010998242 0.021243729 -0.010386177 0.00047890109 0.0019256158 -0.032378886 -0.014844529 0.022483286
0.00033651714 -0.01634594 0.0061241845 -0.009921509 0.00021725151 -0.004695589 -0.0040779165 -0.024184627
0.003863898 -0.0057176733 0.019552253 0.026297804 0.018736215 -0.024258187 -0.03603961 0.01138769
0.0049067186 -0.0033890621 -0.01196409 0.00476114 -0.00063906395 -0.0067716246 -0.025380934 -0.012905679
-0.020646883 -0.028056052 -0.0039235447 0.0027297386 0.0025245438 0.025688237 -0.015960626 -0.0017278974
-0.0063816323 -0.022818102 0.009812377 -0.00545724 -0.005679675 -0.011288867 -0.012053111 -0.0015860085
0.03413212 0.024284197 -0.027170667 -0.013086258 -0.019647337 0.0015701874 -0.015506179 0.018802052
0.020741452 0.007302995 0.03275601 -0.03170491 -0.041291248 -0.03916845 0.019044396 0.0029363355
-0.037655808 -0.019932203 -0.015694685 0.0057158014 -0.030674297 0.010890614 0.02366335 -0.013979959
-0.009796021 -0.016978508 0.022928543 -0.02771975 0.032472797 -0.025011254 -0.026578788 -0.014834413
-0.0064204056 0.036501646 0.046311293 0.011923815 0.040344115 -0.027274562 -0.005405585 -0.028142784
-0.030774307 -0.02733996 -0.01890888 -0.0003625466 -0.020935321 -0.028926633 0.0036282479 -0.005513065
-0.025591252 -0.019013291 0.019712655 -0.011543409 -0.0047590584 -0.005077066 0.01993476 0.012983941
-0.014732301 0.015930334 -0.011414146 -0.024331447 0.042046886 -0.02147418 0.01871445 0.047885522
-0.002229242 0.007752575 -0.015240991 -0.01795832 0.05750484 0.026748687 -0.010112329 0.010124735
-0.012146391 0.022667298 0.0006328325 0.027006501 0.06089657 0.0020197027 0.004496349 0.006223482
-0.027308097 0.025167758 -0.0021573615 -0.015738275 0.02317887 -0.0074547282 0.008023546 -0.020364258
-0.026476342 0.019753573 0.024910351 -0.021807132 -0.015581659 0.0072014323 -0.017471371 -0.016918331
0.018340003 -0.028091595 -0.004171099 0.05911702 0.007644314 0.01151656 0.0014194302 -0.018517295
0.0125208 0.0016245102 -0.0068203434 -0.0109662935 -0.007309101 -0.012830469 0.02009713 -0.0053957244
-0.04386493 0.0012328767 0.0005194255 -0.025840653 -0.011074969 0.003903118 0.020484673 -0.0065346225
-0.002591319 -0.012660603 -0.035766695 -0.0047933655 -0.007465546 0.0012829299 -0.010286464 0.023323933
0.016018676 0.031980414 -0.0016807603 0.005128847 -0.013677455 -0.013046982 -0.004537506 -0.0013976223
0.0074134967 -0.0058871345 -0.00691113 0.0015955227 -0.02010885 0.0019526932 -0.012578036 0.0077922875
-0.011666869 -0.024582066 -0.014783568 -0.01816312 0.0077735824 0.0021767989 0.0671928 -0.00062845025
-0.01554314 0.0113580525 -0.011530931 -0.009788846 0.053893525 0.0244384 0.01971653 -0.027246315

action_model._discrete_distribution.branches.0.bias f4 [10]
00000000: d940 c33c fa20 34bc a330 473b 57cc 053b
00000010: 8d15 70bb 696b e83b 1d48 5cbc b685 2abc
00000020: ce92 82bb e52a d13b
0.023834633 -0.01099419 0.003039398 0.0020415985 -0.003663394 0.0070928824 -0.0134449275 -0.010407856
-0.0039847856 0.0063832873
