Assets/Test/Config/results/CheeseWorld2/CheeseWorld2/CheeseWorld2-200007.pt (torch, 492010 bytes, 48 tensors)

discrete_act_size_vector f4 [1, 2]
000000 00 00 20 41 00 00 20 41
       10.0 10.0

network_body.observation_encoder.processors.0.normalizer.running_mean f4 [12]
000000 20 8d d5 3f 42 d8 ed 3f e8 14 04 40 d5 69 10 40
       1.6683693 1.8581622 2.063776 2.2564595
000010 04 3b 20 40 a8 97 2d 40 ae f7 3f 40 f6 df 4d 40
       2.503602 2.7123814 2.9994922 3.2167945
000020 77 34 63 40 15 7d 72 40 0e d5 84 40 94 cb 8c 40
       3.5500772 3.7888844 4.1510077 4.399851

network_body.observation_encoder.processors.0.normalizer.running_variance f4 [12]
000000 7c 12 9d 49 0f 4c aa 49 67 75 bc 49 32 34 c7 49
       1.2867355e+06 1.3950739e+06 1.5438529e+06 1.6318782e+06
000010 cd 75 d6 49 c1 67 e0 49 85 ce eb 49 9c d2 f1 49
       1.7568576e+06 1.8383281e+06 1.9317286e+06 1.9810115e+06
000020 3f 03 f9 49 af a1 fc 49 be f2 fc 49 4c 03 fb 49
       2.0399119e+06 2.0695579e+06 2.0721518e+06 2.0562975e+06

network_body.processors.0.normalizer.running_mean f4 [12]
000000 20 8d d5 3f 42 d8 ed 3f e8 14 04 40 d5 69 10 40
       1.6683693 1.8581622 2.063776 2.2564595
000010 04 3b 20 40 a8 97 2d 40 ae f7 3f 40 f6 df 4d 40
       2.503602 2.7123814 2.9994922 3.2167945
000020 77 34 63 40 15 7d 72 40 0e d5 84 40 94 cb 8c 40
       3.5500772 3.7888844 4.1510077 4.399851

network_body.processors.0.normalizer.running_variance f4 [12]
000000 7c 12 9d 49 0f 4c aa 49 67 75 bc 49 32 34 c7 49
       1.2867355e+06 1.3950739e+06 1.5438529e+06 1.6318782e+06
000010 cd 75 d6 49 c1 67 e0 49 85 ce eb 49 9c d2 f1 49
       1.7568576e+06 1.8383281e+06 1.9317286e+06 1.9810115e+06
000020 3f 03 f9 49 af a1 fc 49 be f2 fc 49 4c 03 fb 49
       2.0399119e+06 2.0695579e+06 2.0721518e+06 2.0562975e+06

network_body._body_endoder.seq_layers.0.weight f4 [128, 12]
000000 95 a0 bf be 8c 6c b7 be c7 0f 0a bf 79 13 92 be
       -0.37427202 -0.35825002 -0.53930324 -0.2853048
000010 7d 3d 88 bd a2 14 19 be d4 b4 61 be 1e 87 f5 be
       -0.06652353 -0.14949277 -0.22041637 -0.4795465
000020 1f ad e4 bd e8 84 41 3d 12 5c 15 3d f7 18 e3 3e
       -0.11165833 0.04724589 0.03646476 0.44354984
000030 4a 48 f0 3e 99 08 c8 be 6b 85 c5 3e 92 7d 7d be
       0.46930152 -0.3906906 0.38578352 -0.24754933
000040 36 b6 c3 3d d4 8a 2a 3e ad 76 1e bd f9 56 86 3e
       0.09556238 0.16654521 -0.038687397 0.2623823
000050 9e 82 6c 3e f6 bc 86 3e 05 2e bd 3d 95 05 2c bd
       0.23096702 0.2631604 0.09237293 -0.04199751
000060 2e 86 c6 3e e1 38 54 be 6c 57 25 be 08 03 7a 3a
       0.38774246 -0.20724823 -0.1614663 0.0009537195
000070 2a 2c 8b be d4 a1 87 be 2c 75 52 be c1 a5 a0 3b
       -0.27182132 -0.26490653 -0.2055251 0.004902572
000080 86 29 b7 bc 20 a0 11 3e 80 3b 27 be a4 c6 b5 bd
       -0.022358667 0.14221239 -0.16331291 -0.08875778
000090 17 a0 44 3e 81 71 cb be b3 de cb 3d eb 8a 02 be
       0.19201694 -0.39735034 0.09954586 -0.12748305
0000a0 44 27 8f bd a9 35 84 3c 5a 0b bd 3e 29 c7 14 be
       -0.06989911 0.016138868 0.36922723 -0.14529099
0000b0 4a 80 52 3e 01 65 07 be 9e ca 21 3f ef 5e ef 3e
       0.20556751 -0.13222124 0.63199794 0.46752116
0000c0 cb 90 f5 be f2 e7 81 3e d2 c4 fb be c3 94 69 3e
       -0.4796203 0.25372273 -0.491736 0.22810654
0000d0 40 68 6c be 6f 5a f8 3c 64 69 0e be a4 f8 46 3e
       -0.23086643 0.03031656 -0.13907391 0.19430786
0000e0 4e 8b 8b be 87 ce de 3b a8 4b 1f bf a6 80 94 3e
       -0.2725472 0.0067995223 -0.6222482 0.290044
0000f0 2f 62 53 be 70 80 be be 5e c1 f3 be 25 98 58 3e
       -0.20642923 -0.37207365 -0.47608465 0.21151789
000100 66 cb 98 be 1f 56 86 3d 1c c4 94 be ed 12 5d be
       -0.2984268 0.06559395 -0.2905587 -0.21589251
000110 7f 23 3f 3f cf eb e6 bd dd be 57 be c1 a1 15 3f
       0.7466354 -0.11275446 -0.21068902 0.5844994
000120 44 67 af bd 86 b1 27 bf 13 ee a7 be e4 a6 ac bd
       -0.08564618 -0.65505254 -0.32798824 -0.08430269
000130 8e 59 8d be d4 de 89 3e 98 d7 85 bc d2 ef 90 3e
       -0.27607387 0.26927817 -0.016338155 0.28307968
000140 fb a8 7e 3e e9 10 f2 3e 67 34 58 3d a9 50 77 3e
       0.24869148 0.47278526 0.05278435 0.24151863
000150 b3 8e d4 be 77 52 a7 be e4 8b 0e be 63 e2 90 be
       -0.4151512 -0.32680103 -0.13920552 -0.2829772
000160 6e 43 ee bd 74 be 7c be 94 af 08 3f 06 5b 73 3e
       -0.11633955 -0.24682027 0.5339291 0.23765191
000170 e6 2d bd 3e 83 1e 0b be 8e 44 0c 3f 68 89 a7 be
       0.3694908 -0.13585858 0.54792106 -0.3272202
000180 36 df 29 be 28 9e 35 3e 37 62 d0 3d 59 85 aa 3e
       -0.16589054 0.17736113 0.10174983 0.3330486
000190 4b 61 a1 be a1 92 04 3e 81 72 40 bf 36 df 92 3e
       -0.3151954 0.1294656 -0.7517472 0.2868592
0001a0 f4 b0 bc bd df 8e d5 3e 31 91 0b bf ef 10 d8 3e
       -0.09213439 0.41710564 -0.5451842 0.4220042
0001b0 c0 6c 4f 3e 39 e8 b1 be b6 e3 ac 3e bc ae 14 be
       0.20256329 -0.34747484 0.3376748 -0.14519781
0001c0 77 c9 b2 3e f4 74 a1 be ac 6f 50 3e 0f 3f 5c ba
       0.3491933 -0.3153454 0.203551 -0.00084017304
0001d0 ea 91 0e 3f a8 58 97 bd 8f b7 03 3e a6 c0 c8 be
       0.556914 -0.07389957 0.12862991 -0.3920948
0001e0 2a 0d fe 3d 87 fc 8b be ec 23 84 be 18 d0 1c 3e
       0.124048546 -0.273411 -0.25808656 0.15313756
0001f0 dc 3c 75 be 9c 48 ac be 82 e4 5f 3e 37 c2 f2 be
       -0.23948997 -0.33649147 0.21864513 -0.474138
000200 65 46 bb 3b a1 d6 b4 be a9 5c 00 bf a0 49 b5 3e
       0.005715179 -0.3532 -0.5014139 0.35407734
000210 9a 8f a6 be 53 1a df bc bb 52 2b be ec 06 c3 3e
       -0.32531434 -0.027234232 -0.16730778 0.38091218
000220 25 20 49 be 19 d8 9e be 15 49 e8 bd a7 2f 1c be
       -0.19641168 -0.31024244 -0.11342064 -0.15252553
000230 c0 72 8a be d0 a1 74 3e bc cc 8c 3e e4 f7 a3 3e
       -0.27040672 0.23889852 0.2749995 0.32025063
000240 13 ed 8f be 6c 73 2d 3e 5d af 46 3e a1 9f 5d be
       -0.2811056 0.16938561 0.19402833 -0.21642925
000250 41 9a ec 3e 71 44 36 3e bc f9 1b 3f 73 9e b1 3e
       0.46211436 0.17799546 0.6092794 0.346912
000260 a4 1c b2 bd e3 9a dd 3d fa 57 e1 3e 6c 51 4b bf
       -0.08696869 0.10820558 0.44012433 -0.79421115
000270 36 70 94 be 34 58 fc 3e 9e 9a b2 bd ca c2 32 3f
       -0.2899186 0.49286044 -0.08720897 0.69828475
000280 35 9a ac bd e2 58 8c 3e b0 b5 a5 3e 64 54 84 bd
       -0.0842785 0.27411562 0.3236518 -0.06461409
000290 d1 ff 23 be 35 9f 91 be 83 21 2f 3e 3f 02 db 3e
       -0.16015555 -0.28441778 0.17102627 0.4277515
0002a0 56 3b 8d 3e e8 cc ab 3e f0 44 f9 3b 32 c0 f4 bc
       0.27584332 0.3355477 0.007607095 -0.029876802
0002b0 5c 81 57 be 3d d6 6f 3e e2 1a 00 bf 4d 04 c3 be
       -0.2104544 0.23421569 -0.5004102 -0.3808922
0002c0 37 d8 93 be e6 5c f7 bd 6a 49 a5 bc 6b 0b 71 bd
       -0.28875896 -0.12078266 -0.020176608 -0.05884878
0002d0 7d 4a a2 be 98 8d cf be 87 03 e7 bd 93 a6 96 3d
       -0.31697455 -0.40537715 -0.1127997 0.0735599
0002e0 93 0e b8 3e 93 ee ac bd 97 04 02 3d df 15 63 3e
       0.3594862 -0.08443942 0.03174266 0.22176312
0002f0 63 1f b0 be bc 3d 9e be 7a 9a 69 be b3 82 80 3d
       -0.34398946 -0.30906475 -0.22812834 0.06274929
000300 41 10 90 bd eb f1 85 3d 17 53 0c 3d 39 38 8e bd
       -0.0703435 0.06540283 0.03425893 -0.06944317
000310 0c c6 ec 3e b3 46 f1 3e 66 d0 44 bc d4 a1 ec 3e
       0.46244848 0.47124252 -0.012012577 0.46217215
000320 66 da c2 be fd 99 7e bc 38 3e 74 be de d3 e1 bd
       -0.3805725 -0.015539643 -0.2385186 -0.110267386
000330 a4 7f 8d be 25 e6 7b bd 58 8d 0f be 74 cf e0 bd
       -0.27636445 -0.06149878 -0.14018762 -0.109770685
000340 b4 61 be bc da a7 1d 3f 1f 0b c3 be 91 5c 43 be
       -0.023239948 0.61584246 -0.38094422 -0.1907828
000350 cb a1 04 be 67 e6 13 be 1d 76 a1 be 3a 6e d0 bd
       -0.12952344 -0.1444336 -0.31535426 -0.10177274
000360 c7 05 84 bc 26 40 89 be 20 74 8e bd 57 f3 dc bd
       -0.016116036 -0.26806754 -0.06955743 -0.10788601
000370 b1 7b fb be a2 43 87 be 44 95 05 bf 09 6d 44 be
       -0.49117807 -0.26418787 -0.52180886 -0.19182219
000380 23 32 10 be 56 63 e0 bd 30 c9 bb 3e 7c 2b a5 bc
       -0.14081626 -0.10956447 0.3667693 -0.020162337
000390 f7 64 83 3e ef a5 1b be ac e9 8d be 82 59 93 be
       0.25662968 -0.15200017 -0.2771734 -0.28779227
0003a0 c7 9f d4 be d5 bf db be d4 17 34 bd b7 55 1c 3e
       -0.4152815 -0.42919794 -0.043968037 0.15267073
0003b0 9e f1 51 3e e1 b5 fb be 53 e1 8b 3e a4 07 7c 3c
       0.20502326 -0.491622 0.27320346 0.015382681
0003c0 af ba 93 be 1c cb 5d be 9c de f8 be ac 28 89 3e
       -0.28853366 -0.21659511 -0.48607337 0.26788843
0003d0 a4 bc 1e bf bd 39 dc be 80 2e fa be 13 20 e9 3d
       -0.6200659 -0.430128 -0.48863602 0.11383071
0003e0 3a 96 35 3d 9d 8a 61 be 08 fc cb be 56 97 d5 3d
       0.04433272 -0.22025533 -0.39840722 0.10429256
0003f0 af 65 4c 3e b3 26 fd 3d 3a 77 2a 3e 47 40 a7 be
       0.19960664 0.12360897 0.16647044 -0.32666227

network_body._body_endoder.seq_layers.0.bias f4 [128]
000000 b3 6a 48 bb ec 7b 70 3d 9a 5b 3b bb 42 fc a1 3d
       -0.0030581176 0.05871193 -0.0028588534 0.079094425
000010 2c 51 b9 3d bc 2d 36 3d d9 1b 88 3d fe be d1 3d
       0.090486854 0.04447721 0.066459365 0.10241507
000020 f2 cd e8 3d 33 4d 8d 3d b8 cb 06 3d b7 8e 91 3c
       0.11367406 0.0689949 0.032909125 0.017768247
000030 f6 7e c8 3d 96 03 8b 3d 47 b9 1a 3d 3b 23 fa ba
       0.09789841 0.06787793 0.03777435 -0.0019083986
000040 57 50 dd bb 05 7b ca 3d 15 2b 61 3d 27 24 62 3d
       -0.006753962 0.09886745 0.054972727 0.05521026
000050 12 5a 9f 3d 11 05 ec 3c cd 7b e3 3b ff cc 25 3d
       0.077808514 0.02881101 0.0069422484 0.040478703
000060 f5 e9 3d 3d e4 2e 9f 3d 9e bb 74 3d 85 08 11 3d
       0.046365697 0.077726156 0.05974924 0.035408515
000070 1d 72 01 3d 5b 1c 87 3d ad ce 69 3d 7c 96 b5 3d
       0.031602968 0.06597205 0.057081867 0.08866593
000080 49 87 dd 3c 72 dd e2 3c 7a 75 b9 3d d0 73 80 3d
       0.027042048 0.027693484 0.0905561 0.062720895
000090 c5 c0 7e 3d 5e 72 6c 3d e8 9c 7f 3d 07 97 b1 3d
       0.062195558 0.057726257 0.062405497 0.08671384
0000a0 26 36 d4 3d dd 8e 65 3d ad 92 78 3d ef 84 87 3d
       0.103618905 0.05604445 0.060686756 0.06617152
0000b0 52 96 43 3d 6d 7d e5 3c 13 c7 7c 3d cd 8f 58 3d
       0.04775078 0.02801391 0.06171329 0.052871514
0000c0 ac ee 97 3c 6c a3 29 3d 00 1a 00 3d 78 ee c3 3c
       0.018546425 0.041415617 0.031274796 0.023917422
0000d0 8e 31 18 3d 58 4c 87 3d 8b c4 e7 3c f3 61 11 3d
       0.037156634 0.06606358 0.028291961 0.035493802
0000e0 e8 72 61 3d 6a 50 e3 3d 3a 7b 1c 3c 8d ca b2 3d
       0.055041224 0.11099322 0.009550864 0.0873004
0000f0 ec 72 24 3d a5 78 4b 3d da c5 29 3d af f8 ce 3d
       0.04014866 0.049675602 0.04144845 0.101060264
000100 3c a5 bf 3d 03 4e a5 3d 3c 1e 89 3d 26 9a 2e 3d
       0.09357688 0.0807152 0.0669522 0.042627476
000110 59 75 46 3d c1 65 2c 3d 40 f5 28 3d f5 5a bc 3d
       0.048451755 0.042089228 0.041249514 0.09197036
000120 fb 3a 6c 3d eb 7d 32 3d b8 39 86 3d 01 cb 8c 3d
       0.057673436 0.043577116 0.06553978 0.068746574
000130 66 29 27 3d 4f 2b 4e 3d 90 8f 81 3d 6a 84 8d 3d
       0.040810965 0.05033427 0.063262105 0.069100216
000140 5d a7 98 3d 89 40 ba 3b ef 61 1e 3d bc cd e9 3c
       0.07453797 0.0056839627 0.038667616 0.028540485
000150 fc 67 c9 3d e0 e5 75 3d 1d 3e 24 3d c6 c6 49 3d
       0.098342866 0.06003368 0.0400983 0.04926183
000160 4a b4 c5 3d bb 84 6e 3d 8b 04 80 3d ee 8d 99 3d
       0.09653528 0.05823205 0.062508665 0.07497774
000170 ae 39 9a 3d 3b ce 24 3d 36 47 58 3d c1 81 80 3d
       0.07530533 0.04023574 0.052802287 0.062747486
000180 1b 34 19 3d c8 9b 57 3d 80 95 64 3d ba 77 8a 3d
       0.037403207 0.0526388 0.055806637 0.06761117
000190 f0 3e a9 3d 11 56 be 3d 5e 0b 76 3d bb 33 85 3d
       0.082639575 0.092937596 0.060069434 0.065040074
0001a0 ce 5c eb 3c 6f b1 6c 3d 0c 2d 60 3d d6 ef 58 3c
       0.028730776 0.0577864 0.05473046 0.013240775
0001b0 9d 74 1f 3d 85 f3 4b 3d 43 46 78 3d f7 bf 11 3d
       0.03892957 0.049792785 0.06061388 0.035583463
0001c0 3c 16 85 3d 4f 73 83 3d c5 86 a8 3c 28 a8 71 3c
       0.064983815 0.06418478 0.020572076 0.014749564
0001d0 a6 24 5b 3d de f6 90 3c ea 54 9e 3c d1 68 92 3c
       0.053501748 0.01769584 0.0193276 0.017872246
0001e0 c3 b0 92 3d 5a 0c 10 3d 58 72 a3 3d c9 37 93 3d
       0.07162621 0.03516803 0.07980794 0.071883745
0001f0 38 86 70 3d 1a f6 06 3d 85 a6 54 3d 79 2b 9e 3d
       0.05872175 0.032949544 0.051916618 0.077231355

network_body._body_endoder.seq_layers.2.weight f4 [128, 128]
000000 f4 2a 44 3d f9 d1 b7 bc 4d 3a a9 3d 28 46 85 3d
       0.047892526 -0.02243899 0.08263073 0.06507522
000010 9d 71 02 be 48 e2 5b 3e 76 a6 1a 3e f0 a7 12 3e
       -0.12738653 0.21473038 0.15102562 0.14321876
000020 08 e8 9c 3c 90 02 4e 3c 42 a4 fb bc 4c ce 42 be
       0.01915361 0.012573853 -0.030717973 -0.19024009
000030 38 23 10 3d 11 3b 1b bd da dc f5 bd e0 80 d5 bd
       0.035189837 -0.037898127 -0.12005015 -0.104249716
000040 fe 71 93 bd 11 f0 8d 3d 85 dc 9f 3c 9e 59 57 3e
       -0.07199477 0.06930555 0.019514332 0.2103028
000050 8e 1d 32 3e a4 6d db 3d 95 e4 27 bd e3 fd 40 bc
       0.17394087 0.10714272 -0.040989477 -0.011779281
000060 9f 25 31 3e 88 43 6a 3c cc 8a 4c 3e 6b 8e 89 bc
       0.17299508 0.014298327 0.19974822 -0.016791543
000070 e2 1e 01 3e 40 73 1b bd a3 80 0a bd 81 39 43 3d
       0.12609437 -0.037951708 -0.033814084 0.047662262
000080 4f ed af bc 69 d8 88 bd 37 6b f9 3c 0a df 52 3d
       -0.021475462 -0.06681902 0.030446632 0.051482238
000090 2c 93 2e 3c f4 41 e9 bd f6 c6 68 bd d1 51 58 bc
       0.010655206 -0.11389533 -0.05683037 -0.0132031
0000a0 ab 54 58 3c 34 5c 17 bd be 7b ab 3c 0a cf 05 3e
       0.01320378 -0.036953166 0.020933028 0.1306726
0000b0 68 4e c2 3c 2d e7 94 bd aa cd fa 3c 81 47 37 3d
       0.023719028 -0.07270656 0.030615646 0.044745926
0000c0 45 d2 a2 3d b2 87 f1 3d e9 f5 4d 3e 52 3a 84 3e
       0.07950262 0.1179346 0.20113339 0.25825745
0000d0 0d 58 9d bd 27 9d 06 3c 8c c8 59 bd fe 73 50 3d
       -0.0768281 0.008216179 -0.053169772 0.05089187
0000e0 69 dd ba 3b dc e5 10 be 32 82 56 3d d0 0f e3 3d
       0.0057026637 -0.14150184 0.052370258 0.11087
0000f0 72 28 c9 3d a0 b6 96 3d cb 53 f7 3c 9f 6b 8f bc
       0.098221675 0.07359052 0.030191323 -0.017507372
000100 25 19 21 3c d4 19 23 bd af a8 6c 3e 95 a3 18 3d
       0.009832655 -0.039819553 0.23111223 0.03726538
000110 4f d0 b0 3c c8 ec 86 3d da be 50 bd 7e bf 9e 3d
       0.021583704 0.06588131 -0.05096326 0.07751368
000120 1a 1a 52 3d 18 60 cf bd 78 94 54 3e cf e5 95 3d
       0.051294424 -0.1012575 0.20759761 0.07319223
000130 c7 46 bf bd 67 9d 93 3e ab 0e b2 bd 23 0e 83 3d
       -0.093396716 0.28831026 -0.08694204 0.06399181
000140 92 ac 86 bd 00 61 06 3e 36 4c b8 bd d9 ac d8 bc
       -0.06575884 0.1312294 -0.08998911 -0.026449608
000150 ce 19 8f bd 23 88 0d bd d0 9d fd 3d fe 2a 17 3e
       -0.06987344 -0.03455366 0.12383616 0.14762494
000160 c5 66 8d 3d 6d 6a 0c be 90 e3 69 3d 3b 2d cc 3c
       0.06904367 -0.13712473 0.057101786 0.024923911
000170 28 ca 31 bd 91 07 1d be 50 20 fa 3d b9 94 f1 bc
       -0.04340568 -0.15334918 0.12213194 -0.029489862
000180 59 be d2 bd f8 e1 20 3d 43 57 34 be 91 e7 aa 3c
       -0.10290212 0.039278 -0.17611413 0.020862373
000190 67 69 09 3d eb 6d ac 3d 25 cf a1 bd 2c 81 a8 3c
       0.033547785 0.08419403 -0.07900838 0.020569406
0001a0 7d df 41 bd 32 43 40 3e 9e f7 8e 3d 4e 2b f7 3b
       -0.047332276 0.18775633 0.06980823 0.007543004
0001b0 89 07 2c bd 78 99 70 3e ff 38 ce bd ee 41 2c bd
       -0.041999374 0.23496044 -0.10069465 -0.042055063
0001c0 4b fe 05 bd df b1 49 3d 1e 68 57 3e c3 97 f6 3c
       -0.032713216 0.049241897 0.21035811 0.030101663
0001d0 34 84 f9 3c 2d e3 da bd af 81 16 3e 43 64 3e 3c
       0.030458547 -0.106878616 0.14697908 0.011620584
0001e0 a1 ae 1c bd 1d 9d 85 3d 50 b5 17 3e 49 c5 da bc
       -0.038252477 0.065241076 0.14815259 -0.026705401
0001f0 77 84 95 bd a5 c4 ca 3d 20 0f 80 bd da 48 35 3d
       -0.07300656 0.09900788 -0.06252885 0.04425893
000200 82 f6 ab 3c 19 94 ff bc 09 bc 9d 3d de 05 86 3b
       0.020991568 -0.031198548 0.077018805 0.004090055
000210 c6 d1 1f 3d ec 20 81 3d d7 79 80 3d 04 37 99 3d
       0.039018415 0.063051075 0.06273239 0.074811965
000220 6b 79 cf bd d8 dc 27 be 08 33 86 3d 10 1d 6b 3c
       -0.101305805 -0.16392839 0.06552702 0.014350191
000230 19 8c c0 3d 88 cd 68 bd 2e 20 2a 3e 38 de 3b be
       0.094017215 -0.056836635 0.16613838 -0.18346488
000240 b5 10 ee 3d dd 48 1f be 5e e4 7c 3d d8 4e f4 bd
       0.1162428 -0.15555139 0.061741225 -0.11929101
000250 0a 1b 4e 3d de cd 6a bd 1e 85 69 3d 7b 5d ed 3d
       0.050318755 -0.057325236 0.057011716 0.115900956
000260 61 ba fd 3c 90 89 8f 3d 22 6a 95 bc 9b 1e ad bc
       0.030972661 0.0700866 -0.018239085 -0.021132758
000270 5e cf 26 be aa f5 a2 3d 21 bd 17 bd 35 f9 15 3e
       -0.16290042 0.07957013 -0.0370456 0.14645846
000280 de 6d 73 3d 75 fb b7 3c ac 62 14 be cd 14 72 3d
       0.05943095 0.022458771 -0.14490765 0.05910187
000290 2e e7 43 3e 18 f5 11 bd 66 89 07 3e 11 df 1d bd
       0.19131157 -0.03563413 0.13236007 -0.03854281
0002a0 68 87 6b be 15 1c 27 3e b8 c4 b0 3c 80 6f 9d 3d
       -0.23000872 0.16319306 0.021578178 0.076872826
0002b0 25 ca 46 be 81 8a ec 3c 92 0a 02 be 6c cb 18 3d
       -0.1941305 0.028874638 -0.12699345 0.037303373
0002c0 f4 1b bb bd 0e af 7d bd 59 60 70 bd 75 ad ad 3d
       -0.09136191 -0.061934523 -0.058685634 0.0848035
0002d0 55 01 f9 bc b6 33 9c 3d 44 8f d2 bd 95 9b 85 bd
       -0.030396143 0.076270506 -0.10281232 -0.065238155
0002e0 83 d4 3b 3d 62 f7 16 bd 76 ca 46 bd ed 26 64 be
       0.045856964 -0.036857016 -0.048532926 -0.22280474
0002f0 f9 c9 11 3d c0 d3 41 3d 63 eb 65 3d 26 71 a9 3c
       0.035593007 0.04732108 0.056132685 0.020683836
000300 da 90 7a 3d cf b8 40 be da 0e 01 bc 9c 3d 2d bc
       0.061173297 -0.18820499 -0.007877076 -0.010573771
000310 f6 b8 98 bd bc a3 d4 bc 08 09 58 3c b3 f5 93 bd
       -0.074571535 -0.02595698 0.013185747 -0.07224598
000320 c2 a4 1e 3d 6d 9b 23 bc 5b a6 42 3c 94 fe a5 bc
       0.038731344 -0.009985787 0.011880483 -0.020262994
000330 61 a9 27 bd 9f 2f 1c bd 50 dc 97 3b 0a ec d6 bc
       -0.040933017 -0.038131353 0.0046344176 -0.0262356
000340 bb 26 8e bc da 18 25 be f2 7b 40 3d cd e8 a3 3c
       -0.017352453 -0.16122761 0.046993203 0.020008469
000350 56 49 e4 3b a6 64 93 3d 19 d7 10 be 3d 1f 0a be
       0.00696675 0.071969315 -0.14144553 -0.13488479
000360 41 4b 1f be c0 2a 53 3c be 62 23 bd ee 75 74 3d
       -0.15556051 0.01288861 -0.03988909 0.05968278
000370 ce 5b 98 bc 96 c9 6d 3d 87 96 39 bd 08 84 bd 3d
       -0.018598463 0.058053575 -0.04530957 0.092536986
000380 a0 c2 9c 3d 0c 7a 32 bd 31 37 99 3c a7 f1 3b 3d
       0.07654309 -0.043573424 0.018703075 0.045884755
000390 6a 36 bf bd 9c b7 86 ba fc 03 4e 3e ee 37 0b 3e
       -0.093365505 -0.0010278109 0.20118707 0.13595554
0003a0 50 82 c9 bc 7b f1 45 bd 8d e9 1f bd b3 00 a2 bd
       -0.02459827 -0.048325997 -0.03904109 -0.079102896
0003b0 46 96 25 3e b7 76 b4 3d dd 6d ed 3d 3e 06 24 bd
       0.16170606 0.088117056 0.115932204 -0.040045016
0003c0 f8 f8 2d 3e bd a8 8e 3c ef bf 72 3d 55 ea 13 3d
       0.16989505 0.017414445 0.059265073 0.03611215
0003d0 1e 01 80 bd 47 5d ce 3d 75 ce ab 3d cb af 4a 3d
       -0.06250213 0.10076385 0.08388988 0.049484055
0003e0 18 63 3d be 04 e2 9e 3d 42 ac 9a 3d 28 59 44 3d
       -0.18494833 0.07757953 0.07552387 0.04793659
0003f0 44 c5 cb 3c c4 c1 0c 3d a3 06 cb 3d 65 b2 01 bd
       0.024874337 0.034364477 0.09913375 -0.03166427

network_body._body_endoder.seq_layers.2.bias f4 [128]
000000 d2 c0 e7 3c a8 b3 e9 ba 45 79 92 3c 58 01 03 3d
       0.028290186 -0.0017830031 0.017880091 0.031983703
000010 38 df 89 3d 9b 38 95 3c ba 5b ad 3c ab 3d 48 bc
       0.06732029 0.018215468 0.021161903 -0.012221734
000020 de 60 9e 3d 4a f3 6a 3d 69 bf bd 3c 4b fd 46 3d
       0.0773332 0.057360925 0.02316256 0.048581403
000030 e9 b4 a7 3d 3f 59 d5 3c 5c 43 97 3c 84 7e 86 3c
       0.08188803 0.026043532 0.018464737 0.01641775
000040 5f 67 3a 3c da f1 01 3c fa 8f 05 3d 22 6d de 3c
       0.011377185 0.007931197 0.03260801 0.027151648
000050 b4 67 c6 3d 18 ef 13 3d 81 d3 8c 3d ce 0b 81 3d
       0.096877486 0.03611669 0.06876279 0.0630108
000060 82 00 ba 3d b1 71 04 3d 0f 15 82 3d 21 00 6a 3d
       0.09082128 0.032334987 0.06351673 0.05712903
000070 87 71 17 3d 0b ef 26 3d cd 49 35 3d 49 3c 6a 3d
       0.036973502 0.040755313 0.044259835 0.0571864
000080 50 b4 6e 3d 8a 9e 08 3d 8c ea 04 3d 25 11 87 3c
       0.05827743 0.03335432 0.032450244 0.016487667
000090 d3 8b 3a 3d 03 c7 4c 3c e0 bd 24 3d a6 58 c6 3c
       0.045543503 0.01249862 0.04022014 0.024212193
0000a0 d0 14 5e 3d a9 58 9d 3d 18 7d 45 3d 1f 4e 1e 3d
       0.054219067 0.07682926 0.048215 0.03864872
0000b0 95 40 e6 3c ea a7 4e 3d 85 54 ef 3c 08 52 d9 3c
       0.028106967 0.050453104 0.029215107 0.026528373
0000c0 8d cf 70 3d eb 4c d2 3c 70 37 2f 3c aa de b7 3c
       0.058791686 0.025671443 0.01069437 0.022445042
0000d0 5f 76 d2 3c 8d 0e f5 3c 36 d4 09 3d 1a 09 94 3d
       0.02569121 0.029914165 0.033649646 0.072282985
0000e0 14 b6 81 3c f3 cf 98 3c b4 0d b8 3b dd 5d 2c 3d
       0.015833892 0.018653845 0.005616868 0.042081703
0000f0 47 d4 a2 3c 25 6a 02 3d d0 50 9d 3c 31 2f 8a 3d
       0.019876612 0.03183951 0.019203573 0.06747282
000100 20 39 2f 3c c2 73 be 3c de ea 21 bc 28 a6 ef 3c
       0.010694772 0.023248557 -0.009882657 0.029254034
000110 53 0f b4 3b b5 5c 1e 3d e2 2a 5d 3c 6d c1 cf 3a
       0.005494991 0.03866263 0.013498994 0.0015850492
000120 03 ac 1b 3d a4 7a 49 3d ab 5d 44 3d ab a3 94 3d
       0.03800584 0.049189225 0.04794089 0.0725778
000130 01 97 d5 3c b9 7b 2c 3c e7 00 aa 3c 84 68 e3 3c
       0.02607298 0.010527545 0.020752383 0.027759798
000140 19 dc 19 3d b8 1a 14 3d 34 c6 4d 3d a0 3a 57 3c
       0.037563417 0.036158293 0.05023785 0.013136536
000150 91 91 ca 3c 57 d7 ff 3c a8 14 0b 3d 89 e8 aa 3c
       0.024727615 0.031230612 0.033955246 0.020862835
000160 52 c9 e7 3c 55 10 fc 3c 24 32 7f 3d 5a dd ac 3d
       0.02829424 0.030769506 0.062303677 0.08440657
000170 90 41 cf 3c 41 f8 d7 3c 4c b1 eb 3c 90 ad da 3c
       0.025299817 0.026363494 0.028771065 0.02669409
000180 ee 88 16 3d 0d 47 b1 3b 98 98 ab 3c fb 7f c1 3c
       0.03675168 0.0054100812 0.020946786 0.023620596
000190 d5 bd 16 3d 01 66 82 3d 90 01 02 ba 57 32 10 3d
       0.03680213 0.06367112 -0.0004959339 0.035204258
0001a0 75 4e 88 3c fc 44 aa 3c 58 9c 37 3d 7c be 1c 3d
       0.016638974 0.020784847 0.044826835 0.038267598
0001b0 c0 ba d2 3d 39 b6 ec 3c 33 f0 71 3d 0f 36 1f 3d
       0.10289526 0.028895484 0.059066962 0.038869914
0001c0 53 91 16 3d ea a4 a8 3b f8 f3 5e 3b 1e b4 28 3d
       0.036759686 0.0051466124 0.0034019928 0.041187398
0001d0 78 73 33 3d e9 62 11 3c 03 2d e8 3c e7 4b 0d bb
       0.04381129 0.00887368 0.028341776 -0.0021560134
0001e0 7b 8b f3 3c b6 e0 c3 3c 5c eb a5 3d ed 45 46 3c
       0.029729595 0.023910861 0.08101532 0.012101633
0001f0 30 a3 dc 3c 5e 96 75 3c 1b 1d 60 3d 7a 6a 36 3d
       0.026933283 0.014989464 0.054715257 0.044535138

action_model._discrete_distribution.branches.0.weight f4 [10, 128]
000000 be c1 36 bd 41 de 9d bc 36 3e 2f bd b2 35 23 bd
       -0.04461836 -0.019271018 -0.04278394 -0.03984613
000010 5b e5 4b 3d 83 8d 17 bd ce d3 10 bd fe 5b 74 bc
       0.049779277 -0.03700019 -0.035358243 -0.014914511
000020 5a f5 2d 3d 19 13 9b bd 1b 09 43 bd ff e4 c6 bc
       0.042470314 -0.07572002 -0.047616106 -0.024279116
000030 3f bc a9 bd c6 3b b8 38 e8 db 16 bd a7 ef 85 bc
       -0.08287858 8.7849374e-05 -0.036830813 -0.016349627
000040 32 5c 1d bd 09 8d 43 bd c1 62 80 3c b0 9b 21 bb
       -0.038418002 -0.047741923 0.01567209 -0.0024659447
000050 a9 94 9f bd 2e 5f 6a bd 22 5e 5f bd 3f b1 9c 3d
       -0.077920265 -0.057219677 -0.05453313 0.076509945
000060 ae 91 aa bd 9c a2 91 bd 33 89 8f bd c7 b8 3a bd
       -0.083285674 -0.071110934 -0.070085905 -0.045586374
000070 0f 43 63 3d f1 e6 77 bd 1a 34 2a 3d 81 fb 4c 3d
       0.055483874 -0.060522977 0.041553594 0.05004454
000080 3c 55 ae 3c a9 0e 72 3c a0 de fe 3c 50 ac 61 bd
       0.021280877 0.014774003 0.031112015 -0.05509597
000090 8c 00 5f 3d a6 60 84 bc f9 aa 6c bd 0d c2 0a bd
       0.05444388 -0.016159367 -0.05778024 -0.033876467
0000a0 d5 f2 92 bd 8d 60 a5 3d e2 91 9d bc a3 6d a3 3c
       -0.07175223 0.08075056 -0.019234601 0.01994974
0000b0 d6 c2 9f bd 7f 48 b8 bc 6e ac 15 bd 40 5d c8 ba
       -0.07800834 -0.022495506 -0.036541395 -0.001528658
0000c0 c5 73 a0 bd 2b ba 9e bc 7b 2b 5c bd 87 b9 a4 bd
       -0.07834581 -0.019375881 -0.053752404 -0.08043199
0000d0 98 31 78 bd 11 fb ad bd 45 92 c4 bc af 4d 73 3d
       -0.06059417 -0.08495153 -0.023995528 0.059400257
0000e0 a7 ab ae bd 27 d4 84 3d d8 c6 5c bb a8 32 40 3b
       -0.08528834 0.06485777 -0.0033687856 0.0029327068
0000f0 40 54 eb bb 38 08 86 bd 51 86 50 bd b4 d5 41 3c
       -0.0071816742 -0.06544536 -0.050909344 0.011830736
000100 06 76 56 bd 78 fe 16 3d 15 f9 a0 bd 2b 7d 3e 3d
       -0.05235865 0.036863774 -0.078600086 0.04650609
000110 9b 7d 05 bc f9 27 90 3d 31 1a 0f bd 5f 48 9f 3c
       -0.008147622 0.07038874 -0.034937087 0.019443689
000120 23 5b 00 be 1b 90 90 bc 5f 92 f4 bc c0 e9 43 3d
       -0.12534766 -0.01764684 -0.029854951 0.047830343
000130 cf 60 8f 3d dd 4f c6 bb cc a0 af 3b 31 08 81 bd
       0.07000887 -0.006052001 0.0053597447 -0.063003905
000140 2a 34 e5 ba d1 69 9a bd 56 f3 7d bd d6 7f 5e 3d
       -0.001748686 -0.07539714 -0.06199964 0.054321133
000150 74 7d bb bc 71 ff cd 3b 00 76 4f bd 5a 1b 99 bc
       -0.02288697 0.0062865545 -0.050649643 -0.0186898
000160 f6 64 69 bc cc c5 69 bc 4c 04 a8 bd 15 5c 50 3d
       -0.014245262 -0.01426835 -0.082039446 0.050869066
000170 c9 a8 93 bc 98 92 f6 bc 64 b6 af bd cb 5d 84 3d
       -0.018024819 -0.030099198 -0.0857971 0.06463202
000180 be c8 86 bd 7a 8e 7d bd 0a d8 38 bd 77 97 1d bd
       -0.06581257 -0.061903454 -0.045127906 -0.038474526
000190 bf 6a b7 bc 2e 6e 8c 3d 1f 67 ea ba ee 40 3d bd
       -0.022389768 0.068569526 -0.0017883516 -0.0462045
0001a0 08 61 66 bc 5b 12 f1 3c f0 9a f5 bc 29 42 9d bc
       -0.01406122 0.029427698 -0.029981107 -0.019196587
0001b0 83 67 84 3d e1 bb 9c bd 0e 3a 79 bd 82 ee 01 bd
       0.06465056 -0.076530226 -0.06084638 -0.0317216
0001c0 b0 85 bb 3c ba 2a 46 bd 65 2b fd bb e7 c8 a1 3d
       0.022890896 -0.04838059 -0.0077261203 0.07899647
0001d0 09 12 8e bc e2 65 2c bd 72 8f 50 bd 58 55 3f bd
       -0.017342584 -0.04208935 -0.05091805 -0.04671225
0001e0 36 a3 93 3d 03 72 59 bd 14 70 9a 3d 4c 56 10 3c
       0.072088644 -0.053087246 0.075409085 0.008809637
0001f0 70 12 6b bd 77 0d 7a bd 53 b8 aa 3d 7c 80 8e bc
       -0.05739063 -0.061047997 0.08335938 -0.01739525
000200 e7 1b 5f bd 17 51 2f 3c 5f 9f af bc 7f c0 f6 bc
       -0.05446997 0.010700486 -0.021438299 -0.030121086
000210 e9 3d dd 3c 61 15 eb bc 53 38 c3 bc 2a 3d f0 bb
       0.02700706 -0.028696718 -0.023830568 -0.00733151
000220 59 86 8a 3c 86 02 5f bc cb 05 b1 bc 10 ae 8b b7
       0.016909765 -0.0136114415 -0.021609208 -1.6651145e-05
000230 6f fd 55 bd 51 54 39 3c 40 86 73 bc f7 d3 5a 3c
       -0.052243646 0.0113116065 -0.014863551 0.0133562
000240 9b 5c 7d bd da 37 a3 bb eb f3 01 3d 63 5c 40 bb
       -0.061855894 -0.0049810233 0.03172676 -0.0029351942
000250 03 a0 8e bd 21 42 1e bc 97 b0 26 bd b7 f2 67 3d
       -0.069641136 -0.009659321 -0.040695753 0.056627955
000260 8d ad ee bc 53 b1 5b bd a8 34 26 bd b0 1c 5b bc
       -0.02913549 -0.053635906 -0.04057756 -0.013373539
000270 69 da 51 3d cc 4a 5b bd 92 79 f3 3c e3 b4 42 3d
       0.051233683 -0.05353813 0.029721055 0.04753579
000280 f9 aa fd 3c ca e7 0a 3d 05 77 ab 3c e2 bd 78 bd
       0.030965315 0.033912458 0.020930776 -0.06072796
000290 cd cb 7f 3d 7b 05 fe 3c 91 b1 3f bd bf 30 5c bc
       0.06245022 0.031008473 -0.0468002 -0.013439356
0002a0 8d 16 fe bc 05 46 64 3d 3c 65 b9 bc b4 56 8b 3b
       -0.031016612 0.05573084 -0.02263128 0.004252279
0002b0 3a b8 3a bd 3a 93 27 3b 41 34 ab bc c0 d3 9f 3c
       -0.04558585 0.0025569932 -0.02089894 0.01951015
0002c0 95 d2 65 bd 94 c5 3e 3c 32 9a 4a bc bb f3 6e bd
       -0.05610903 0.011643786 -0.012365865 -0.05833791
0002d0 a3 08 bb bc 1a a8 24 bd a0 15 06 bd c2 5e 4d 3d
       -0.022831267 -0.040199377 -0.032735467 0.050139196
0002e0 b5 ad 84 bc 73 0a 05 3d 98 79 1c 3d e8 13 22 3c
       -0.016196111 0.03248067 0.0382019 0.009892441
0002f0 6e 93 39 3b c2 fc 78 bd d1 87 54 bc 50 6a 86 3c
       0.0028316635 -0.060787924 -0.012971834 0.016408116
000300 e2 8e 5e bd 40 ae 4c 3c 4b 6e 21 bd e1 ac 96 3c
       -0.054335482 0.012492716 -0.039411824 0.018392982
000310 c4 5b 06 bd 86 52 2a 3d c1 3c b2 bc 4b 9b 6b 3b
       -0.03280236 0.041582607 -0.021757485 0.0035950716
000320 50 fb b5 bd 3d 2a d2 bb b2 38 76 bc 25 0c ee bb
       -0.08885825 -0.0064137266 -0.015028166 -0.0072646313
000330 09 54 20 3d 51 42 01 ba 07 8f 8e b7 74 d8 44 bd
       0.039142642 -0.00049308414 -1.6994321e-05 -0.04805799
000340 47 b2 01 3c b9 43 14 bd 0d 82 18 bd a8 7c 6b 3d
       0.00791604 -0.036197398 -0.0372334 0.05749193
000350 5a c3 2d 3a 80 af 15 bd 86 f5 cd bc 87 4b 33 3c
       0.0006628536 -0.036544323 -0.025141489 0.0109433
000360 fb b2 9c 3b e2 96 92 38 3f 11 e1 bc ed 87 99 3c
       0.0047820783 6.9899266e-05 -0.027474044 0.018741572
000370 9c b4 e9 bb 07 73 94 3c ca 58 19 bd 2e 3d b2 3c
       -0.007132126 0.018121256 -0.03743819 0.021757688
000380 52 c1 3e bd a3 04 a0 bc cc 35 c6 bc a4 ff 04 bd
       -0.046571083 -0.019533461 -0.024195574 -0.03247036
000390 0e e1 81 bc 80 0a 80 3d 13 8a 1b bd 5e 2f f3 bc
       -0.015854385 0.06252003 -0.037973475 -0.029685672
0003a0 34 8c 04 3c 47 c7 48 bc d3 b8 e4 bc 30 86 be 3c
       0.008090068 -0.012254543 -0.027920162 0.023257345
0003b0 5f b2 61 bb 17 ea bf bc 8d e5 d1 bc 8a fb ec bc
       -0.0034438593 -0.023427052 -0.025622154 -0.028928537
0003c0 39 a0 07 3d af 33 80 bd c9 47 7d bc c6 8f 40 3d
       0.033111785 -0.06259858 -0.015459009 0.047012113
0003d0 f1 07 69 3b 18 df 1f bd b9 a8 3e 3b 7d 56 15 bd
       0.0035557712 -0.03903112 0.0029092266 -0.036459435
0003e0 44 d0 f5 3c 02 29 f3 bc e8 b7 45 bb 7b a0 d4 ba
       0.030006535 -0.02968264 -0.003016943 -0.0016222143
0003f0 22 d0 9e bc 19 df 8d bc 78 4c 06 3d b2 0b f5 bc
       -0.019386355 -0.017318295 0.03278777 -0.029912803

action_model._discrete_distribution.branches.0.bias f4 [10]
000000 22 d3 a8 bc 2a 1a c7 bb 9c 4a 6f 3c 63 ec ac 3b
       -0.020608488 -0.006076117 0.014605191 0.005277203
000010 0a fb 55 3c 44 6f e5 3c 34 ca ee 3b ca 35 09 3c
       0.013060341 0.028007157 0.007287288 0.008374641
000020 f3 a7 a5 bc f6 ba 77 bc
       -0.020221686 -0.015120259

action_model._discrete_distribution.branches.1.weight f4 [10, 128]
000000 3a b5 86 bd f3 cb ad ba e3 9a 37 bc c5 9f 98 bd
       -0.06577535 -0.0013259634 -0.011206361 -0.074523486
000010 5f df f5 bd 19 cf 79 bd 93 75 b6 3d 1f 75 e6 3c
       -0.12005495 -0.06098852 0.08909144 0.02813202
000020 4b 6b 7e bd 95 65 10 bb 84 b4 16 bd 63 07 c1 bc
       -0.06211404 -0.0022033204 -0.036793247 -0.023563093
000030 48 b8 e3 3c f5 32 89 3d af 50 b8 3d 8a f5 d2 3d
       0.027797833 0.066991724 0.08999764 0.10300739
000040 56 81 76 bd 6f ee 16 3c 04 2b 04 3d 0b 9b bb bb
       -0.060181938 0.00921212 0.032267585 -0.0057252697
000050 94 5b d0 3c dc 3a 98 3d 1f 2f 48 3d a2 eb 1e bd
       0.025434293 0.074331015 0.048873063 -0.038798936
000060 da 2a 45 3d a1 34 eb 3c c4 c6 2e 3d 07 d3 44 3d
       0.04813657 0.028711619 0.042670026 0.048052814
000070 d1 cd 89 bc d1 94 b3 bd d9 57 89 bc 58 83 06 bd
       -0.016821774 -0.08768619 -0.016765522 -0.032840103
000080 44 1b db 3c 35 3b 19 3d 3f 42 2a 3d a1 28 92 bc
       0.0267464 0.03740998 0.041567083 -0.017841639
000090 a0 30 60 bd 8d 80 b8 3c 4e bd 84 3b a4 bd ae ba
       -0.054733872 0.022522235 0.004050887 -0.0013331664
0000a0 d4 c1 8d 3d 27 52 bc bd 74 f4 21 bc 29 7d ff bc
       0.069217354 -0.09195357 -0.009884942 -0.03118761
0000b0 b8 7c 22 bd 72 84 89 bd 6a ac a7 3d ae 06 8a 3d
       -0.039669722 -0.06714715 0.08187182 0.06739555
0000c0 44 a3 99 3c f2 b6 87 3d d1 65 a1 bd 85 fc b6 bd
       0.018754609 0.06626691 -0.07880748 -0.08934883
0000d0 db 5c 96 bc 4f 6d 83 bd c1 9c 82 bc 22 c2 e8 bd
       -0.018354824 -0.06417333 -0.015943887 -0.11365153
0000e0 2c 4a 5a 3c 12 02 f8 bc 92 57 5a 3d 46 f0 f4 bc
       0.013323348 -0.030274425 0.05330617 -0.029899728
0000f0 b8 91 24 bd e5 33 87 bd ed d9 3f bd 30 fb 90 bd
       -0.04017803 -0.06601695 -0.04683869 -0.0707916
000100 96 26 6b bc 36 29 49 3d eb 6e 21 bc 30 5b 00 ba
       -0.014352461 0.049111567 -0.009853105 -0.00048964005
000110 06 30 c8 bc 51 12 b8 bc e9 f1 b1 bb d5 e0 3e bd
       -0.024436962 -0.022469671 -0.0054304493 -0.046601135
000120 14 5a ef 3c 4c 31 10 bd a9 97 34 bd 31 f6 1d be
       0.029217757 -0.035203263 -0.044089947 -0.15425946
000130 38 dc 44 bd fb 76 f4 3c 85 cd 36 bd 3e c7 53 3d
       -0.04806158 0.02984189 -0.044629592 0.051703684
000140 90 45 b3 bd a5 7c 92 3d a8 16 f8 bc f8 fa a8 bc
       -0.08753502 0.0715268 -0.03028424 -0.020627484
000150 ad e5 9e 3d 6d 6c 84 bd 7a 39 6a 3d 3d af 98 3c
       0.07758651 -0.06465993 0.05718372 0.018638248
000160 de 8a 0f bd 41 cb 8d 3d 24 d8 63 bd 64 14 b0 bd
       -0.035044543 0.06923533 -0.05562605 -0.08597639
000170 d9 26 04 bd 14 62 91 3d c8 a6 1b bd 7d fa 95 bb
       -0.03226361 0.07098785 -0.038000852 -0.0045769797
000180 be b3 62 bd 89 1d 83 3d 93 e4 6e 3d 71 9f 09 bd
       -0.055347197 0.06402118 0.058323454 -0.03359932
000190 72 a9 9f 3d b1 7a b6 bd d7 3b 9a bd d6 7e 4f bd
       0.07795991 -0.0891012 -0.07530945 -0.05065807
0001a0 90 45 81 3d 8a 82 41 bc ce 15 61 bd 00 8d d6 3d
       0.06312096 -0.011810908 -0.054952435 0.10476112
0001b0 80 02 e0 bd f0 22 b1 3b 0a 89 a9 3d 29 5b 48 3d
       -0.10937977 0.005405776 0.08278091 0.048915062
0001c0 a3 a8 4b 3c 36 e5 08 bd f8 c9 26 3d a3 49 2d bc
       0.012430343 -0.033421718 0.040719956 -0.010576638
0001d0 80 dd cb bc 96 c5 ac bd 81 0f 88 bd 95 bf b2 bc
       -0.024885893 -0.08436124 -0.06643582 -0.021819869
0001e0 f8 7c 5c bc 19 2c 2c bd ad c0 dc bd 46 a7 75 bd
       -0.013457529 -0.042034242 -0.107789375 -0.059973978
0001f0 2b 54 aa bd 2f d1 be bb d0 0d 43 bd d7 0b 7c bd
       -0.08316835 -0.0058232765 -0.047620595 -0.06153473
000200 2a 7a 6c bc ba 78 82 3c 7f 47 dd bc b9 24 55 bd
       -0.014433423 0.015926708 -0.027011631 -0.052036975
000210 b4 d0 1f bd ff 85 9f bc 5c 62 df 3c 90 60 a8 3b
       -0.039017394 -0.019473074 0.027268581 0.0051384643
000220 fd eb 6f bd bd b4 94 bc 35 e2 6d bc a6 1b 8a bc
       -0.058574665 -0.018152589 -0.014519264 -0.016858887
000230 37 05 0e bc f1 07 a9 3c ef 4a e8 3c aa c4 f5 3c
       -0.0086682355 0.02063367 0.028356044 0.030001003
000240 ea 38 99 bc 74 b4 c0 bc 25 18 a8 3c 2d e3 ea bc
       -0.018703897 -0.023523547 0.020519326 -0.028672779
000250 38 79 d1 bc 0f 54 0d 3d 7c 43 55 3c ce 36 05 bc
       -0.025570497 0.034503993 0.013016578 -0.008130742
000260 ae 86 07 3d 9d ca 42 3b 39 73 3c ba 45 db 2d 3c
       0.033087425 0.0029722818 -0.00071888004 0.01061136
000270 a0 94 cd 3c 73 16 19 bd 8a cf 20 3c d3 04 b7 bb
       0.025095284 -0.037374925 0.009815106 -0.005585292
000280 47 da 96 3c ce d4 51 3c 10 8e 98 3c 62 c2 cb bc
       0.01841463 0.012807084 0.018622428 -0.024872962
000290 1a 61 a6 3c 48 31 f0 3c 92 40 00 3c 4d 86 c0 bc
       0.020309974 0.029320374 0.007827895 -0.02350154
0002a0 f2 3e 06 3d 2c c1 cc bc 75 54 95 bc 44 ff 57 3c
       0.032774873 -0.024994455 -0.018228749 0.013183419
0002b0 f0 77 1b bd 6d ac f1 bc 66 ef 6d ba 5a 44 6a 3c
       -0.03795618 -0.029501164 -0.00090765057 0.014298523
0002c0 12 0f 47 39 db 7a c2 3c 20 2e 4f bc ad df a2 bc
       0.00018983733 0.023740223 -0.012645274 -0.019882048
0002d0 46 b2 2c bd 1b 07 f2 bc 94 0f 3e bd 12 29 34 bd
       -0.042162202 -0.029544404 -0.046401575 -0.04398448
0002e0 c7 56 02 bc 9d 6a 69 3c ba ab 12 3d 5e d6 9a bc
       -0.00795526 0.01424661 0.035808302 -0.018901046
0002f0 3e cd 28 bc 33 10 b5 bc f5 02 89 bc e6 b3 8d bc
       -0.01030284 -0.022102451 -0.016725043 -0.017297696
000300 89 b7 a1 bc 03 82 a1 3c e7 52 00 3b 43 14 0f 3b
       -0.019740837 0.019715315 0.0019580664 0.0021832145
000310 8d cc 32 bd f1 3a 12 3c 11 1e b4 bc f3 68 16 bc
       -0.043652106 0.008925186 -0.021986993 -0.009180295
000320 28 60 1f bc 7f 81 00 bc d9 ba c8 bc c3 8a 66 bd
       -0.009727515 -0.007843374 -0.024503158 -0.056284677
000330 66 58 57 3c 73 74 56 3c 13 fc b5 bc 11 34 a0 bb
       0.013143634 0.013089287 -0.022214925 -0.0048890193
000340 c8 c9 b9 bc 7d 09 e5 b9 c0 54 f0 bc ff f0 9b 3c
       -0.022679225 -0.00043685353 -0.029337287 0.019035814
000350 0c c9 f4 3c 96 07 77 bd b2 04 84 3c 0f c7 b3 3b
       0.029881023 -0.06030997 0.01611552 0.005486376
000360 a3 02 1e bd 89 ae eb 3c 3e 22 f8 bc e0 7f 6a bd
       -0.038576733 0.028769748 -0.030289765 -0.057250857
000370 62 31 a7 bb 0e 42 13 3d c9 3a c9 bc f2 30 9d 3c
       -0.0051023224 0.035951667 -0.024564164 0.019188378
000380 68 a8 0b bd d4 f3 01 bb 3f 10 9b 3c e4 11 25 bc
       -0.03409615 -0.001982917 0.018928645 -0.010075066
000390 1e 96 e6 3c d4 92 d3 bb fe 37 b5 bc 53 0e f1 bc
       0.028147753 -0.0064567123 -0.022121426 -0.029425776
0003a0 e2 47 b9 3c f8 f5 d0 3b 1e 0c 16 bd aa e4 07 3d
       0.022617284 0.006376978 -0.03663265 0.033177055
0003b0 d5 21 6c bd 3f 92 df bc 19 a5 36 3d 9f 8b 1b 3d
       -0.057649452 -0.027291415 0.044591043 0.03797495
0003c0 c5 ec 7d 3c a5 e1 24 bd 8e 7c 37 3c fb b7 c2 3c
       0.015498345 -0.040254254 0.01119913 0.02376937
0003d0 29 5d 2c bd 98 30 a6 bc b7 46 27 bd 3e 82 83 bc
       -0.042081032 -0.020286843 -0.040838923 -0.016053315
0003e0 0c 55 bf 3c a8 3b 05 bd d5 ff de bc f5 22 b0 bc
       0.023355983 -0.032527596 -0.0272216 -0.021501044
0003f0 9b 8e 30 bd 38 1d ef bc bf 7c bc 3c e4 75 00 bd
       -0.04310475 -0.029188737 0.023008702 -0.03136243

action_model._discrete_distribution.branches.1.bias f4 [10]
000000 3b 40 46 bc af bb 93 bc d8 00 c2 bb c7 06 b1 3c
       -0.012100275 -0.01803383 -0.0059205107 0.021609677
000010 c7 57 5b 3c 2a 41 ed 3c 94 4e 1c 3c 63 4f 43 3c
       0.013387627 0.028961737 0.009540219 0.011920783
000020 b2 c2 e9 bb f4 87 81 bc
       -0.007133805 -0.015811898

exp_avg f4 [128, 12]
000000 a4 50 dc 38 80 74 f6 38 a6 c7 13 39 3c a5 b0 38
       0.00010505438 0.00011751894 0.00014093387 8.423111e-05
000010 1c ab 0c 3a b6 a2 1b 39 fc 20 01 3a c4 7d af 39
       0.00053660735 0.00014842566 0.00049258745 0.00033472304
000020 22 be 17 3a 99 b6 98 39 74 48 f7 b8 d2 02 a7 b9
       0.0005788525 0.00029127745 -0.00011791373 -0.00031854823
000030 77 12 9a 38 8a c2 e1 37 d2 de ff b7 7a e0 76 b9
       7.3467316e-05 2.691268e-05 -3.0502128e-05 -0.00023544012
000040 20 94 09 3a 66 3c 85 b9 fc a9 d5 39 0d aa f6 38
       0.00052482076 -0.00025412737 0.00040753174 0.000117618685
000050 e3 af 02 39 46 c7 19 b9 ec 51 86 38 09 3b 35 b9
       0.00012463289 -0.00014665452 6.404877e-05 -0.00017283497
000060 e0 4a 36 b7 d0 c8 78 38 60 f9 ae b7 12 ab b1 38
       -1.08654785e-05 5.931483e-05 -2.085854e-05 8.471882e-05
000070 8c 36 a1 b7 a4 86 e6 38 80 bb 55 35 24 83 ab 38
       -1.9218096e-05 0.000109923334 7.962153e-07 8.178342e-05
000080 0f c6 11 39 49 56 3b 39 f5 7c c7 38 8a 0c 1e 39
       0.0001390206 0.00017865853 9.5123345e-05 0.00015072725
000090 04 db aa 39 0d 92 e0 39 54 b1 a3 39 8e 19 74 39
       0.00032588106 0.00042833426 0.00031221902 0.00023279173
0000a0 ef 2f 66 3a 71 03 a1 39 87 d9 36 3a ee f3 40 3a
       0.00087809464 0.00030710877 0.0006975163 0.0007360567
0000b0 68 ff a5 38 80 78 45 39 a2 ad ec b9 51 dd fd b9
       7.915386e-05 0.00018832274 -0.00045142794 -0.00048420814
0000c0 71 b0 f1 39 64 75 5e ba 58 6f 27 3a e1 d5 8a b9
       0.0004609856 -0.00084861205 0.0006387136 -0.00026480763
0000d0 e0 e8 37 3a 76 e7 5d b9 9d f4 0b 3a 73 79 8a ba
       0.0007015597 -0.00021162428 0.00053388794 -0.0010564759
0000e0 0b fd 71 3a 68 cd 14 ba cd f2 4c 3a 81 1a 89 ba
       0.0009231127 -0.000567636 0.00078181626 -0.0010460169
0000f0 08 4e 78 39 a9 2c 20 39 7b a5 99 39 c7 a2 1f 39
       0.00023680192 0.00015275426 0.00029305727 0.00015224061
000100 a4 bd 78 3a 23 1a 7c 39 c6 e3 43 3a 0c e6 52 39
       0.0009488708 0.0002404233 0.00074726006 0.0002011286
000110 9a 60 76 3a 56 ec 83 39 47 e6 99 39 92 ce 97 b9
       0.000939855 0.0002516235 0.00029354004 -0.0002895487
000120 50 22 a4 39 7c 78 d9 38 4e d2 d6 39 13 e6 16 b8
       0.00031306082 0.00010369808 0.0004097395 -3.597706e-05
000130 0a 22 ba 3a 4e 55 c8 38 00 94 b0 3a 4f f1 5a 39
       0.0014200818 9.5526324e-05 0.0013471842 0.00020879995
000140 43 d1 a9 3a aa b5 d7 b8 c6 4c 36 3a 32 8b 28 ba
       0.0012956042 -0.000102858365 0.0006954189 -0.0006429433
000150 1f 33 04 3a dc 94 46 3a ad f2 10 3a 21 ad 48 3a
       0.0005043018 0.00075752824 0.00055293256 0.0007655193
000160 1a 57 c7 b8 b7 37 4a 3a 9c 4a 40 38 20 36 70 3a
       -9.5052834e-05 0.00077139906 4.5845853e-05 0.00091633387
000170 05 e8 48 ba 08 30 cc 39 86 05 ba b9 e2 f9 e3 39
       -0.0007663968 0.00038945698 -0.000354808 0.0004348299
000180 1d 08 c5 39 dc 92 3d ba 06 74 13 3a 56 03 9b b9
       0.00037580813 -0.00072316616 0.0005624894 -0.0002956639
000190 0b 8c 1b 3a 6b 34 95 b9 e7 69 f2 39 c4 66 6e ba
       0.0005933649 -0.0002845855 0.0004623674 -0.0009094293
0001a0 08 ea 63 3a 69 7a fe b9 30 52 79 3a 50 83 15 ba
       0.0008694236 -0.00048537858 0.0009510843 -0.0005703466
0001b0 98 c9 bf 39 b1 cc 06 3a c2 a9 96 39 bc 10 00 3a
       0.00036580558 0.0005142196 0.0002873671 0.0004885306
0001c0 79 e5 19 ba 23 3e b5 39 2c 92 02 ba ba dc f9 39
       -0.0005870681 0.00034569306 -0.0004980888 0.00047657435
0001d0 1e ac 87 ba 7c 21 36 37 7f e2 4c ba 8a ed f1 38
       -0.0010350978 1.08558415e-05 -0.0007815733 0.000115360206
0001e0 13 e9 10 b8 7c c1 c5 b6 4f d2 59 b8 e8 53 a0 b6
       -3.4549343e-05 -5.893582e-06 -5.1932697e-05 -4.7781396e-06
0001f0 a3 f6 14 b9 2a a4 f2 b7 e0 36 90 b8 2e 67 d3 b8
       -0.00014206259 -2.8925093e-05 -6.876676e-05 -0.00010080483
000200 68 ab 72 37 ac 70 cb 37 f2 14 73 39 09 5e 24 39
       1.4464233e-05 2.4251953e-05 0.00023182089 0.0001567529
000210 35 a9 48 39 c4 15 e6 b7 5c 39 8c 39 a8 70 04 38
       0.00019136521 -2.7428272e-05 0.00026745617 3.157617e-05
000220 32 6c 04 3a 86 95 9b 38 7e bf e3 39 f0 3d 41 b7
       0.0005051523 7.418827e-05 0.00043439487 -1.1518117e-05
000230 38 1e 51 3a 74 21 35 39 90 e5 03 37 f4 71 b3 b9
       0.000797722 0.00017273967 7.861658e-06 -0.00034226442
000240 be 6d ac 37 ed 21 5a 39 80 a3 3a b5 83 23 f2 38
       2.05551e-05 0.00020802738 -6.9528323e-07 0.00011546074
000250 46 11 40 38 cf a1 ce 38 90 33 29 38 b7 6b 65 39
       4.5792454e-05 9.852985e-05 4.034076e-05 0.00021879269
000260 c0 af 11 37 57 b5 8a 39 9b 5f 25 39 6d 37 c6 39
       8.6835935e-06 0.0002645652 0.00015771242 0.00037806798
000270 e1 32 b3 39 fe 0e 0c ba 3d 8a 15 3a 6c eb c9 b9
       0.00034179448 -0.000534281 0.0005704498 -0.0003851311
000280 09 f6 5e 3a 92 d1 ae b9 49 97 6c 3a 00 6f 04 ba
       0.000850529 -0.00033344008 0.0009025229 -0.00050519407
000290 e3 f4 71 3a f5 ba fc b9 d9 fc 4a 3a 66 fb 1d ba
       0.00092299114 -0.0004820448 0.0007743366 -0.0006026536
0002a0 34 76 5f b8 f0 5b 39 b9 aa 85 60 b8 54 73 41 b9
       -5.327743e-05 -0.00017677224 -5.3530246e-05 -0.00018448877
0002b0 89 f8 70 b8 2f ab 54 b9 24 c5 4e b8 c8 e0 6d b9
       -5.7451925e-05 -0.00020281666 -4.929783e-05 -0.00022685819
0002c0 54 01 c4 38 54 30 65 b8 28 6b 8c 38 50 8c 81 b6
       9.346256e-05 -5.4642864e-05 6.6956796e-05 -3.860834e-06
0002d0 c0 70 2d b9 74 54 27 b8 04 6c 66 b9 d5 1b 92 38
       -0.00016540568 -3.9894556e-05 -0.00021974748 6.9670066e-05
0002e0 4d 5c ee b9 00 ce 8c 37 8a 19 ef b9 ce 47 71 b8
       -0.00045463667 1.6785227e-05 -0.0004560466 -5.752575e-05
0002f0 49 aa a8 b9 e9 ea f3 38 a2 6c 80 b8 ac 14 a0 39
       -0.0003217033 0.000116308984 -6.12375e-05 0.0003053298
000300 89 65 52 39 6f 63 c6 b9 c2 42 a9 39 12 92 85 b9
       0.00020064985 -0.00037839587 0.0003228393 -0.00025476568
000310 0d 40 14 3a e9 a9 3d b9 82 40 13 3a f4 0f 9e b9
       0.0005655296 -0.00018087741 0.00056172174 -0.00030147994
000320 19 c7 07 3a 51 de a6 b9 1f 91 09 3a 9d 54 cc b9
       0.0005179509 -0.00031827626 0.000524776 -0.00038972954
000330 61 5e a8 b8 6f 52 20 ba 06 54 84 b8 fd bb c0 b9
       -8.028444e-05 -0.0006115799 -6.309901e-05 -0.00036761156
000340 98 9e d8 b8 68 14 be b9 f3 1b e5 b8 36 fd 0f ba
       -0.00010329223 -0.00036254828 -0.00010924777 -0.00054927485
000350 26 f6 f0 38 04 d3 89 b9 06 52 cb 39 d7 86 a4 b8
       0.000114899405 -0.00026287895 0.0003878029 -7.845245e-05
000360 d4 56 5c 39 fc fa 84 39 ce c4 75 39 dd c8 97 39
       0.00021013181 0.00025364 0.00023438336 0.0002895062
000370 9b a3 85 39 90 95 a5 39 88 8f 9e 39 c4 8b 8b 39
       0.00025489632 0.00031582685 0.00030243048 0.0002661628
000380 dd b9 a0 39 0d 67 9c 39 8c 5f e3 38 1d a8 a7 39
       0.00030656057 0.00029831417 0.000108420005 0.00031977976
000390 b7 07 6b 39 90 4e 94 39 21 8f 8d 39 0c 73 a7 39
       0.0002241422 0.00028287293 0.00027000255 0.0003193844
0003a0 81 31 79 38 99 5d b1 39 97 8f 36 39 4e 9d 21 3a
       5.941233e-05 0.00033829806 0.00017410364 0.0006165103
0003b0 b5 99 a2 b9 5c ed 8d 39 7e 24 28 b9 cc 9c a4 39
       -0.00031013569 0.00027070462 -0.00016035323 0.0003139734
0003c0 90 97 07 3a d3 2c dc 39 4a 18 1a 3a 2d 6d f4 39
       0.0005172426 0.00041995067 0.0005878253 0.0004662065
0003d0 18 fc 31 3a 99 52 04 3a 49 f8 54 3a ad 0d b0 39
       0.0006789579 0.00050477084 0.00081241556 0.00033579525
0003e0 89 49 85 3a 70 a6 99 39 2d 6c 61 39 d4 63 07 ba
       0.001016901 0.0002930644 0.00021497971 -0.0005164717
0003f0 19 47 c8 37 ab 0f f4 38 e0 a1 64 36 3e 09 88 b7
       2.3874965e-05 0.00011637745 3.4068871e-06 -1.6216767e-05
