Assets/Config/results/ThiefLearn1/ThiefLearn1/ThiefLearn1-17553.pt (torch, 708188 bytes, 48 tensors)

discrete_act_size_vector f4 [1, 2]
10.0 10.0
00000000: 0000 2041 0000 2041

network_body.observation_encoder.processors.0.normalizer.running_mean f4 [82]
5.8869853 0.0 0.0 0.5886979 5.8869853 2.3547916 0.0 1.1773958
5.8869853 4.7095833 0.0 1.7660904 5.8869853 0.0 2.3547916 2.3547916
5.8869853 2.3547916 2.3547916 2.9434927 5.8869853 4.7095833 2.3547916 3.5321808
5.8869853 0.0 4.7095833 4.1208878 5.8869853 2.3547916 4.7095833 4.7095833
5.8869853 4.7095833 4.7095833 5.2982907 5.8869853 5.2982907 5.2982907 5.8869853
5.8869853 9.998814 0.0 0.0 0.99989647 9.998814 3.9995859 0.0
1.9997929 9.998814 7.9991717 0.0 2.999662 9.998814 0.0 3.9995859
3.9995859 9.998814 3.9995859 3.9995859 4.999407 9.998814 7.9991717 3.9995859
5.999324 9.998814 0.0 7.9991717 6.9992476 9.998814 3.9995859 7.9991717
7.9991717 9.998814 7.9991717 7.9991717 8.998887 9.998814 8.998887 8.998887
9.998814 9.998814
00000000: 2f62 bc40 0000 0000 0000 0000 e8b4 163f
00000010: 2f62 bc40 e8b4 1640 0000 0000 e8b4 963f
00000020: 2f62 bc40 e8b4 9640 0000 0000 400f e23f
00000030: 2f62 bc40 0000 0000 e8b4 1640 e8b4 1640
00000040: 2f62 bc40 e8b4 1640 e8b4 1640 2f62 3c40
00000050: 2f62 bc40 e8b4 9640 e8b4 1640 400f 6240
00000060: 2f62 bc40 0000 0000 e8b4 9640 50de 8340
00000070: 2f62 bc40 e8b4 1640 e8b4 9640 e8b4 9640
00000080: 2f62 bc40 e8b4 9640 e8b4 9640 998b a940
00000090: 2f62 bc40 998b a940 998b a940 2f62 bc40
000000a0: 2f62 bc40 24fb 1f41 0000 0000 0000 0000
000000b0: 37f9 7f3f 24fb 1f41 37f9 7f40 0000 0000
000000c0: 37f9 ff3f 24fb 1f41 37f9 ff40 0000 0000
000000d0: 76fa 3f40 24fb 1f41 0000 0000 37f9 7f40
000000e0: 37f9 7f40 24fb 1f41 37f9 7f40 37f9 7f40
000000f0: 24fb 9f40 24fb 1f41 37f9 ff40 37f9 7f40
00000100: 76fa bf40 24fb 1f41 0000 0000 37f9 ff40
00000110: d6f9 df40 24fb 1f41 37f9 7f40 37f9 ff40
00000120: 37f9 ff40 24fb 1f41 37f9 ff40 37f9 ff40
00000130: 71fb 0f41 24fb 1f41 71fb 0f41 71fb 0f41
00000140: 24fb 1f41 24fb 1f41

network_body.observation_encoder.processors.0.normalizer.running_variance f4 [82]
425041.34 1.0 1.0 4251.399 425041.34 68007.39 1.0 17002.598
425041.34 272026.56 1.0 38254.55 425041.34 1.0 68007.39 68007.39
425041.34 68007.39 68007.39 106261.086 425041.34 272026.56 68007.39 153015.2
425041.34 1.0 272026.56 208270.75 425041.34 68007.39 272026.56 272026.56
425041.34 272026.56 272026.56 344283.16 425041.34 344283.16 344283.16 425041.34
425041.34 100.99061 1.0 1.0 1.9998673 100.99061 16.997877 1.0
4.9994693 100.99061 64.99151 1.0 9.998892 100.99061 1.0 16.997877
16.997877 100.99061 16.997877 16.997877 25.997652 100.99061 64.99151 16.997877
36.995567 100.99061 1.0 64.99151 49.994648 100.99061 16.997877 64.99151
64.99151 100.99061 64.99151 64.99151 81.99145 100.99061 81.99145 81.99145
100.99061 100.99061
00000000: 2b8a cf48 0000 803f 0000 803f 31db 8445
00000010: 2b8a cf48 b2d3 8447 0000 803f 32d5 8446
00000020: 2b8a cf48 52d3 8448 0000 803f 8d6e 1547
00000030: 2b8a cf48 0000 803f b2d3 8447 b2d3 8447
00000040: 2b8a cf48 b2d3 8447 b2d3 8447 8b8a cf47
00000050: 2b8a cf48 52d3 8448 b2d3 8447 cd6d 1548
00000060: 2b8a cf48 0000 803f 52d3 8448 b063 4b48
00000070: 2b8a cf48 b2d3 8447 52d3 8448 52d3 8448
00000080: 2b8a cf48 52d3 8448 52d3 8448 651b a848
00000090: 2b8a cf48 651b a848 651b a848 2b8a cf48
000000a0: 2b8a cf48 31fb c942 0000 803f 0000 803f
000000b0: a7fb ff3f 31fb c942 a7fb 8741 0000 803f
000000c0: a7fb 9f40 31fb c942 a7fb 8142 0000 803f
000000d0: 76fb 1f41 31fb c942 0000 803f a7fb 8741
000000e0: a7fb 8741 31fb c942 a7fb 8741 a7fb 8741
000000f0: 31fb cf41 31fb c942 a7fb 8142 a7fb 8741
00000100: 76fb 1342 31fb c942 0000 803f a7fb 8142
00000110: 85fa 4742 31fb c942 a7fb 8741 a7fb 8142
00000120: a7fb 8142 31fb c942 a7fb 8142 a7fb 8142
00000130: 9ffb a342 31fb c942 9ffb a342 9ffb a342
00000140: 31fb c942 31fb c942

network_body.processors.0.normalizer.running_mean f4 [82]
5.8869853 0.0 0.0 0.5886979 5.8869853 2.3547916 0.0 1.1773958
5.8869853 4.7095833 0.0 1.7660904 5.8869853 0.0 2.3547916 2.3547916
5.8869853 2.3547916 2.3547916 2.9434927 5.8869853 4.7095833 2.3547916 3.5321808
5.8869853 0.0 4.7095833 4.1208878 5.8869853 2.3547916 4.7095833 4.7095833
5.8869853 4.7095833 4.7095833 5.2982907 5.8869853 5.2982907 5.2982907 5.8869853
5.8869853 9.998814 0.0 0.0 0.99989647 9.998814 3.9995859 0.0
1.9997929 9.998814 7.9991717 0.0 2.999662 9.998814 0.0 3.9995859
3.9995859 9.998814 3.9995859 3.9995859 4.999407 9.998814 7.9991717 3.9995859
5.999324 9.998814 0.0 7.9991717 6.9992476 9.998814 3.9995859 7.9991717
7.9991717 9.998814 7.9991717 7.9991717 8.998887 9.998814 8.998887 8.998887
9.998814 9.998814
00000000: 2f62 bc40 0000 0000 0000 0000 e8b4 163f
00000010: 2f62 bc40 e8b4 1640 0000 0000 e8b4 963f
00000020: 2f62 bc40 e8b4 9640 0000 0000 400f e23f
00000030: 2f62 bc40 0000 0000 e8b4 1640 e8b4 1640
00000040: 2f62 bc40 e8b4 1640 e8b4 1640 2f62 3c40
00000050: 2f62 bc40 e8b4 9640 e8b4 1640 400f 6240
00000060: 2f62 bc40 0000 0000 e8b4 9640 50de 8340
00000070: 2f62 bc40 e8b4 1640 e8b4 9640 e8b4 9640
00000080: 2f62 bc40 e8b4 9640 e8b4 9640 998b a940
00000090: 2f62 bc40 998b a940 998b a940 2f62 bc40
000000a0: 2f62 bc40 24fb 1f41 0000 0000 0000 0000
000000b0: 37f9 7f3f 24fb 1f41 37f9 7f40 0000 0000
000000c0: 37f9 ff3f 24fb 1f41 37f9 ff40 0000 0000
000000d0: 76fa 3f40 24fb 1f41 0000 0000 37f9 7f40
000000e0: 37f9 7f40 24fb 1f41 37f9 7f40 37f9 7f40
000000f0: 24fb 9f40 24fb 1f41 37f9 ff40 37f9 7f40
00000100: 76fa bf40 24fb 1f41 0000 0000 37f9 ff40
00000110: d6f9 df40 24fb 1f41 37f9 7f40 37f9 ff40
00000120: 37f9 ff40 24fb 1f41 37f9 ff40 37f9 ff40
00000130: 71fb 0f41 24fb 1f41 71fb 0f41 71fb 0f41
00000140: 24fb 1f41 24fb 1f41

network_body.processors.0.normalizer.running_variance f4 [82]
425041.34 1.0 1.0 4251.399 425041.34 68007.39 1.0 17002.598
425041.34 272026.56 1.0 38254.55 425041.34 1.0 68007.39 68007.39
425041.34 68007.39 68007.39 106261.086 425041.34 272026.56 68007.39 153015.2
425041.34 1.0 272026.56 208270.75 425041.34 68007.39 272026.56 272026.56
425041.34 272026.56 272026.56 344283.16 425041.34 344283.16 344283.16 425041.34
425041.34 100.99061 1.0 1.0 1.9998673 100.99061 16.997877 1.0
4.9994693 100.99061 64.99151 1.0 9.998892 100.99061 1.0 16.997877
16.997877 100.99061 16.997877 16.997877 25.997652 100.99061 64.99151 16.997877
36.995567 100.99061 1.0 64.99151 49.994648 100.99061 16.997877 64.99151
64.99151 100.99061 64.99151 64.99151 81.99145 100.99061 81.99145 81.99145
100.99061 100.99061
00000000: 2b8a cf48 0000 803f 0000 803f 31db 8445
00000010: 2b8a cf48 b2d3 8447 0000 803f 32d5 8446
00000020: 2b8a cf48 52d3 8448 0000 803f 8d6e 1547
00000030: 2b8a cf48 0000 803f b2d3 8447 b2d3 8447
00000040: 2b8a cf48 b2d3 8447 b2d3 8447 8b8a cf47
00000050: 2b8a cf48 52d3 8448 b2d3 8447 cd6d 1548
00000060: 2b8a cf48 0000 803f 52d3 8448 b063 4b48
00000070: 2b8a cf48 b2d3 8447 52d3 8448 52d3 8448
00000080: 2b8a cf48 52d3 8448 52d3 8448 651b a848
00000090: 2b8a cf48 651b a848 651b a848 2b8a cf48
000000a0: 2b8a cf48 31fb c942 0000 803f 0000 803f
000000b0: a7fb ff3f 31fb c942 a7fb 8741 0000 803f
000000c0: a7fb 9f40 31fb c942 a7fb 8142 0000 803f
000000d0: 76fb 1f41 31fb c942 0000 803f a7fb 8741
000000e0: a7fb 8741 31fb c942 a7fb 8741 a7fb 8741
000000f0: 31fb cf41 31fb c942 a7fb 8142 a7fb 8741
00000100: 76fb 1342 31fb c942 0000 803f a7fb 8142
00000110: 85fa 4742 31fb c942 a7fb 8741 a7fb 8142
00000120: a7fb 8142 31fb c942 a7fb 8142 a7fb 8142
00000130: 9ffb a342 31fb c942 9ffb a342 9ffb a342
00000140: 31fb c942 31fb c942

network_body._body_endoder.seq_layers.0.weight f4 [128, 82]
0.07266656 0.105627134 0.10961407 -0.05026346 -0.0074402536 -0.08595623 0.09661063 0.13297014
0.08297708 0.05030389 0.012909423 0.053682882 0.0469474 -0.06312082 0.07338938 0.060293734
0.25132647 -0.112103835 0.27234837 0.00912194 0.0890964 0.100366235 0.11064079 0.052672092
-0.053738136 0.0049956487 0.05813681 -0.06048525 -0.06422539 -0.028043034 -0.024744581 -0.018278053
0.014257826 -0.16029921 0.036147967 0.15334202 -0.077862434 -0.10801663 -0.1470197 0.21992673
0.13744089 -0.047611505 -0.05996406 -0.18270521 0.10781544 -0.16911654 -0.1727009 0.15627496
0.041114196 -0.08015261 -0.082918465 0.08287915 0.07994215 -0.06902591 0.011645413 -0.0763696
-0.101718485 -0.208389 0.08574382 -0.06398873 0.022332711 0.17216729 -0.20543602 -0.04322487
0.06827718 -0.14232285 -0.28944123 0.097424656 0.06516152 -0.08749286 0.039706573 0.011585459
0.024178402 0.062314883 0.00023260537 0.023761189 -0.06237188 0.07259994 -0.2497037 0.012148536
-0.05525335 -0.2387891 -0.1019203 -0.12628104 -0.046205174 0.12615214 0.020088702 0.058996353
0.0428835 0.18211824 0.014534644 0.061201084 0.06767602 0.10796243 0.008344065 -0.18605705
0.0547136 0.13768494 -0.032191098 0.15611851 0.10584513 0.09502027 0.13884111 0.12562698
0.147281 0.199068 0.09339156 0.08475989 -0.03420953 -0.0074937074 0.008579814 0.09410528
0.113428436 0.087553285 0.1051625 0.003816095 0.16645703 -0.1970024 -0.12101062 -0.06417404
0.18074426 -0.087740004 0.0307189 -0.068499826 0.030260887 0.015782423 0.030779125 0.15416875
0.055324517 0.014461598 0.35009062 0.13769123 0.31718487 0.07458937 -0.03405814 0.23688982
-0.029284004 0.06829474 -0.07174931 0.22591417 -0.08115549 0.11087672 0.09007763 0.017300988
-0.16337088 0.038615197 -0.07587943 0.07597506 -0.081771016 0.108360365 0.13223541 0.02538213
0.012348856 0.21265619 0.082382806 -0.041377407 -0.019377513 -0.11351169 0.34248132 -0.1398237
0.3104043 0.05129224 0.060497303 -0.07980321 -0.004264688 0.066085875 -0.08254495 -0.036769
0.012936372 -0.05049661 -0.034573678 0.08811796 -0.19648619 -0.27000415 -0.015031294 -0.33092916
-0.12517624 0.021645915 -0.08507009 -0.16659759 -0.020933963 0.065816954 0.057405088 0.0018354942
-0.08126084 -0.15008974 -0.099441655 -0.07278897 -0.20216782 -0.003275378 0.011681024 0.17868459
-0.13335757 -0.08348571 0.012024495 0.009909278 -0.028391076 -0.17875049 0.036980312 -0.1703097
-0.14147748 0.021860719 0.033415712 0.09230461 0.08447037 0.036449354 0.12567683 -0.12506837
-0.06058078 -0.16846141 -0.07070132 0.06599649 -0.07487667 -0.15772614 0.21517116 -0.11639399
-0.011567336 0.0385781 -0.054369364 -0.20313032 -0.018276576 0.08544693 -0.006054061 -0.06569715
0.115897745 0.26944438 0.03986552 0.10413355 0.055531595 0.21409294 0.017524239 -0.06809173
0.13108003 0.03946737 -0.1260843 0.067388274 0.22167815 0.1388279 -0.2865142 -0.028645717
-0.121501684 -0.1090579 0.050937474 0.056239955 0.0016547218 0.048000984 0.105728865 0.18415542
0.1325686 -0.022447651 0.07032321 0.037704404 0.16772626 0.08014426 0.047237985 -0.010564018
00000000: 35d2 943d 0a53 d83d 577d e03d 0fe1 4dbd
00000010: 5fcd f3bb d209 b0bd cbdb c53d 5329 083e
00000020: e3ef a93d 740b 4e3d 0b82 533c 95e2 5b3d
00000030: eb4b 403d 7d45 81bd 2c4d 963d 90f6 763d
00000040: ddad 803e b296 e5bd 3f71 8b3e 3074 153c
00000050: 2c78 b63d d08c cd3d a397 e23d b1be 573d
00000060: 851c 5cbd 8ab2 a33b dd20 6e3d 62bf 77bd
00000070: 9a88 83bd 81ba e5bc 26b5 cabc dbbb 95bc
00000080: a899 693c 7a25 24be e40f 143d b105 1d3e
00000090: 5776 9fbd d337 ddbd 558c 16be 7934 613e
000000a0: 4ebd 0c3e 4804 43bd e09c 75bd 1317 3bbe
000000b0: 57ce dc3d e32c 2dbe 81d8 30be 8b06 203e
000000c0: 5c67 283d 0d27 a4bd 28d1 a9bd 8bbc a93d
000000d0: b6b8 a33d 755d 8dbd 67cc 3e3c aa67 9cbd
000000e0: c851 d0bd ed63 55be 759a af3d 860c 83bd
000000f0: 17f3 b63c 9f4c 303e d25d 52be 900c 31bd
00000100: e8d4 8b3d 15bd 11be a431 94be 9486 c73d
00000110: 6773 853d 752f b3bd 5ca3 223d f0d0 3d3c
00000120: c911 c63c e43d 7f3d 87e7 7339 d3a6 c23c
00000130: a879 7fbd 47af 943d 54b2 7fbe a70a 473c
00000140: 5651 62bd 2185 74be 97bb d0bd d14f 01be
00000150: a341 3dbd 072e 013e 1091 a43c 29a6 713d
00000160: 9ca6 2f3d 347d 3a3e b722 6e3c fdad 7a3d
00000170: ba99 8a3d 681b dd3d 8cb5 083c bd85 3ebe
00000180: 5e1b 603d 48fd 0c3e d0da 03bd 88dd 1f3e
00000190: 55c5 d83d fd99 c23d 5d2c 0e3e 5ca4 003e
000001a0: d5d0 163e 7bd8 4b3e 1344 bf3d 9896 ad3d
000001b0: 4b1f 0cbd c68d f5bb 5992 0c3c 45ba c03d
000001c0: 2b4d e83d 234f b33d 705f d73d 7317 7a3b
000001d0: b673 2a3e ffba 49be 6ad4 f7bd ae6d 83bd
000001e0: 0615 393e 08b1 b3bd 34a6 fb3c a349 8cbd
000001f0: aee5 f73c 244a 813c 8124 fc3c 6ade 1d3e
00000200: f69b 623d 57f0 6c3c 143f b33e eefe 0c3e
00000210: 0e66 a23e 50c2 983d 8c80 0bbd 3f93 723e
00000220: 02e5 efbc 1dde 8b3d 4df1 92bd 0b56 673e
00000230: d934 a6bd 5513 e33d 9f7a b83d cdba 8d3c
00000240: b24a 27be f82a 1e3d ad66 9bbd d098 9b3d
00000250: 9077 a7bd 0aec dd3d b868 073e 2fee cf3c
00000260: db52 4a3c 8bc2 593e 51b8 a83d 5b7b 29bd
00000270: 97bd 9ebc d178 e8bd b659 af3e f22d 0fbe
00000280: 50ed 9e3e d017 523d 05cc 773d de6f a3bd
00000290: ccbe 8bbb 0858 873d 540d a9bd 179b 16bd
000002a0: 14f3 533c 89d5 4ebd 219d 0dbd 3077 b43d
000002b0: ad33 49be fc3d 8abe d145 76bc 8c6f a9be
000002c0: 332e 00be c652 b13c 3a39 aebd 8f98 2abe
000002d0: b47d abbc 0acb 863d 9921 6b3d f794 f03a
000002e0: 156c a6bd 20b1 19be 11a8 cbbd 6212 95bd
000002f0: 1505 4fbe b9a7 56bb c461 3f3c 18f9 363e
00000300: e38e 08be 8efa aabd 6302 453c 865a 223c
00000310: 6794 e8bc 5e0a 37be ab78 173d aa65 2ebe
00000320: 79df 10be 4015 b33c eade 083d 330a bd3d
00000330: cdfe ac3d eb4b 153d 6db1 003e ec11 00be
00000340: 8d23 78bd 2681 2cbe dbcb 90bd 2b29 873d
00000350: f158 99bd f682 21be d455 5c3e f95f eebd
00000360: ec84 3dbc 1204 1e3d 69b2 5ebd 6501 50be
00000370: c2b8 95bc cdfe ae3d 2561 c6bb 3a8c 86bd
00000380: cc5b ed3d 9df4 893e 074a 233d f843 d53d
00000390: 1975 633d 2e3b 5b3e fe8e 8f3c ad73 8bbd
000003a0: d839 063e 89a8 213d 3e1c 01be dd02 8a3d
000003b0: 99ff 623e e728 0e3e fdb1 92be 6caa eabc
000003c0: e0d5 f8bd c059 dfbd d0a3 503d de5b 663d
000003d0: 40e3 d83a ae9c 443d 6088 d83d 3d93 3c3e
000003e0: 10c0 073e 23e4 b7bc 9d05 903d ef6f 1a3d
000003f0: 6fc0 2b3e ac22 a43d 9e7c 413d b414 2dbc

network_body._body_endoder.seq_layers.0.bias f4 [128]
0.012434893 0.03274242 -0.0054458794 0.028757226 -0.025265107 0.029713932 -0.026121676 0.0035252876
0.0061944663 0.044949386 -0.020762922 -0.018334636 0.014300219 0.018769851 0.015316515 0.0038836366
-0.035389256 -0.005449327 -0.0017472152 0.013055996 -0.03181146 -0.023152772 0.028994083 0.020553194
0.011116647 -0.011266089 -0.02325283 0.03497317 -0.0129391765 0.029708154 -0.005263695 0.029761078
0.029124243 0.030720256 -0.028884493 -0.03052925 -0.02382798 0.03831471 0.033278696 0.031159954
-0.021679241 -0.04335809 -0.015403437 0.0055555995 0.03444838 -0.009237507 -0.038245827 0.03140157
-0.00059937005 -0.032457106 -0.0049836277 -0.02507536 0.029422889 -0.012619714 -0.041958153 0.032802552
0.03343366 0.035261028 0.034315795 0.000482389 0.02002372 -0.025947709 0.039664805 0.029169066
-0.020945575 0.046113595 0.028650614 -0.006878152 -0.036202718 0.025657598 0.035037816 0.03359125
-0.03600755 -0.0214953 0.025493182 0.03224913 0.0027090907 0.025425509 0.033234965 0.03375478
0.045494635 0.03392366 -0.00020900555 0.011880397 0.021348935 0.034546457 -0.011925637 0.00046002818
0.00602444 0.032907426 0.041912958 0.014235327 0.035667483 0.024411745 0.03238709 -0.014733497
-0.035221428 0.032259755 0.0060598175 0.005546297 0.0021370945 0.028800689 -0.016444769 -0.020121682
0.022286912 0.034009337 -0.03285541 0.022850646 -0.04080278 -0.0029333525 -0.02141785 0.0043769577
0.031328816 -0.011741664 0.026879134 0.03378001 0.016851319 -0.0032318514 0.026146375 -0.0076248585
0.028692696 0.02685734 0.032834414 0.0060254717 0.03370442 -0.0025934512 0.023462266 0.0037284247
00000000: b9bb 4b3c ea1c 063d 5973 b2bb 4694 eb3c
00000010: c5f8 cebc a26a f33c 20fd d5bc 8308 673b
00000020: f3fa ca3b d91c 383d 0117 aabc 8532 96bc
00000030: 774b 6a3c 3bc3 993c 1ff2 7a3c 9c84 7e3b
00000040: 53f4 10bd 4590 b2bb d002 e5ba d1e8 553c
00000050: bc4c 02bd e2aa bdbc 0085 ed3c 2c5f a83c
00000060: 9922 363c 6795 38bc b87c bebc 0740 0f3d
00000070: d7fe 53bc 845e f33c 137b acbb 81cd f33c
00000080: f795 ee3c 0ca9 fb3c 2c9f ecbc 7a18 fabc
00000090: e532 c3bc e3ef 1c3d 3e4f 083d 2943 ff3c
000000a0: aa98 b1bc 4198 31bd b35e 7cbc bf0b b63b
000000b0: bf19 0d3d ea58 17bc a8a7 1cbd ef9e 003d
000000c0: 0b1f 1dba bef1 04bd b34d a3bb d76a cdbc
000000d0: 4508 f13c ebc2 4ebc 50dc 2bbd f85b 063d
000000e0: bcf1 083d de6d 103d b88e 0c3d 28e9 fc39
000000f0: c908 a43c 4a90 d4bc 9077 223d f7f3 ee3c
00000100: 0e96 abbc 9ce1 3c3d b1b4 ea3c 1f62 e1bb
00000110: 4d49 14bd e22f d23c d083 0f3d fb96 093d
00000120: a77c 13bd e916 b0bc 14d7 d03c aa17 043d
00000130: 008b 313b 2849 d03c 6321 083d 7442 0a3d
00000140: 9558 3a3d 89f3 0a3d 8028 5bb9 ffa5 423c
00000150: f6e3 ae3c 9680 0d3d bf63 43bc f02f f139
00000160: aa68 c53b f0c9 063d ecac 2b3d 4a3b 693c
00000170: 1118 123d 24fb c73c 53a8 043d c464 71bc
00000180: 5844 10bd ce22 043d 6f91 c63b b6bd b53b
00000190: 7f0e 0c3b 6cef eb3c 2eb7 86bc 3ad6 a4bc
000001a0: 0b93 b63c 604d 0b3d 6593 06bd 4731 bb3c
000001b0: d120 27bd 7d3d 40bb 7d74 afbc 956c 8f3b
000001c0: a552 003d 1c60 40bc a131 dc3c e85c 0a3d
000001d0: c70b 8a3c 78cd 53bb ec30 d63c f3d9 f9bb
000001e0: f20c eb3c ed03 dc3c 617d 063d 5271 c53b
000001f0: a50d 0a3d e4f6 29bb f033 c03c 9658 743b

network_body._body_endoder.seq_layers.2.weight f4 [128, 128]
-0.07375058 -0.011274477 -0.06825601 -0.031109864 0.06546026 -0.0813834 -0.029303195 0.024194313
-0.007971013 0.06516891 0.11049849 0.05938688 0.07194137 -0.087404765 -0.020669771 0.17357333
-0.023809975 0.094800636 0.036537316 -0.0058804695 0.12092558 0.07537095 0.036528364 0.106506914
-0.01793302 -0.0056675836 -0.009388331 0.048512664 0.04793714 0.11254501 0.0075451303 -0.12233599
-0.041583825 0.15443072 0.0038685948 0.0034720364 0.03870395 0.050443638 0.05526449 -0.00203977
-0.036675446 -0.010509696 0.023131983 -0.06518349 0.050878186 -0.08998021 -0.020446388 0.052595414
-0.040765263 -0.03871072 0.0071302666 0.026379887 -0.23213378 -0.026312709 0.145939 0.07716833
-0.01024263 -0.019393127 0.013253674 0.06628647 0.11624346 0.023514602 -0.11528059 -0.030054977
0.05906511 0.023105104 0.061672002 0.127757 -0.016384332 -0.0036557813 -0.033140432 0.034024563
-0.06301959 0.10002283 -0.08698271 -0.003908308 -0.0880858 0.07736438 -0.0368102 -0.06871975
-0.050798006 0.04628121 0.03642425 -0.035029963 0.045236707 0.09105356 -0.011174788 0.07744361
0.19368498 -0.020488678 0.013346273 0.18436798 -0.06688142 0.07034923 0.07886018 0.048315976
-0.10177692 0.15901297 -0.14896362 0.013156752 0.036286876 0.016003557 0.0005949397 0.09361916
-0.07662783 0.14846025 -0.062257286 -0.055797566 0.028613752 -0.045190558 0.049524307 0.1397263
0.27324083 0.020846171 0.0651436 -0.03993966 0.09533826 0.09322851 0.08896318 0.114948995
-0.026004005 0.051323134 0.0028819519 -0.09942818 0.041167777 -0.11972348 -0.1645918 0.030355768
0.08910927 -0.099029034 -0.13947782 -0.04384666 -0.14053026 -0.14572509 -0.12947708 0.036046498
0.062564984 -0.094630875 -0.07958843 -0.07046319 -0.038246356 -0.071606375 -0.03654065 -0.038849078
0.18213896 -0.009687694 -0.07542478 0.035120007 0.18534318 -0.021572804 -0.13891843 0.16020334
0.015203225 0.007013402 -0.019693749 -0.14220393 -0.05594695 0.16492125 -0.02563923 -0.10354784
-0.027299875 -0.1014765 0.15149374 0.121311195 0.115942925 0.09249219 0.071492836 -0.06491997
-0.06369055 0.07526732 -0.09945157 -0.10726278 0.071443684 -0.008175119 -0.01298502 -0.17137335
0.06354479 -0.047154754 0.1139914 0.043831512 -0.08126937 -0.1911177 -0.08408989 -0.05641012
-0.151779 -0.06815735 0.1865132 0.098901354 0.06328454 0.07251642 0.039767414 -0.05603483
0.11873425 -0.026696302 -0.19689593 -0.05460622 0.19448674 -0.0037075472 -0.0717543 -0.012210563
-0.049308978 0.11375847 0.006022212 -0.11072439 -0.094872475 -0.20814316 -0.21065286 -0.017764289
-0.04253795 0.021205032 -0.014563938 -0.19461371 0.041803617 0.10507894 -0.07483234 -0.1173724
-0.09595456 0.068176374 -0.18426026 0.034684803 -0.03197581 0.038558565 -0.016007088 -0.11278788
0.17388111 -0.13199219 -0.046817593 0.019917931 -0.029206134 0.0053668437 0.061119143 0.059037853
-0.08626757 -0.0722327 -0.06407066 -0.08027626 0.08576543 0.11384722 -0.057513684 0.030364273
0.08204055 -0.02551025 -0.045640927 0.18799342 -0.075344585 -0.17281303 0.029229505 0.0624656
0.071139224 -0.062601395 0.043162573 0.08110218 0.101428635 -0.028639004 0.062723696 -0.13332374
00000000: 8b0a 97bd 95b8 38bc cfc9 8bbd 1dda febc
00000010: 0710 863d 57ac a6bd 410d f0bc 2733 c63c
00000020: da98 02bc 4777 853d 084d e23d a83f 733d
00000030: ff55 933d 4501 b3bd a753 a9bc 35bd 313e
00000040: 230d c3bc d626 c23d 27a8 153d f4b0 c0bb
00000050: d5a7 f73d 165c 9a3d c49e 153d 4c20 da3d
00000060: 45e8 92bc 23b7 b9bb 84d1 19bc 37b5 463d
00000070: bc59 443d 007e e63d 243d f73b 4b8b fabd
00000080: cd53 2abd 1623 1e3e 4088 7d3b 1b8b 633b
00000090: 0888 1e3d fd9d 4e3d 055d 623d a9ad 05bb
000000a0: fe38 16bd dc30 2cbc 497f bd3c ec7e 85bd
000000b0: a565 503d 8b47 b8bd 2f7f a7bc 4a6e 573d
000000c0: 7af9 26bd 228f 1ebd 03a5 e93b a21a d83c
000000d0: 7ab4 6dbe c08d d7bc 0971 153e 6e0a 9e3d
000000e0: b4d0 27bc 56de 9ebc f025 593c 33c1 873d
000000f0: 0d11 ee3d b2a1 c03c 3b18 ecbd db35 f6bc
00000100: 42ee 713d ea46 bd3c c89b 7c3d bbd2 023e
00000110: 6f38 86bc d595 6fbb 43be 07bd 575d 0b3d
00000120: 6a10 81bd c5d8 cc3d fe23 b2bd 4411 80bb
00000130: 5466 b4bd 3771 9e3d 4bc6 16bd f1bc 8cbd
00000140: 9211 50bd 5e91 3d3d 9831 153d 947b 0fbd
00000150: 204a 393d 4a7a ba3d 7516 37bc c19a 9e3d
00000160: 5b55 463e dfd7 a7bc 54aa 5a3c f6ca 3c3e
00000170: 20f9 88bd 4213 903d 7281 a13d f9e6 453d
00000180: 6b70 d0bd 4cd4 223e eb89 18be 6b8f 573c
00000190: 8ca1 143d e419 833c baf5 1b3a 67bb bf3d
000001a0: 0def 9cbd f705 183e 7f01 7fbd fd8b 64bd
000001b0: 6367 ea3c bc19 39bd 00da 4a3d 6914 0f3e
000001c0: 39e6 8b3e 97c5 aa3c 026a 853d c597 23bd
000001d0: b540 c33d 97ee be3d 5432 b63d 616a eb3d
000001e0: 5a06 d5bc 3538 523d 21df 3c3b 00a1 cbbd
000001f0: 8b9f 283d 9531 f5bd c18a 28be a9ac f83c
00000200: ec7e b63d bccf cabd 46d3 0ebe 8e98 33bd
00000210: 2ae7 0fbe f538 15be a495 04be 7ea5 133d
00000220: 1222 803d d5cd c1bd 42ff a2bd 014f 90bd
00000230: 36a8 1cbd 5da6 92bd a6ab 15bd 3620 1fbd
00000240: a382 3a3e 22b9 1ebc 4f78 9abd ffd9 0f3d
00000250: 9aca 3d3e 73b9 b0bc a240 0ebe 580c 243e
00000260: f316 793c aed0 e53b c954 a1bc e89d 11be
00000270: a128 65bd 1ee1 283e 5d09 d2bc e410 d4bd
00000280: fda3 dfbc e9d2 cfbd 2d21 1b3e 0172 f83d
00000290: 7c73 ed3d 8c6c bd3d d66a 923d c3f4 84bd
000002a0: 3170 82bd c125 9a3d 44ad cbbd 97ac dbbd
000002b0: 1151 923d eff0 05bc 1fbf 54bc 7f7c 2fbe
000002c0: c523 823d 5825 41bd 5374 e93d ac88 333d
000002d0: 8e70 a6bd 5cb4 43be 5237 acbd 4c0e 67bd
000002e0: f46b 1bbe 1596 8bbd 51fd 3e3e cb8c ca3d
000002f0: 539b 813d 7d83 943d 28e3 223d c784 65bd
00000300: f12a f33d 34b2 dabc 169f 49be c6aa 5fbd
00000310: 8827 473e 52fa 72bb ebf3 92bd d00e 48bc
00000320: 36f8 49bd 33fa e83d fa55 c53b 78c3 e2bd
00000330: 804c c2bd 7b23 55be 62b5 57be 6a86 91bc
00000340: 463c 2ebd 2db6 ad3c 959d 6ebc d148 47be
00000350: 453a 2b3d a133 d73d b341 99bd f160 f0bd
00000360: d383 c4bd 0ea0 8b3d b9ae 3cbe a711 0e3d
00000370: 11f9 02bd 96ef 1d3d 4c21 83bc 55fd e6bd
00000380: e40d 323e f628 07be cec3 3fbd ee2a a33c
00000390: b441 efbc 59dc af3b 1158 7a3d add1 713d
000003a0: 0dad b0bd bdee 93bd 7a37 83bd e167 a4bd
000003b0: c9a5 af3d bb28 e93d 7893 6bbd 7fbe f83c
000003c0: e004 a83d dffa d0bc fbf1 3abd 5981 403e
000003d0: 434e 9abd e6f5 30be b772 ef3c eedb 7f3d
000003e0: 71b1 913d 2935 80bd 3dcb 303d e618 a63d
000003f0: d1b9 cf3d 589c eabc 4875 803d 0586 08be

network_body._body_endoder.seq_layers.2.bias f4 [128]
0.031016106 -0.029164763 -0.024976522 -0.0056557627 -0.019496562 -0.024741085 0.040754326 -0.033904884
-0.031303544 0.037912376 -0.017460201 -0.02978697 0.020490933 -0.0039323135 0.029343389 -0.032282133
0.028058255 -0.03187276 -0.034162268 -0.029527795 0.012749415 0.038848143 -0.028547382 -0.011701422
-0.02523749 0.040554814 -0.029853854 -0.028573774 0.0452469 0.01768664 0.02598947 0.023080224
-0.035806146 -0.023196869 -0.011714818 -0.0326096 0.025772981 -0.029505488 0.029994566 0.037016716
0.019485151 -0.022431035 0.015533352 -0.031503357 0.024347264 -0.027253717 0.03593024 -0.027114052
0.028519213 0.04359743 0.020808257 0.023268107 0.0116984295 -0.02796798 0.027531136 0.045492783
0.009285122 0.024235202 0.026512554 -0.017440867 0.029212918 0.031234113 0.031207133 0.01545361
0.017041305 0.041489348 0.02258397 0.02689304 -0.027986117 0.014597404 0.02734444 -0.030432982
-0.024879757 0.038359843 0.024381654 0.028154207 -0.0044250805 0.029977972 -0.026284566 -0.028051332
0.025877398 -0.0022263506 0.0070884842 0.037970904 0.025507065 0.030808276 0.005792546 0.028595593
-0.023467597 0.028683005 -0.0075715487 0.02964824 -0.03071963 -0.03266848 -0.02415726 0.02988833
0.044187702 0.027196622 -0.023502618 0.041665222 -0.027198901 0.03282069 -0.028148225 -0.028009033
0.02884767 0.026928157 0.025129618 0.009738521 -0.026832905 0.007854549 0.03155172 -0.03228969
0.02677759 0.028853932 0.020894945 0.04275701 0.027307855 0.029046724 0.04187495 0.03663464
0.038891487 -0.01279499 0.026874049 0.04206683 0.030152543 0.02235257 -0.028197933 0.043709137
00000000: 7d15 fe3c f1ea eebc 909b ccbc fa53 b9bb
00000010: 41b7 9fbc d1ad cabc 02ee 263d d9df 0abd
00000020: 2538 00bd 024a 1b3d b208 8fbc ce03 f4bc
00000030: 9adc a73c a3da 80bb 8c61 f03c 453a 04bd
00000040: 6dda e53c 038d 02bd bced 0bbd 46e4 f1bc
00000050: ece2 503c 3b1f 1f3d 33dc e9bc 52b7 3fbc
00000060: dabe cebc ce1c 263d 1290 f4bc 8c13 eabc
00000070: d054 393d 93e3 903c dee7 d43c bd12 bd3c
00000080: 77a9 12bd 5c07 bebc 82ef 3fbc a591 05bd
00000090: dc21 d33c 7eb5 f1bc 2ab7 f53c d79e 173d
000000a0: 539f 9f3c 4ac1 b7bc 9a7f 7e3c aa09 01bd
000000b0: ea73 c73c 3043 dfbc 962b 133d 4a1e debc
000000c0: 20a1 e93c 3893 323d 1476 aa3c c29c be3c
000000d0: c5aa 3f3c 1b1d e5bc fa88 e13c a456 3a3d
000000e0: a020 183c e788 c63c db30 d93c 26e0 8ebc
000000f0: ee4f ef3c afde ff3c 1aa6 ff3c 2331 7d3c
00000100: 359a 8b3c bcf0 293d 0502 b93c cb4e dc3c
00000110: 2443 e5bc f329 6f3c 7201 e03c 974e f9bc
00000120: a2d0 cbbc 361f 1d3d 09bc c73c a7a3 e63c
00000130: 4400 91bb 5d94 f53c bb52 d7bc e8cb e5bc
00000140: d6fc d33c f7e7 11bb 8446 e83b 6187 1b3d
00000150: 31f4 d03c a361 fc3c 66cf bd3b 4e41 ea3c
00000160: 1e3f c0bc 9ff8 ea3c c11a f8bb dee0 f23c
00000170: bca7 fbbc 62cf 05bd 72e5 c5bc 5fd8 f43c
00000180: 2afe 343d 73cb de3c 9088 c0bc 27a9 2a3d
00000190: 3bd0 debc fd6e 063d 1b97 e6bc 3373 e5bc
000001a0: f351 ec3c 7098 dc3c a1dc cd3c 518e 1f3c
000001b0: aed0 dbbc 5eb0 003c 603c 013d 3242 04bd
000001c0: ad5c db3c 155f ec3c e02b ab3c f921 2f3d
000001d0: b9b4 df3c 65f3 ed3c 1185 2b3d 340e 163d
000001e0: ae4c 1f3d 14a2 51bc f726 dc3c 454e 2c3d
000001f0: 7702 f73c bd1c b73c 5aff e6bc 5a08 333d

action_model._discrete_distribution.branches.0.weight f4 [10, 128]
-0.023968758 0.018271131 0.043716658 -0.022645295 0.007043424 0.031398404 -0.03544276 0.016331043
0.02872056 -0.024053633 0.020156555 0.031357042 -0.028366573 0.03409146 -0.026414972 0.015420091
-0.021745665 0.030232614 0.03045528 0.034090407 -0.016668364 -0.039023582 0.035545386 -0.030492304
0.026911177 -0.054109294 0.0013285641 0.03434741 -0.035460155 -0.005934435 -0.017459584 -0.021508804
-0.010321412 0.028013669 -0.042531706 0.038749088 -0.0075682052 0.024174068 -0.0005365687 -0.00929128
-0.018017557 0.04408825 -0.050034907 0.037580695 0.0026987107 0.016153611 -0.0036486296 0.034334116
-0.026038356 -0.032160398 -0.013127167 -0.024879137 -0.012889873 0.015083813 -0.009640568 -0.03996389
-0.04361895 -0.012533362 -0.008038392 0.014337268 -0.001807754 -0.02314933 -0.017125579 -0.010343291
-0.0113257 -0.034945615 -0.034578595 -0.0077581666 0.022594102 -0.018790308 -0.021758502 0.029172055
0.022079764 -0.031028638 0.0014993312 -0.014546284 -0.0053460905 -0.0329397 0.031071467 0.027123133
-0.008513916 0.024975924 0.009850561 -0.01599692 -0.026784694 -0.018211026 -0.0042605945 -0.030137971
-0.017209772 -0.009078544 -0.01928588 -0.037143756 0.041907087 0.008291645 0.008942825 -0.006143343
-0.020429008 -0.018500313 0.030053267 -0.023437291 0.024984632 -0.022664465 0.023662992 0.021595692
0.00015851494 -0.034637567 -0.012581156 -0.018919112 0.026232969 -0.031896494 -0.019981587 0.006395731
0.0044310293 -0.0037293162 -0.019814463 -0.050354652 -0.022027984 -0.011617389 -0.04247175 -0.024679856
-0.03321356 -0.034749538 -0.012033661 -0.043395672 -0.023154736 -0.011968576 0.03458803 -0.03713495
-0.005943541 0.0452417 0.028549789 -0.024075132 0.010166319 0.022225648 -0.03027854 0.035731338
0.016680945 -0.04074699 0.02849896 0.030859498 -0.033792797 0.03059293 -0.008899677 0.022356527
-0.0117314225 0.029140944 0.0139619205 0.024590572 -0.0062964447 -0.031321295 0.026179861 -0.03155613
0.031972673 -0.025373517 0.0033717265 0.03650265 -0.025165562 -0.0069762724 -0.007953489 -0.00023215219
0.010471295 0.026231058 -0.0041303323 0.043897662 -0.00564755 0.017998828 -0.014872963 -0.016695792
-0.024501976 0.03866372 -0.0325953 0.040921118 -0.011886588 0.023659015 -0.0045223525 0.041922007
-0.0332845 -0.025419379 0.0014783094 -0.0034031349 -0.017759958 0.021576364 -0.014957516 -0.054035958
-0.036864936 -0.005454654 0.020475399 0.029995123 -0.0091625275 -0.012165467 -0.02275464 -0.02767171
0.005371739 -0.032556426 -0.03618459 0.0028935552 0.035011426 -0.0062585613 -0.0057394034 0.025691079
0.041433007 -0.02818868 -0.011256888 -0.0108163 -0.013175849 -0.021509502 0.01954266 0.029616298
-0.022425653 0.031910762 0.0050867703 -0.009509185 -0.00029623255 -0.023543997 -0.0026396743 -0.011606797
-0.0029050715 -0.012335472 -0.03195399 -0.03306955 0.016640509 0.03241459 0.022947246 -0.020627063
-0.02738538 -0.016089035 0.02209082 -0.028237138 0.025787102 -0.031486563 0.030159015 0.03416012
-0.013724557 -0.03728999 -0.013531742 -0.019849919 0.005714748 -0.017275648 -0.02322646 -0.0059005637
0.0042547095 -0.015625818 -0.01009684 -0.024214609 -0.009363938 -0.0015180624 -0.04622047 -0.028519848
-0.038096573 -0.019811207 0.002009837 -0.028973328 -0.012747822 -0.01425711 0.020794548 -0.03055682
00000000: 215a c4bc 57ad 953c 3d10 333d a082 b9bc
00000010: 86cc e63b 9d9b 003d 6d2c 11bd aec8 853c
00000020: 6147 eb3c 200c c5bc 5c1f a53c 3e70 003d
00000030: 0461 e8bc 7da3 0b3d 3664 d8bc 8da4 7c3c
00000040: f723 b2bc 63aa f73c 5a7d f93c 62a2 0b3d
00000050: 188c 88bc 31d7 1fbd 0a98 113d ffca f9bc
00000060: d474 dc3c b5a1 5dbd 3723 ae3a dfaf 0c3d
00000070: ab3e 11bd a675 c2bb 6707 8fbc 3b33 b0bc
00000080: 241b 29bc ec7c e53c ba35 2ebd 5db7 1e3d
00000090: b5fe f7bb b208 c63c 84a8 0cba 743a 18bc
000000a0: 8e99 93bc e195 343d 67f1 4cbd 37ee 193d
000000b0: dadc 303b 9454 843c d91d 6fbb eea1 0c3d
000000c0: 644e d5bc 9fba 03bd 5413 57bc 55cf cbbc
000000d0: 0c30 53bc 1922 773c 79f3 1dbc 2db1 23bd
000000e0: c9a9 32bd bb58 4dbc 76b3 03bc dce6 6a3c
000000f0: 29f2 ecba aaa3 bdbc f14a 8cbc e876 29bc
00000100: 6e8f 39bc 2223 0fbd 49a2 0dbd 3838 febb
00000110: 4417 b93c 22ee 99bc e33e b2bc 3cfa ee3c
00000120: 9fe0 b43c c52f febc 3585 c43a 8a53 6ebc
00000130: 422e afbb c7eb 06bd 9789 fe3c 5531 de3c
00000140: f47d 0bbc 4f9a cc3c 3f64 213c f90b 83bc
00000150: 936b dbbc 4a2f 95bc 759c 8bbb e8e3 f6bc
00000160: 82fb 8cbc 2cbe 14bc 6cfd 9dbc 0d24 18bd
00000170: c4a6 2b3d aed9 073c ed84 123c 194e c9bb
00000180: bc5a a7bc f88d 97bc 4532 f63c 90ff bfbc
00000190: 92ac cc3c d4aa b9bc e4d8 c13c 73e9 b03c
000001a0: 0837 2639 1fe0 0dbd 3121 4ebc 41fc 9abc
000001b0: 86e6 d63c e6a5 02bd 6db0 a3bc 4893 d13b
000001c0: 2b32 913b 8b67 74bb f151 a2bc ae40 4ebd
000001d0: 0874 b4bc dc56 3ebc dcf6 2dbd 692d cabc
000001e0: f10a 08bd 8855 0ebd d528 45bc a9bf 31bd
000001f0: 00af bdbc d917 44bc 2eac 0d3d d11a 18bd
00000200: 09c2 c2bb 5c4f 393d 3fe1 e93c 3639 c5bc
00000210: a290 263c 9012 b63c b30a f8bc 065b 123d
00000220: 7aa6 883c 51e6 26bd a776 e93c 0fcd fc3c
00000230: 516a 0abd 069e fa3c f3cf 11bc 0925 b73c
00000240: 2735 40bc fdb8 ee3c 8ac0 643c 2b72 c93c
00000250: 6852 cebb c24a 00bd 2677 d63c 0041 01bd
00000260: c7f5 023d 1fdc cfbc 2ff8 5c3b cd83 153d
00000270: 0228 cebc 3799 e4bb 5a4f 02bc e16d 73b9
00000280: cb8f 2b3c 84e2 d63c bd57 87bb 09ce 333d
00000290: 150f b9bb 4772 933c baad 73bc 9dc5 88bc
000002a0: 5eb8 c8bc d95d 1e3d a682 05bd e79c 273d
000002b0: f7bf 42bc 8dd0 c13c 3e30 94bb 69b6 2b3d
000002c0: 5455 08bd 4d3c d0bc d5c3 c13a 2107 5fbb
000002d0: 557d 91bc eac0 b03c 5f10 75bc cf54 5dbd
000002e0: b0ff 16bd f4bc b2bb 06bc a73c 55b8 f53c
000002f0: 6d1e 16bc ab51 47bc f067 babc c8af e2bc
00000300: 6a05 b03b e359 05bd 4b36 14bd cda1 3d3b
00000310: 2468 0f3d 9e14 cdbb 9b11 bcbb 1976 d23c
00000320: a8b5 293d f2eb e6bc cf6e 38bc da36 31bc
00000330: 84df 57bc b234 b0bc ee17 a03c e19d f23c
00000340: 01b6 b7bc dcb4 023d ecae a63b 6acc 1bbc
00000350: a94f 9bb9 57df c0bc 63fe 2cbb 6f2a 3ebc
00000360: 0363 3ebb b81a 4abc 30e2 02bd f073 07bd
00000370: ad51 883c 29c5 043d ddfb bb3c 16fa a8bc
00000380: 4e57 e0bc 27cd 83bc cff7 b43c 9251 e7bc
00000390: 793f d33c 0ef8 00bd 0a10 f73c 7beb 0b3d
000003a0: f7dc 60bc 63bd 18bd 3db4 5dbc 4c9c a2bc
000003b0: c842 bb3b a985 8dbc 6b45 bebc 8459 c1bb
000003c0: 176b 8b3b b701 80bc 376d 25bc b75d c6bc
000003d0: 346b 19bc b9f9 c6ba ad51 3dbd 75a2 e9bc
000003e0: 270b 1cbd 1d4b a2bc 78b7 033b 7959 edbc
000003f0: 3edc 50bc a796 69bc 5459 aa3c 4c52 fabc

action_model._discrete_distribution.branches.0.bias f4 [10]
-0.024637055 -0.022790998 -0.023492688 -0.016168745 -0.022099797 -0.017179321 -0.008387347 -0.005675582
0.0038452835 0.033769317
00000000: a6d3 c9bc 30b4 babc bd73 c0bc 5174 84bc
00000010: a20a b5bc a6bb 8cbc 156b 09bc 3cfa b9bb
00000020: 2701 7c3b b251 0a3d

action_model._discrete_distribution.branches.1.weight f4 [10, 128]
-0.002877075 -0.0004811757 0.010781777 -0.0040309452 0.008094324 0.009410377 0.005883551 -0.0045057666
-0.003997822 0.007517014 -0.002468623 0.0052980306 -0.011026712 -0.010550072 0.0034952299 0.008495046
-0.0059513664 0.005229562 -0.0002485055 0.0055490327 -0.00020995329 0.011741787 0.003999798 0.0061981934
-0.021448337 -0.0014638815 0.0028972942 -0.004395845 -0.006338123 0.013416848 -0.0081776995 -0.0056211925
0.013108041 0.025371596 0.010251949 -0.011224398 0.010193777 0.00014251628 0.0026807312 0.0040671267
0.0025582172 0.0075269723 -0.0032090258 -0.0011508227 -0.0027138398 0.023548748 -0.00253484 0.013526101
0.0016103772 -0.008430091 -0.0011204998 0.0070843557 0.0016046724 -0.008390744 -0.016485358 0.0102063585
-0.008470104 -0.00601971 0.006520441 -0.007444594 -0.006961147 0.011225431 -0.0155403325 2.6975005e-05
-0.010483456 0.01378924 -0.013682033 0.010151522 0.016923795 0.007143605 0.006398566 0.011092484
0.0042996057 0.008055555 0.0037853373 -0.012050904 0.013515715 0.0033044121 -0.0040053385 -0.0006420365
0.003129307 -0.0034929698 0.013865727 -0.0048511582 -0.010012428 -0.00038962858 0.0039659534 0.0043448573
-0.012158193 0.010204195 -0.006474828 0.0061075864 0.0106710605 -0.002077878 -0.005342582 -0.013298438
-0.007956209 -0.004046606 0.013051133 0.0046248683 0.012167431 0.009582122 0.00072806724 -0.008478978
0.002816685 -0.00748058 0.0048116576 0.010906914 -0.003479333 0.0067453915 0.009988818 -0.0013574378
0.0022675113 -0.009687088 0.009587552 -0.00408996 0.013755243 0.007934324 -0.0020634246 -0.012301079
0.01293566 0.0058376887 -0.0070774714 -0.00017401538 -0.009055059 0.005873707 0.007068228 -0.0043043853
-0.009872059 7.3806434e-05 -0.018808495 -0.004736133 0.0060197716 -0.0011085686 0.0039675822 -0.0036131286
-0.00741411 -0.00715769 -0.009710625 0.0116478475 0.012328898 -0.0008638421 -0.0019892522 -0.004891389
-0.0042501804 -0.008644419 0.011630747 0.00968979 0.016484635 0.005558191 -0.00875945 -0.013090911
-0.009016633 -0.0052227494 0.00013037826 0.0007561911 -0.006697024 0.0031854473 -0.0016753975 -0.008735415
-0.005221946 -0.023916248 0.0031213628 -0.0004633877 0.0031864287 -0.0113050565 -0.0053185225 0.005961853
-0.002219643 -0.0009677952 -0.01949191 -0.008971989 -0.0033795135 -0.0059514917 -0.011464808 -0.01453989
0.010136011 0.0037631984 0.019030465 -0.010063598 0.021737043 0.015081596 0.00050433807 0.003013157
-0.00036154114 0.01804648 0.008345149 0.0020389801 0.005234271 0.0049273744 0.007503381 0.001699938
0.00013790886 -0.0023217092 -0.0104958145 0.011129555 -0.012110951 -0.005715347 0.012788329 0.0016926447
-0.0044023176 -0.0020380693 0.00013223207 0.009428849 0.017261487 -0.0028281591 0.002394382 -0.0060478384
0.0048625213 -0.0078840135 0.008834381 -0.0077245454 0.0098710265 0.014652209 0.00086944056 -0.0011136724
0.0012665022 0.007744455 0.0061066416 -0.010732746 -0.00072286546 -0.005690273 -0.0005332498 0.013545777
-0.003515008 -0.0009776539 -0.0005551055 0.022186115 -0.0042073657 0.0075405817 -0.0023381647 -0.0055554667
0.018860072 -0.011174594 0.00041363953 0.0036543994 0.010444483 -0.0018023992 0.0068147085 0.00829456
0.0048791235 0.004963198 0.006133844 0.006008952 0.010618516 -1.996915e-05 0.016199097 0.0077424813
0.009104859 -0.016447207 0.006944838 0.014091854 -0.007230933 -0.0021130925 -0.0035712142 0.0040366664
00000000: 4f8d 3cbb 4f46 fcb9 0da6 303c 0516 84bb
00000010: 0e9e 043c fb2d 1a3c ceca c03b 1ca5 93bb
00000020: 2900 83bb 4951 f63b 9fc8 21bb 1a9b ad3b
00000030: 62a9 34bc 36da 2cbc 3a10 653b ce2e 0b3c
00000040: ae03 c3bb bf5c ab3b d849 82b9 a9d4 b53b
00000050: e826 5cb9 a060 403c bd10 833b 371a cb3b
00000060: 6cb4 afbc b6df bfba 88e0 3d3b 050b 90bb
00000070: 08b0 cfbb 57d2 5b3c c2fb 05bc fb31 b8bb
00000080: 1cc3 563c 18d8 cf3c caf7 273c 8ae6 37bc
00000090: cd03 273c 6c70 1539 35af 2f3b 8845 853b
000000a0: c3a7 273b d2a4 f63b 854e 52bb 34d7 96ba
000000b0: adda 31bb 4ee9 c03c 8f1f 26bb 949c 5d3c
000000c0: 4b13 d33a 5d1e 0abc bcdd 92ba e223 e83b
000000d0: df53 d23a 5579 09bc 4d0c 87bc 9238 273c
000000e0: 31c6 0abc fd40 c5bb 6ca9 d53b c8f1 f3bb
000000f0: 551a e4bb dfea 373c e19c 7ebc 6248 e237
00000100: cdc2 2bbc 44ec 613c 9b2a 60bc 9252 263c
00000110: c5a3 8a3c e714 ea3b 10ab d13b 40bd 353c
00000120: b5e3 8c3b 72fb 033c 6c13 783b 2871 45bc
00000130: 0471 5d3c d68e 583b 373f 83bb 574e 28ba
00000140: 0f15 4d3b 4fea 64bb 132d 633c 77f6 9ebb
00000150: 2b0b 24bc 1047 ccb9 d4f4 813b 4e5f 8e3b
00000160: 2833 47bc 7f2f 273c cb2a d4bb 2622 c83b
00000170: acd5 2e3c 022d 08bb d310 afbb b1e1 59bc
00000180: c25a 02bc 6499 84bb 6bd4 553c 358c 973b
00000190: e859 473c 55fe 1c3c c4db 3e3a 69eb 0abc
000001a0: 2298 383b a71f f5bb 1cab 9d3b eab2 323c
000001b0: 8505 64bb 7208 dd3b 24a8 233c 0eec b1ba
000001c0: 879a 143b 98b6 1ebc 1c15 1d3c 1205 86bb
000001d0: ac5d 613c f8fe 013c 853a 07bb 778a 49bc
000001e0: 17f0 533c 154a bf3b 22ea e7bb e677 36b9
000001f0: ac5b 14bc 3a78 c03b 989c e73b cd0b 8dbb
00000200: 6bbe 21bc 87c8 9a38 4614 9abc 9031 9bbb
00000210: 8141 c53b 644d 91ba 7e02 823b 3dca 6cbb
00000220: 10f2 f2bb 0e8b eabb 5019 1fbc 9dd6 3e3c
00000230: 25ff 493c 7673 62ba 1d5e 02bb f247 a0bb
00000240: 1945 8bbb 52a1 0dbc e38e 3e3c edc1 1e3c
00000250: c90a 873c 7c21 b63b cc83 0fbc 437b 56bc
00000260: 80ba 13bc 9923 abbb 26b6 0839 203b 463a
00000270: b672 dbbb f0c2 503b 0399 dbba fc1e 0fbc
00000280: dc1c abbb 02ec c3bc c78f 4c3b d8f2 f2b9
00000290: 67d3 503b d838 39bc 0047 aebb a65b c33b
000002a0: 6e77 11bb a3b3 7dba 7fad 9fbc 40ff 12bc
000002b0: d47a 5dbb bb04 c3bb e4d6 3bbc b838 6ebc
000002c0: 8311 263c fe9f 763b c7e5 9b3c cae1 24bc
000002d0: e211 b23c cc18 773c 8e35 043a 6378 453b
000002e0: 3b8d bdb9 36d6 933c 18ba 083c 69a0 053b
000002f0: 3f84 ab3b d075 a13b ecde f53b 74d0 de3a
00000300: a19b 1039 d127 18bb a3f6 2bbc bd58 363c
00000310: 036d 46bc ce47 bbbb 2486 513c bbdb dd3a
00000320: 5141 90bb 2191 05bb c7a7 0a39 767b 1a3c
00000330: f667 8d3c a358 39bb 10eb 1c3b f22c c6bb
00000340: c955 9f3b f32b 01bc 14be 103c 2f1e fdbb
00000350: 16ba 213c d20f 703c 2beb 633a a5f8 91ba
00000360: c300 a63a 32c5 fd3b 391a c83b 66d8 2fbc
00000370: ae7e 3dba 7875 babb cac9 0bba 1bef 5d3c
00000380: 0c5c 66bb 9f24 80ba 8084 11ba a8bf b53c
00000390: f1dd 89bb fc16 f73b e53b 19bb a20a b6bb
000003a0: 7080 9a3c a515 37bc c2dd d839 a67e 6f3b
000003b0: 561f 2b3c 7b3e ecba eb4d df3b e8e5 073c
000003c0: 0ee1 9f3b 53a2 a23b 6afe c83b bee6 c43b
000003d0: 49f9 2d3c 6c83 a7b7 f8b3 843c a4b4 fd3b
000003e0: 8c2c 153c 4bbc 86bc 8691 e33b 85e1 663c
000003f0: 76f1 ecbb cf7b 0abb 080b 6abb 0346 843b

action_model._discrete_distribution.branches.1.bias f4 [10]
-0.0034782928 0.0033617066 -0.0013266944 5.7424408e-05 0.0010800385 -0.001978855 0.0073693106 -0.004963869
0.002179918 -0.001543408
00000000: 12f4 63bb 1450 5c3b 7ae4 adba fdda 7038
00000010: 1490 8d3a aeaf 01bb 427a f13b f4a7 a2bb
00000020: f5dc 0e3b 2e4c caba

exp_avg f4 [128, 82]
2.5664005e-05 0.0 0.0 2.566071e-05 2.5664005e-05 2.566383e-05 0.0 2.5663208e-05
2.5664005e-05 2.566399e-05 0.0 2.5663787e-05 2.5664005e-05 0.0 2.566383e-05 2.566383e-05
2.5664005e-05 2.566383e-05 2.566383e-05 2.5663907e-05 2.5664005e-05 2.566399e-05 2.566383e-05 2.5664063e-05
2.5664005e-05 0.0 2.566399e-05 2.566395e-05 2.5664005e-05 2.566383e-05 2.566399e-05 2.566399e-05
2.5664005e-05 2.566399e-05 2.566399e-05 2.5663983e-05 2.5664005e-05 2.5663983e-05 2.5663983e-05 2.5664005e-05
2.5664005e-05 5.3500503e-07 0.0 0.0 3.3178537e-07 5.3500503e-07 4.552191e-07 0.0
4.1968735e-07 5.3500503e-07 4.6560694e-07 0.0 4.8452733e-07 5.3500503e-07 0.0 4.552191e-07
4.552191e-07 5.3500503e-07 4.552191e-07 4.552191e-07 5.2723146e-07 5.3500503e-07 4.6560694e-07 4.552191e-07
5.037898e-07 5.3500503e-07 0.0 4.6560694e-07 4.822733e-07 5.3500503e-07 4.552191e-07 4.6560694e-07
4.6560694e-07 5.3500503e-07 4.6560694e-07 4.6560694e-07 5.570118e-07 5.3500503e-07 5.570118e-07 5.570118e-07
5.35005e-07 5.35005e-07 4.621963e-05 0.0 0.0 4.6213718e-05 4.621963e-05 4.621934e-05
0.0 4.6218214e-05 4.621963e-05 4.6219626e-05 0.0 4.6219164e-05 4.621963e-05 0.0
4.621934e-05 4.621934e-05 4.621963e-05 4.621934e-05 4.621934e-05 4.6219462e-05 4.621963e-05 4.6219626e-05
4.621934e-05 4.6219666e-05 4.621963e-05 0.0 4.6219626e-05 4.621956e-05 4.621963e-05 4.621934e-05
4.6219626e-05 4.6219626e-05 4.621963e-05 4.6219626e-05 4.6219626e-05 4.621963e-05 4.621963e-05 4.621963e-05
4.621963e-05 4.621963e-05 4.621963e-05 4.9404986e-07 0.0 0.0 3.0638688e-07 4.9404986e-07
4.203716e-07 0.0 3.875599e-07 4.9404986e-07 4.2996442e-07 0.0 4.4743632e-07 4.9404986e-07
0.0 4.203716e-07 4.203716e-07 4.9404986e-07 4.203716e-07 4.203716e-07 4.8687144e-07 4.9404986e-07
4.2996442e-07 4.203716e-07 4.652241e-07 4.9404986e-07 0.0 4.2996442e-07 4.4535483e-07 4.9404986e-07
4.203716e-07 4.2996442e-07 4.2996442e-07 4.9404986e-07 4.2996442e-07 4.2996442e-07 5.143721e-07 4.9404986e-07
5.143721e-07 5.143721e-07 4.9404986e-07 4.9404986e-07 -4.727158e-05 0.0 0.0 -4.7265537e-05
-4.727158e-05 -4.7271307e-05 0.0 -4.727016e-05 -4.727158e-05 -4.72716e-05 0.0 -4.727091e-05
-4.727158e-05 0.0 -4.7271307e-05 -4.7271307e-05 -4.727158e-05 -4.7271307e-05 -4.7271307e-05 -4.7271395e-05
-4.727158e-05 -4.72716e-05 -4.7271307e-05 -4.7271424e-05 -4.727158e-05 0.0 -4.72716e-05 -4.727153e-05
-4.727158e-05 -4.7271307e-05 -4.72716e-05 -4.72716e-05 -4.727158e-05 -4.72716e-05 -4.72716e-05 -4.7271664e-05
-4.727158e-05 -4.7271664e-05 -4.7271664e-05 -4.727158e-05 -4.727158e-05 6.097708e-07 0.0 0.0
3.7815147e-07 6.097708e-07 5.18835e-07 0.0 4.783377e-07 6.097708e-07 5.3067447e-07 0.0
5.522388e-07 6.097708e-07 0.0 5.18835e-07 5.18835e-07 6.097708e-07 5.18835e-07 5.18835e-07
6.009109e-07 6.097708e-07 5.3067447e-07 5.18835e-07 5.7419334e-07 6.097708e-07 0.0 5.3067447e-07
5.4966983e-07 6.097708e-07 5.18835e-07 5.3067447e-07 5.3067447e-07 6.097708e-07 5.3067447e-07 5.3067447e-07
6.348532e-07 6.097708e-07 6.348532e-07 6.348532e-07 6.0977084e-07 6.0977084e-07 2.6960119e-05 0.0
0.0 2.695666e-05 2.6960119e-05 2.6959926e-05 0.0 2.6959286e-05 2.6960119e-05 2.6960102e-05
00000000: 0849 d737 0000 0000 0000 0000 f541 d737
00000010: 0849 d737 a848 d737 0000 0000 5247 d737
00000020: 0849 d737 0049 d737 0000 0000 9048 d737
00000030: 0849 d737 0000 0000 a848 d737 a848 d737
00000040: 0849 d737 a848 d737 a848 d737 d248 d737
00000050: 0849 d737 0049 d737 a848 d737 2849 d737
00000060: 0849 d737 0000 0000 0049 d737 ea48 d737
00000070: 0849 d737 a848 d737 0049 d737 0049 d737
00000080: 0849 d737 0049 d737 0049 d737 fc48 d737
00000090: 0849 d737 fc48 d737 fc48 d737 0849 d737
000000a0: 0849 d737 449d 0f35 0000 0000 0000 0000
000000b0: 3c20 b234 449d 0f35 d664 f434 0000 0000
000000c0: 6451 e134 449d 0f35 88f8 f934 0000 0000
000000d0: 7710 0235 449d 0f35 0000 0000 d664 f434
000000e0: d664 f434 449d 0f35 d664 f434 d664 f434
000000f0: 1287 0d35 449d 0f35 88f8 f934 d664 f434
00000100: 2c3c 0735 449d 0f35 0000 0000 88f8 f934
00000110: 9275 0135 449d 0f35 d664 f434 88f8 f934
00000120: 88f8 f934 449d 0f35 88f8 f934 88f8 f934
00000130: 8f85 1535 449d 0f35 8f85 1535 8f85 1535
00000140: 439d 0f35 439d 0f35 f3db 4138 0000 0000
00000150: 0000 0000 9ad5 4138 f3db 4138 a3db 4138
00000160: 0000 0000 6eda 4138 f3db 4138 f2db 4138
00000170: 0000 0000 73db 4138 f3db 4138 0000 0000
00000180: a3db 4138 a3db 4138 f3db 4138 a3db 4138
00000190: a3db 4138 c5db 4138 f3db 4138 f2db 4138
000001a0: a3db 4138 fddb 4138 f3db 4138 0000 0000
000001b0: f2db 4138 e0db 4138 f3db 4138 a3db 4138
000001c0: f2db 4138 f2db 4138 f3db 4138 f2db 4138
000001d0: f2db 4138 f3db 4138 f3db 4138 f3db 4138
000001e0: f3db 4138 f3db 4138 f3db 4138 d99e 0435
000001f0: 0000 0000 0000 0000 7e7d a434 d99e 0435
00000200: 6faf e134 0000 0000 d411 d034 d99e 0435
00000210: dcd5 e634 0000 0000 2e37 f034 d99e 0435
00000220: 0000 0000 6faf e134 6faf e134 d99e 0435
00000230: 6faf e134 6faf e134 8db1 0235 d99e 0435
00000240: dcd5 e634 6faf e134 eac3 f934 d99e 0435
00000250: 0000 0000 dcd5 e634 1a19 ef34 d99e 0435
00000260: 6faf e134 dcd5 e634 dcd5 e634 d99e 0435
00000270: dcd5 e634 dcd5 e634 6213 0a35 d99e 0435
00000280: 6213 0a35 6213 0a35 d99e 0435 d99e 0435
00000290: 7945 46b8 0000 0000 0000 0000 fc3e 46b8
000002a0: 7945 46b8 2e45 46b8 0000 0000 f343 46b8
000002b0: 7945 46b8 7e45 46b8 0000 0000 c144 46b8
000002c0: 7945 46b8 0000 0000 2e45 46b8 2e45 46b8
000002d0: 7945 46b8 2e45 46b8 2e45 46b8 4645 46b8
000002e0: 7945 46b8 7e45 46b8 2e45 46b8 4e45 46b8
000002f0: 7945 46b8 0000 0000 7e45 46b8 6b45 46b8
00000300: 7945 46b8 2e45 46b8 7e45 46b8 7e45 46b8
00000310: 7945 46b8 7e45 46b8 7e45 46b8 9045 46b8
00000320: 7945 46b8 9045 46b8 9045 46b8 7945 46b8
00000330: 7945 46b8 21af 2335 0000 0000 0000 0000
00000340: be04 cb34 21af 2335 1246 0b35 0000 0000
00000350: 1e67 0035 21af 2335 ac73 0e35 0000 0000
00000360: 903d 1435 21af 2335 0000 0000 1246 0b35
00000370: 1246 0b35 21af 2335 1246 0b35 1246 0b35
00000380: 484e 2135 21af 2335 ac73 0e35 1246 0b35
00000390: 4422 1a35 21af 2335 0000 0000 ac73 0e35
000003a0: 068d 1335 21af 2335 1246 0b35 ac73 0e35
000003b0: ac73 0e35 21af 2335 ac73 0e35 ac73 0e35
000003c0: c86a 2a35 21af 2335 c86a 2a35 c86a 2a35
000003d0: 22af 2335 22af 2335 6a28 e237 0000 0000
000003e0: 0000 0000 fd20 e237 6a28 e237 0028 e237
000003f0: 0000 0000 a026 e237 6a28 e237 6128 e237
