Assets/Config/results/ThiefLearn1/ThiefLearn1/ThiefLearn1-30770.onnx (onnx, 308121 bytes, 11 tensors)

discrete_act_size_vector f4 [1, 2]
00000000: 0000 2041 0000 2041
10.0 10.0

network_body.observation_encoder.processors.0.normalizer.running_mean f4 [430]
00000000: fca8 1a3f bb31 ea3f fc1e 283e 0000 0000
00000010: 0000 0000 b162 293e b162 293e 1c82 073e
00000020: 0000 0000 b162 a93e 1614 fe3e 1c82 873e
00000030: 0000 0000 1614 fe3e 2dbb 533f 0000 0000
00000040: 1c82 073e b162 a93e b162 a93e 1c82 073e
00000050: 1c82 073e 1614 fe3e 1614 fe3e 1c82 873e
00000060: 1c82 073e b162 293f 1614 7e3f 0000 0000
00000070: 1c82 873e 1614 fe3e 1614 fe3e 1c82 073e
00000080: 1c82 873e b162 293f b162 293f 1c82 873e
00000090: 1c82 873e 2dbb 533f 1614 7e3f 4b72 983e
000000a0: 4b72 983e 1614 7e3f 1614 7e3f ba2f 3d3f
000000b0: c615 0940 063f 553e 0000 0000 0000 0000
000000c0: 4fa6 533e 4fa6 533e 8951 293e 0000 0000
000000d0: 4fa6 d33e 55bc 1e3f 8951 a93e 0000 0000
000000e0: 55bc 1e3f c147 843f 0000 0000 8951 293e
000000f0: 4fa6 d33e 4fa6 d33e 8951 293e 8951 293e
00000100: 55bc 1e3f 55bc 1e3f 8951 a93e 8951 293e
00000110: 4fa6 533f 55bc 9e3f 0000 0000 8951 a93e
00000120: 55bc 1e3f 55bc 1e3f 8951 293e 8951 a93e
00000130: 4fa6 533f 4fa6 533f 8951 a93e 8951 a93e
00000140: c147 843f 55bc 9e3f c17b be3e c17b be3e
00000150: 55bc 9e3f 55bc 9e3f 039c 6b3f 1610 2340
00000160: f115 8b3e 0000 0000 0000 0000 9546 873e
00000170: 9546 873e f370 583e 0000 0000 9546 073f
00000180: c7e9 4a3f f370 d83e 0000 0000 c7e9 4a3f
00000190: 0918 a93f 0000 0000 f370 583e 9546 073f
000001a0: 9546 073f f370 583e f370 583e c7e9 4a3f
000001b0: c7e9 4a3f f370 d83e f370 583e 9546 873f
000001c0: c7e9 ca3f 0000 0000 f370 d83e c7e9 4a3f
000001d0: c7e9 4a3f f370 583e f370 d83e 9546 873f
000001e0: 9546 873f f370 d83e f370 d83e 0918 a93f
000001f0: c7e9 ca3f 057f f33e 057f f33e c7e9 ca3f
00000200: c7e9 ca3f d594 973f 2fa9 4540 330c c03e
00000210: 0000 0000 0000 0000 2473 b43e 2473 b43e
00000220: 5b5c 903e 0000 0000 2473 343f 6456 873f
00000230: 5b5c 103f 0000 0000 6456 873f 2d90 e13f
00000240: 0000 0000 5b5c 903e 2473 343f 2473 343f
00000250: 5b5c 903e 5b5c 903e 6456 873f 6456 873f
00000260: 5b5c 103f 5b5c 903e 2473 b43f 6456 0740
00000270: 0000 0000 5b5c 103f 6456 873f 6456 873f
00000280: 5b5c 903e 5b5c 103f 2473 b43f 2473 b43f
00000290: 5b5c 103f 5b5c 103f 2d90 e13f 6456 0740
000002a0: b467 223f b467 223f 6456 0740 6456 0740
000002b0: 9329 cb3f f7d9 7540 4267 1e3f 0000 0000
000002c0: 0000 0000 0c1b 093f 0c1b 093f 785e db3e
000002d0: 0000 0000 0c1b 893f a3a8 cd3f 785e 5b3f
000002e0: 0000 0000 a3a8 cd3f 0062 2b40 0000 0000
000002f0: 785e db3e 0c1b 893f 0c1b 893f 785e db3e
00000300: 785e db3e a3a8 cd3f a3a8 cd3f 785e 5b3f
00000310: 785e db3e 0c1b 0940 a3a8 4d40 0000 0000
00000320: 785e 5b3f a3a8 cd3f a3a8 cd3f 785e db3e
00000330: 785e 5b3f 0c1b 0940 0c1b 0940 785e 5b3f
00000340: 785e 5b3f 0062 2b40 a3a8 4d40 5fca 763f
00000350: 5fca 763f a3a8 4d40 a3a8 4d40 e970 1440
00000360: df28 a440 a96a 963f 0000 0000 0000 0000
00000370: 2710 6e3f 2710 6e3f 5473 3e3f 0000 0000
00000380: 2710 ee3f 188c 3240 5473 be3f 0000 0000
00000390: 188c 3240 0eca 9440 0000 0000 5473 3e3f
000003a0: 2710 ee3f 2710 ee3f 5473 3e3f 5473 3e3f
000003b0: 188c 3240 188c 3240 5473 be3f 5473 3e3f
000003c0: 2710 6e40 188c b240 0000 0000 5473 be3f
000003d0: 188c 3240 188c 3240 5473 3e3f 5473 be3f
000003e0: 2710 6e40 2710 6e40 5473 be3f 5473 be3f
000003f0: 0eca 9440 188c b240 dd41 d63f dd41 d63f
0.604141 1.8296427 0.1641807 0.0 0.0 0.16541554 0.16541554 0.13233227
0.0 0.33083108 0.496247 0.26466453 0.0 0.496247 0.8270748 0.0
0.13233227 0.33083108 0.33083108 0.13233227 0.13233227 0.496247 0.496247 0.26466453
0.13233227 0.66166216 0.992494 0.0 0.26466453 0.496247 0.496247 0.13233227
0.26466453 0.66166216 0.66166216 0.26466453 0.26466453 0.8270748 0.992494 0.297747
0.297747 0.992494 0.992494 0.7390095 2.141954 0.20824823 0.0 0.0
0.2066891 0.2066891 0.1653501 0.0 0.4133782 0.6200612 0.3307002 0.0
0.6200612 1.0334398 0.0 0.1653501 0.4133782 0.4133782 0.1653501 0.1653501
0.6200612 0.6200612 0.3307002 0.1653501 0.8267564 1.2401224 0.0 0.3307002
0.6200612 0.6200612 0.1653501 0.3307002 0.8267564 0.8267564 0.3307002 0.3307002
1.0334398 1.2401224 0.37203792 0.37203792 1.2401224 1.2401224 0.9203493 2.5478568
0.27165177 0.0 0.0 0.26421037 0.26421037 0.21136837 0.0 0.52842075
0.79262966 0.42273673 0.0 0.79262966 1.321046 0.0 0.21136837 0.52842075
0.52842075 0.21136837 0.21136837 0.79262966 0.79262966 0.42273673 0.21136837 1.0568415
1.5852593 0.0 0.42273673 0.79262966 0.79262966 0.21136837 0.42273673 1.0568415
1.0568415 0.42273673 0.42273673 1.321046 1.5852593 0.47557846 0.47557846 1.5852593
1.5852593 1.1842295 3.0884511 0.37509307 0.0 0.0 0.35244095 0.35244095
0.28195462 0.0 0.7048819 1.0573239 0.56390923 0.0 1.0573239 1.7622124
0.0 0.28195462 0.7048819 0.7048819 0.28195462 0.28195462 1.0573239 1.0573239
0.56390923 0.28195462 1.4097638 2.1146479 0.0 0.56390923 1.0573239 1.0573239
0.28195462 0.56390923 1.4097638 1.4097638 0.56390923 0.56390923 1.7622124 2.1146479
0.6343949 0.6343949 2.1146479 2.1146479 1.5872062 3.8414285 0.6187631 0.0
0.0 0.53556895 0.53556895 0.4284551 0.0 1.0711379 1.6067089 0.8569102
0.0 1.6067089 2.6778564 0.0 0.4284551 1.0711379 1.0711379 0.4284551
0.4284551 1.6067089 1.6067089 0.8569102 0.4284551 2.1422758 3.2134178 0.0
0.8569102 1.6067089 1.6067089 0.4284551 0.8569102 2.1422758 2.1422758 0.8569102
0.8569102 2.6778564 3.2134178 0.96402544 0.96402544 3.2134178 3.2134178 2.3193915
5.129989 1.17513 0.0 0.0 0.92993397 0.92993397 0.74394727 0.0
1.8598679 2.7898006 1.4878945 0.0 2.7898006 4.649665 0.0 0.74394727
1.8598679 1.8598679 0.74394727 0.74394727 2.7898006 2.7898006 1.4878945 0.74394727
3.7197359 5.5796013 0.0 1.4878945 2.7898006 2.7898006 0.74394727 1.4878945
3.7197359 3.7197359 1.4878945 1.4878945 4.649665 5.5796013 1.673885 1.673885

network_body._body_endoder.seq_layers.0.weight f4 [128, 430]
00000000: 4c6e 123c 6b10 0c3c be7b c23c c85d 673c
00000010: 1102 c03c b667 0e3d cefb 2e3d 6fdb 8dbc
00000020: f129 843d ddc3 68bc cb04 483c 50f3 663d
00000030: 948c b93c 4b4e 69bd 031c 10bd f8c4 cd3b
00000040: 9942 b6bd b16e 5f3d 185c c9bd 0345 093d
00000050: d5cc e7ba fe6a b8bc 3c52 143c 29ea 963c
00000060: cfff 233d ea4c ca3c 4b0b a3bc 2ea3 8d3c
00000070: 3951 53bd aaee e3bc be90 893d 23ce 7bbd
00000080: c740 9e3c 6427 ddbd 9aae 98bd a157 acbb
00000090: e83d 94bd e551 5fbd 477a d63c 3c92 fbbc
000000a0: 4f77 34bd 9511 a93d 1aad e33d c79d e5bc
000000b0: 81e7 383d 17a1 a5bc bbf2 bbbc 55f6 623d
000000c0: af11 483c d448 bd39 d553 e6bd 6d89 7e3d
000000d0: 9764 ca39 0ca6 a4ba 2086 693b f960 1dbd
000000e0: 2acb c4bd dca8 6abc 6288 2a3c a5ee b9bd
000000f0: f307 1dbd 1c6c 953a a508 f3bc a79c 1dbd
00000100: 5c73 6bbc 1132 2dbd 23ec 26bd e7d9 753d
00000110: 6f55 a73d 74a7 23bd 67b8 92bd a079 96bc
00000120: 72c8 2bbd c1a7 d3bb 3668 5dbc a6a5 82bc
00000130: 04df 43bd 07a1 30bd 7a67 8abc fa47 04bd
00000140: d12e 3e3d 18c4 a1bd 3beb 523c 8eb3 d9bc
00000150: 907f a53d 3e80 6bbd cae5 6fbd b918 93bd
00000160: 981e 89bd 5786 1f3c 2da9 3a3c 33f4 843d
00000170: fd9b 3fbd dc8f 57bd f21f a4bc ce56 67bc
00000180: 1a62 bfbc ba12 1dbd 9650 e63c d6b0 bcbc
00000190: c91d 433c 771d f63c 1845 16bd 72c6 eb3c
000001a0: 4c23 82bc cb32 66bc 7f9f 723d 0e07 a5bd
000001b0: 78c3 50bc bfff 1abe 3be6 313d 366b 05be
000001c0: 47ae b73d 6a9d 173d 49a8 93bd 6c8d 35bd
000001d0: c21b f2bc fd6c 73bc 71c0 8fbd 077f 84bc
000001e0: 9f89 cfbd 32fd 6dbd 0c82 14bd fd2a 83bc
000001f0: 8348 243b 0174 47bd 88cd af3c 950d fcbc
00000200: 5fff 2ebd 1313 e33b 53d1 28bd 44d2 fb3d
00000210: 95ac 8abd 1d4b 44bb a605 673d 4026 09bc
00000220: 2be0 37bd b145 e7bb a1cc 40bd 7a4a b83c
00000230: c46d 4fbc d3e7 9f3d 6f55 1fbd 9e8c dbbc
00000240: eb1c f1ba caeb c0bc 5c6f b1bc 5b01 bcbd
00000250: 9d24 753d 219d a2bd dc52 98bd 4861 523d
00000260: 087c f7bd 8b74 933d 2c20 733d ff2b 2bbb
00000270: 3c9e 8b3c f53c ea3c 70f9 e3bc c638 80bd
00000280: 1766 24bd d947 d03c 750a 503c c03a 3a3a
00000290: 3f30 dcbb f5a1 c23c c438 a9bc 2eb3 af3c
000002a0: 4c8d 4b3d b6e5 0fbb fff6 593d df40 6f3c
000002b0: a7ae db3d 35a7 2fbd ab5e 7f3d d23d 003c
000002c0: 5c7d 5fbd ac2d e63c 1614 96bd 1cc0 363d
000002d0: 2a7a 65bd aba5 1e3d 9b96 0a3d 8fe3 8d3c
000002e0: 1843 14bd 63ea 64bd 3825 89bc 0564 093c
000002f0: 3b8c d13c c6c6 8d3d 47ac d0bb a090 c4bb
00000300: ce17 d1bb 1480 873a e610 b63d 4d34 eebc
00000310: 668a 993d 7b09 4a3c 1a48 ebbd 6dbd 95bc
00000320: 9f66 09be 75b9 193d 5d70 0e3d 9297 3abc
00000330: ad07 9abc 699b 0dbd 5126 2b3d 45b3 eebc
00000340: 71a1 043d 723d e13b 4e60 563c 6360 b63d
00000350: f8a8 193d 62ed 103c a8c7 e1bb 8c85 543d
00000360: a644 b53c 2983 19bc 0314 373c cd11 86bd
00000370: e714 83bb 04c8 30bd e4a0 4d3d 59b1 e53c
00000380: 5af8 0abd d4ed afbb e627 8a3d bd39 64bc
00000390: 09ae c8bc c558 a13d 60d3 18bd e422 a73b
000003a0: 4856 773d f306 f0bc 8c9c 93bd a625 233d
000003b0: 96c0 543c 19cb 983c aa26 a43d 8842 893d
000003c0: 3c9e 223d 8c84 37b9 e886 593d b364 e6bc
000003d0: 3063 e93c acf0 553c d7e2 b93c 4387 f5bb
000003e0: 1eff 9ebd 101f 30bc d6f1 e7bd b3d2 bcbc
000003f0: a3f9 9f3d 085a f33c ea1b d53d f4cb cabc
0.00893743 0.008548836 0.023740645 0.01412148 0.023438485 0.034766875 0.04272061 -0.017316548
0.06453312 -0.014206854 0.012208174 0.056384385 0.02265004 -0.05695943 -0.035182964 0.006279584
-0.08899421 0.054548923 -0.098320186 0.03351308 -0.0017684946 -0.022511955 0.009052809 0.018422203
0.04003888 0.024694879 -0.019902846 0.017289724 -0.05159113 -0.027823765 0.067170605 -0.061475884
0.019317998 -0.10798529 -0.074551776 -0.0052594696 -0.0723837 -0.05452146 0.026181353 -0.030709378
-0.044059094 0.08255307 0.11117001 -0.028029336 0.045142654 -0.020218415 -0.022942891 0.0554107
0.012211247 0.0003610315 -0.112464584 0.06214278 0.00038603388 -0.0012561693 0.0035632923 -0.03842256
-0.09609063 -0.014322486 0.010408493 -0.09078721 -0.03833766 0.0011400017 -0.029667208 -0.038479473
-0.014370766 -0.042284075 -0.04075254 0.06002226 0.08170592 -0.039954618 -0.07164078 -0.018368542
-0.041939206 -0.006459207 -0.013513615 -0.015948128 -0.047820106 -0.043122318 -0.016895045 -0.032295205
0.046431366 -0.0789873 0.012873466 -0.026574876 0.08080971 -0.05749535 -0.058568753 -0.0718245
-0.066952884 0.009736619 0.011392874 0.0649189 -0.04677962 -0.05262743 -0.020034764 -0.014119817
-0.023362208 -0.038347937 0.028114598 -0.02303354 0.011908957 0.030043347 -0.036686987 0.02878115
-0.015885971 -0.014050196 0.05923414 -0.08057986 -0.012741916 -0.15136622 0.043432456 -0.13029179
0.08968788 0.037015356 -0.07209832 -0.044324324 -0.029554252 -0.014857528 -0.07019127 -0.016173853
-0.10133671 -0.058102794 -0.036256835 -0.01601171 0.0025067634 -0.048694614 0.02146031 -0.030768195
-0.04272401 0.006929764 -0.041215252 0.12295964 -0.06771199 -0.0029951998 0.05640187 -0.008370936
-0.044891518 -0.0070578684 -0.04707015 0.02249645 -0.0126604475 0.07807889 -0.038899835 -0.02680045
-0.0018395459 -0.023549933 -0.021659546 -0.09179946 0.05984937 -0.07940126 -0.07437679 0.051362306
-0.12084204 0.07199963 0.059356853 -0.0026118753 0.017043225 0.02859352 -0.027828902 -0.06260829
-0.040136423 0.025424885 0.012697806 0.00071040913 -0.0067196186 0.023758868 -0.02065695 0.021447744
0.049695298 -0.0021956987 0.05321407 0.014602869 0.10726672 -0.04288407 0.06234614 0.007827239
-0.05456291 0.02809795 -0.0732805 0.044616804 -0.056024708 0.038732212 0.033835035 0.017320422
-0.036196798 -0.05588759 -0.01674138 0.008385663 0.025579562 0.06922679 -0.0063681933 -0.005998686
-0.0063810116 0.0010337853 0.08889942 -0.029077673 0.074971005 0.012331362 -0.11488362 -0.018278802
-0.13418053 0.03753038 0.034775127 -0.011388676 -0.018802488 -0.03457204 0.04178459 -0.029138217
0.032380525 0.00687378 0.013084484 0.08905103 0.037514657 0.008845659 -0.006890256 0.051885173
0.02212746 -0.00936965 0.011174205 -0.06546364 -0.0040002945 -0.0431595 0.050202265 0.028038668
-0.033928253 -0.0053689275 0.06745891 -0.0139297815 -0.024497049 0.078782596 -0.037310958 0.005100595
0.06038502 -0.029300189 -0.07207593 0.039830826 0.012985369 0.018651532 0.08015187 0.06702143
0.039701685 -0.00017501618 0.053107172 -0.028124189 0.02848968 0.013057869 0.022691173 -0.007492931
-0.077635035 -0.010749593 -0.113254234 -0.023049688 0.07811286 0.029706016 0.10405715 -0.024755456

network_body._body_endoder.seq_layers.0.bias f4 [128]
00000000: 603b b93c 48d1 0e3b 56b7 813c c141 d63c
00000010: ab60 403c 0120 fb3c d011 a13c d3c8 1b3c
00000020: 561e fd3c 6fb6 133c 7a68 75bb 3e19 4cbb
00000030: 2e1e 2c3c 83b7 8b3c 2052 5f3c d029 e83c
00000040: 5fdc 80bc 8c0d 743b f06f 833c e5fe 1d3c
00000050: 88e0 803b 6ce3 593c 39db 0f3c e2a1 863c
00000060: a55f 103c 6bab 47bc c7c3 52bc 12f2 8d3c
00000070: c498 923b 11bd 133c 390f ae3b 1e86 fd3b
00000080: 67f7 993c daeb de3c 0d0c 693c 663e d438
00000090: 602a bd3b fef4 503c 3e54 e7bc a38e 153b
000000a0: a36a 583c b4f9 4a3c f736 883c 10c0 10b9
000000b0: 481d 7bbc 646b 4b39 bae9 d63c 62e3 f53c
000000c0: 0ffa 5a3b fc3a af3c d86c d03c 6dc3 ab3a
000000d0: 37ec 3c3c ea4b 27bb 5c43 bc3c e835 cf3b
000000e0: f6f3 1fbc 1c48 913c 188f 37bc 1d0d 3abc
000000f0: b207 d23c 8dcf 493c 9f06 db3b 85f0 653c
00000100: 178c 8c3c 431f 93bb 9c0a 4b3c d280 ed3c
00000110: 6f8c 3c3c 9490 943c 8f99 c13c f586 d23b
00000120: c60b d73c 3eb1 8d3c d4e1 b1bb 4bb3 c33c
00000130: 2c01 4e3c f17c 443c ba69 fb3c c36b 43bc
00000140: 3d11 7ebc 1e92 7abb 56af 0b3c c147 a53b
00000150: da58 b6bc 444c 103c 066d 5d3a a58a cf3c
00000160: 40c6 c63c aca0 093b c54d 6d3b 742f 623c
00000170: 2c9d c03c 4604 163b f416 df3c 40a6 b13b
00000180: 7c93 873b 7e8a 25bb 46fe b73c 8ab1 7c3c
00000190: 0702 973c 2cf1 c03c 4c77 8f3c aa38 c7bb
000001a0: 77b3 b23c 2308 213c 535e 353c 6134 163b
000001b0: 90d1 ad3b f2ec 5b3a e34b 873b 0884 14bc
000001c0: bb71 db3c e4a4 933c 73af 6f3c c091 34bc
000001d0: 0447 383c 5775 963c cfaa 0b3c c2a1 b73b
000001e0: 68b6 e33c 31e2 bf3b 9211 7a3c 3d18 acbb
000001f0: 1f57 c83b 01ad d73c 8fad 4f3b d64b 973c
0.02261132 0.0021792222 0.015834492 0.0261544 0.011741797 0.03065491 0.019661814 0.009508329
0.030898254 0.0090156635 -0.0037446306 -0.0031142975 0.010505242 0.017055279 0.01363042 0.02834025
-0.015730081 0.003723952 0.016044587 0.009643291 0.003933016 0.0132988505 0.008780294 0.016434614
0.008811866 -0.012186865 -0.01286406 0.017327342 0.0044737775 0.009017245 0.0053118733 0.0077369353
0.018794728 0.027212072 0.014224065 0.000101205704 0.0057728738 0.012753723 -0.028238412 0.0022820614
0.013209018 0.012388635 0.016627772 -0.00013804459 -0.015326805 0.00019399595 0.026234496 0.030015651
0.0033413207 0.02139043 0.025442526 0.0013104506 0.011530927 -0.0025527426 0.022981338 0.006323565
-0.009762755 0.01773458 -0.01120355 -0.0113556655 0.025638435 0.01231755 0.006684139 0.014034395
0.017156644 -0.0044898107 0.012392666 0.02899209 0.011508091 0.018135346 0.023632793 0.0064247795
0.026250731 0.01729643 -0.005428532 0.023889204 0.012573522 0.011992679 0.030690063 -0.011927548
-0.01550704 -0.0038234065 0.00852569 0.005043954 -0.022259165 0.008807246 0.0008446727 0.025334666
0.024264455 0.002100031 0.0036209684 0.013805259 0.023512445 0.002289073 0.027232625 0.00542143
0.0041374546 -0.002525955 0.022460114 0.015423188 0.018433584 0.0235525 0.01751294 -0.006079753
0.021814091 0.0098286 0.011069852 0.0022919404 0.005304523 0.00083894946 0.0041289194 -0.009064682
0.02678763 0.018022962 0.014629233 -0.011021078 0.0112474 0.018366499 0.008524611 0.005604
0.027796939 0.0058558215 0.015262978 -0.005251913 0.0061139013 0.026327612 0.0031689142 0.018468779

network_body._body_endoder.seq_layers.2.weight f4 [128, 128]
00000000: 8119 7ebd cb32 953d b459 89bb e916 b9bd
00000010: ad47 febc 645f 053e cb7a 25be 1a80 753e
00000020: 8680 c8bd 9885 893d 57e1 49be 5466 8d3d
00000030: 7654 243d 9035 95bd 45fe 1fbb fc63 973d
00000040: 8bc5 d03d e74f 99bc 98cc ea3d 5bac 073c
00000050: d7e2 51bd f3ed 35bc bf79 41be 1e5d 41bd
00000060: 4243 8c3b 30e9 f5bc b3de 20be 78b6 16bd
00000070: 14c8 503e 9964 793c a848 e83c 2756 6a3b
00000080: 4e7e e13d 5de8 8fbe b618 923c b228 463d
00000090: 991e 983d 504b 10be 62b1 5b3d f5c5 0a3d
000000a0: d228 f93a 20f6 5fbe 86ac f93d fd9a 8f3d
000000b0: e74b d63d 2725 9fbd 6d73 a83d 3277 e33d
000000c0: 4253 91bd 22ca ef3d 1877 7e3d 6f4e 6d3c
000000d0: a6f7 8ebd 269f 643d e3e4 f7bc 948f 533e
000000e0: a37f 833d b502 a53c 8dc7 33bc db19 163d
000000f0: cf67 093d c32a 42be a046 913d c6a6 403d
00000100: 7122 093e bf38 6d3b 13e1 363e 1df3 853d
00000110: d261 f03c bccb 2b3e e40e 453e 546f 4cbd
00000120: 8312 a13c d6ae 8b3d 3755 31be 0f19 7aba
00000130: 0443 f33d 5367 92bd 41e5 7bbd 6e8e e2bc
00000140: 66b9 febb 192e 043d 9a86 133e 8cd6 ea3d
00000150: 55eb e93d 5629 1f3e d441 0dbe 1be5 eb3b
00000160: e3cb 803e 423b 913d 7bea e53c c1b3 53bd
00000170: 79ff 803c b10b afbd 575d 753d 8909 743d
00000180: 74e9 59bd 58eb d5bd 3e73 14be 42ea f0bd
00000190: 8bc9 8f3d 56e5 f73d 5d79 033e 471e 1fbd
000001a0: 7c8a 853d 3aa9 db3d b4bd 793d 9e6d 12be
000001b0: cd0f c0bd 186e b23d cb88 b33d 7ab1 0cbd
000001c0: 3083 93bc 4fce 6cbe a95e 3c3d 26fa dc3c
000001d0: f209 37bd 3ea2 d2bd 0543 d3bd 5ce0 aabd
000001e0: 09b6 3f3d 526c 99bd bed7 84bd 1ec6 1a3c
000001f0: 4edc 68be ca13 583d a6a1 9c3b 49db b33d
00000200: c93a e23d 604a 69bd 9d91 5cbc 7650 823d
00000210: 2de0 ed3d c407 cdbd 449b 92bd 5556 1fbd
00000220: ae3b 0dbe d0a8 493e c476 4ebd 8c3e 11bd
00000230: 390f 5bbe ad78 acbd a115 e7bd e7c7 3c3e
00000240: e933 e2bd 49ec 22be 4a72 873d 19d3 edbd
00000250: c10d 873c ef65 1bbd 9a26 95bb 753d 73bd
00000260: b3c3 d63d cb2a dd3d bd9e 4cbd 916f a5bd
00000270: bdf7 95bd 28c9 05be 8fcf 303d 81ce 2e3e
00000280: eba9 603d d8ce c23d 2ad1 15bd 8053 5fbe
00000290: 70dd 2a3e 85f9 23be e10b 5abd 58ec f0bd
000002a0: d60d 0dbe 2632 9bbd f322 5e3d daf0 a33d
000002b0: 107e 24be 08f7 9e3d c877 363d 9d54 dd3d
000002c0: a8bc 0ebd ca37 c4bd a680 0c3e d616 b1bc
000002d0: 98b7 1fbe 9d4e 403d cbbf 47bc 9890 543c
000002e0: aba6 11be e4ae 003e a2f8 2b3e 1b99 39ba
000002f0: dfaa 12bd a53c a83c 5fe3 3f3d f865 84bb
00000300: 22d6 f2bd 64ed 563d 00ea 203e abc4 92bc
00000310: 57eb 72bd 623e 18bd e6ad ca3d 2059 bbbd
00000320: d309 a63d 004e 73be 805f d9bd 595d 6a3d
00000330: 36ef c33b 7da3 ffbd 2487 c13c 5042 0ebd
00000340: 2484 eebd 84e0 acbd b96e 09be b2d3 61bd
00000350: d2c4 d6bd 6abe 0d3d d604 6cbd 7368 123e
00000360: 547a 963d a769 423e 8c74 eabd 2ad4 8dbd
00000370: d87b bf3d 80fd a2bc b11e 4c3d 77ce 62bc
00000380: c84a a1ba b926 0bbe f73b 073d 277d 41bd
00000390: 3e47 e93d 1814 063d a5ba 86bd 6bfe a83d
000003a0: 4258 973d 2413 dabc dcb2 193e c844 893d
000003b0: 774a 83bd da29 8fbd 5cef a13d aab0 843b
000003c0: aea3 c83c 7467 023e 1eec 963c e71f be3d
000003d0: dc57 99bc c725 003e 92bb 103e f7c6 afb9
000003e0: 6e60 57bd ffb5 d9bd f12c af3c fad6 3bbe
000003f0: 9d75 3cbd b43a cabd dc2d 153d b836 6bbe
-0.06203604 0.072850786 -0.0041916016 -0.09037573 -0.031040037 0.1302467 -0.16160123 0.23974648
-0.09790139 0.06714934 -0.19714867 0.06904283 0.04011961 -0.07285607 -0.002441303 0.073921174
0.10193928 -0.018714858 0.114648044 0.008280839 -0.051241722 -0.011104095 -0.18894099 -0.047207944
0.0042804787 -0.030018419 -0.15709953 -0.03679511 0.20388824 0.015221738 0.028354958 0.0035756917
0.11010419 -0.28106967 0.017834049 0.048378654 0.07427711 -0.1409123 0.053635962 0.033880193
0.0019009358 -0.21871233 0.12191109 0.070119835 0.10463696 -0.07770758 0.08225141 0.11106719
-0.07095958 0.11708476 0.062125295 0.014484032 -0.06980829 0.05581584 -0.030260509 0.2066024
0.06420829 0.020142892 -0.01097287 0.03664575 0.033546265 -0.18961625 0.07093549 0.047034048
0.13392045 0.0036197153 0.17859297 0.06540511 0.02934352 0.16776937 0.19243962 -0.04991086
0.019662147 0.06820457 -0.17317663 -0.0009540477 0.118780166 -0.07148614 -0.06149793 -0.027655806
-0.007773566 0.032270525 0.14406815 0.11466703 0.11421839 0.15543112 -0.13794643 0.0071989424
0.25155553 0.07091381 0.02806591 -0.0516851 0.015746819 -0.08547152 0.05990347 0.059579406
-0.053201154 -0.10445279 -0.14497086 -0.11763431 0.07020863 0.12104289 0.12839265 -0.038847234
0.065205544 0.10725637 0.06097193 -0.14299628 -0.09378014 0.08712405 0.087663256 -0.034348942
-0.018006891 -0.23125575 0.045988712 0.026974749 -0.04468722 -0.102848515 -0.10315517 -0.083435744
0.04680446 -0.074913636 -0.06486462 0.009446649 -0.2274029 0.052753247 0.004780012 0.0878206
0.11046369 -0.056955695 -0.013462451 0.06363003 0.11615024 -0.10011247 -0.07158521 -0.038900692
-0.13792297 0.19693303 -0.050406232 -0.03546004 -0.21392526 -0.084214546 -0.11283422 0.18435632
-0.11045057 -0.15910448 0.06613596 -0.11612529 0.01648605 -0.03793901 -0.004551721 -0.059384782
0.104865454 0.10799178 -0.049956072 -0.0807792 -0.07322643 -0.13065016 0.043166693 0.17070962
0.054849546 0.095121086 -0.036576428 -0.21809196 0.16686034 -0.16013153 -0.053233985 -0.11763829
-0.13774809 -0.075779244 0.05423255 0.08004923 -0.16063714 0.07761961 0.044547826 0.10807154
-0.034847885 -0.095809534 0.1372095 -0.021617334 -0.15597379 0.04694997 -0.012191723 0.012973927
-0.14223735 0.12566715 0.16794065 -0.00070800044 -0.035807487 0.02053673 0.046847697 -0.004040476
-0.11857249 0.052472487 0.15714264 -0.017916044 -0.05930647 -0.037168868 0.0989645 -0.091478586
0.081073426 -0.23760223 -0.10613918 0.05721793 0.005979444 -0.12482355 0.02362401 -0.03473121
-0.116462976 -0.084412605 -0.13421144 -0.05513353 -0.10486759 0.03460542 -0.0576218 0.14297657
0.07347551 0.18985616 -0.11448011 -0.06925233 0.09349793 -0.019896269 0.049833957 -0.01384317
-0.0012305612 -0.1358899 0.03301617 -0.047238495 0.113905415 0.032734007 -0.06578568 0.082516514
0.07389881 -0.026620455 0.15009636 0.06702572 -0.064106874 -0.069904044 0.07906982 0.0040493803
0.024492111 0.12734777 0.018423136 0.09283429 -0.018718652 0.12514411 0.14134052 -0.0003352684
-0.052582197 -0.10630416 0.021383734 -0.18343726 -0.046010602 -0.09874478 0.036420688 -0.22970092

network_body._body_endoder.seq_layers.2.bias f4 [128]
00000000: 832f 023c d6ae 763c e049 6b3b bb3b 293c
00000010: 49d8 c03b 5ef5 6a3c ed8e 9b3c b61b 303b
00000020: 9532 f23c 0f82 863c eaf0 1c3c 7cc0 243c
00000030: dff1 6dbc dcb7 80bc bf60 1a3c 4203 e23b
00000040: 70ee a43c b199 c63b f1ea afbb 66c4 46bc
00000050: fe5f 12bb 9771 783a 83bd 123c 7040 bd3b
00000060: c58c 9e3c 9ee5 1b3b e72a 103c c084 803b
00000070: afa5 c63c a24c 6a3c 9966 383c dead fe3c
00000080: 018f a83c 2843 1c3c 284f c63c b2b2 67bb
00000090: d16a bf3c 5200 2d3c 58a9 d0bb 323d 8d3c
000000a0: 529f c6bb a4e7 ca3c ced7 b33c ea05 02bc
000000b0: cde5 a53c b1df 11bc d8fa 9e3b b19f a23c
000000c0: 8fc2 f63c 1817 f4bb 6f23 203b a5c7 f23b
000000d0: ca14 3a3b 2b62 f63b 15f0 263b 4fdc 123c
000000e0: b2a5 d33c 2583 1d3c 6d82 2cbc 095d 38bc
000000f0: cd5c 00bb ee6c 183b 0fd8 de3b 3c37 6ebb
00000100: b485 b93b 6f13 11bb edd4 403c efbc e0ba
00000110: 0c07 223c 37c2 9c3c dc07 2c3a b74c e2bb
00000120: cba0 1c3b 7b3e ca3b eeae 353c f0cd e5bb
00000130: 42e5 6f3c 3d92 443c 7aad 1c3c 1f10 4a3c
00000140: 2ccd 3f3c dd91 7c3c b7f0 8d3c 5cab e53b
00000150: 2fc7 d73c 72d5 4b3c b792 083d 7a51 26bb
00000160: 5471 3abc fc19 883c 8e0e 0a3c f660 883c
00000170: 8653 923b 476f d43c b822 513c 33dc 5f3c
00000180: 169d 19bc 27b8 d43b 7295 1a3c e268 123c
00000190: 8e68 123b 0b40 653c 454d afbc 0d89 c23c
000001a0: d33b 9a3c 43de 143c 43b9 9fbc eb5e 733c
000001b0: b45a 793c c2b7 fdba daf9 113c a867 1e3c
000001c0: 9f73 3a3c ffa1 0bbc 5ada a63c 3052 353c
000001d0: 33e5 7ebb 16a8 cb3a 973a c53c 08bc 593b
000001e0: 825f c539 f008 8d3c aa86 8c3b 5675 8e3c
000001f0: 0cb1 973c bd48 f2bb a068 a33a c465 643c
0.007945898 0.015056333 0.0035902187 0.010329182 0.005885158 0.014340727 0.01898905 0.0026871986
0.029565135 0.016419439 0.009578923 0.0100556575 -0.014522999 -0.015712671 0.00942248 0.006897361
0.020133227 0.006060802 -0.0053685834 -0.012131786 -0.0022335048 0.00094773754 0.008956316 0.005775504
0.019354234 0.0023787986 0.008799291 0.003922075 0.024248926 0.014300497 0.01125493 0.031088766
0.020576002 0.009537496 0.024207667 -0.0035354313 0.023366364 0.010559158 -0.0063678436 0.017241094
-0.006061473 0.024768658 0.02195349 -0.00793598 0.02025118 -0.00890343 0.0048516802 0.019851537
0.03012207 -0.007449042 0.0024435183 0.0074090534 0.002839374 0.0075190268 0.002547269 0.0089636585
0.025835846 0.009613787 -0.010529143 -0.01125265 -0.0019586564 0.0023258287 0.0068006585 -0.003634884
0.0056616906 -0.0022136827 0.011769515 -0.001714615 0.009889375 0.019135578 0.00065624504 -0.006906118
0.002389955 0.006171999 0.01108907 -0.007013075 0.014642062 0.011997757 0.009562844 0.012332945
0.011706632 0.015415636 0.017326696 0.007008953 0.026340095 0.012441026 0.033343043 -0.0025378154
-0.011379559 0.016613953 0.008426322 0.016647797 0.004465523 0.025931967 0.012764625 0.013663339
-0.009375831 0.006491679 0.009435045 0.008936139 0.0022340151 0.01399232 -0.02139915 0.023746992
0.018827355 0.009086194 -0.01949752 0.014854173 0.015219379 -0.0019357132 0.008909667 0.009668268
0.011380105 -0.00852251 0.02036779 0.011066958 -0.0038893938 0.0015537764 0.02407579 0.0033223648
0.00037645927 0.017216176 0.004288514 0.017389935 0.01851704 -0.007393925 0.0012467094 0.013940278

action_model._discrete_distribution.branches.0.weight f4 [10, 128]
00000000: de32 9fbc 46f9 04bd ef28 afbc 42c4 8dbc
00000010: 2f1f c63b c845 093c cfd2 22bd bbeb 0bbd
00000020: 369a 48bc 3e5c 75bc 337b b7bb f80d dcbc
00000030: 49a2 173d 2976 803c 02d0 a7bb 5fce d83c
00000040: 2c2f febc e1be d7bb a72a 503a d461 a93c
00000050: 590a 083c 7560 f8bc 296d bd3b b703 8c3c
00000060: 9499 f0bc 8297 363c 6f67 fc3b 329b 1cbc
00000070: 45b3 0a3b 2c3d d9bb 2106 52bc e2fa 2fbd
00000080: 01a2 abbc 670e 20bd cfb9 edbb a1a8 683c
00000090: 1e19 14bd aa7f bf3a 448e a63c c554 19bc
000000a0: f3be 9b3c b2b8 813b 0f53 3dbc 0214 b03a
000000b0: df3e 2cbc bff7 083c 3606 3cbc 76fe a0bb
000000c0: 00d3 a3bc f621 213d 370d 9cbc 89cb e6bb
000000d0: 55f7 38bc da1f 1bbd bdd8 12bc c29f 0c3b
000000e0: 9d96 acbc c4be 7bbc ab0e 743b de65 203c
000000f0: 7834 7e3b 299e 763c 9320 d03b 17ba dbba
00000100: b899 0a3c c07c 02bb 11d8 043d 1eb5 6f3c
00000110: aaa5 e6bc 0d87 1bbd ebfd 54bc 7a39 d73c
00000120: 3d18 993c a523 c23c 38d7 0abc 2331 6ebb
00000130: ac63 aebc 1ca9 09bb c331 833c ef62 d6bc
00000140: 6ab9 7abc 9538 5cbc 5627 603c 243c 2f3c
00000150: 9bdf 61bc 8163 a5bc a1bf 7c3c ea11 82bc
00000160: 26ea 123d ce60 c1bc bd2b c93a b4fd c6bc
00000170: db96 9abb 1b8e 3fbd d390 84bb 01ad eebb
00000180: a4f3 893c 9ce1 4c3c 1b77 13bc 0b2d 11bd
00000190: bd26 edbc 576d 8b3b d567 6c3c 8762 d7bc
000001a0: d765 7abc f65d f0bc d730 c03c ca94 19bd
000001b0: d0ea b83b 92c6 353b 944c e839 62c4 babb
000001c0: fb8a 90bc be6e 3cbb 4302 d3bc 0f2c 9bbc
000001d0: a20f 173d 43c2 caba 55bb 9dbc 2ef7 b13c
000001e0: 994d b33b 8c5a 77bc fc90 f63c 76e1 0ebd
000001f0: 101c bc3b fc91 5c3b fe93 09bc 96d9 51bb
00000200: ca84 0c3b 3d4a 62bc 3507 9c3c 1656 babb
00000210: 02cb 7c3c 0d89 f43b 58e9 d8bb f7e0 a8bc
00000220: 8532 52bc 17c9 d7bc b4b2 913b bb95 c9bc
00000230: c3e4 e8bb a129 793c 4165 c2bb fe00 d039
00000240: b0aa 30bc a492 90b9 2bfa a4bb a366 09bb
00000250: 9e50 393b 40b2 943b 370b 1f3b b60e 37bc
00000260: 5bb8 ac3b 59a1 f33c d9b6 2fbb c5c8 873b
00000270: 0e4b ffbc cef0 2f3b 5e47 053a 7239 92bc
00000280: a28d 0ebd d969 f3bb 8fb5 ccbb 902e e9bb
00000290: 682c 99bc 8ebb a63c c4d9 fe3b 6e7f dcbb
000002a0: bd85 d83b edf1 19bc fd10 f0bb b923 78bc
000002b0: 4b51 41bc b221 05bb 8ce6 a2bc fee1 1abc
000002c0: 7215 d8bc 35e8 183d adef 3f3b b478 5d3c
000002d0: 3b1a b8ba 6878 93ba dafc 403b 9d10 4dbc
000002e0: ebd6 c3bc 26f7 f9bb c662 09bb ddcb 953a
000002f0: f761 b73b aa0c 6d3c de72 533c b71a 3e3b
00000300: 0f75 843c 65c9 6e39 1417 84bb 0ad0 8c3c
00000310: 1493 b9b8 9518 1e3a 624e 4a3b 8692 143b
00000320: 54b8 733c 5bce 46bc b347 91bc b85e b0bb
00000330: 37c9 7abc 7b00 b4bb 6d4e 27bc b095 84bc
00000340: c48a 8bbc ca19 e2bb 15b3 823c c671 943c
00000350: d49e 8ebc e63f 18bc 3c64 12bd 986c 0c3b
00000360: 04e3 9b3c 2d83 adbb af87 483c 0117 ffbb
00000370: 1c3b 3dbc 23b7 13bc f164 05bc a41a a8bc
00000380: 2ba3 3b3c bbc1 9bbb 3338 de3a 3c95 96bc
00000390: 1e77 343c 56f1 39bb 808f 863b 06e0 45bc
000003a0: 2370 8dbc 68ae 35bc 89f5 303c cc52 633c
000003b0: 5c27 c0ba d119 9fbc 76df f7bb 727f b7bc
000003c0: 2870 7fbc 8a7f 06bc babc 9fbc c684 83bc
000003d0: 3a3a 0f3b bf81 80bc 5475 8f3c c8e1 013c
000003e0: f6ce dfbb 40b4 86bc c7b5 1e3b 7d5c cbbc
000003f0: 4e62 443b 7f76 8b3c fc58 f53a 8cfb 6cbb
-0.019433435 -0.03246429 -0.021381823 -0.017305497 0.006046198 0.008378454 -0.039751824 -0.034160357
-0.012243798 -0.0149756055 -0.0055994033 -0.02686213 0.03702 0.015681343 -0.005121232 0.026465593
-0.031028353 -0.006584034 0.0007940926 0.02067653 0.008303248 -0.030319432 0.005780835 0.017091615
-0.029370107 0.011144521 0.00770276 -0.009558486 0.0021163982 -0.0066296067 -0.012818844 -0.04296387
-0.020951273 -0.039076235 -0.007254816 0.0142003605 -0.036156766 0.001461019 0.02033151 -0.00935859
0.01901195 0.003958785 -0.011555447 0.0013433697 -0.0105130365 0.0083598485 -0.01147609 -0.0049131466
-0.019998074 0.03933903 -0.01904927 -0.0070433063 -0.011289437 -0.037872173 -0.008962807 0.0021457528
-0.021067912 -0.015365306 0.0037240188 0.009789912 0.0038788598 0.015052357 0.0063515394 -0.0016763833
0.008459501 -0.0019910783 0.03243262 0.014630584 -0.028155167 -0.03797059 -0.012999992 0.026272524
0.018688316 0.023698637 -0.008474164 -0.0036345206 -0.021287762 -0.0021005338 0.01601494 -0.026170222
-0.015302995 -0.013441225 0.013681253 0.010695491 -0.013786222 -0.020189049 0.015426547 -0.015877683
0.035867833 -0.02360573 0.0015348118 -0.024290897 -0.0047176904 -0.04676638 -0.0040455847 -0.0072838073
0.01683981 0.012504961 -0.009000565 -0.035443347 -0.028949136 0.0042549777 0.014429052 -0.026292099
-0.01528307 -0.029341679 0.023460789 -0.037495412 0.005643226 0.0027736765 0.00044307543 -0.00569968
-0.017644396 -0.002875253 -0.025757914 -0.018941907 0.036880143 -0.0015469271 -0.019254366 0.02172431
0.005471897 -0.015097272 0.03009843 -0.034882985 0.00574065 0.003365635 -0.0083971005 -0.003202056
0.0021441453 -0.013811645 0.019046405 -0.005686532 0.01542926 0.007462627 -0.0066196136 -0.020615084
-0.012829428 -0.026341004 0.004446352 -0.02460753 -0.0071073486 0.015207679 -0.0059324806 0.0003967359
-0.010782883 -0.00027575076 -0.005034705 -0.0020965717 0.0028276811 0.0045378506 0.002426816 -0.011172941
0.0052710003 0.029740022 -0.0026811867 0.0041438066 -0.031163719 0.0026846412 0.0005084182 -0.017849658
-0.03480304 -0.0074283895 -0.0062472294 -0.0071161464 -0.018697932 0.020353105 0.0077774245 -0.006729058
0.0066077397 -0.0093960585 -0.007326244 -0.015145236 -0.011799167 -0.0020314273 -0.019885324 -0.009453295
-0.026377413 0.037330825 0.0029287145 0.013517547 -0.0014045903 -0.0011251094 0.0029447586 -0.012516168
-0.023906192 -0.0076283393 -0.0020963415 0.0011428554 0.005596395 0.014468351 0.012905804 0.0029007623
0.0161691 0.00022772474 -0.0040310714 0.017189045 -8.848883e-05 0.00060308847 0.0030869474 0.0022670343
0.01487549 -0.01213416 -0.017734384 -0.005382385 -0.015306762 -0.0054932213 -0.010211569 -0.016184658
-0.017033942 -0.006900047 0.015954534 0.018120658 -0.01740972 -0.009292578 -0.035740122 0.0021427032
0.019029148 -0.0052951784 0.012239381 -0.0077847247 -0.011549737 -0.009015831 -0.008141742 -0.020520516
0.0114524765 -0.004753319 0.0016954005 -0.018381707 0.011014728 -0.0028372607 0.004106462 -0.012077337
-0.017265385 -0.011088945 0.010800728 0.013874721 -0.0014660168 -0.01942149 -0.0075644804 -0.022399638
-0.015590705 -0.008209119 -0.019499172 -0.016054522 0.0021854774 -0.015686868 0.017512001 0.007927366
-0.0068300916 -0.016443372 0.0024217234 -0.024824375 0.002996582 0.017024277 0.0018718536 -0.0036160676

action_model._discrete_distribution.branches.0.bias f4 [10]
00000000: fd31 bbbc 7adf 33bc e190 023b 46ab 83bc
00000010: e52b 26bc ba61 bb3b c815 44bc af2a 163a
00000020: bcde 693c 7290 693c
-0.022850985 -0.010978574 0.001992278 -0.01607288 -0.010142301 0.005718437 -0.011968084 0.0005728406
0.014274295 0.01425563

action_model._discrete_distribution.branches.1.weight f4 [10, 128]
00000000: a5b9 0ebc df93 bb3b 681a 2a3c cd89 593b
00000010: badc e13c 5fb5 97bb d4e9 be3a b54e 393b
00000020: 75e9 b1b9 8160 4d3c 15bf 423c 7f97 333c
00000030: 624c cab9 5840 2bbb 95f8 2abc 89d1 4c3c
00000040: 049f 923c 2708 29bc 9e53 4d3c 45a2 a5bc
00000050: ea93 d53b d85f 1dbc e95c 0a3c 94c3 3cbc
00000060: 9cc9 e8bb 9a45 f4bb 6681 4c3c ffda 70bb
00000070: bc98 00bc 46ac a23b 5c4f 523c 9abb c7ba
00000080: 6be4 a0bb f3b7 0bbb 5a40 4d3c 65c8 93bb
00000090: 3ff3 52bc 0bb6 9c3b f2b6 6f3a 5b36 e5bb
000000a0: 7e5d a03c 2fbd 8fbb 5bd6 e8bb f37f ffbb
000000b0: 6887 683b 9719 b9bb bc96 ae3b cdb7 5b3c
000000c0: 0fd5 60bc c1dc bd3b c01e 00bc 0a0e 9d3a
000000d0: 0931 083c 29fa 5a3b f3c9 1a3c ca9f 84bb
000000e0: 693c 9e3b c1cb b9bc 9152 553c fc17 993b
000000f0: 9d35 07bb 1f8b 033c b5e6 8dbc ecd9 52ba
00000100: aa2f 623c 8c6f 9f3c 489e 213c 3459 3cbb
00000110: 60a2 39bc 5706 db3b e97d 32bc 911c 3fbc
00000120: c7e1 b1bb 0a7d 57bc 2d9a 323b 41f2 86bc
00000130: 5efe 09bb 8fe3 13bc ee7f fbba 0545 6c3b
00000140: 2837 1b3c dcf7 803b 40fe 0f3c f0aa 973b
00000150: 4836 d5bb fc12 f9bb 7ea0 9cbc 947e db3b
00000160: a5b2 463c bbc3 56ba a139 993c a268 db3a
00000170: 1ef8 143c a346 d43b ad7f 0f3c 478d 81b9
00000180: 34b4 bebb 91df ca3b 52e5 fa3b 6b87 e4bb
00000190: 0960 86bb 4a18 33bc eac7 b2bb 4625 413b
000001a0: ae60 c9bb 824e 333b 1afa 813c 6af5 7f3c
000001b0: 25fc fdbb b093 103c 71b5 db3b b004 0f3c
000001c0: 6ee3 7e3b e21f a7bc 67ea ddb9 c977 e5bc
000001d0: dfd5 93ba 4816 3539 c05b febb 1be2 ea3b
000001e0: dec0 fcbb f779 3a3a 1b0c 7dbb 177c 3abb
000001f0: 0470 c8ba 3020 b33b 95bc 083c bfb9 69bc
00000200: ccc1 943c 4588 523c 3843 07bb 96f2 9939
00000210: 61a8 14bc a1b0 ccbc 22b7 083c 536c 573c
00000220: dc13 a239 c906 78bb b7f3 d0bb fd3d f93b
00000230: 0ad0 d53b e4e8 4f3c 817f 0abb f54c 3abb
00000240: d300 7bbb 1a34 91bb b23d c9bb c113 07bc
00000250: 4ea3 303a a38d 353b 96c6 483c 9093 573c
00000260: 7238 8bbc b71e 3dbb b6d0 d93b a9d5 b8bc
00000270: 6866 10bc e6dc dbbb bb77 f9bb 1105 843c
00000280: 9ffc 403c 3d88 d3bb a603 083c f9f5 2cb9
00000290: 378b b1bb 9af4 423b 105b 13bc 7e58 c7ba
000002a0: 6c4a 5ebc 8123 243c 5cb6 b1bb e472 973b
000002b0: 27d5 713c 5381 813b 98a7 7d3b 6fee 9c3b
000002c0: 7360 dc3a 2345 49bb 598d 7e3c 0691 ddbb
000002d0: e1af bb3c 2e84 353b fadd e3b9 e1e8 ac3c
000002e0: 4a49 443c a986 293c caf4 18ba ed5c 443c
000002f0: f757 e53b 48f4 223c bfea 2cbc 3729 4bb9
00000300: d715 7939 db3a 073a 4452 4abc 3d22 993b
00000310: c393 07ba 3a09 263b 4dd1 253b b9a5 2bbb
00000320: e8bd ee3a 9f0c 293a ea9c 1c3c 974e d03a
00000330: 4563 d4bb 0dda cabb 4b11 59bc 1835 623c
00000340: e041 353b 9b59 af3b 8b48 b93b 46f9 ebbb
00000350: eb48 5cbc 4c3f 233c 5684 a7bb 55b2 5f3c
00000360: 3bd0 fabb 9463 0b3c 27fc d1bb f282 cebb
00000370: 5333 073b d24f 2e3c 1fc9 2a3a cd1d b53b
00000380: b274 22bc 06f2 4dbc 9927 e73b 77aa 8c3c
00000390: 4db2 fe3b d9e3 fd3b 1cb6 503b 6426 d83c
000003a0: cdf2 6b3a cd00 b03b 0878 c53b 1317 15ba
000003b0: 91b3 aabb 3abc 5abb 3978 ccba db9c 113c
000003c0: 9836 603c fee3 43bc c8ec 10bc f2e9 7c3a
000003d0: 4cb6 863c 60db 25bb a672 2f3c e57f 1c3c
000003e0: 1fc8 793b 47f4 8c3b 7f01 d7bb 51c9 d53b
000003f0: 9d31 123c 20ba dcbb 19ea 92bb 299c 41bc
-0.008711253 0.0057244147 0.010382272 0.0033193708 0.027571071 -0.0046297754 0.0014565536 0.0028275673
-0.0003393401 0.012535215 0.011886378 0.010961412 -0.00038585352 -0.002613088 -0.010435243 0.012501129
0.01789809 -0.010316885 0.012532143 -0.020218978 0.006517877 -0.00960537 0.008445003 -0.011521239
-0.007104112 -0.007454586 0.012482023 -0.0036751626 -0.007848915 0.0049643843 0.012836304 -0.0015238405
-0.004910042 -0.002131936 0.01252755 -0.004509973 -0.012875377 0.0047824434 0.00091443874 -0.006995005
0.01957583 -0.004386566 -0.0071056313 -0.007797235 0.00354811 -0.0056488025 0.0053280275 0.013410521
-0.013722672 0.005794138 -0.007819831 0.0011982333 0.008312472 0.0033413267 0.0094475625 -0.0040473687
0.004828979 -0.022680165 0.013020174 0.0046720486 -0.0020631321 0.0080287745 -0.017321924 -0.0008043337
0.013805309 0.01946237 0.009864397 -0.0028739693 -0.011330217 0.0066841054 -0.010894277 -0.011664526
-0.005428526 -0.01315237 0.002725254 -0.016472938 -0.0021056156 -0.009026422 -0.0019187906 0.003605188
0.0094735995 0.003935797 0.008788645 0.0046285316 -0.006506715 -0.00760114 -0.019119497 0.006698439
0.012127553 -0.0008192618 0.018704237 0.0016739557 0.009092359 0.006478147 0.008758468 -0.00024710057
-0.0058198217 0.006191202 0.0076567316 -0.006974151 -0.0041008038 -0.010931084 -0.0054559605 0.002947168
-0.0061455583 0.0027360027 0.015866328 0.015622476 -0.0077510052 0.008824274 0.006704979 0.008729145
0.0038892883 -0.020400945 -0.00042327048 -0.02801122 -0.0011278949 0.00017269806 -0.0077624023 0.007168067
-0.0077134212 0.0007113511 -0.0038611952 -0.002845531 -0.0015292172 0.0054664835 0.008345743 -0.014265477
0.018158816 0.012849872 -0.002063943 0.00029363175 -0.009073348 -0.024986567 0.0083444435 0.013148385
0.00030913844 -0.003784584 -0.0063767093 0.0076062665 0.0065250443 0.012689803 -0.0021133127 -0.0028427218
-0.0038300052 -0.00443126 -0.006141388 -0.008244456 0.00067382015 0.002770283 0.012254378 0.01315774
-0.016994689 -0.0028857419 0.0066471947 -0.022562819 -0.008813478 -0.0067096828 -0.00761315 0.016115697
0.01177898 -0.00645545 0.008301651 -0.0001649483 -0.005418207 0.0029747845 -0.008993879 -0.0015208868
-0.013567548 0.01001823 -0.0054233503 0.0046218503 0.014760292 0.003952184 0.003870463 0.0047891657
0.0016813412 -0.0030711375 0.01553663 -0.006761673 0.022911014 0.0027697193 -0.000434622 0.021107139
0.011980364 0.010347047 -0.0005834816 0.011985046 0.0069990116 0.0099459365 -0.010554015 -0.00019374942
0.00023754626 0.00051586115 -0.012348715 0.004673271 -0.00051718595 0.002533509 0.0025301755 -0.0026191308
0.0018214555 0.0006448719 0.009558896 0.0015892562 -0.0064815604 -0.0061905445 -0.013248752 0.013806604
0.0027657673 0.005351258 0.0056543997 -0.0072013466 -0.013445119 0.009963822 -0.005112211 0.0136533575
-0.0076542175 0.008507628 -0.0064082327 -0.006302231 0.0020629957 0.010639148 0.0006514955 0.005527234
-0.009915518 -0.01256991 0.007054281 0.017171128 0.00777272 0.007748109 0.0031846827 0.026385494
0.0009000719 0.005371189 0.0060262717 -0.0005687337 -0.0052093943 -0.0033376352 -0.0015599794 0.008887495
0.013684891 -0.011956213 -0.008845516 0.00096478977 0.016444348 -0.002530776 0.010708487 0.009551977
0.0038113666 0.004301581 -0.0065614576 0.006524243 0.008922962 -0.006736055 -0.004483473 -0.011817017

action_model._discrete_distribution.branches.1.bias f4 [10]
00000000: 623d 21bb e99a 083b 6d82 8abb 3a99 283b
00000010: ba44 103c 056d 2fbb 8a4d 6eba f9dd 8b3b
00000020: 2fc8 71bb a8ce 25bb
-0.0024603237 0.0020844287 -0.0042269737 0.0025726096 0.008805448 -0.0026767862 -0.0009090534 0.0042684046
-0.0036893 -0.0025300179

onnx::Div_65 f4 [430]
00000000: 4eb7 8840 c3df 5041 6342 853f 0ccd ba3b
00000010: 0ccd ba3b d9ef 643f d9ef 643f e226 373f
00000020: 0ccd ba3b f4ee e43f 20b3 2b40 c425 b73f
00000030: 0ccd ba3b 20b3 2b40 3515 8f40 0ccd ba3b
00000040: e226 373f f4ee e43f f4ee e43f e226 373f
00000050: e226 373f 20b3 2b40 20b3 2b40 c425 b73f
00000060: e226 373f bbee 6440 0db3 ab40 0ccd ba3b
00000070: c425 b73f 20b3 2b40 20b3 2b40 e226 373f
00000080: c425 b73f bbee 6440 bbee 6440 c425 b73f
00000090: c425 b73f 3515 8f40 0db3 ab40 640a ce3f
000000a0: 640a ce3f 0db3 ab40 0db3 ab40 e300 9740
000000b0: 7d2b 5e41 1779 963f 0ccd ba3b 0ccd ba3b
000000c0: 47d0 7e3f 47d0 7e3f 40da 4b3f 0ccd ba3b
000000d0: 7acf fe3f 6d1b 3f40 3fd9 cb3f 0ccd ba3b
000000e0: 6d1b 3f40 7d41 9f40 0ccd ba3b 40da 4b3f
000000f0: 7acf fe3f 7acf fe3f 40da 4b3f 40da 4b3f
00000100: 6d1b 3f40 6d1b 3f40 3fd9 cb3f 40da 4b3f
00000110: 47cf 7e40 5d1b bf40 0ccd ba3b 3fd9 cb3f
00000120: 6d1b 3f40 6d1b 3f40 40da 4b3f 3fd9 cb3f
00000130: 47cf 7e40 47cf 7e40 3fd9 cb3f 3fd9 cb3f
00000140: 7d41 9f40 5d1b bf40 5d54 e53f 5d54 e53f
00000150: 5d1b bf40 5d1b bf40 26b4 a740 769a 6d41
00000160: f664 ac3f 0ccd ba3b 0ccd ba3b 642e 8f3f
00000170: 642e 8f3f 7817 653f 0ccd ba3b 082e 0f40
00000180: 0ac5 5640 9316 e53f 0ccd ba3b 0ac5 5640
00000190: 69f9 b240 0ccd ba3b 7817 653f 082e 0f40
000001a0: 082e 0f40 7817 653f 7817 653f 0ac5 5640
000001b0: 0ac5 5640 9316 e53f 7817 653f f12d 8f40
000001c0: fbc4 d640 0ccd ba3b 9316 e53f 0ac5 5640
000001d0: 0ac5 5640 7817 653f 9316 e53f f12d 8f40
000001e0: f12d 8f40 9316 e53f 9316 e53f 69f9 b240
000001f0: fbc4 d640 aadc 0040 aadc 0040 fbc4 d640
00000200: fbc4 d640 c1f7 bc40 27c3 7f41 d82f cb3f
00000210: 0ccd ba3b 0ccd ba3b 3fd2 a33f 3fd2 a33f
00000220: ce0e 833f 0ccd ba3b f0d1 2340 e3ba 7540
00000230: 6b0e 0340 0ccd ba3b e3ba 7540 77c6 cc40
00000240: 0ccd ba3b ce0e 833f f0d1 2340 f0d1 2340
00000250: ce0e 833f ce0e 833f e3ba 7540 e3ba 7540
00000260: 6b0e 0340 ce0e 833f dcd1 a340 d5ba f540
00000270: 0ccd ba3b 6b0e 0340 e3ba 7540 e3ba 7540
00000280: ce0e 833f 6b0e 0340 dcd1 a340 dcd1 a340
00000290: 6b0e 0340 6b0e 0340 77c6 cc40 d5ba f540
000002a0: 2e70 1340 2e70 1340 d5ba f540 d5ba f540
000002b0: 6a67 d740 bd98 8a41 dcba 0340 0ccd ba3b
000002c0: 0ccd ba3b 1bed c53f 1bed c53f 7757 9e3f
000002d0: 0ccd ba3b d8ec 4540 b971 9440 2457 1e40
000002e0: 0ccd ba3b b971 9440 0368 f740 0ccd ba3b
000002f0: 7757 9e3f d8ec 4540 d8ec 4540 7757 9e3f
00000300: 7757 9e3f b971 9440 b971 9440 2457 1e40
00000310: 7757 9e3f c8ec c540 b471 1441 0ccd ba3b
00000320: 2457 1e40 b971 9440 b971 9440 7757 9e3f
00000330: 2457 1e40 c8ec c540 c8ec c540 2457 1e40
00000340: 2457 1e40 0368 f740 b471 1441 1622 3240
00000350: 1622 3240 b471 1441 b471 1441 7d0d fb40
00000360: c7e1 9741 e318 3240 0ccd ba3b 0ccd ba3b
00000370: be05 f93f be05 f93f ff37 c73f 0ccd ba3b
00000380: 8a05 7940 18c4 ba40 be37 4740 0ccd ba3b
00000390: 18c4 ba40 61a3 1b41 0ccd ba3b ff37 c73f
000003a0: 8a05 7940 8a05 7940 ff37 c73f ff37 c73f
000003b0: 18c4 ba40 18c4 ba40 be37 4740 ff37 c73f
000003c0: 7c05 f940 14c4 3a41 0ccd ba3b be37 4740
000003d0: 18c4 ba40 18c4 ba40 ff37 c73f be37 4740
000003e0: 7c05 f940 7c05 f940 be37 4740 be37 4740
000003f0: 61a3 1b41 14c4 3a41 bc1e 6040 bc1e 6040
4.272376 13.054629 1.0410885 0.005700713 0.005700713 0.8942848 0.8942848 0.71543705
0.005700713 1.7885423 2.682808 1.43084 0.005700713 2.682808 4.4713387 0.005700713
0.71543705 1.7885423 1.7885423 0.71543705 0.71543705 2.682808 2.682808 1.43084
0.71543705 3.577071 5.365607 0.005700713 1.43084 2.682808 2.682808 0.71543705
1.43084 3.577071 3.577071 1.43084 1.43084 4.4713387 5.365607 1.6096921
1.6096921 5.365607 5.365607 4.7188582 13.885617 1.1755704 0.005700713 0.005700713
0.99536556 0.99536556 0.796299 0.005700713 1.9907067 2.986049 1.5925673 0.005700713
2.986049 4.976744 0.005700713 0.796299 1.9907067 1.9907067 0.796299 0.796299
2.986049 2.986049 1.5925673 0.796299 3.9814012 5.9720902 0.005700713 1.5925673
2.986049 2.986049 0.796299 1.5925673 3.9814012 3.9814012 1.5925673 1.5925673
4.976744 5.9720902 1.7916371 1.7916371 5.9720902 5.9720902 5.240741 14.85021
1.3468311 0.005700713 0.005700713 1.1186032 1.1186032 0.89488935 0.005700713 2.2371845
3.3557763 1.7897514 0.005700713 3.3557763 5.5929456 0.005700713 0.89488935 2.2371845
2.2371845 0.89488935 0.89488935 3.3557763 3.3557763 1.7897514 0.89488935 4.474358
6.7115455 0.005700713 1.7897514 3.3557763 3.3557763 0.89488935 1.7897514 4.474358
4.474358 1.7897514 1.7897514 5.5929456 6.7115455 2.0134683 2.0134683 6.7115455
6.7115455 5.9052434 15.985145 1.5873976 0.005700713 0.005700713 1.2798537 1.2798537
1.0238893 0.005700713 2.5596886 3.8395317 2.047755 0.005700713 3.8395317 6.3992267
0.005700713 1.0238893 2.5596886 2.5596886 1.0238893 1.0238893 3.8395317 3.8395317
2.047755 1.0238893 5.1193676 7.6790566 0.005700713 2.047755 3.8395317 3.8395317
1.0238893 2.047755 5.1193676 5.1193676 2.047755 2.047755 6.3992267 7.6790566
2.303722 2.303722 7.6790566 7.6790566 6.731374 17.32458 2.05828 0.005700713
0.005700713 1.5462984 1.5462984 1.2370442 0.005700713 3.0925808 4.638882 2.4740686
0.005700713 4.638882 7.7314467 0.005700713 1.2370442 3.0925808 3.0925808 1.2370442
1.2370442 4.638882 4.638882 2.4740686 1.2370442 6.185154 9.27776 0.005700713
2.4740686 4.638882 4.638882 1.2370442 2.4740686 6.185154 6.185154 2.4740686
2.4740686 7.7314467 9.27776 2.7833304 2.7833304 9.27776 9.27776 7.8453965
18.985243 2.782769 0.005700713 0.005700713 1.9454877 1.9454877 1.5563964 0.005700713
3.890963 5.836437 3.1127772 0.005700713 5.836437 9.727387 0.005700713 1.5563964
3.890963 3.890963 1.5563964 1.5563964 5.836437 5.836437 3.1127772 1.5563964
7.7819195 11.672871 0.005700713 3.1127772 5.836437 5.836437 1.5563964 3.1127772
7.7819195 7.7819195 3.1127772 3.1127772 9.727387 11.672871 3.5018759 3.5018759
