Assets/Config/results/CheeseWorld8/CheeseWorld8/checkpoint.pt (torch, 596332 bytes, 72 tensors)

discrete_act_size_vector f4 [1, 6]
11.0 11.0 11.0 11.0 11.0 11.0
00000000: 0000 3041 0000 3041 0000 3041 0000 3041
00000010: 0000 3041 0000 3041

network_body.observation_encoder.processors.0.normalizer.running_mean f4 [20]
-0.07539516 -0.06894784 -0.106617734 -0.10217872 -0.14799036 -0.14290363 -0.19308282 -0.18834016
-0.24188729 -0.23328581 -0.2888018 -0.28175977 -0.34208167 -0.32584304 -0.3884033 -0.37562963
-0.4384368 -0.41934985 -0.48130578 -0.4708461
00000000: c768 9abd 8634 8dbd 665a dabd 1443 d1bd
00000010: c98a 17be 5455 12be 81b7 45be 3edc 40be
00000020: 4db1 77be 7ae2 6ebe d4dd 93be d142 90be
00000030: 5425 afbe e6d4 a6be ccdc c6be 8752 c0be
00000040: ca7a e0be 06b5 d6be b66d f6be bd12 f1be

network_body.observation_encoder.processors.0.normalizer.running_variance f4 [20]
10791.121 9915.865 14701.62 14137.532 19413.855 18828.367 23878.81 23386.846
27909.723 27156.113 30935.896 30403.082 33460.133 32490.646 34889.164 34354.9
35948.477 35428.137 36087.363 35978.133
00000000: 7c9c 2846 76ef 1a46 7bb6 6546 21e6 5c46
00000010: b6ab 9746 bc18 9346 9f8d ba46 b1b5 b646
00000020: 720b da46 3a28 d446 cbaf f146 2a86 ed46
00000030: 22b4 0247 4bd5 fd46 2a49 0847 e632 0647
00000040: 7a6c 0c47 2364 0a47 5df7 0c47 228a 0c47

network_body.processors.0.normalizer.running_mean f4 [20]
-0.07539516 -0.06894784 -0.106617734 -0.10217872 -0.14799036 -0.14290363 -0.19308282 -0.18834016
-0.24188729 -0.23328581 -0.2888018 -0.28175977 -0.34208167 -0.32584304 -0.3884033 -0.37562963
-0.4384368 -0.41934985 -0.48130578 -0.4708461
00000000: c768 9abd 8634 8dbd 665a dabd 1443 d1bd
00000010: c98a 17be 5455 12be 81b7 45be 3edc 40be
00000020: 4db1 77be 7ae2 6ebe d4dd 93be d142 90be
00000030: 5425 afbe e6d4 a6be ccdc c6be 8752 c0be
00000040: ca7a e0be 06b5 d6be b66d f6be bd12 f1be

network_body.processors.0.normalizer.running_variance f4 [20]
10791.121 9915.865 14701.62 14137.532 19413.855 18828.367 23878.81 23386.846
27909.723 27156.113 30935.896 30403.082 33460.133 32490.646 34889.164 34354.9
35948.477 35428.137 36087.363 35978.133
00000000: 7c9c 2846 76ef 1a46 7bb6 6546 21e6 5c46
00000010: b6ab 9746 bc18 9346 9f8d ba46 b1b5 b646
00000020: 720b da46 3a28 d446 cbaf f146 2a86 ed46
00000030: 22b4 0247 4bd5 fd46 2a49 0847 e632 0647
00000040: 7a6c 0c47 2364 0a47 5df7 0c47 228a 0c47

network_body._body_endoder.seq_layers.0.weight f4 [128, 20]
-0.36577386 0.24547997 0.35761812 -0.20869783 0.17579822 -0.28707567 0.19044052 0.25688663
-0.45088845 0.3215064 0.5584129 -0.3269871 0.06236977 0.16309285 -0.19104463 0.25491473
0.28593835 0.049991235 -0.055883218 -0.16280799 -0.4088222 0.2863182 0.20572385 -0.31034037
-0.2678211 0.07351318 -0.029240545 0.42434666 -0.4466601 0.14853996 0.4726466 -0.14896552
-0.44389048 -0.17285085 -0.044054538 0.026538765 0.027822051 0.37897772 0.6333504 0.14552122
-0.7429217 0.25266135 0.03766919 -0.31228814 0.12074568 -0.27130777 -0.28906274 -0.01661387
-0.086997755 0.1237445 0.15127234 -0.20463523 -0.44699654 -0.098320045 0.048404954 -0.047901616
0.45095146 0.087366365 -0.1966459 -0.35629302 -0.28604865 -0.2178757 0.07382729 -0.12680647
0.18567201 -0.31556186 -0.15950345 0.08128694 0.118589915 -0.4154664 -0.08282189 -0.0370607
-0.40737733 -0.023208465 -0.027207794 0.021855159 -0.031341564 -0.5498505 -0.041216396 0.51128083
-0.07230139 0.30276373 0.15227555 -0.24260226 0.2814745 -0.018972842 -0.15074222 -0.0030256072
-0.065490566 -0.19077276 0.23927882 -0.18804742 0.28372276 -0.0005160394 0.06951578 -0.3276171
0.010219194 -0.09245977 -0.3830904 -0.17434774 -0.18858784 -0.27055275 0.16653357 0.2514362
-0.18303251 0.15260336 0.9374684 0.118107215 -0.3455151 -0.043923497 0.21524678 0.027946675
0.0055490127 0.16484317 -0.16489956 -0.16534807 -0.036641847 0.40931496 0.3822502 -0.19620249
0.03169629 -0.064467676 0.04403626 0.17787525 0.060786262 -0.3514452 -0.33466214 0.37196204
-0.052244257 -0.24509192 -0.39332575 0.3245344 -0.42213172 0.3070734 -0.43065253 0.20880558
-0.19100627 0.18942916 -0.1994561 0.33671325 0.033978924 0.12658928 -0.15100649 0.11977372
-0.16761905 0.14824933 -0.46129975 0.11724224 0.41134194 -0.11113738 0.011364579 -0.009888493
0.49917397 -0.2100702 -0.33563247 0.31884813 -0.18882163 -0.38770518 0.01958228 -0.053432822
0.03693217 0.15960124 -0.22181432 0.26957753 -0.1205956 0.3815651 0.090149716 -0.008377988
0.1315043 0.18706863 -0.024658503 -0.019368486 0.16718374 0.06765567 0.10961395 0.03537461
-0.18665934 -0.019561028 0.37501153 0.13519222 -0.07829443 0.026162295 0.35153422 0.42636204
-0.057599127 0.26309198 0.23631287 -0.063115284 0.07186211 -0.05881614 0.36233333 0.030593406
0.11925707 -0.07272937 0.38676253 0.077612 -0.20048651 -0.08096137 0.37539345 0.08452318
-0.13684078 0.077766344 -0.1840716 0.03143048 -0.09327598 -0.018256946 0.32587585 -0.20003507
0.22164729 -0.004548475 0.15364319 0.2552687 0.055520266 0.25001678 -0.38749096 0.114527844
-0.034218684 0.16503538 0.079046756 -0.24685222 0.17014882 0.309467 -0.10059724 0.16740534
0.2582156 -0.030500589 0.20388332 -0.063302115 -0.0094571095 -0.074825056 0.14015715 -0.03501986
-0.10400955 0.35311323 -0.03410622 0.6102346 0.27287316 0.5366804 0.12231482 -0.11273562
-0.39367726 -0.23060717 -0.17755154 -0.27337474 -0.16800304 -0.19305171 -0.22311153 -0.15079452
-0.31992474 0.20597747 0.076313175 0.30038223 -0.23535879 -0.361848 0.12343277 -0.2826187
00000000: b646 bbbe 1a5f 7b3e b919 b73e e2b4 55be
00000010: 7304 343e 95fb 92be d702 433e a586 833e
00000020: dada e6be 7d9c a43e 26f4 0e3f da6a a7be
00000030: 7277 7f3d d001 273e 34a1 43be 2f84 823e
00000040: 8366 923e 9cc3 4c3d cde5 64bd 23b7 26be
00000050: 2551 d1be 4d98 923e 46a9 523e efe4 9ebe
00000060: d91f 89be 148e 963d de89 efbc f743 d93e
00000070: a2b0 e4be dc1a 183e bcfe f13e 6b8a 18be
00000080: 9d45 e3be d0ff 30be 8872 34bd d367 d93c
00000090: 12eb e33c 5e09 c23e 4023 223f 8403 153e
000000a0: 1e30 3ebf d45c 813e 024b 1a3d 3be4 9fbe
000000b0: 8349 f73d dae8 8abe 0800 94be d019 88bc
000000c0: e12b b2bd c26d fd3d 23e7 1a3e e68b 51be
000000d0: bbdc e4be 055c c9bd 4644 463d 7c34 44bd
000000e0: 1ce3 e63e 23ed b23d 8b5d 49be 0a6c b6be
000000f0: f874 92be cf1a 5fbe c332 973d 8ed9 01be
00000100: ce20 3e3e 5391 a1be df54 23be c479 a63d
00000110: 45df f23d 03b8 d4be 869e a9bd f6cc 17bd
00000120: c393 d0be ae1f bebc e1e2 debc 9709 b33c
00000130: 0360 00bd 01c3 0cbf 86d2 28bd 4de3 023f
00000140: c012 94bd d903 9b3e 1fee 1b3e ba6c 78be
00000150: 6d1d 903e ef6c 9bbc 2b5c 1abe 4449 46bb
00000160: eb1f 86bd ef59 43be 8205 753e 818f 40be
00000170: 1c44 913e d146 07ba 4a5e 8e3d 6ebd a7be
00000180: 686e 273c 8c5b bdbd 6d24 c4be 3788 32be
00000190: 2c1d 41be e485 8abe c787 2a3e 3fbc 803e
000001a0: e06c 3bbe 0e44 1c3e eefd 6f3f 32e2 f13d
000001b0: 5be7 b0be 20e9 33bd a769 5c3e 6df0 e43c
000001c0: 7ed4 b53b a6cc 283e 6edb 28be 0151 29be
000001d0: c315 16bd bb91 d13e 4cb6 c33e 4ee9 48be
000001e0: f8d3 013d a107 84bd 5e5f 343d ee24 363e
000001f0: 04fb 783d a0f0 b3be d658 abbe cf71 be3e
00000200: 13fe 55bd 60f9 7abe fe61 c9be 5f29 a63e
00000210: a621 d8be ba38 9d3e 7d7e dcbe 21d1 553e
00000220: 2697 43be b8f9 413e 383e 4cbe ae65 ac3e
00000230: 7c2d 0b3d 9fa0 013e 72a1 1abe ed4b f53d
00000240: 54a4 2bbe acce 173e 7b2f ecbe b31c f03d
00000250: 699b d23e ff9b e3bd 8032 3a3c 5903 22bc
00000260: bb93 ff3e a41c 57be 05d8 abbe 1040 a33e
00000270: 755a 41be 4b81 c6be 056b a03c 60dc 5abd
00000280: 3046 173d 826e 233e 4b23 63be 1106 8a3e
00000290: d3fa f6bd 805c c33e 6aa0 b83d d443 09bc
000002a0: 10a9 063e eb8e 3f3e a100 cabc a9aa 9ebc
000002b0: 3732 2b3e 0e8f 8a3d 477d e03d f8e4 103d
000002c0: a023 3fbe 733e a0bc 8301 c03e d46f 0a3e
000002d0: d558 a0bd 4f52 d63c 4bfc b33e 204c da3e
000002e0: 10ed 6bbd feb3 863e 00fc 713e 9642 81bd
000002f0: 712c 933d 31e9 70bd c183 b93e 069f fa3c
00000300: 0d3d f43d 23f3 94bd bd05 c63e 0af3 9e3d
00000310: 564c 4dbe 13cf a5bd 9233 c03e 7d1a ad3d
00000320: fd1f 0cbe f643 9f3d 447d 3cbe 3fbd 003d
00000330: 7a07 bfbd 978f 95bc 33d9 a63e fed5 4cbe
00000340: 82f7 623e 600b 95bb a454 1d3e 94b2 823e
00000350: 3869 633d 3302 803e 3765 c6be 938d ea3d
00000360: e428 0cbd 09ff 283e 44e3 a13d d4c6 7cbe
00000370: 7e3b 2e3e 7572 9e3e ed05 cebd 4e6c 2b3e
00000380: d634 843e 5fdc f9bc cac6 503e 8aa4 81bd
00000390: fef1 1abc e13d 99bd 5b85 0f3e fc70 0fbd
000003a0: f502 d5bd 42cb b43e f7b2 0bbd 5638 1c3f
000003b0: 08b6 8b3e e363 093f 3180 fa3d efe1 e6bd
000003c0: 1190 c9be 4924 6cbe 12d0 35be c6f7 8bbe
000003d0: fd08 2cbe 59af 45be 5977 64be e169 1abe
000003e0: 2dcd a3be c2eb 523e 154a 9c3d b3cb 993e
000003f0: e501 71be 2444 b9be 52ca fc3d 66b3 90be

network_body._body_endoder.seq_layers.0.bias f4 [128]
0.063366815 0.0745954 0.019939935 0.066581585 0.048396807 0.03356572 0.05870489 0.081785776
0.06364078 0.111233294 0.04419886 0.04090796 0.013183505 0.003258087 0.06129528 0.109311536
0.07507783 0.088508345 0.09614686 0.08747541 0.067929074 0.021820877 0.05594163 0.07017738
0.053397276 0.115006015 0.0537298 0.0038463545 0.10464581 0.057932343 0.098340966 0.050513152
-0.04499095 0.10354712 0.04551735 0.042314023 0.07974968 0.07138266 -0.02343481 0.10688537
0.08369604 0.06491689 0.014519137 0.09479767 0.033992484 0.07990623 0.073956676 -0.0027035396
0.068625264 0.0095467 0.0857077 0.018949486 0.083779424 0.057080448 0.06970867 0.11301924
0.07237236 0.051252555 0.03986794 0.05440257 0.032644145 0.08297007 0.075038515 0.06698653
0.0558411 0.00020007513 0.035514176 0.0639204 0.05270293 0.021151004 0.05818349 0.11149379
0.033207703 0.05104675 0.058504924 0.071341805 0.064737625 0.07448788 0.106658585 0.013371793
0.069595695 0.1005919 0.063381195 0.08937265 0.048923254 0.10152156 0.05034131 0.04441488
0.057466246 0.1026913 0.0061950493 0.08731913 0.033898514 0.031797085 0.024237638 0.06251384
0.08591246 0.082659826 0.020876475 0.05913556 0.09443744 0.051974535 0.08696215 0.07539896
0.0834405 0.026273947 0.047447886 0.103785716 0.041738056 0.041718435 0.10392887 0.0060819415
0.088096164 0.031530757 0.03615125 0.08768583 0.0967167 0.08304161 0.058296982 0.09678672
0.07952603 -0.03598476 0.011201544 0.066012755 0.025857057 0.05487695 0.08823137 0.08092358
00000000: 76c6 813d 79c5 983d 1359 a33c ed5b 883d
00000010: bb3b 463d 357c 093d 8a74 703d 4d7f a73d
00000020: 1956 823d 48ce e33d dd09 353d 1b8f 273d
00000030: a1ff 573c a185 553b c210 7b3d bade df3d
00000040: 68c2 993d dd43 b53d a5e8 c43d 4f26 b33d
00000050: 661e 8b3d b2c1 b23c 0d23 653d 29b9 8f3d
00000060: 1ab7 5a3d 4688 eb3d c713 5c3d 1f13 7c3b
00000070: 8b50 d63d 774a 6d3d fd66 c93d e1e6 4e3d
00000080: 6e48 38bd 8310 d43d 6770 3a3d 7851 2d3d
00000090: cd53 a33d 1231 923d 5cfa bfbc b8e6 da3d
000000a0: d468 ab3d 25f3 843d ade1 6d3c 4825 c23d
000000b0: b43b 0b3d e1a5 a33d 9976 973d de2d 31bb
000000c0: 678b 8c3d c369 1c3c 8587 af3d f43b 9b3c
000000d0: 8c94 ab3d 30cd 693d 6bc3 8e3d a276 e73d
000000e0: f637 943d 33ee 513d 914c 233d 3bd5 5e3d
000000f0: deb5 053d 36ec a93d cbad 993d 3c30 893d
00000100: a3b9 643d 42cb 5139 5077 113d b3e8 823d
00000110: 07df 573d df44 ad3c d051 6e3d db56 e43d
00000120: cd04 083d 6616 513d dca2 6f3d a71b 923d
00000130: 2995 843d 1a8d 983d d16f da3d 5d15 5b3c
00000140: 3088 8e3d 2003 ce3d 00ce 813d 0209 b73d
00000150: c063 483d 89ea cf3d b132 4e3d 61ec 353d
00000160: ba61 6b3d d14f d23d d7ff ca3b 5fd4 b23d
00000170: 2bd9 0a3d a93d 023d 038e c63c 4207 803d
00000180: dff2 af3d 8e49 a93d 2405 ab3c 2138 723d
00000190: 6b68 c13d 40e3 543d 3619 b23d c56a 9a3d
000001a0: dae2 aa3d 763c d73c b758 423d 9b8d d43d
000001b0: 86f5 2a3d f3e0 2a3d a9d8 d43d 064b c73b
000001c0: c36b b43d 6526 013d 5513 143d a194 b33d
000001d0: 6813 c63d b811 aa3d d1c8 6e3d 1e38 c63d
000001e0: 8bde a23d c164 13bd ae86 373c b231 873d
000001f0: 2ed2 d33c a7c6 603d a6b2 b43d 43bb a53d

network_body._body_endoder.seq_layers.2.weight f4 [128, 128]
0.05583935 -0.045820724 0.078066796 0.16097683 0.19113933 -0.053353414 0.12123746 0.057954527
0.06770094 0.040751338 -0.08060546 -0.18618935 -0.07210125 0.016955772 0.074856885 -0.06340767
0.068762906 -0.25051275 0.10162141 0.042249613 0.07557901 -0.023715027 0.13906337 0.005430035
0.021978017 0.05164265 -0.019653391 0.08564578 0.1638659 0.021001564 0.00717307 -0.0004176014
0.053468283 -0.14319041 0.24412653 0.16602533 0.025193803 0.046652567 0.07852106 0.07391792
0.026961097 0.17062142 0.08739337 0.09490456 -0.12544832 -0.1467108 -0.045311075 -0.23059556
0.07005837 0.045614846 -0.12548198 0.08918759 0.0015339153 0.13060683 -0.02557109 -0.11962123
-0.032698575 0.0006807427 0.12173541 -0.097479515 0.01777145 0.026331985 0.1282882 0.006830119
-0.041932628 -0.012710077 -0.002584149 0.015891477 -0.022692379 -0.14865932 -0.0021965909 0.041508086
-0.11303123 0.048576977 -0.004890311 0.05483124 -0.112444036 -0.006728014 0.13865708 -0.16039786
0.04100755 0.045946803 0.10074071 0.2586792 0.17728816 0.04787575 0.02320442 0.20076336
-0.043486767 0.006270598 0.03222025 0.11682022 -0.06584987 -0.020175511 0.14552984 0.153086
0.080019794 0.17961715 -0.05372584 0.123681664 -0.06386194 -0.00584985 -0.042727932 0.036040213
0.03480581 -0.042100076 -0.1628907 -0.0765428 0.1030716 0.12409714 0.086008266 0.03445734
-0.03887505 0.11275025 -0.09064252 -0.045132767 -0.023091204 -0.023895599 0.16805834 0.037653957
-0.07717227 -0.09778274 -0.028444415 0.20605817 -0.031050097 -0.03791836 0.015111123 -0.032035653
-0.05319124 -0.06458348 -0.08302118 -0.05933401 -0.080201305 0.02280318 -0.08699584 0.021733716
-0.12763171 0.023297912 0.010087668 0.016550709 0.010351074 0.1539518 -0.04698686 -0.1585376
-0.17451736 -0.043063458 -0.10108928 0.09476648 0.00382015 -0.11777311 0.06539294 0.05879785
-0.049130183 0.041297458 -0.1581537 0.02924282 -0.16385648 -0.02340636 -0.04424262 -0.063669324
0.074754514 0.14041097 -0.20889063 0.01904426 -0.021606687 -0.10687733 0.021236895 0.066710636
0.04697514 0.064307444 0.17343104 -0.057100113 -0.09619633 -0.11826796 -0.09235672 -0.03402157
0.17216466 -0.007289995 -0.06219842 0.012899633 0.024894625 0.02732566 -0.057524506 -0.11704367
-0.13314928 -0.012681486 0.031527 -0.07450067 -0.09855341 -0.08901472 0.095025554 -0.10658628
0.050124638 0.08471295 0.1668162 -0.041680332 -0.10517658 0.07226426 -0.048841726 -0.13398711
-0.119096786 0.0035192596 0.081185795 -0.14493811 -0.058837075 0.12324986 0.2748092 0.019354148
-0.12599903 -0.10105691 -0.0127178505 0.12644382 0.080164626 -0.14208329 0.011483862 0.079550855
-0.21078005 0.09129126 0.08439145 -0.004663409 -0.09767469 -0.03147486 0.08799507 0.054557886
0.03608963 0.06861717 0.077178024 -0.016775925 -0.10462234 0.10913613 0.06268475 -0.16937031
-0.14032494 -0.14570567 -0.05223979 0.10530463 0.0002906098 -0.0063817524 0.19684091 -0.018183047
0.05601499 0.003017084 0.06769599 -0.062467467 -0.19492932 -0.15114813 0.1401319 0.2271749
0.027174821 -0.19506432 -0.07345963 0.16774878 0.1357151 -0.25685483 -0.0014712557 0.017413672
00000000: cdb7 643d 83ae 3bbd 7ce1 9f3d 1cd7 243e
00000010: 07ba 433e 1c89 5abd 584b f83d ba61 6d3d
00000020: caa6 8a3d e0ea 263d 7a14 a5bd 6ca8 3ebe
00000030: d2a9 93bd d5e6 8a3c 914e 993d e1db 81bd
00000040: 91d3 8c3d 3543 80be e31e d03d ee0d 2d3d
00000050: 2bc9 9a3d 0446 c2bc a166 0e3e 6fee b13b
00000060: 3e0b b43c 3e87 533d 2600 a1bc 0e67 af3d
00000070: 76cc 273e 790b ac3c 130c eb3b 83f1 dab9
00000080: 8f01 5b3d 82a0 12be 4efc 793e 8b02 2a3e
00000090: 3c63 ce3c c316 3f3d a6cf a03d 4762 973d
000000a0: 85dd dc3c 62b7 2e3e 4cfb b23d 525d c23d
000000b0: 8675 00be 5b3b 16be 1b98 39bd 3e21 6cbe
000000c0: c37a 8f3d a2d6 3a3d 597e 00be fca7 b63d
000000d0: a80d c93a ccbd 053e 767a d1bc fafb f4bd
000000e0: f1ee 05bd df73 323a 6a50 f93d 57a3 c7bd
000000f0: 6f95 913c 2db6 d73c fb5d 033e 31cf df3b
00000100: 8cc1 2bbd ed3d 50bc d35a 29bb d82e 823c
00000110: 5ee5 b9bc 263a 18be aef4 0fbb 6204 2a3d
00000120: eb7c e7bd a7f8 463d e73e a0bb b996 603d
00000130: 0f49 e6bd ac76 dcbb 1ffc 0d3e 563f 24be
00000140: 88f7 273d b732 3c3d 2551 ce3d 9a71 843e
00000150: 078b 353e 5d19 443d 3217 be3c e994 4d3e
00000160: 2e1f 32bd 9779 cd3b 62f9 033d 713f ef3d
00000170: 4cdc 86bd 1d47 a5bc c605 153e 94c2 1c3e
00000180: 6be1 a33d 8fed 373e a00f 5cbd d04c fd3d
00000190: 0cca 82bd 19b0 bfbb 7c03 2fbd e79e 133d
000001a0: 8990 0e3d 2171 2cbd d2cc 26be 79c2 9cbd
000001b0: 3417 d33d a426 fe3d 1a25 b03d 2423 0d3d
000001c0: 723b 1fbd 9ae9 e63d c9a2 b9bd 23dd 38bd
000001d0: c429 bdbc b4c0 c3bc 7c17 2c3e 093b 1a3d
000001e0: 7f0c 9ebd 5142 c8bd 4304 e9bc ea00 533e
000001f0: c65c febc 4850 1bbd a594 773c d137 03bd
00000200: 0fdf 59bd 5844 84bd 0207 aabd 3808 73bd
00000210: 9540 a4bd bccd ba3c e02a b2bd e80a b23c
00000220: e3b1 02be 43db be3c bf46 253c 5a95 873c
00000230: 8d97 293c 8aa5 1d3e 4b75 40bd ae57 22be
00000240: aeb4 32be 4f63 30bd e507 cfbd ee14 c23d
00000250: 7b5b 7a3b 0733 f1bd bcec 853d 04d6 703d
00000260: bb3c 49bd 8627 293d 0bf3 21be a38e ef3c
00000270: fec9 27be b2be bfbc c037 35bd 1065 82bd
00000280: e518 993d e5c7 0f3e 6de7 55be b502 9c3c
00000290: 8200 b1bc 80e2 dabd fff8 ad3c 969f 883d
000002a0: 0169 403d 9fb3 833d e897 313e cfe1 69bd
000002b0: 9502 c5bd 7936 f2bd 8525 bdbd 345a 0bbd
000002c0: ef4b 303e e9e0 eebb c5c3 7ebd fb58 533c
000002d0: d0ef cb3c 10da df3c d19e 6bbd 97b4 efbd
000002e0: 4958 08be 02c6 4fbc 7522 013d cf93 98bd
000002f0: 5fd6 c9bd 594d b6bd c29c c23d e849 dabd
00000300: 7e4f 4d3d fc7d ad3d ded1 2a3e ffb8 2abd
00000310: d266 d7bd 49ff 933d 430e 48bd eb33 09be
00000320: 04e9 f3bd 61a3 663b bd44 a63d a86a 14be
00000330: 25ff 70bd 6c6a fc3d cbb3 8c3e 978c 9e3c
00000340: e405 01be edf6 cebd 885e 50bc 7d7a 013e
00000350: 5a2d a43d 487e 11be cf26 3c3c 8feb a23d
00000360: bad6 57be eaf6 ba3d 6dd5 ac3d 83cf 98bb
00000370: ab09 c8bd c8eb 00bd c236 b43d 1778 5f3d
00000380: b8d2 133d 2987 8c3d 830f 9e3d aa6d 89bc
00000390: 3d44 d6bd c382 df3d dd60 803d 696f 2dbe
000003a0: 57b1 0fbe de33 15be 64f9 55bd f4a9 d73d
000003b0: fd5c 9839 051e d1bb aa90 493e 9df4 94bc
000003c0: f96f 653d 45ba 453b 32a4 8a3d e3dd 7fbd
000003d0: 8d9b 47be 93c6 1abe bd7e 0f3e 89a0 683e
000003e0: bb9d de3c f1be 47be 0172 96bd 56c6 2b3e
000003f0: e6f8 0a3e 7a82 83be 26d7 c0ba 1ea7 8e3c

network_body._body_endoder.seq_layers.2.bias f4 [128]
0.064940594 -0.0023079733 0.01903722 0.017672164 0.07608538 0.01919845 0.020264536 0.04244642
0.06730324 0.00729452 0.061873827 0.046849493 0.06992915 0.095855035 0.051447306 0.060815487
-0.012409479 0.027715316 0.044122893 0.01818465 0.06493165 0.033954367 0.04560064 0.00939203
0.07984617 0.053125627 0.07101259 0.057614062 0.021421716 0.033015385 -0.055543747 0.016686708
0.07657749 0.05846492 0.045835104 0.043073025 0.02731461 0.02797978 0.055724025 -0.01221918
0.020305391 0.058329675 0.03420423 0.071341954 0.040932678 -0.05347858 0.05642947 0.037599914
0.056803446 0.040907636 0.049251128 0.01994762 0.03766482 0.047118403 0.033620533 0.020910272
0.03963368 0.048610512 0.083034344 0.051963307 0.009182148 0.046331268 0.026938204 -0.011987635
0.029336175 0.044768382 0.037570264 0.05450777 0.040182065 0.03513685 0.041327924 0.042163093
0.07693234 0.038860377 0.034181308 0.05122884 0.061430465 0.052528296 0.024826614 0.056556143
0.020579636 0.018588467 0.0692556 0.03392972 0.039944112 0.086277574 0.031069236 0.05363359
0.040008552 -0.053514622 0.06313947 0.06466952 0.043440532 0.037168477 0.033876102 0.03841675
0.06302756 -0.0042206575 0.041997064 0.06659408 0.051109813 0.060916442 0.063640915 0.008722071
0.07560195 0.093292154 0.027485808 0.009476094 0.06739731 0.044752277 0.061385386 0.03573804
0.006294024 0.07649905 0.03878093 0.010928722 0.056899246 0.064027734 0.07050278 0.05681394
-0.015073364 0.0417574 0.02459925 0.05422392 0.091453046 0.06132232 0.056831434 0.035689697
00000000: 93ff 843d 5e41 17bb f2f3 9b3c 37c5 903c
00000010: a7d2 9b3d 1146 9d3c d001 a63c 4cdc 2d3d
00000020: 48d6 893d de06 ef3b 696f 7d3d 41e5 3f3d
00000030: 0437 8f3d a54f c43d 69ba 523d a919 793d
00000040: 2151 4bbc 3b0b e33c 35ba 343d faf7 943c
00000050: e3fa 843d bc13 0b3d bdc7 3a3d 07e1 193c
00000060: 6486 a33d 429a 593d 0c6f 913d b9fc 6b3d
00000070: 987c af3c 243b 073d d781 63bd 90b2 883c
00000080: a9d4 9c3d e978 6f3d 97bd 3b3d 576d 303d
00000090: e4c2 df3c da35 e53c e03e 643d f532 48bc
000000a0: 7e57 a63c 19eb 6e3d bc19 0c3d bb1b 923d
000000b0: 06a9 273d 5b0c 5bbd 9722 673d 5e02 1a3d
000000c0: bbaa 683d c48e 273d 8dbb 493d 3169 a33c
000000d0: 6d46 1a3d 3aff 403d afb5 093d 054c ab3c
000000e0: ed56 223d d11b 473d e90d aa3d 7ad7 543d
000000f0: b870 163c dbc5 3d3d 82ad dc3c c967 44bc
00000100: 6b52 f03c 0d5f 373d 47e3 193d 8a43 5f3d
00000110: f395 243d a8eb 0f3d 7847 293d 35b3 2c3d
00000120: b48e 9d3d 0f2c 1f3d b301 0c3d 55d5 513d
00000130: 839e 7b3d e927 573d 2f61 cb3c 6aa7 673d
00000140: a096 a83c d746 983c e1d5 8d3d e4f9 0a3d
00000150: 709c 233d 4cb2 b03d e984 fe3c e5ae 5b3d
00000160: 02e0 233d 2632 5bbd 444f 813d 7471 843d
00000170: b3ee 313d f93d 183d abc1 0a3d e25a 1d3d
00000180: 9814 813d 714d 8abb 1d05 2c3d 7a62 883d
00000190: 8658 513d 8583 793d 2b56 823d 04e7 0e3c
000001a0: 32d5 9a3d f50f bf3d eb29 e13c 9e41 1b3c
000001b0: 9a07 8a3d 2a4e 373d 3e6f 7b3d 0d62 123d
000001c0: 1a3e ce3b 89ab 9c3d c1d8 1e3d 620e 333c
000001d0: 2f0f 693d f920 833d c363 903d bcb5 683d
000001e0: 45f6 76bc cf09 2b3d 5e84 c93c e719 5e3d
000001f0: bc4b bb3d 1d2d 7b3d 14c8 683d 5c2f 123d

action_model._discrete_distribution.branches.0.weight f4 [11, 128]
0.020574883 -0.013159069 -0.025899054 -0.025959022 -0.0336884 -0.0029153163 -0.004843613 0.007237922
-0.013712981 -0.00830279 0.0080247335 -0.023200067 -0.043764077 0.02943857 0.057923365 -0.019809196
0.0032716405 0.006933952 -0.015620707 0.008281246 -0.0013670246 0.016041799 0.00044950758 0.03434877
-0.019383537 0.026536856 0.0019210026 0.015379331 -0.022885215 -0.029130768 -0.0034992702 -0.0055668843
-0.0059659514 -0.0067331675 -0.004916312 -0.026228232 0.00795102 -0.001960434 0.023478162 0.030828677
0.014125395 -0.007124596 0.0046655815 -0.005513675 0.010319469 0.0011000588 -0.03348733 0.0089502195
-0.025736269 -0.0005286023 -0.021785555 0.01678333 0.0013174803 0.012800178 -0.030162139 0.021241585
0.00096516253 -0.020584889 0.014069137 0.021679645 0.038838595 0.024724433 -0.035706457 -0.021233642
-0.020144746 0.0035598015 -0.035275664 0.013221008 -0.0269855 0.03332454 -0.0035343547 -0.013774127
-0.0466801 -0.015080274 -0.06403822 -0.006704222 -0.02887329 -0.020739265 0.0143691255 -0.042393707
0.0017970818 -0.0039739106 -0.0094669955 -0.0053603854 -0.022890873 -0.049498025 -0.014825562 0.012595889
-0.015013532 -0.005661807 0.051121756 -0.024166258 -0.028981425 -0.025160233 -0.0071848705 -0.029406803
-0.0175709 0.039472893 0.023370456 -0.0028059527 -0.008242507 -0.024687119 -0.029421436 -0.009657058
-0.012504354 -0.02982415 -0.024567805 0.012193955 -0.022398517 0.015679859 0.044580124 0.046474688
0.026844366 -0.006373837 0.041963063 -0.017632006 -0.01051516 0.028255906 0.014196596 -0.022164186
0.00085728016 0.022104986 -0.011236214 -0.003415672 0.003263711 -0.030883811 -0.030055026 0.00781613
0.001644703 -0.007338681 -0.03738266 0.02056674 -0.002364673 -0.004141677 -0.007525612 0.022714231
0.0007529993 0.021029746 -0.006022163 -0.015575801 -0.03639057 0.010316174 0.030295039 0.012242144
-0.015137574 -0.016582413 -0.024413232 -0.0236166 -0.0057262867 -0.014455789 0.021882776 -0.019873118
-0.02995995 0.020519698 -0.006573871 -0.02821731 -0.010013015 0.004726683 0.0077417665 -0.031511232
-0.020850912 -0.028251437 -0.011238631 0.0026032927 -0.045083687 -0.027850142 0.037929315 -0.0008960511
-0.0012160556 -0.03385265 -0.01730249 0.03750203 -0.019884912 -0.010226485 -0.004428349 -0.0075943675
0.012615305 -0.015984507 -0.003856959 -0.001335504 -0.039330818 -0.0050865794 0.0011458013 0.01722998
0.003299747 -0.014667581 0.024289608 -0.0062417737 -0.019241175 0.03562634 0.0074903206 -0.009852698
-0.02407771 0.005849203 -0.042709872 0.015566995 -0.040435396 -0.019180842 -0.043396417 -0.038618352
-0.043648414 -0.0100970045 -0.043761354 -0.024681026 -0.02117197 -0.024384407 -0.024804784 -0.011927826
0.030288815 0.002009687 -0.019426318 0.003553002 -0.033591088 0.0096234735 -0.011202621 0.006148529
-0.00017717178 0.01112075 0.043480832 -0.026403112 0.005634744 -0.0034133664 -0.033838507 -0.019414345
-0.017633757 0.009763731 -0.021169499 -0.01635977 -0.01406484 -0.028695146 0.005085952 -0.0043444713
-0.002094865 -0.009634418 -0.03237672 -0.010684036 -0.044107407 -0.028084474 0.0036918784 -0.005022985
-0.015727524 -0.011783527 -0.0101049645 -0.008576665 -0.007842715 0.02216583 0.018493535 0.025689373
-0.021729546 0.016880654 0.0065980474 -0.02225754 0.008145264 -9.8034005e-05 -0.01161908 -0.0054965694
00000000: a88c a83c 2399 57bc 412a d4bc 04a8 d4bc
00000010: d9fc 09bd e40e 3fbb 2cb7 9ebb 172c ed3b
00000020: 69ac 60bc 6d08 08bc 2c7a 033c 110e bebc
00000030: f641 33bd 2829 f13c 0d41 6d3d e546 a2bc
00000040: 0569 563b 3536 e33b feed 7fbc 10ae 073c
00000050: bc2d b3ba 176a 833c e3ab eb39 4cb1 0c3d
00000060: 39ca 9ebc d263 d93c 27ca fb3a 97f9 7b3c
00000070: c679 bbbc a6a3 eebc 0354 65bb 696a b6bb
00000080: 077e c3bb e7a1 dcbb 0419 a1bb 97dc d6bc
00000090: ff44 023c a07a 00bb 4655 c03c 6c8c fc3c
000000a0: 336e 673c 7175 e9bb bce1 983b 0fac b4bb
000000b0: fd12 293c d92f 903a 032a 09bd f1a3 123c
000000c0: ded4 d2bc e691 0aba 9f77 b2bc 327d 893c
000000d0: 4eaf ac3a d6b7 513c 9716 f7bc d502 ae3c
000000e0: f602 7d3a a4a1 a8bc 3d82 663c 8399 b13c
000000f0: 3815 1f3d e58a ca3c ef40 12bd 2df2 adbc
00000100: 9806 a5bc 8f4b 693b 377d 10bd ed9c 583c
00000110: b210 ddbc 507f 083d a2a0 67bb e0ac 61bc
00000120: a233 3fbd 4113 77bc 7826 83bd 17af dbbb
00000130: ae87 ecbc 64e5 a9bc 7b6c 6b3c 06a5 2dbd
00000140: 0f8c eb3a 9437 82bb 751b 1bbc 2ca6 afbb
00000150: a485 bbbc 71be 4abd eae6 72bc fd5e 4e3c
00000160: 51fb 75bc ae86 b9bb 0c65 513d 51f8 c5bc
00000170: 746a edbc d51c cebc 106f ebbb 89e6 f0bc
00000180: d9f0 8fbc 54ae 213d 6673 bf3c 13e4 37bb
00000190: 950b 07bc a43c cabc 3905 f1bc a338 1ebc
000001a0: 10df 4cbc c751 f4bc 6c42 c9bc 27c9 473c
000001b0: 187d b7bc 0c73 803c a699 363d 3e5c 3e3d
000001c0: b7e8 db3c 9fdb d0bb 76e1 2b3d ff70 90bc
000001d0: c747 2cbc ee78 e73c d798 683c ab91 b5bc
000001e0: 19bb 603a 8415 b53c 1918 38bc 78d9 5fbb
000001f0: fce3 553b 0c00 fdbc f535 f6bc 3a0f 003c
00000200: 1393 d73a 5179 f0bb 8f1e 19bd 947b a83c
00000210: a1f8 1abb e8b6 87bb 6999 f6bb 3213 ba3c
00000220: ed64 453a 9346 ac3c 9155 c5bb a531 7fbc
00000230: 470e 15bd 2b05 293c 4d2d f83c 4693 483c
00000240: 9603 78bc d7d7 87bc 42fe c7bc 9a77 c1bc
00000250: 93a3 bbbb f9d7 6cbc 8243 b33c f3cc a2bc
00000260: 926e f5bc ed18 a83c a069 d7bb fd27 e7bc
00000270: a10d 24bc 4ae2 9a3b a5ae fd3b ec11 01bd
00000280: 88cf aabc 8f6f e7bc 3c22 38bc 019c 2a3b
00000290: aca9 38bd fb25 e4bc c55b 1b3d f9e4 6aba
000002a0: 0e64 9fba 14a9 0abd f4bd 8dbc bb9b 193d
000002b0: afe5 a2bc fd8c 27bc af1b 91bb 2cda f8bb
000002c0: 6db0 4e3c f1f1 82bc 09c5 7cbb 140c afba
000002d0: 5a19 21bd 52ad a6bb b62e 963a e325 8d3c
000002e0: 9140 583b 4b50 70bc 00fb c63c cb87 ccbb
000002f0: ab9f 9dbc edec 113d 5d71 f53b 366d 21bc
00000300: 9e3e c5bc acaa bf3b 8cf0 2ebd b60c 7f3c
00000310: 969f 25bd 2421 9dbc 71c0 31bd 472e 1ebd
00000320: aec8 32bd e86d 25bc 1b3f 33bd dd2f cabc
00000330: d770 adbc cfc1 c7bc 6733 cbbc ee6c 43bc
00000340: 4020 f83c f4b4 033b f123 9fbc 7bd9 683b
00000350: cf96 09bd c6ab 1d3c 338b 37bc 9979 c93b
00000360: 30c7 39b9 ce33 363c f518 323d 574b d8bc
00000370: a9a3 b83b c9b2 5fbb 3f9a 0abd d50a 9fbc
00000380: ab74 90bc 0ef8 1f3c a86b adbc ed04 86bc
00000390: 3770 66bc 1512 ebbc 0fa8 a63b 115c 8ebb
000003a0: 014a 09bb aed9 1dbc 749d 04bd 180c 2fbc
000003b0: f8a9 34bd 6911 e6bc 71f3 713b da97 a4bb
000003c0: 02d7 80bc b20f 41bc 4b8f 25bc 2485 0cbc
000003d0: bb7e 00bc 1d95 b53c c17f 973c 8572 d23c
000003e0: 2902 b2bc 4c49 8a3c 6f34 d83b 7255 b6bc
000003f0: b773 053c 9b97 cdb8 f45d 3ebc 911c b4bb

action_model._discrete_distribution.branches.0.bias f4 [11]
-0.01508049 -0.0051139193 -0.013045987 -0.01853526 0.022681313 0.012054884 0.04635336 0.0027672523
-0.0035224345 -0.01694208 -0.017177353
00000000: 2914 77bc aa92 a7bb d6be 55bc 42d7 97bc
00000010: 29ce b93c d981 453c 05dd 3d3d ca5a 353b
00000020: a5d8 66bb 1eca 8abc 85b7 8cbc

action_model._discrete_distribution.branches.1.weight f4 [11, 128]
-0.00014226839 -0.00016248002 -0.029050628 -0.021860106 -0.0019891027 -0.017147087 -0.035579342 0.03068605
-0.038657345 -0.006418381 -0.01046442 0.004662503 -0.0067070886 0.0041523804 0.031825557 -0.034754682
0.012240747 -0.018483246 -0.011655691 -0.03534672 -0.053571284 0.026578255 -0.015825206 0.009703638
0.0022121524 0.005698044 0.003163967 -0.017471556 -0.0067287823 0.0007444012 -0.008008972 0.008320381
-0.01991143 -0.0017078125 0.032437176 -0.006056059 -0.002163376 -0.031564057 0.01571323 0.009249856
-0.0020183376 -0.033722434 -0.028424315 0.016058592 -0.012062914 0.009028515 0.009630512 0.030199308
-0.023854932 0.009551251 -0.039794315 -0.014416836 -0.011284238 -0.021781128 -0.0022362606 -0.0023703435
-0.03422049 -0.019262502 0.0142936455 -0.020480722 0.007070782 0.03286694 -0.005827484 -0.00638053
-0.04320888 0.008042499 -0.004219982 0.013352925 -0.0295928 -0.016259728 -0.044227272 -0.03606528
-0.038862865 -0.0101897735 -0.0030013046 -0.02799159 -0.008836786 -0.045141272 -0.011145524 -0.012391254
0.04446896 -0.008258546 0.04045294 0.0084336465 -0.019521905 0.030034447 0.00052419 0.0027698718
-0.006541447 -0.0032190725 0.023124397 0.017080415 -0.057836015 -0.019893838 -0.023972554 -0.025062254
-0.035047665 0.0146996835 0.025071466 -0.044621516 0.015160384 -0.0101595335 -0.043615688 -0.028734986
0.029340632 -0.030586906 -0.039808925 -0.00667301 -0.017535139 -0.061576325 0.04783688 0.033730593
0.022365317 -0.023268243 0.019329822 -0.022454923 -0.032829817 0.017790196 -0.008019859 -0.021806046
0.00043687777 0.0069038537 -0.0034580242 -0.03511472 0.0062461654 -0.050579656 -0.013739334 -0.003907143
-0.025738789 -0.009010224 -0.0074925898 -0.05718753 -0.034127835 0.01157397 -0.050387897 -0.0022234821
-0.043848578 -0.006188427 -0.050703533 0.01380046 -0.03014822 -0.046017982 0.032451 -0.06525716
0.038525645 -0.008523108 -0.03805948 -0.024951998 -0.04203447 -0.002978386 -0.030271543 0.002982767
-0.069783196 -0.000984779 -0.06469047 -0.041055642 -0.0046234396 -0.008511547 0.0057388116 0.033545163
-0.04065804 0.00998508 -0.0092036845 -0.04380438 -0.02126596 -0.028865857 -0.00742722 0.030701661
0.019413766 -0.030647054 -0.024583973 -0.02114308 -0.032494918 0.022120139 -0.010622421 0.007936508
-0.058258068 -0.0019884186 -0.04551448 -0.027426833 -0.017489728 -0.0061709415 0.02036184 -0.033060677
-0.046077862 -0.035056777 -0.028003916 -0.061218012 0.022638725 0.00222981 -0.0073765106 0.024697475
0.0028753036 -0.029924141 -0.0015143364 -0.02817432 -0.007987986 -0.029610151 0.0011643798 -0.023643257
-0.008919747 -0.032235086 0.02518101 -0.056159385 -0.03467824 -0.022686671 0.002474203 -0.024045218
-0.008779272 -0.013556172 -0.007592995 0.017180543 -0.015194173 0.007177364 -0.041753933 -0.00907528
0.004728038 0.030985644 -0.0029100426 -0.0051418673 0.0038928848 -0.015902273 -0.02254209 -0.033662137
-0.05635525 0.02631545 -0.00686542 -0.034766436 0.012749924 -0.034810126 -0.049354687 -0.019108402
-0.00095016236 -0.054018892 0.014227019 -0.009297845 -0.03744603 -0.0111784525 0.023169423 -0.013952147
0.03409966 -0.028875187 0.022384671 -0.018767916 -0.030540349 0.008034568 -0.05264712 -0.036251865
-0.023098916 -0.017142601 -0.010720717 -0.012407978 -0.00936076 -0.036958195 -0.04680336 -0.026271047
00000000: e12d 15b9 665f 2ab9 95fb edbc f713 b3bc
00000010: 9b5b 02bb 0c78 8cbc a5bb 11bd 5061 fb3c
00000020: 2a57 1ebd 4851 d2bb f572 2bbc e9c7 983b
00000030: 23c7 dbbb b110 883b 845b 023d ed5a 0ebd
00000040: 6a8d 483c 2d6a 97bc 83f7 3ebc b9c7 10bd
00000050: 906d 5bbd a4ba d93c dda3 81bc 02fc 1e3c
00000060: c2f9 103b a8b6 ba3b 8f5a 4f3b 8220 8fbc
00000070: 1e7d dcbb eb23 433a 1038 03bc 3552 083c
00000080: 4c1d a3bc aed8 dfba d8dc 043d e871 c6bb
00000090: 6dc7 0dbb 5049 01bd 08b9 803c b58c 173c
000000a0: 1646 04bb 8920 0abd 1cda e8bc 4f8d 833c
000000b0: 87a3 45bc 56ec 133c 4cc9 1d3c 8a64 f73c
000000c0: 6b6b c3bc da7c 1c3c 5dff 22bd 9834 6cbc
000000d0: 86e1 38bc 566e b2bc 3a8e 12bb c457 1bbb
000000e0: c92a 0cbd 65cc 9dbc e52f 6a3c 30c7 a7bc
000000f0: 05b2 e73b 7c9f 063d 7bf4 bebb c413 d1bb
00000100: cbfb 30bd b0c4 033c c647 8abb 3ac6 5a3c
00000110: 9a6c f2bc 1f33 85bc a827 35bd 30b9 13bd
00000120: ab2e 1fbd 02f3 26bc 89b1 44bb 9e4e e5bc
00000130: 2bc8 10bc 0ee6 38bd b79b 36bc b004 4bbc
00000140: 1625 363d da4e 07bc fbb1 253d 472d 0a3c
00000150: 67ec 9fbc cd0a f63c cc69 093a bd86 353b
00000160: a259 d6bb 13f7 52bb 606f bd3c 3aec 8b3c
00000170: 75e5 6cbd 67f8 a2bc 1762 c4bc 5b4f cdbc
00000180: 248e 0fbd f1d6 703c ad62 cd3c 0dc5 36bd
00000190: 4263 783c 2c74 26bc 5da6 32bd a265 ebbc
000001a0: c45b f03c 6491 fabc af0e 23bd 44a9 dabb
000001b0: daa5 8fbc 7537 7cbd 9bf0 433d 1729 0a3d
000001c0: 7837 b73c 0b9d bebc 9359 9e3c 63f3 b7bc
000001d0: 8f78 06bd bfbc 913c ba65 03bc 98a2 b2bc
000001e0: be0c e539 b939 e23b 05a0 62bb 74d4 0fbd
000001f0: a2ac cc3b 9d2c 4fbd f21a 61bc 7e07 80bb
00000200: 27da d2bc 9e9f 13bc 6684 f5bb 793d 6abd
00000210: a1c9 0bbd c0a0 3d3c 8a63 4ebd d7b7 11bb
00000220: 919a 33bd 4ac8 cabb 82ae 4fbd 531b 623c
00000230: 66f9 f6bc 5a7d 3cbd 57eb 043d 8ca5 85bd
00000240: 11cd 1d3d 82a4 0bbc 42e4 1bbd 2268 ccbc
00000250: 562c 2cbd 0631 43bb 07fc f7bc 877a 433b
00000260: 7eea 8ebd b313 81ba 707c 84bd f629 28bd
00000270: 3980 97bb 0474 0bbc a40c bc3b a766 093d
00000280: 0c89 26bd 7698 233c 0dcb 16bc 396c 33bd
00000290: f335 aebc 1778 ecbc 0a60 f3bb 0d82 fb3c
000002a0: 9e09 9f3c 880f fbbc 5464 c9bc 4134 adbc
000002b0: 6419 05bd 4b35 b53c aa09 2ebc 2108 023c
000002c0: 03a0 6ebd 2150 02bb 646d 3abd 3dae e0bc
000002d0: 9e46 8fbc 9c35 cabb e0cd a63c a26a 07bd
000002e0: 24bc 3cbd b297 0fbd 7868 e5bc bdbf 7abd
000002f0: d974 b93c 0122 123b a8b6 f1bb 5c52 ca3c
00000300: 976f 3c3b 7923 f5bc b37c c6ba d5cd e6bc
00000310: 0be0 02bc fd90 f2bc 1a9e 983a 81af c1bc
00000320: 2124 12bc f008 04bd 6848 ce3c 6207 66bd
00000330: c50a 0ebd 66d9 b9bc 3d26 223b 7afa c4bc
00000340: f0d6 0fbc b51a 5ebc a9ce f8bb 36be 8c3c
00000350: fbf0 78bc 1830 eb3b 2c06 2bbd 7cb0 14bc
00000360: a8ed 9a3b 9bd5 fd3c 6ab6 3ebb 1c7d a8bb
00000370: c51f 7f3b 7c45 82bc 30aa b8bc 4fe1 09bd
00000380: c3d4 66bd 8093 d73c 51f7 e0bb 4067 0ebd
00000390: 0fe5 503c 1095 0ebd 2428 4abd 3989 9cbc
000003a0: 5114 79ba ea42 5dbd 7118 693c fd55 18bc
000003b0: 0261 19bd d425 37bc cdcd bd3c 8c97 64bc
000003c0: 16ac 0b3d a88b ecbc 0f60 b73c 2cbf 99bc
000003d0: c12f fabc 6ca3 033c 82a4 57bd d67c 14bd
000003e0: f039 bdbc a46e 8cbc f2a5 2fbc d54a 4bbc
000003f0: e05d 19bc 7a61 17bd e1b4 3fbd 6136 d7bc

action_model._discrete_distribution.branches.1.bias f4 [11]
-0.004044185 -0.03010955 -0.020746473 -0.008358052 -0.0074324575 0.045078073 0.05650132 -0.0057197707
-0.021778313 -0.018555542 -0.027103454
00000000: 1585 84bb 4ea8 f6bc 82f4 a9bc 36f0 08bc
00000010: f98b f3bb c9a3 383d ee6d 673d ea6c bbbb
00000020: 6f68 b2bc cb01 98bc 1008 debc

action_model._discrete_distribution.branches.2.weight f4 [11, 128]
-0.016651578 -0.022533745 -0.03769977 -0.030083667 -0.025125572 -0.011130116 -0.021835148 0.009008208
-0.031036476 -0.011133329 -0.029377727 0.007886967 -0.00869957 -0.0022716285 0.0127234515 -0.047630195
0.03560971 -0.027411819 -0.016084226 -0.042440668 -0.03629294 -0.022114 -0.037461147 -0.028552094
-0.029959247 0.009312695 -0.007904813 -0.039152674 -0.00959521 -0.00067013974 0.00053957617 0.029209767
-0.04310978 -0.01976852 -0.018272206 -0.012997951 -0.017140953 -0.011575732 0.0075754365 0.03482809
-0.0051382887 -0.062809505 -0.047219593 -0.013881764 -0.030311063 -0.0012942296 -0.00055854773 -0.005572628
-0.0358722 0.017015025 -0.05661821 -0.03723157 -0.047589257 -0.032614246 0.067800336 -0.026649153
-0.009629306 -0.0342327 -0.0035009359 -0.02101326 -0.019109903 0.012367691 9.6980635e-05 -0.0061953473
-0.017382339 -0.015737794 -0.01318539 -0.017538091 -0.010286072 -0.0060880696 -0.014950227 -0.039121352
-0.021741282 -0.041605465 0.01401939 -0.023606075 -0.030621776 -0.002646793 -0.03855635 -0.036962505
0.034428455 -0.009333363 -0.010681384 0.0054563913 -0.012691722 -0.0037783128 -0.016324218 0.0024205395
-0.02580108 0.0020098125 0.015958665 0.03316365 0.0071572983 0.021000963 -0.03367893 -0.037827052
-0.024644012 0.007569079 -0.015136254 -0.060129557 0.028666215 -0.03648841 -0.019061852 -0.03780604
0.023151897 -0.034747235 -0.02624466 -0.028023638 -0.020341802 -0.045446534 0.053476904 0.00017744896
-0.00026103202 -0.037432052 -0.032114062 -0.030993992 -0.047055252 -0.015286374 -0.0025146976 0.008042376
-0.026497938 -0.02417373 0.011503353 -0.029858971 -0.000534279 -0.042408105 -0.02872901 0.011026402
-0.037197202 0.018673168 -0.030871889 -0.025335638 -0.037784852 0.016734464 -0.016021565 -0.018864306
-0.009960769 0.001770138 -0.040252842 -0.01542818 -0.024027796 -0.04358743 0.0075096316 -0.015412409
0.029123908 -0.01429953 -0.015421961 -0.004206422 -0.011327859 -0.010305996 -0.025420966 0.02511146
-0.019195665 -0.017981783 -0.026105339 -0.018067556 -0.033116553 -0.04513358 0.020031847 0.020614862
-0.03444929 -0.028308336 -0.00080453197 -0.0021659117 0.011633956 -0.025012754 -0.010472494 0.024456102
0.003970696 0.00060498243 -0.04019181 -0.009973992 -0.0031323244 0.026276883 0.010235986 -0.017030578
-0.026184713 0.04159192 -0.028481208 -0.009222959 -0.007793137 -0.029201569 0.0019658827 -0.0007005685
-0.009654855 -0.014198555 -0.01813296 -0.030577 0.027447276 0.012578178 -0.019077996 0.019467074
-0.011928963 -0.028686516 0.0059226677 -0.049769398 -0.021314824 -0.017010715 -0.011520234 -0.028134052
-0.04185729 -0.013536492 0.025798261 -0.02741277 -0.021302445 -0.0013669382 -0.0020534655 -0.041667126
-0.020860443 -0.005987281 -0.004572797 -0.018775098 -0.008129653 -0.0046940483 0.0028948307 -0.015334795
-0.042038232 0.058033515 -0.020750618 0.006620488 0.002573375 -0.019227028 -0.0100609055 -0.037783287
-0.0019800502 0.057685312 -0.0004838946 -0.044259336 -0.004528846 -0.024823468 0.009844142 -0.0013858462
-0.009861379 -0.016539056 -0.0008471315 -0.0012196344 -0.042657334 -0.005380834 -0.005064984 -0.008237703
-0.004136515 -0.03755279 0.036169183 -0.0044051283 -0.05567194 -0.033182416 -0.01196268 -0.040414028
-0.0006287637 -0.022380149 0.0030850328 -0.011498134 -0.033553347 -0.03607524 -0.0198675 -0.006694439
00000000: e468 88bc b098 b8bc 136b 1abd 0672 f6bc
00000010: 25d4 cdbc 175b 36bc a0df b2bc 2a97 133c
00000020: 3540 febc 9168 36bc 8fa9 f0bc 5638 013c
00000030: a488 0ebc 9adf 14bb 0676 503c e117 43bd
00000040: 7ddb 113d c08e e0bc 11c3 83bc 44d6 2dbd
00000050: e8a7 14bd 6b28 b5bc dc70 19bd 15e6 e9bc
00000060: 186d f5bc 4694 183c 3083 01bc 8e5e 20bd
00000070: 3a35 1dbc 51ac 2fba 5872 0d3a 5249 ef3c
00000080: e193 30bd 97f1 a1bc 98af 95bc 5cf5 54bc
00000090: 2f6b 8cbc 24a8 3dbc 5e3b f83b e6a7 0e3d
000000a0: 175f a8bb 45a2 80bd 5569 41bd 5770 63bc
000000b0: e84e f8bc 24a3 a9ba 816b 12ba 989a b6bb
000000c0: baee 12bd 1863 8b3c 7fe8 67bd 2180 18bd
000000d0: f4ec 42bd 8496 05bd e7da 8a3d 534f dabc
000000e0: 3dc4 1dbc 9637 0cbd f56f 65bb 0024 acbc
000000f0: 5f8c 9cbc dba1 4a3c 1562 cb38 5702 cbbb
00000100: 6865 8ebc 8cec 80bc 8907 58bc 0bac 8fbc
00000110: ea86 28bc 6e7e c7bb ccf1 74bc b63d 20bd
00000120: c61a b2bc 7e6a 2abd 95b1 653c 8761 c1bc
00000130: 85da fabc d175 2dbb 43ed 1dbd ff65 17bd
00000140: da04 0d3d f6ea 18bc f900 2fbc 87cb b23b
00000150: f1f0 4fbc 929d 77bb 5eba 85bc eaa1 1e3b
00000160: c95c d3bc 0fb7 033b bfbb 823c 9cd6 073d
00000170: c587 ea3b 360a ac3c ebf2 09bd 8af0 1abd
00000180: 3de2 c9bc 0906 f83b 0dfe 77bc 694a 76bd
00000190: 69d5 ea3c df74 15bd 9a27 9cbc 82da 1abd
000001a0: 0ca9 bd3c 1e53 0ebd 0bff d6bc d491 e5bc
000001b0: daa3 a6bc 2526 3abd 990a 5b3d 9811 3a39
000001c0: 20db 88b9 5a52 19bd 098a 03bd 1de7 fdbc
000001d0: 02bd 40bd b373 7abc a0cd 24bb 2bc4 033c
000001e0: 3412 d9bc fc07 c6bc 8f78 3c3c cd9a f4bc
000001f0: db0e 0cba 1fb4 2dbd 1a59 ebbc 15a8 343c
00000200: 185c 18bd 79f8 983c 0be7 fcbc af8c cfbc
00000210: 4ac4 1abd b716 893c a83f 83bc 5189 9abc
00000220: 7e32 23bc fa03 e83a 2ae0 24bd 7ac6 7cbc
00000230: f1d5 c4bc bc88 32bd 5b13 f63b 5484 7cbc
00000240: 4395 ee3c 9348 6abc 65ac 7cbc 06d6 89bb
00000250: 7c98 39bc 7bda 28bc a13f d0bc 8cb6 cd3c
00000260: 3a40 9dbc 884e 93bc ddda d5bc 6902 94bc
00000270: 39a5 07bd fddd 38bd d419 a43c 80e0 a83c
00000280: b31a 0dbd e2e6 e7bc 3ae7 52ba f8f1 0dbb
00000290: 599c 3e3c 8ce7 ccbc d394 2bbc 2a58 c83c
000002a0: 9d1c 823b af97 1e3a 2ba0 24bd f469 23bc
000002b0: af47 4dbb 9e42 d73c d6b4 273c b683 8bbc
000002c0: 5381 d6bc 4a5c 2a3d 6c51 e9bc e51b 17bc
000002d0: 925d ffbb 2138 efbc 0ad6 003b 5ba6 37ba
000002e0: 662f 1ebc 0ea1 68bc 938b 94bc 9e7c fabc
000002f0: 1cd9 e03c b414 4e3c 7549 9cbc 6a79 9f3c
00000300: b271 43bc fcff eabc f012 c23b ffda 4bbd
00000310: 6d9c aebc 0e5a 8bbc 5dbf 3cbc 6279 e6bc
00000320: 8d72 2bbd 2ac8 5dbc e056 d33c bf90 e0bc
00000330: 7782 aebc d62a b3ba 6f93 06bb 26ab 2abd
00000340: 85e3 aabc f430 c4bb 67d7 95bb 3cce 99bc
00000350: 3c32 05bc 88d0 99bb 33b7 3d3b cb3e 7bbc
00000360: 4830 2cbd 8db4 6d3d 33fd a9bc aef0 d83b
00000370: 11a6 283b 0082 9dbc 7fd6 24bc a6c2 1abd
00000380: bbc3 01bb 6f47 6c3d 3cb3 fdb9 4749 35bd
00000390: b766 94bb 965a cbbc 5349 213c 48a5 b5ba
000003a0: 9f91 21bc ea7c 87bc 0812 5eba 24dc 9fba
000003b0: 75b9 2ebd b551 b0bb 2af8 a5bb 6ef7 06bc
000003c0: 9a8b 87bb f4d0 19bd 2326 143d e558 90bb
000003d0: 4308 64bd 49ea 07bd 1eff 43bc 2e89 25bd
000003e0: 9ed3 24ba 9356 b7bc 432e 4a3b ab62 3cbc
000003f0: 3c6f 09bd a1c3 13bd 2bc1 a2bc 065d dbbb

action_model._discrete_distribution.branches.2.bias f4 [11]
-0.019079002 -0.040493894 -0.021615546 -0.024929915 -0.0056340727 0.034193646 0.079832114 0.0016919891
-0.006831079 -0.0075410437 -0.02322128
00000000: 914b 9cbc eddc 25bd 1613 b1bc d239 ccbc
00000010: 079e b8bb a30e 0c3d 057f a33d bcc5 dd3a
00000020: 3ed7 dfbb dc1a f7bb 8e3a bebc

action_model._discrete_distribution.branches.3.weight f4 [11, 128]
-0.03634322 0.025110397 -0.02961175 -0.0286025 -0.001183228 -0.026812807 -0.01306618 -0.017575597
-0.018736081 0.00010863434 -0.02138135 0.022698747 -0.0010241318 0.0021209465 0.016013984 -0.0046834033
0.0110393725 -0.017444119 -0.006061715 -0.012695129 -0.017358137 -0.0021989942 -0.039420646 0.0011554267
0.005730511 -0.03476834 0.006390664 0.005315562 -0.0214206 0.0036168182 0.018561404 0.05858927
-0.016089223 -0.011283399 -0.02145503 -0.0153760575 0.0022893443 0.0015389458 -0.0078205485 0.033111893
0.0039242636 0.0034559548 -0.007462987 -0.053813577 0.0038299668 -0.0005498332 0.034560993 0.004858096
-0.006911579 0.0030507278 -0.0183992 -0.019129518 -0.014119148 -0.0018697478 0.061279144 -0.019599702
-0.03738781 -0.01357148 0.00883753 -0.058745474 0.0028160224 -0.032661468 -0.012827114 0.0044041295
-0.004701271 -0.024181645 0.028525462 0.0071078795 0.012143441 0.02878911 -0.013680341 0.0026095994
0.020722697 -0.016877402 0.013795512 -0.0025641297 -0.0016163765 0.0092469845 0.009472519 -0.00020368956
0.016497208 -0.032122824 0.031361297 0.0052018412 0.02176125 0.06349902 0.0016982754 0.0009539807
0.018758217 0.014918724 -0.016890654 -0.0016361808 -0.019435568 -0.019083109 -0.021210352 -0.011158844
-0.022695845 -0.0023813688 -0.00244452 -0.038153946 0.006504333 0.014484167 -0.016957909 -0.005062768
0.02652891 -0.020695545 -0.012352536 0.02075001 0.007938821 -0.011685676 0.029747143 -0.022217734
0.00977865 -0.021746896 -0.007986424 -0.019799171 0.0015890566 -0.015574491 -0.01104491 -0.01506285
-0.013780127 -0.016902803 0.017805092 -0.017056556 -0.0009813146 -0.045559686 -0.04758985 0.01758627
-0.029040724 -0.046591572 -0.014489139 -0.028121581 -0.0075329663 -0.00021785543 -0.010181557 -0.044183157
-0.0068273568 0.0024741485 -0.02184073 0.0225003 0.014803956 0.00854359 -0.014521362 -0.030778885
0.025294533 -0.00873705 -0.019773768 -0.028460197 -0.044630088 -0.014383845 -0.027930891 -0.018502716
-0.0059907567 0.008324476 0.005385331 -0.023210853 -0.03416907 -0.060212273 -0.00394446 0.035546064
-0.035951447 -0.006831088 -0.004254691 -0.0011658571 0.030845592 -0.0027593966 -0.015912883 0.024437847
0.011000045 -0.040426515 -0.003399324 -0.026818816 -0.016593464 0.0070239753 -0.036291942 0.021724172
-0.006740023 0.019184513 0.009729785 -0.010086769 -0.004995225 -0.014307041 0.01352527 -0.08257847
-0.015129021 0.0027779844 -0.00491978 -0.026996844 -0.019247293 -0.009175853 -0.010730985 -0.02791196
0.027982956 -0.007836415 0.017600583 -0.046204425 0.013361098 -0.0015401272 -0.00018305371 -0.029145775
-0.002571276 -0.020916322 0.025360549 0.0010227525 0.022651369 0.004695024 -0.02373038 -0.025778845
0.025528746 0.026074208 0.01418083 -0.015585829 0.02468004 0.043921728 0.0044988864 -0.0033511824
-0.01926251 -0.009972195 -0.023698859 0.05186608 0.019452497 0.00075969094 -0.017319214 -0.021102216
-0.01522222 -0.009523654 -0.036559787 -0.037817344 -0.018944113 0.008957146 -0.011269317 -0.0017722535
0.018331088 -0.01883569 0.040224113 -0.02867649 -0.02170375 0.016801294 0.022235226 -0.013414499
-0.0027307079 -0.03406875 0.00012816837 -0.036216684 0.0015543998 0.026499141 -0.0125648845 -0.035798594
-0.015528028 -0.045531288 0.04034031 -0.017323075 0.018299425 -0.0033058126 -0.020250916 0.031861786
00000000: a1dc 14bd 52b4 cd3c 5794 f2bc ca4f eabc
00000010: 8b16 9bba 88a6 dbbc 8813 56bc b3fa 8fbc
00000020: 697c 99bc 9ed2 e338 f127 afbc b9f2 b93c
00000030: 293c 86ba 94ff 0a3b c22f 833c 3c77 99bb
00000040: 7cde 343c f8e6 8ebc 5aa1 c6bb 3bff 4fbc
00000050: a732 8ebc 001d 10bb 8b77 21bd b071 973a
00000060: 03c7 bb3b 3f69 0ebd c668 d13b 2a2e ae3b
00000070: 417a afbc 2408 6d3b 160e 983c 4dfb 6f3d
00000080: 8ccd 83bc 01de 38bc 76c2 afbc dceb 7bbc
00000090: d308 163b 74b6 c93a c221 00bc 56a0 073d
000000a0: 1c97 803b 4d7d 623b 138c f4bb a06b 5cbd
000000b0: 2e00 7b3b ae22 10ba d48f 0d3d aa30 9f3b
000000c0: 877a e2bb b8ee 473b ebb9 96bc 82b5 9cbc
000000d0: 0054 67bc 5312 f5ba d7ff 7a3d 8e8f a0bc
000000e0: f623 19bd ea5a 5ebc 4acb 103c 189f 70bd
000000f0: 048d 383b 08c8 05bd d128 52bc 8450 903b
00000100: 1f0d 9abb 9618 c6bc 3bae e93c 37e9 e83b
00000110: 48f5 463c 24d7 eb3c 8223 60bc d005 2b3b
00000120: a5c2 a93c 7a42 8abc 9206 623c f50a 28bb
00000130: 98dc d3ba aa80 173c a032 1b3c 8095 55b9
00000140: 2725 873c 3993 03bd b474 003d 3574 aa3b
00000150: a644 b23c c60b 823d ab98 de3a 9014 7a3a
00000160: d5aa 993c aa6d 743c 455e 8abc 1e75 d6ba
00000170: 5737 9fbc 2e54 9cbc 55c1 adbc 96d3 36bc
00000180: a3ec b9bc bd10 1cbb 3d34 20bb 5047 1cbd
00000190: 4d22 d53b 004f 6d3c 50eb 8abc 93e5 a5bb
000001a0: 2853 d93c b489 a9bc 4b62 4abc edfb a93c
000001b0: d411 023c 4775 3fbc 48b0 f33c f701 b6bc
000001c0: a136 203c 8c26 b2bc 7dd9 02bc df31 a2bc
000001d0: e447 d03a 262c 7fbc b6f5 34bc 2cca 76bc
000001e0: 0bc6 61bc bf77 8abc fcdb 913c 31ba 8bbc
000001f0: 749f 80ba cb9c 3abd 93ed 42bd 1511 903c
00000200: d0e6 edbc ced6 3ebd db63 6dbc 3b5f e6bc
00000210: 1ad7 f6bb 1f70 64b9 8cd0 26bc 66f9 34bd
00000220: 05b8 dfbb 5325 223b 55eb b2bc 8d52 b83c
00000230: 4b8c 723c 6afa 0b3c 02eb 6dbc 0024 fcbc
00000240: 7b36 cf3c d825 0fbc 99fc a1bc 5c25 e9bc
00000250: 0ace 36bd 38aa 6bbc 53cf e4bc 0293 97bc
00000260: 1c4e c4bb 6263 083c 6e77 b03b b024 bebc
00000270: def4 0bbd 25a1 76bd 8740 81bb c098 113d
00000280: d341 13bd 52d7 dfbb ef6a 8bbb accf 98ba
00000290: e5af fc3c fed6 34bb bc5b 82bc e131 c83c
000002a0: 8839 343c 4696 25bd 31c7 5ebb 22b3 dbbc
000002b0: 04ef 87bc 6029 e63b dca6 14bd e4f6 b13c
000002c0: 69db dcbb d728 9d3c ad69 1f3c fa42 25bc
000002d0: fcae a3bb 1468 6abc 1899 5d3c e71e a9bd
000002e0: b7df 77bc d80e 363b 1b36 a1bb 7c28 ddbc
000002f0: 80ac 9dbc 5156 16bc 03d1 2fbc 9fa7 e4bc
00000300: 833c e53c 4f64 00bc 192f 903c da40 3dbd
00000310: 82e8 5a3c 18de c9ba 1bf2 3fb9 1fc3 eebc
00000320: da82 28bb b558 abbc edc0 cf3c e10d 863a
00000330: 5d8f b93c b7d8 993b 3766 c2bc 282e d3bc
00000340: a921 d13c 9499 d53c b656 683c b45b 7fbc
00000350: cc2d ca3c 45e7 333d 656b 933b 839f 5bbb
00000360: 69cc 9dbc 6b62 23bc 1c24 c2bc 8771 543d
00000370: d85a 9f3c ff25 473a 06e1 8dbc 8ede acbc
00000380: 9e66 79bc 1a09 1cbc b7bf 15bd 5ce6 1abd
00000390: af30 9bbc fec0 123c f1a2 38bc f64a e8ba
000003a0: 142b 963c 4e4d 9abc 0ac2 243d f5ea eabc
000003b0: 10cc b1bc dea2 893c a626 b63c 7dc8 5bbc
000003c0: adf5 32bb ac8b 0bbd ef64 0639 f257 14bd
000003d0: 01bd cb3a ba14 d93c f2dc 4dbc 8ca1 12bd
000003e0: 4569 7ebc 047f 3abd e23b 253d 1fe9 8dbc
000003f0: ade8 953c 55a6 58bb 40e5 a5bc 8181 023d

action_model._discrete_distribution.branches.3.bias f4 [11]
-0.0009275005 -0.0012442699 -0.011091881 -0.01809249 -0.011070592 0.03197329 0.043333735 -0.016988633
0.0016139202 -0.019645644 -0.0067656273
00000000: 8123 73ba c516 a3ba b9ba 35bc b436 94bc
00000010: 6e61 35bc 6df6 023d b77e 313d bf2b 8bbc
00000020: 2d8a d33a e7ef a0bc 32b2 ddbb
