Assets/Config/results/CheeseWorld5/CheeseWorld5/CheeseWorld5-400249.pt (torch, 578538 bytes, 48 tensors)

discrete_act_size_vector f4 [1, 2]
000000 00 00 20 41 00 00 20 41
       10.0 10.0

network_body.observation_encoder.processors.0.normalizer.running_mean f4 [40]
000000 24 84 dd 3e fa 4d fa 3e a3 8f ff bd 57 8e d4 bd
       0.43264878 0.48887616 -0.124785684 -0.10378712
000010 5a 59 22 3f 20 37 35 3f 21 a3 21 be 6c 0e 18 be
       0.6341759 0.7078724 -0.15784885 -0.14849252
000020 f7 f7 61 3f 57 cd 79 3f 6b 4b 4b be f4 ea 42 be
       0.8826899 0.9757895 -0.19852988 -0.1903494
000030 4b bf 98 3f 3d 62 a5 3f 91 c3 75 be 3d 93 6d be
       1.1933378 1.2920605 -0.24000384 -0.23200698
000040 08 88 c6 3f 02 38 d4 3f 38 c8 91 be b4 00 88 be
       1.5510263 1.6579592 -0.28473067 -0.26563036
000050 20 82 fa 3f d9 53 05 40 9f 1d a5 be 38 9c a1 be
       1.9570961 2.0832427 -0.32249162 -0.31564498
000060 42 6e 1a 40 ee e7 23 40 fe 3d b9 be d9 77 b8 be
       2.4129796 2.5610309 -0.3618011 -0.36028937
000070 4b 0c 3b 40 fc 80 44 40 42 95 d2 be a7 b0 c6 be
       2.9226253 3.0703726 -0.411295 -0.3880665
000080 28 7d 5e 40 68 6d 69 40 5b c2 e0 be 1c 0c e0 be
       3.476389 3.6473026 -0.4389828 -0.4375924
000090 64 10 83 40 df a2 88 40 21 10 fa be 8f 57 ee be
       4.095751 4.2698817 -0.4884043 -0.46551177

network_body.observation_encoder.processors.0.normalizer.running_variance f4 [40]
000000 af f2 e6 48 6b 49 f7 48 18 4b 2a 47 07 f8 10 47
       472981.47 506443.34 43595.094 37112.027
000010 ac 36 3a 49 ca e4 46 49 90 ed 4e 47 f5 c6 44 47
       762730.75 814668.6 52973.562 50374.957
000020 19 25 8c 49 06 a0 95 49 f8 b5 73 47 4a e3 6b 47
       1.1480671e+06 1.2257288e+06 62389.97 60387.29
000030 d4 88 cd 49 fb 41 d3 49 2a bd 89 47 c2 6f 86 47
       1.6837385e+06 1.7306234e+06 70522.33 68831.516
000040 01 a5 0b 4a d0 5f 0e 4a 54 e8 99 47 59 2f 93 47
       2.2879362e+06 2.33266e+06 78800.66 75358.695
000050 85 f2 2f 4a 1b a7 33 4a 85 60 a1 47 1b 70 9f 47
       2.8827212e+06 2.9434308e+06 82625.04 81632.21
000060 b4 5c 4e 4a 31 d6 53 4a 8f 68 a8 47 50 1c a8 47
       3.381037e+06 3.4707322e+06 86225.12 86072.625
000070 ff 73 67 4a e4 95 69 4a 39 2c b1 47 38 8b ad 47
       3.7921278e+06 3.827065e+06 90712.445 88854.44
000080 71 30 76 4a b7 ce 78 4a df 6c b4 47 8d 47 b4 47
       4.0335642e+06 4.0764618e+06 92377.74 92303.1
000090 85 35 7e 4a 4b 49 7c 4a d6 2b b7 47 38 52 b6 47
       4.1649612e+06 4.1334588e+06 93783.67 93348.44

network_body.processors.0.normalizer.running_mean f4 [40]
000000 24 84 dd 3e fa 4d fa 3e a3 8f ff bd 57 8e d4 bd
       0.43264878 0.48887616 -0.124785684 -0.10378712
000010 5a 59 22 3f 20 37 35 3f 21 a3 21 be 6c 0e 18 be
       0.6341759 0.7078724 -0.15784885 -0.14849252
000020 f7 f7 61 3f 57 cd 79 3f 6b 4b 4b be f4 ea 42 be
       0.8826899 0.9757895 -0.19852988 -0.1903494
000030 4b bf 98 3f 3d 62 a5 3f 91 c3 75 be 3d 93 6d be
       1.1933378 1.2920605 -0.24000384 -0.23200698
000040 08 88 c6 3f 02 38 d4 3f 38 c8 91 be b4 00 88 be
       1.5510263 1.6579592 -0.28473067 -0.26563036
000050 20 82 fa 3f d9 53 05 40 9f 1d a5 be 38 9c a1 be
       1.9570961 2.0832427 -0.32249162 -0.31564498
000060 42 6e 1a 40 ee e7 23 40 fe 3d b9 be d9 77 b8 be
       2.4129796 2.5610309 -0.3618011 -0.36028937
000070 4b 0c 3b 40 fc 80 44 40 42 95 d2 be a7 b0 c6 be
       2.9226253 3.0703726 -0.411295 -0.3880665
000080 28 7d 5e 40 68 6d 69 40 5b c2 e0 be 1c 0c e0 be
       3.476389 3.6473026 -0.4389828 -0.4375924
000090 64 10 83 40 df a2 88 40 21 10 fa be 8f 57 ee be
       4.095751 4.2698817 -0.4884043 -0.46551177

network_body.processors.0.normalizer.running_variance f4 [40]
000000 af f2 e6 48 6b 49 f7 48 18 4b 2a 47 07 f8 10 47
       472981.47 506443.34 43595.094 37112.027
000010 ac 36 3a 49 ca e4 46 49 90 ed 4e 47 f5 c6 44 47
       762730.75 814668.6 52973.562 50374.957
000020 19 25 8c 49 06 a0 95 49 f8 b5 73 47 4a e3 6b 47
       1.1480671e+06 1.2257288e+06 62389.97 60387.29
000030 d4 88 cd 49 fb 41 d3 49 2a bd 89 47 c2 6f 86 47
       1.6837385e+06 1.7306234e+06 70522.33 68831.516
000040 01 a5 0b 4a d0 5f 0e 4a 54 e8 99 47 59 2f 93 47
       2.2879362e+06 2.33266e+06 78800.66 75358.695
000050 85 f2 2f 4a 1b a7 33 4a 85 60 a1 47 1b 70 9f 47
       2.8827212e+06 2.9434308e+06 82625.04 81632.21
000060 b4 5c 4e 4a 31 d6 53 4a 8f 68 a8 47 50 1c a8 47
       3.381037e+06 3.4707322e+06 86225.12 86072.625
000070 ff 73 67 4a e4 95 69 4a 39 2c b1 47 38 8b ad 47
       3.7921278e+06 3.827065e+06 90712.445 88854.44
000080 71 30 76 4a b7 ce 78 4a df 6c b4 47 8d 47 b4 47
       4.0335642e+06 4.0764618e+06 92377.74 92303.1
000090 85 35 7e 4a 4b 49 7c 4a d6 2b b7 47 38 52 b6 47
       4.1649612e+06 4.1334588e+06 93783.67 93348.44

network_body._body_endoder.seq_layers.0.weight f4 [128, 40]
000000 e6 1e 29 be 83 00 f0 be 38 a4 88 3d b8 92 88 3e
       -0.16515693 -0.4687539 0.06671947 0.26674438
000010 60 a4 95 3e 8d 76 25 3e 81 99 01 3e 65 81 d8 3d
       0.2922697 0.16158505 0.12656213 0.10571555
000020 55 30 8c bd a7 38 c7 bd 7c 63 ab 3e 02 02 4d 3e
       -0.06845156 -0.097276025 0.33474338 0.20020297
000030 2b c5 5f bd 6a 16 e0 3c 67 af 2d 3e b4 0a a9 3a
       -0.054631393 0.027354438 0.16961442 0.0012896867
000040 11 3f 58 be a5 49 cd bd 9f a3 83 3e c9 c9 0b bd
       -0.21117808 -0.10023812 0.2571077 -0.034127984
000050 0d 74 5a 3d 05 e4 29 be bc 4c b7 3d a8 40 05 3e
       0.05333333 -0.16590889 0.08950183 0.13012946
000060 6a 5b f4 3c c3 41 7b be 82 77 33 bd ba 79 40 3e
       0.029828746 -0.24536805 -0.043815143 0.18796435
000070 1a 3c 02 be 93 34 15 be ee 6f 7d bd 20 62 5d 3e
       -0.1271824 -0.14570837 -0.061874323 0.21619463
000080 6d 5a 48 3e d8 c7 ab bd 60 b9 d5 be 31 fb c5 3d
       0.19565745 -0.083877265 -0.41742992 0.096670516
000090 dd e6 55 be 6e 53 c1 be bf 8c 29 be 55 5b 23 be
       -0.20888849 -0.37758964 -0.16557597 -0.15952809
0000a0 0b cb 2f be 08 7a 42 be 90 85 01 bf 29 35 ae bd
       -0.17167298 -0.18991864 -0.50594425 -0.08506233
0000b0 7c 6f a4 be 16 9d 99 bd d1 fc 8b bd cb 4e cc 3d
       -0.32116306 -0.07500665 -0.0683533 0.09975966
0000c0 64 56 7d bd 59 b4 9e 3e ed 4c 97 bd 1b df 93 3d
       -0.061849967 0.3099697 -0.07387719 0.07220288
0000d0 33 f4 39 be db 99 ae 3b 02 b5 82 3e 96 92 db bc
       -0.18159561 0.0053283996 0.25528723 -0.026803296
0000e0 0f 04 8c bd 43 d9 a2 bb fe 64 b0 bb 14 dc 00 3e
       -0.068367116 -0.0049697473 -0.005383133 0.12583953
0000f0 3c b1 11 3e 24 59 09 be 92 70 a2 3e 96 cb 52 be
       0.14227766 -0.1341291 0.3172651 -0.20585474
000100 e8 25 70 be 48 32 b6 bc 38 9e 60 3d 77 e1 c1 3d
       -0.2345196 -0.022240773 0.05483839 0.09466832
000110 4b 00 ce bd 88 3f de 3e 11 62 c7 3c 83 f4 6a be
       -0.1005865 0.43407845 0.024338754 -0.22944836
000120 ef 79 af bd e4 82 63 3e 04 d4 58 be 40 49 7b 3e
       -0.08568179 0.222179 -0.21174628 0.24539661
000130 e0 34 56 be bf 11 fe 3d a1 b5 b1 bd 78 cc c7 3c
       -0.20918608 0.124057285 -0.08677221 0.02438949
000140 97 41 3c 3d 2e fa cf be 5c 8d ac be f0 85 e6 bd
       0.04596099 -0.4062056 -0.337016 -0.11256015
000150 03 43 37 3e 19 c5 15 3e 94 54 2b be 93 af 40 3d
       0.17896657 0.14625968 -0.16731483 0.04704244
000160 32 a9 19 3d 67 5c 60 be 7c 39 17 3f 91 53 61 3c
       0.037514873 -0.21910249 0.5907209 0.013752834
000170 82 3a 95 3e 04 1d d7 bd f6 d7 94 bd 24 07 ce bd
       0.291462 -0.10503581 -0.07267754 -0.10059956
000180 0d de a6 bd 65 fb 85 be 50 28 1d 3e 60 f9 a9 be
       -0.081478216 -0.2616836 0.15347409 -0.3319807
000190 60 f2 f2 bd e4 6b 19 3e 46 62 22 3e 3f 88 70 be
       -0.118626356 0.14982563 0.15857801 -0.23489474
0001a0 4c 00 b6 bd 9c 8b 8b 3e b5 ea a9 3d 25 2a 81 be
       -0.088867754 0.2725495 0.0829672 -0.25227466
0001b0 ba 99 97 3c c5 87 3e 3e 28 5a 80 3e 2a 03 65 be
       0.01850592 0.1860648 0.25068784 -0.22364488
0001c0 13 9a 93 bc 70 5c 42 3b 21 38 72 3e 73 d3 0f 3d
       -0.018017804 0.0029657148 0.23654224 0.035113763
0001d0 7b e8 22 3e 80 e5 b3 3e 61 c4 62 3e 6c 79 55 be
       0.15908997 0.35136032 0.22145225 -0.208471
0001e0 50 9f b1 3c b5 81 c7 3e e6 eb 9c bd 53 c1 36 bd
       0.021682411 0.38966146 -0.076621816 -0.044617962
0001f0 e6 14 0d 3e 99 8a 2e 3e f8 c8 4e bd ff 68 84 be
       0.13777503 0.17045058 -0.050484627 -0.25861356
000200 b2 56 f6 bd da 54 41 bd 70 13 9f 3d 60 ee 1d 3d
       -0.120282546 -0.04720006 0.07767379 0.03855741
000210 c0 3b 9e be 7f d8 ac 3d d5 05 13 3d 62 07 12 be
       -0.3090496 0.08439731 0.035894234 -0.14260629
000220 bc 9c 57 3d 02 85 3f 3e 45 52 4c be ce b5 21 3e
       0.052639708 0.18703082 -0.19953258 0.15792009
000230 47 89 d2 3c 49 27 c7 bb ca aa 32 3c 03 ce 11 3d
       0.025700225 -0.006077681 0.010904977 0.03559686
000240 d8 8f 1c 3e 06 19 10 be 96 cf 2b be 73 e6 1d be
       0.15289247 -0.14072046 -0.16778407 -0.1541994
000250 e8 a0 a2 3d 89 d8 43 bd f0 60 07 3e 08 5b fb bd
       0.07940847 -0.047813926 0.13220572 -0.12273222
000260 fe 7a 91 bd 05 70 b1 3e 08 17 ca 3d 70 27 ef 3d
       -0.07103537 0.34655777 0.09867674 0.11677444
000270 37 61 b6 bd ce 0b 92 3d 3e 24 6d 3e 46 64 ce 3e
       -0.08905261 0.07131158 0.23158357 0.40310878
000280 85 96 96 be 3b 99 3b 3e 48 f2 4a bd a4 62 74 be
       -0.29411712 0.18320172 -0.049547464 -0.23865753
000290 aa 16 83 be 0c 44 a3 3b aa ba 12 be 65 a2 49 3e
       -0.2560323 0.004982477 -0.14329019 0.19690855
0002a0 eb fe ae bd d4 6f 9b bb 20 b1 0f be 45 ca 88 bd
       -0.085447155 -0.0047435556 -0.14032412 -0.06679205
0002b0 7b 12 2e be b6 30 2f bd 74 25 9f bd e9 b4 26 3d
       -0.16999237 -0.042771064 -0.077708155 0.040699873
0002c0 63 73 8a bd 68 32 3b 3e 05 74 9e 3d f0 fe 37 3e
       -0.067602895 0.18280947 0.07736973 0.17968345
0002d0 96 7c 0a be 12 df 63 bd 3e 6b 01 be 81 be 2d 3d
       -0.13524088 -0.05563266 -0.12638566 0.042418007
0002e0 03 28 b2 bd 79 01 91 bd 55 35 6b 3e 18 cd b3 bd
       -0.08699038 -0.07080359 0.22969563 -0.08779353
0002f0 c4 d8 df 3d b1 67 81 bd 27 26 b8 bd cd 7e ed 3b
       0.10930017 -0.06318606 -0.08991652 0.007247782
000300 46 bb 1e 3e e7 18 97 bd e4 f6 94 3e a0 02 66 3e
       0.15501127 -0.073777966 0.29094613 0.22461939
000310 5e 8f 82 3e d5 f9 3d 3d 8d 20 55 bf fd eb 3c 3d
       0.25500005 0.046380837 -0.83252794 0.046123493
000320 fb 6f 8a be 7f 80 c2 3d 21 09 3a bd 3e 3d 90 3e
       -0.2703856 0.09497165 -0.045418862 0.28171724
000330 65 cc a8 3d e6 a1 8e bd cb 6c 84 be 86 17 c2 bd
       0.0824211 -0.069644734 -0.25864252 -0.09477143
000340 4b 5f 97 bd e3 8c 93 3d 9d c3 23 be 04 59 27 3e
       -0.073912226 0.072046064 -0.1599259 0.1634255
000350 c8 2a ff 3c d0 d7 fb 3c bb 55 a5 3c ba 1d 54 3e
       0.03114833 0.030742556 0.020182481 0.20714465
000360 87 1c 6e 3d 52 0c 75 be ba 4c 64 be 6a 94 b5 3e
       0.058132675 -0.23930481 -0.22294894 0.35464793
000370 cc cb c2 bd f7 03 17 be de bb 33 3d 85 ac a0 bd
       -0.095115274 -0.14747606 0.043880336 -0.078454055
000380 2b df f6 3d fa b7 75 3e 06 41 44 3d 86 d0 88 3e
       0.12054285 0.23995963 0.047913574 0.2672159
000390 79 3c 8a 3e 37 38 fd bc 15 e4 1e be 23 b0 6c 3e
       0.26999262 -0.030910594 -0.15516694 0.23114066
0003a0 3b 21 41 3e 78 a4 9e be 30 cb 99 be 4a bb 65 3e
       0.18860333 -0.30984855 -0.30037832 0.22434726
0003b0 e9 19 c7 be b2 69 9c 3d d6 9f fe 3d ac 6d bc 3e
       -0.38886955 0.07637347 0.1243283 0.36802423
0003c0 77 b3 80 be a7 d5 60 bd 2e 92 8e 3d b7 38 20 3c
       -0.2513692 -0.054891255 0.06961475 0.009779147
0003d0 ca 1a ed bd fc 67 d9 bd f3 80 5d 3d c5 bd 23 bd
       -0.11577375 -0.106155366 0.054078054 -0.0399759
0003e0 96 bc d6 bd 5a 80 4f be 99 05 98 bb b2 eb 7f 3d
       -0.10485189 -0.20263806 -0.004639339 0.062480636
0003f0 37 99 c7 bd 5d 1e 1f be a9 76 05 be 92 f3 b7 bd
       -0.0974602 -0.15538926 -0.13033547 -0.08982004

network_body._body_endoder.seq_layers.0.bias f4 [128]
000000 7a 64 70 3d b3 28 1e 3d ad 76 84 3d 52 7b 77 bd
       0.058689572 0.038613033 0.06467948 -0.06042034
000010 86 a8 2c 3e e0 3c ac 3d 53 05 e8 3d 14 bb a6 3d
       0.16861162 0.084100485 0.113291405 0.08141151
000020 e8 95 94 3d 45 75 e2 3d 58 fe 2e 3e 31 85 c1 3d
       0.07255155 0.11057524 0.17089212 0.09449232
000030 ea 29 e5 3d 92 b4 f1 3d ad 8c f6 3d 15 5a 02 3e
       0.11189635 0.11802019 0.120385505 0.12729676
000040 4e 55 bc 3d 8a 15 85 3d 89 24 8f 3d cc da 78 bb
       0.09195958 0.06498249 0.069893904 -0.003797221
000050 4c 3e 8d 3d e4 8e 89 3d 85 19 96 3d f8 88 ba 3d
       0.06896648 0.06716707 0.07329086 0.09108156
000060 c3 99 e6 3d 1b b5 08 3e 5b 58 1f 3e 91 93 d6 3d
       0.112597965 0.13350336 0.15561049 0.10477365
000070 a5 b0 c1 3d 57 fd b2 3d cd e7 e8 3d dc 8f 67 3d
       0.094575204 0.08739727 0.113723375 0.05653368
000080 66 cc 1d 3e 32 90 45 3e cc 6b 34 3d 5b 35 39 3d
       0.15410003 0.19293287 0.044048116 0.0452169
000090 21 04 cf 3d 84 ad d5 3d 4c b9 3f 3d 7c b2 ff 3d
       0.101082094 0.10433486 0.046807572 0.12485215
0000a0 53 ff ca bb d2 d3 83 3d 0c f1 43 3d c6 a0 24 3e
       -0.006194988 0.06436886 0.047837302 0.16076955
0000b0 8b 7c d6 3d 02 e4 90 3d f7 de 83 3d d4 f7 e0 3c
       0.104729734 0.07074739 0.064390115 0.027461924
0000c0 a2 c6 a5 bc 35 2e 21 3e fe 4b f8 3d 1c 99 9c 3d
       -0.020236317 0.15740283 0.12123869 0.07646391
0000d0 43 07 8b 3d 94 00 36 3e 7d 22 9d 3d d4 ce 41 3d
       0.067884944 0.17773658 0.07672594 0.047316387
0000e0 8a 66 e3 3d 3a 62 85 3d ac d7 56 3c 67 d2 83 3d
       0.11103542 0.06512876 0.013112944 0.064366154
0000f0 38 c2 da 3d 52 87 0e 3e 37 d0 13 bd 9c 14 92 3d
       0.106815755 0.13918808 -0.03608724 0.07132837
000100 a9 bc a9 3d 3b 18 52 3d 33 8b 5d 3d aa 37 05 3e
       0.08287937 0.05129264 0.05408783 0.13009515
000110 45 60 9f 3d b6 9c e0 3d c3 46 8c 3d dc 93 64 3d
       0.07782034 0.1096739 0.06849434 0.055805072
000120 d9 98 11 3d 29 bf b8 3d f9 45 c7 3d a5 d2 90 3c
       0.035546158 0.09020836 0.09730143 0.017678568
000130 9b d9 75 3d 8d 99 15 3e 24 f9 37 3e e1 32 95 3d
       0.060021978 0.14609356 0.17966133 0.07285095
000140 4f 93 02 3e 6f e8 11 3e 94 4f 17 3e e1 3c be 3d
       0.12751506 0.14248823 0.1477645 0.092889555
000150 c8 78 30 3d 5c a1 88 3c 22 8b a7 3d 30 5d ca 3d
       0.043083936 0.016678505 0.08180834 0.09881055
000160 19 be c3 3c 88 7f e7 3d c0 ba ee 3d c3 f6 24 3c
       0.023894357 0.113036215 0.116567135 0.010068598
000170 31 ec 0a 3e 81 42 c6 3d f4 38 1d 3d 02 8d 0f 3d
       0.13566662 0.09680653 0.038384393 0.035046585
000180 d7 23 bc 3d b1 63 96 3d 82 75 4a 3d 5e d6 d2 3d
       0.091865234 0.073432334 0.04942847 0.102947935
000190 6d 6d a7 3d 6f c3 14 3e eb f2 17 3e cd 40 c8 3d
       0.08175168 0.14527677 0.1483876 0.09777985
0001a0 38 c1 f2 3d eb aa c4 3c 76 10 df 3d b1 63 94 3d
       0.1185326 0.024007281 0.108918115 0.07245577
0001b0 2a bc ef bc 17 1c 2c 3e 9d 53 2b 3d 3f eb f0 3d
       -0.029264528 0.1680759 0.041827787 0.1176362
0001c0 1b 8b 41 3e c3 13 11 3e bf b4 c1 3d 5b d4 6e 3e
       0.18900721 0.14167695 0.09458303 0.23323195
0001d0 f8 04 29 bd 8d 57 54 3d 2f e0 63 3d a5 c1 22 3d
       -0.041264504 0.051841307 0.05563372 0.039735455
0001e0 7d 28 64 3d ad 1c 83 3d 09 b5 f6 3d d3 58 82 3d
       0.055702675 0.06401954 0.120462485 0.06364598
0001f0 8e f0 f4 3d c3 61 0d 3e 6e 67 b9 3d 9c 9a 4c 3d
       0.11959945 0.13806824 0.09052931 0.049952134

network_body._body_endoder.seq_layers.2.weight f4 [128, 128]
000000 e2 c0 d7 bc 55 c5 a5 3d de cf 49 be 4f ac 8a bd
       -0.02633709 0.08094279 -0.19708201 -0.067711465
000010 aa f4 09 bd 70 fa aa bc a9 1a 9c 3d 97 3d 14 3e
       -0.033680595 -0.020871371 0.076222725 0.1447662
000020 62 b6 76 bd bc 8a 27 3e 63 d0 3d bc f1 f4 77 3d
       -0.060232528 0.16361517 -0.011585328 0.06053633
000030 8e ce 61 3d 40 c5 49 3e 9b 4a d3 3d 3b 29 c6 3c
       0.055128627 0.19704151 0.10316964 0.024189582
000040 7c ab 81 3c 9e 3e 4f 3d 7c 59 60 be 55 89 3b be
       0.01582884 0.050596826 -0.21909136 -0.18314107
000050 e3 da e2 3d 4b 26 0d bd 6f ee 1b be b4 50 90 3d
       0.110769056 -0.034460347 -0.15227674 0.07046643
000060 08 70 47 3d b2 22 0b be 64 fa 92 3c fe 71 d1 bd
       0.048690826 -0.13587454 0.017941661 -0.102268204
000070 fb c1 d8 bd 7f 0e 44 be 7b d6 57 be 00 05 b2 bb
       -0.10583874 -0.19146155 -0.21077912 -0.005432725
000080 e9 0c 38 be b9 e0 db 3c 30 da c0 bd 4c fc 50 be
       -0.17973675 0.026840555 -0.09416616 -0.20408744
000090 cf a7 8d 3d 49 19 bf 3d 71 0b c5 bc cc c6 a0 bd
       0.069167726 0.09330995 -0.024053307 -0.078504175
0000a0 13 23 20 3d 0c 8a 8a bc 56 cb db bd c3 67 8a bd
       0.03909595 -0.016911529 -0.107321426 -0.06758072
0000b0 33 86 40 3c bd 7a 9a 3c ea 5a 86 be 02 7b 4d bc
       0.011750746 0.018857354 -0.26241237 -0.012541534
0000c0 2a bd 5c 3d 77 b9 d6 bc 67 30 7a bd 99 bd af 3c
       0.05389134 -0.026211483 -0.061081316 0.021452712
0000d0 af ff 53 be 3f 20 c2 3d 55 15 fa bd 4e 4f ac 3d
       -0.20703004 0.09478807 -0.122111 0.08413564
0000e0 fd 48 ff 3d 92 1a 0b be 0d e4 51 3d 84 f9 9e 3e
       0.12465093 -0.13584355 0.051242877 0.3104974
0000f0 61 08 11 3e bf 7a 27 3d c3 b4 48 bc f0 bb 17 bd
       0.14163353 0.040888544 -0.012250128 -0.037044466
000100 15 1f 89 3d 4e 67 06 3e 53 2a f1 bd 47 6c cf 3d
       0.066953816 0.13125345 -0.11775651 0.10128074
000110 0b 30 55 3d 93 b7 5c 3d d5 b4 ed 3c 29 8f 38 be
       0.05204777 0.053886008 0.029016891 -0.18023361
000120 dc 19 56 3d a7 fe 98 3d 04 4d 01 3e 8c fb 28 be
       0.052270755 0.07470446 0.12627035 -0.16502208
000130 1c 29 ff bc 64 96 36 bd 5f 13 2f be b0 d9 a4 bd
       -0.031147532 -0.044577017 -0.17097233 -0.08049333
000140 cf 63 d9 3d eb 45 72 bd 55 6c 05 3e 98 9e 8f 3c
       0.1061474 -0.05914871 0.13029607 0.017531678
000150 e8 1c f4 bd 43 9c 36 bc 48 f4 30 3e 19 48 bb 3d
       -0.11919576 -0.011145654 0.17280686 0.09144611
000160 78 47 f9 3c b4 49 bd bd 74 e8 ca 3d 3c 00 9b bd
       0.030429587 -0.092425734 0.09907618 -0.07568404
000170 4a 79 29 3e ca 58 20 3d 52 ae 0d 3e 20 de c6 bd
       0.16550174 0.039147176 0.13836029 -0.09710336
000180 52 e7 8c bd cb 9f 10 3e aa aa f4 3d 45 a8 df bd
       -0.06880058 0.14123456 0.11946614 -0.10920767
000190 fb f7 08 3e 50 51 4a be 4f 75 23 bd 82 da 0d 3e
       0.13375847 -0.19757581 -0.039906796 0.13852885
0001a0 84 bf 1c bb 0e 09 87 3d 81 2e 0c 3e 03 a8 8e be
       -0.0023917863 0.06593524 0.13689615 -0.27862558
0001b0 9f b1 f1 bd ee fc 50 3d 29 3c 38 bd 30 73 45 bd
       -0.11801457 0.051022463 -0.04497925 -0.048205554
0001c0 23 45 d0 bb 28 36 cd 3d 26 04 1a bd 15 24 e0 39
       -0.006355898 0.10020095 -0.037601613 0.00042751493
0001d0 43 1c 0b be 2c 62 b6 3d 16 5d f4 3d cc 00 12 be
       -0.13585 0.089054435 0.11931817 -0.14258116
0001e0 33 10 00 be 68 1e 9b bd 75 2c 48 3d c7 f1 03 be
       -0.1250618 -0.07574159 0.048870523 -0.128852
0001f0 ee af 18 3d 61 85 3b 3d cf 36 de 3d c6 0c fc 3a
       0.037277155 0.045781497 0.10850298 0.0019229881
000200 29 ff 2b 3e f2 0d 2a be 63 68 2a 3e eb 20 86 3c
       0.16796555 -0.16606882 0.16641383 0.016373118
000210 b2 f7 66 3d 62 23 03 3e 17 b5 8a 3d 93 44 93 bd
       0.056388564 0.12806466 0.067728214 -0.07190814
000220 f3 69 f2 bc 62 ec f6 3d e8 1d 38 bd 1a c6 62 3e
       -0.029591536 0.12056805 -0.044950396 0.22145882
000230 53 46 7c bd f7 b2 31 be 07 b7 6c bd 08 e3 b2 3b
       -0.061590504 -0.17353426 -0.057791736 0.005459193
000240 fa 72 a3 bc a1 ef e9 3c a3 b9 65 bc 48 bb 2a 3e
       -0.019952286 0.028556647 -0.01402131 0.16673005
000250 fc b2 2f 3d 9a c7 db 3d 03 23 73 3d fd a2 c2 bd
       0.042895302 0.1073143 0.05935956 -0.09503744
000260 5a ca b6 bd 15 83 30 be f6 51 33 3e 21 d7 6d 3c
       -0.08925314 -0.17237504 0.17511734 0.014516623
000270 56 00 3b bd ca 5b 6f bd 32 b7 4b 3e d1 a0 5c bc
       -0.045654617 -0.058437146 0.19894102 -0.013466076
000280 1c e6 39 bd f0 1f 04 be e6 65 12 3e 5a 98 33 3e
       -0.045385465 -0.12902808 0.14296684 0.17538586
000290 ad 55 11 3d 63 74 81 bc 23 52 86 3c 65 42 d5 bd
       0.035482097 -0.015802568 0.016396588 -0.104130544
0002a0 15 cf ea 3d 0a a3 04 3e 68 09 f1 3d ac 99 24 be
       0.11465279 0.1295282 0.11769372 -0.16074246
0002b0 9b 98 72 3e e4 b1 9e bb d1 09 03 bb b2 47 85 3d
       0.23691027 -0.0048429836 -0.0019994865 0.065078154
0002c0 32 c1 a8 3d 09 ef b9 b9 03 de 37 3e 08 c2 b7 bc
       0.08239974 -0.00035464045 0.17955784 -0.022431388
0002d0 69 20 45 3e 56 0d 2a 3d af b7 24 3c 40 b5 3c 3c
       0.19250645 0.041516624 0.010053559 0.011517823
0002e0 84 ee 69 bd 14 99 32 3e 34 38 64 bb a7 c0 e1 ba
       -0.05711223 0.17441207 -0.0034823539 -0.0017223553
0002f0 b5 ea bf 3d b6 da 83 3c f5 7d 94 3e e0 26 20 3e
       0.09370939 0.0160955 0.29002348 0.1563983
000300 03 a9 bd 3d 0b 67 40 bd e9 fb 21 3d 7b 9a 57 3e
       0.09260752 -0.04697327 0.03954688 0.21055023
000310 27 f1 9a 3d 7a f8 91 bc 89 80 00 3d 73 6a b5 3b
       0.075655274 -0.017818678 0.03137258 0.0055363714
000320 83 ee 77 3d 97 89 20 3d 48 23 02 3e f7 ec ef 3c
       0.060530197 0.039193716 0.12708771 0.029287798
000330 83 c7 fb 3d b3 21 c8 bd 01 2e 81 bd 38 89 8e 3d
       0.12293913 -0.097720526 -0.06307603 0.06959766
000340 4b e6 b0 bb 97 5c 91 3d cd 2d 1d bd 53 96 b5 3d
       -0.005398547 0.07097738 -0.038373757 0.08866563
000350 a8 3d ad bd a5 92 a7 3e c5 52 06 3e e5 50 a9 bd
       -0.084590256 0.32729068 0.13117512 -0.082673825
000360 34 61 23 3e 77 5b 05 3e e7 14 2e 3d 3a 30 1e 3e
       0.15955049 0.13023172 0.042500403 0.15448084
000370 7a b9 79 bd a0 72 09 3d 51 f6 86 bc fb 81 9d 3d
       -0.0609679 0.03355658 -0.016474875 0.076908074
000380 68 d6 7c 3c 73 99 31 bd a7 45 fd 3d 77 56 02 3c
       0.015431978 -0.04335923 0.12366801 0.007955185
000390 7a d0 b0 bd 81 75 ce bc 87 e8 18 3e af 67 13 be
       -0.08633514 -0.025202515 0.14932452 -0.14395021
0003a0 65 82 39 be 5a 79 1c 3e 4e c1 31 3d 69 b2 92 3e
       -0.18116148 0.15280667 0.04339724 0.2865174
0003b0 74 6f a6 3e 54 e3 aa bd 18 c4 db 3d 4c 5e 57 3d
       0.32506907 -0.08344141 0.10730761 0.052580163
0003c0 aa 64 18 bd 6c 77 1c 3d 45 5c de ba af 0d d2 3c
       -0.037205376 0.038199827 -0.0016964754 0.02564129
0003d0 76 0c 63 bd e8 87 65 bd 91 fe 4f bd 14 98 22 3e
       -0.055431806 -0.056037813 -0.050779883 0.15878326
0003e0 77 bf a9 3d 82 b7 c0 bd 8d 04 a3 3c 34 f7 83 bd
       0.08288472 -0.09410001 0.01989963 -0.06443635
0003f0 be 45 86 bc fc dc 04 bc 03 99 ba bd 41 7b c3 bd
       -0.016390678 -0.008109327 -0.09111216 -0.09544993

network_body._body_endoder.seq_layers.2.bias f4 [128]
000000 de 9e a8 3c 8c 26 ab bc 60 e8 04 3e 30 1e 1a 3e
       0.020583566 -0.020892404 0.12979269 0.15050578
000010 a9 d1 cf 3d 36 a8 cb 3c a4 58 3e 3d 29 df da 3d
       0.101474114 0.024860483 0.046471253 0.10687096
000020 e6 7f 33 bd 82 a5 87 3d 8d 89 54 3d a1 70 ba 3d
       -0.043823145 0.06623365 0.05188899 0.091035135
000030 03 d2 64 3d 5b 5f b0 3c 7a 58 18 3d e3 4e 6a 3d
       0.055864345 0.021529844 0.037193753 0.05720414
000040 92 8c 9b 3d 8b c3 16 3d b3 bd 7f 3d 3c 3c ee 3d
       0.07595171 0.036807578 0.06243677 0.116325825
000050 5a fe 83 3d 73 f4 8a bc bf f4 4d 3d 64 d8 cf 3d
       0.06444998 -0.016962266 0.050282236 0.10148695
000060 d0 d2 a9 bc d8 00 b2 3d 62 de fc bc 5e cd 91 3d
       -0.020730406 0.08691567 -0.03086776 0.07119249
000070 f7 f6 a6 3c 50 1a 9d 3d a4 9a 04 bc f5 13 32 bc
       0.020381434 0.07671034 -0.00809351 -0.010869016
000080 0a 50 f6 3d 73 8c c0 3d 54 da e8 bb 49 4c ae 3d
       0.12026985 0.094017886 -0.007106105 0.08510644
000090 42 e4 03 3d 25 de 25 3d 4c 5d 4f 3d 03 bd b4 3d
       0.032200105 0.040495057 0.050626084 0.088251136
0000a0 9a 21 90 3c ca c2 b0 bc 3d 0a af bc 58 87 b2 3d
       0.017594147 -0.021577258 -0.021367187 0.08717221
0000b0 ea 89 09 3e 56 48 87 3c 91 32 98 bc 10 4a 40 3d
       0.13431516 0.016513985 -0.0185788 0.04694563
0000c0 f4 05 50 3d 49 fe 0b 3d ca bd 0a 3d 73 47 23 3b
       0.050786927 0.034178052 0.033872403 0.0024914413
0000d0 04 ca be 3b 9c 83 fa 3c cd 40 7b 3c 42 07 a9 3d
       0.005822422 0.030580334 0.015335274 0.082533374
0000e0 9e aa e9 3d 77 a6 da 3c 74 b5 8f 3b 88 f6 9c 3c
       0.11409496 0.026690705 0.0043856446 0.019160524
0000f0 3a 0f aa bc 6c a7 8b 3d 8c 40 ae bc f8 6b ee 3d
       -0.020759214 0.068190426 -0.021271013 0.11641687
000100 f9 20 43 3d 3e 07 c2 3d df c9 ac 3d db 14 19 3d
       0.047638867 0.094740376 0.08436941 0.037373405
000110 13 0d b6 3d 2e 5c 5f 3d 22 ce ca 3c 37 84 9f 3c
       0.088892125 0.05453127 0.024756495 0.019472225
000120 7b 1c dc 3d b0 d5 5b 3d f4 73 53 3c c3 81 27 bc
       0.1074762 0.053670585 0.012906063 -0.010223809
000130 92 b8 df 3d 90 36 b3 3d 90 85 2a bc 43 6d 0d 3d
       0.10923876 0.08750641 -0.01040782 0.03452803
000140 19 d6 33 3c 26 f3 8a 3d 89 3c 3a 3d f1 2b 5b 3d
       0.010976338 0.06784658 0.045467887 0.053508703
000150 5b de 76 bc a0 08 51 3d 67 3f 54 3d cd df 1b 3d
       -0.015067662 0.051033616 0.051818278 0.03805523
000160 a0 e0 92 3d b0 87 2a 3e db 89 49 3d 25 d1 c3 3d
       0.0717175 0.16653323 0.049203735 0.095613755
000170 42 92 a3 3b 88 3e c3 3d 6d 11 81 3d 1e b3 43 3d
       0.0049918005 0.09533411 0.06302152 0.04777824
000180 b1 e0 6e 3c 56 0e 1c 3e 2e f0 ba 3d fe 85 c6 3d
       0.014579938 0.15239844 0.09127842 0.09693526
000190 63 79 64 3c 4c 07 e5 3d 46 74 36 bc 31 db 42 3c
       0.0139449565 0.111830324 -0.01113612 0.01189308
0001a0 2b d6 d9 3b 3f 0e 50 3d 8c a3 1e bb b6 ed c6 3c
       0.0066478453 0.050794836 -0.0024206368 0.024283271
0001b0 8d 8a bb bc e2 31 84 3d 8a c5 fa bb bd b0 b5 3d
       -0.022893215 0.06454827 -0.007652943 0.08871601
0001c0 00 ef 2b 3e fb 9f 68 3c 96 77 13 3d b4 a2 32 3e
       0.1679039 0.014198299 0.036002718 0.17444879
0001d0 ef eb e5 3c 5e e1 c9 3d 9c e2 82 3d 49 16 a1 3d
       0.028066603 0.098574385 0.063908786 0.07865579
0001e0 4b e2 12 3e c9 74 ce 3b a7 73 bb 3c eb 19 40 3d
       0.14344136 0.006300543 0.022882296 0.046899717
0001f0 a2 b9 98 3d 75 c3 be 3c 51 1b 3f 3d 16 8c 60 3d
       0.07457282 0.02328656 0.04665691 0.054821096

action_model._discrete_distribution.branches.0.weight f4 [10, 128]
000000 c6 85 8f 3d 33 20 e9 bc 30 0d ea bd 68 39 0f be
       0.07007937 -0.028457737 -0.114282966 -0.13986742
000010 f4 f0 d8 3d 84 a9 13 be d6 0a f5 3c 60 1a d2 bc
       0.10592833 -0.14420134 0.029912394 -0.025647342
000020 f9 a9 16 bd bc 75 1b bd d0 b5 91 3c 61 87 8b 3d
       -0.036783192 -0.037954077 0.01778689 0.06812931
000030 d0 9c 10 be 1f 07 34 3d fc 4d d1 ba d2 d5 31 3c
       -0.14122319 0.043952104 -0.0015968676 0.010854201
000040 08 b1 86 b9 8f 7f 2c 3d 3e f3 00 3e 98 43 f0 bd
       -0.0002569037 0.042113837 0.1259279 -0.117316425
000050 e5 4b 7d 3d 25 03 7f bd 7c bc 0d 3c 1e e8 43 bc
       0.061839957 -0.06225886 0.008650895 -0.0119571965
000060 af 03 da 3d 34 d2 b9 3d 47 0b a2 bc 4d 17 bf bd
       0.10645234 0.09073296 -0.019780768 -0.09330616
000070 71 fb 91 bc 58 1f 1c bc 2a 77 0a 3e 21 aa 56 bd
       -0.017820092 -0.009528957 0.1352202 -0.05240834
000080 31 b9 7f bd 44 4c 47 bd 7c 7e 66 bc 1e 3c a3 3d
       -0.06243247 -0.048656717 -0.014068242 0.07970451
000090 99 c0 b7 3d 73 e3 5e bd 0f 5a d9 bc 43 af 20 bd
       0.08972282 -0.05441613 -0.026532201 -0.039229643
0000a0 d2 ce 33 bd 09 12 63 bc e1 3b 62 bd 4a 49 ae 3d
       -0.04389841 -0.01385928 -0.055232886 0.085100725
0000b0 40 c0 3a 3a 7d e6 6e bd 05 b3 6c 3b 56 92 91 bc
       0.00071239844 -0.05832528 0.0036117446 -0.017769974
0000c0 f4 9d cd 3d f8 8d 52 3d 43 8a fd 3d da 08 15 3d
       0.10039893 0.051404923 0.12379887 0.036385395
0000d0 d1 82 ff bb ac 96 78 3c fa 50 64 bc 78 5d 95 bd
       -0.007797577 0.015172642 -0.013935322 -0.072932184
0000e0 86 61 d3 bd 53 3f 37 bd 02 ec 21 bd b4 a0 08 bd
       -0.103213355 -0.044738125 -0.039531715 -0.033356383
0000f0 5f fe b1 3c 1c 71 cd 3d f2 3c 1a 3b e6 55 a0 bd
       0.021727739 0.100313395 0.0023534861 -0.07828884
000100 ef c9 f9 bd 28 f7 e1 bd ea 33 a5 bd 78 f4 30 bd
       -0.12196719 -0.110334694 -0.080665424 -0.043201894
000110 8f c5 77 bd de 2f 09 bd 24 08 41 bd 32 0b 1e 3d
       -0.06049114 -0.033492915 -0.047126904 0.038584895
000120 95 1b 8b bd f5 1b c4 bd 0c 56 9b bb b5 78 e0 ba
       -0.0679237 -0.09575645 -0.004740482 -0.0017125817
000130 f5 dc c9 bd 23 c1 b9 3c 13 b6 35 3d c0 b2 a6 bd
       -0.09856597 0.022675103 0.044363093 -0.081395626
000140 2c ce 4e bd e8 da 83 3d b3 a4 9c 3d d4 14 55 3d
       -0.05048959 0.064382374 0.076486014 0.052021816
000150 37 ff c9 3b a9 24 d4 3d fb a4 52 bd 44 76 01 be
       0.006164457 0.10358555 -0.05142687 -0.12642771
000160 2c 8c 58 3d 04 01 4d bd 51 b2 4e 3d 9c 04 53 bc
       0.052868053 -0.050049797 0.050463025 -0.012879517
000170 43 d9 a8 bb 5b 94 d2 bd c9 95 b1 3d 40 87 26 bc
       -0.0051528527 -0.10282203 0.086711474 -0.010164082
000180 05 9b 9a bd 5e 78 9d bc 35 c2 21 bd d8 61 e1 bd
       -0.07549099 -0.019222435 -0.03949185 -0.1100499
000190 88 6f 82 3b b6 4f bf bc 3f c5 40 3b 68 f2 68 3d
       0.0039805807 -0.023353439 0.0029414443 0.0568718
0001a0 68 04 2f 3c 76 80 f1 3d b6 66 4b 3d 0c fb 73 3d
       0.010682203 0.1179208 0.0496585 0.05956559
0001b0 fe 39 95 3c c7 f1 c6 bc d1 4e 84 3d 1c 88 35 39
       0.01821613 -0.02428521 0.064603455 0.0001731221
0001c0 5d 58 96 bd 3d 40 f1 bc 4d 32 5a bd 95 ed e1 bd
       -0.07341073 -0.029449577 -0.053270627 -0.11031643
0001d0 bc a0 c9 bc 0f a1 29 3d 99 6a 68 bd 8a e2 1e bd
       -0.024612777 0.041413363 -0.056742284 -0.038790263
0001e0 28 bd 2a be 3d fd 02 bd 22 15 e7 bc 6f cc 29 bc
       -0.1667372 -0.031979788 -0.02820832 -0.010363682
0001f0 cc a5 ed bd c5 53 83 3c 73 ea d8 bd 79 7a b0 bc
       -0.11603889 0.016031155 -0.10591593 -0.021542775
000200 72 a4 36 bd 5d 95 c0 bc 83 8b 83 bd fe 2a 92 bd
       -0.04459042 -0.023508722 -0.06423094 -0.07137106
000210 30 10 9d bd c5 de 5a bd f8 4a 8f bd d7 58 ca bc
       -0.07669103 -0.053435106 -0.06996721 -0.024700565
000220 01 93 af 3c 7f fb ad bc e8 3d 52 3c e2 a9 68 3d
       0.021432402 -0.021238087 0.012832142 0.056802638
000230 33 7c cd bc 35 52 b9 3c ab 52 69 bc 8f 24 3f 3d
       -0.025083637 0.022622207 -0.014240901 0.046665724
000240 b5 bf 7a bc a5 5f 03 bd 1b 80 8c 3d 88 96 16 bd
       -0.015304496 -0.032073636 0.06860372 -0.03676465
000250 95 4d 4b bd bf 68 d4 3c ca e8 19 bc d5 ae 94 bd
       -0.049634535 0.025928853 -0.00939388 -0.07259909
000260 86 0a f2 3c 63 8d 59 3d fe c6 7d 3d 4c 7e 85 3d
       0.029546034 0.053113353 0.061957352 0.0651823
000270 f8 0b 9b bc ee 02 47 bd 67 52 bf 3c 4c 5d 02 bb
       -0.018926606 -0.04858678 0.023354722 -0.0019892035
000280 87 a1 07 bd 96 d7 91 3d 45 31 7d 3d 1a 63 4e bb
       -0.03311303 0.07121198 0.061814565 -0.0031492175
000290 af a6 55 bc aa 49 16 bd 35 11 24 bc 7b aa 91 bc
       -0.013040229 -0.036691345 -0.010013868 -0.017781487
0002a0 67 aa b5 bc dd 4b 11 bc ac 19 82 3c d5 bb 97 3c
       -0.02217598 -0.008868185 0.015881382 0.018522182
0002b0 96 6e 54 bc eb 87 e6 bc 33 7f 04 3d c6 45 78 bb
       -0.012965819 -0.028140983 0.03234787 -0.0037883385
0002c0 cd 5f 24 bd 0d 3c b4 bc e8 71 9a bd 6d e4 98 3c
       -0.040130425 -0.02200129 -0.07541257 0.01866361
0002d0 a0 2e 1c bc 41 ba 33 3c ee 35 82 bc b2 58 03 3d
       -0.009532601 0.010969699 -0.015894856 0.03206701
0002e0 e7 ae e4 bc 35 1f 12 3c 9d 94 10 bd 03 89 2f 3d
       -0.027915431 0.008918573 -0.03529798 0.042855274
0002f0 b9 8c 51 3d 51 0f 41 3d 5f 38 8f 3d be 2a 6e bd
       0.051159594 0.047133747 0.06993174 -0.05814623
000300 02 93 49 bd 7a f2 9e bd fc 5b fa bc e3 03 ed bc
       -0.049212463 -0.077610925 -0.03056144 -0.028932517
000310 a8 8e 70 bd 26 e2 ff bc 40 35 3a 3d 6d 7b 20 bd
       -0.058729798 -0.031235766 0.04546094 -0.039180208
000320 a3 2d 73 bc 3f 94 c3 3a ba 23 90 bb 0d 4b e4 3b
       -0.014842424 0.00149215 -0.00439879 0.0069669546
000330 cc 30 07 bd bd aa c8 bd 90 9e f4 bc 42 60 a1 3d
       -0.03300552 -0.09798191 -0.029860765 0.07879688
000340 fe b5 09 bc 57 58 97 bc 33 5a 56 3c 26 37 e5 3c
       -0.008405207 -0.01847474 0.013083029 0.027980398
000350 d4 b7 dd 3c fd f1 02 3d 6a ae 3e bd 15 d3 b8 bd
       0.027065195 0.03196906 -0.046553053 -0.09024636
000360 ac fd 56 bd 64 e7 51 3d 72 5a 91 3d ba 42 a4 bd
       -0.052488014 0.051246062 0.07097329 -0.080205396
000370 77 9b f8 bc a6 eb 35 bd bd 9c bf 3c 2e 51 d4 39
       -0.030347569 -0.044414185 0.023390168 0.00040496275
000380 b8 fa 34 bc 5c 33 db bc 55 c0 08 bd d3 e8 6d bd
       -0.011046104 -0.026757888 -0.033386547 -0.058083367
000390 b9 e4 18 bd f6 91 59 bd 28 aa 21 3d b7 d6 03 bd
       -0.037327502 -0.053117715 0.039468914 -0.03218719
0003a0 36 fe a7 bc 90 42 be 3c 85 7a 82 bb 87 e9 1d 3d
       -0.02050696 0.023225099 -0.0039818906 0.038552787
0003b0 81 88 84 bb fe c3 75 bc 23 52 51 bd a3 b2 65 bd
       -0.004044593 -0.015000341 -0.051103722 -0.056078564
0003c0 2d 98 6a bc 19 8a 3d bd 10 30 98 bd ea 9a 98 bd
       -0.014318508 -0.04627428 -0.07431042 -0.074514225
0003d0 dc 75 36 3c 65 9b d8 3c 4d 5d ac bc ac ac 83 bd
       0.011136498 0.026441285 -0.021040583 -0.06429419
0003e0 1b d1 66 bd b5 46 4c bc 11 af e9 3c 2f 48 d9 3b
       -0.056351762 -0.01246803 0.028525861 0.0066309194
0003f0 85 a8 dd bd 43 52 cc bc 2a df 57 bd 7f c5 72 bc
       -0.10823158 -0.02494157 -0.05270306 -0.014817595

action_model._discrete_distribution.branches.0.bias f4 [10]
000000 83 42 87 bc 48 d7 ff bc df 2a 6c bc 9c 4d f9 3c
       -0.016511207 -0.031230584 -0.014414518 0.030432515
000010 3d ac 05 3d cf 9d f8 3c 7d c1 00 3d 6e cb e4 bc
       0.032634962 0.030348687 0.031434525 -0.027929034
000020 7c 01 f2 bb aa 3f bf bc
       -0.007385431 -0.023345787

action_model._discrete_distribution.branches.1.weight f4 [10, 128]
000000 7d 78 bd 3c e8 3a a4 3c 42 67 d0 bd a3 ce bb bd
       0.023128742 0.02004762 -0.10175945 -0.09170272
000010 63 4c d4 bd 02 fb 90 3c 29 87 38 bd 79 58 b7 bd
       -0.10366132 0.017697815 -0.045050774 -0.08952422
000020 91 ac 11 3a 63 68 3e 3d e7 37 01 be 82 f2 b3 bd
       0.00055570254 0.04648627 -0.12618981 -0.08786489
000030 b3 89 6f 3d 24 84 91 bd 00 54 c3 3d 09 12 af 3c
       0.05848093 -0.07105282 0.09537506 0.021370905
000040 f2 b8 0a be 8e d2 01 be b4 8e b1 bd db 03 3e 3d
       -0.13547114 -0.12677976 -0.086697966 0.046390396
000050 8a ae d8 3c 33 5f 37 bc 5b 27 c2 3d cd 9b 93 bd
       0.026450414 -0.011192131 0.09480163 -0.07207451
000060 ff c1 cb 3c ea 55 fe bd e6 aa 34 3c b0 1f 8a 3c
       0.024872778 -0.124187306 0.0110270735 0.016860813
000070 17 e6 c7 3d 00 24 61 3d 4c 3a ec bc 2b 35 30 3d
       0.09760683 0.054965973 -0.028836392 0.043019455
000080 57 e4 02 be 6a 35 f6 bc be 51 d2 bd d5 2f 15 be
       -0.12782417 -0.030054767 -0.10269497 -0.14569028
000090 5c 63 b3 3c 37 aa 93 bd 54 56 d5 3d 3c 10 b4 3d
       0.021897964 -0.072102 0.104168564 0.08792159
0000a0 72 30 bb 3d 63 3e a9 3c 3a d5 e9 bc 45 34 ac bd
       0.091400996 0.020659631 -0.028544057 -0.08408407
0000b0 32 5c 9e 3d 5e cb 3b bd 74 68 d1 3d 99 2f ec bb
       0.077324286 -0.045848243 0.10225001 -0.0072078225
0000c0 6d 8b 4f bb 4c c3 75 3d 16 f4 17 3c 62 23 81 bd
       -0.0031668798 0.060000703 0.009274503 -0.06305577
0000d0 d2 2a 62 3d 49 36 90 bd 09 77 ac bd 8e 9d 66 3c
       0.055216618 -0.07041604 -0.08421142 0.01407565
0000e0 ea 5b 93 bd 73 45 2e 3c 90 d4 48 3c 23 79 f6 bb
       -0.071952656 0.010636675 0.01225771 -0.007521765
0000f0 3b e2 22 bd fe 22 65 bd 15 f7 27 3c ae c2 d2 bd
       -0.03976653 -0.055941574 0.01025178 -0.102910385
000100 66 be 7e 3d 44 e9 72 bd 32 3e c2 bd be 38 d3 3d
       0.062193297 -0.05930449 -0.09484519 0.10313557
000110 5b 19 87 3c 04 91 94 3d 4e 70 ac ba 74 00 4b bd
       0.016491583 0.07254222 -0.0013156028 -0.04956098
000120 21 77 02 bd 1d f3 cb 3c 08 2e 2a bd af 86 17 bd
       -0.03185189 0.024896199 -0.041547805 -0.03699368
000130 a4 7c 12 be 8e fd 31 be ed 6b 14 3d dd f9 a4 bc
       -0.14305359 -0.1738188 0.03623574 -0.020138675
000140 22 c8 ba bb 61 a0 cb bc 9f ea a2 38 a1 52 22 be
       -0.005700127 -0.024856748 7.7684635e-05 -0.15851833
000150 5c 06 b9 bb b2 39 ee bd 4e dd 8b bd 44 8f 9b 3c
       -0.00564651 -0.11632098 -0.0682932 0.018989213
000160 7f 1b 99 3c 39 80 53 be 2f 9f 0c be 1a d2 c5 bd
       0.018689869 -0.20654382 -0.13732599 -0.09659214
000170 d0 6e 22 bd 02 2a 84 3d 36 5a b1 bc 82 8f c4 3d
       -0.03965646 0.06453325 -0.021649461 0.095976844
000180 42 0b 59 3d be a4 8f bd 02 f5 89 3d dc 3b c0 3c
       0.052989252 -0.07013844 0.06736185 0.023466043
000190 e3 58 0f bd 4c f5 b0 bd db 38 4c 3b c5 e7 2e 3d
       -0.03499688 -0.08640537 0.0031161818 0.0427015
0001a0 e8 15 0c 3d 69 66 fd bc 12 3a 79 3d 1e f3 fd bd
       0.03420058 -0.030932622 0.060846396 -0.123998865
0001b0 05 9e 34 bd 11 61 cb 3d 53 5e a7 3c bb 8d 34 bd
       -0.04409601 0.09930623 0.02043072 -0.044080477
0001c0 7d d2 2e be 7f 5c 9a 3d f1 b1 8d bd b4 a3 2a be
       -0.17072482 0.075371735 -0.06918705 -0.1666401
0001d0 61 01 1f bd fe 8c 73 bd 28 e0 88 3d 42 94 5a bd
       -0.038819674 -0.059460633 0.066833794 -0.053364046
0001e0 3e 90 26 bb 17 80 0c bc 50 6d bf bd 47 f9 b0 3d
       -0.0025415565 -0.008575461 -0.093470216 0.08641296
0001f0 d7 4c 6f bd f9 28 06 bd b8 3e 9b 3d 81 33 a6 3d
       -0.05842289 -0.03275392 0.07580322 0.08115292
000200 51 a7 f3 bc 45 1e cb 3c a2 3a 38 3c 9f 6e 80 bd
       -0.029742869 0.024794707 0.011244448 -0.06271099
000210 6e 04 b8 bd 08 b4 24 3d 15 10 be bc 1f fe 52 bc
       -0.0898522 0.040210754 -0.023201028 -0.01287797
000220 95 26 ef bc 8b 40 b3 bc 13 87 86 bd e5 32 22 bd
       -0.029193202 -0.021881362 -0.06568732 -0.039599318
000230 6f 63 21 3d 5a 54 31 bd bb 44 ab 3c 2c ff a2 bc
       0.039401468 -0.043293335 0.020906797 -0.019897066
000240 1d d9 29 bd f3 69 17 3c 84 42 46 bd 0f 79 b4 bc
       -0.04146682 0.009241569 -0.048403278 -0.022030381
000250 1b a9 1b bd 33 50 1e bc af e1 4d bd 31 f6 4a 3c
       -0.03800307 -0.009662676 -0.050264057 0.012387798
000260 ed 28 1d 3c ed a0 94 bc 69 50 28 bc c9 0b 5d bd
       0.009592277 -0.018143142 -0.0102730775 -0.053966317
000270 1f 35 38 3d 10 01 70 bd 7d ed 8f bc ae 0e 55 3d
       0.044972535 -0.058594763 -0.017569298 0.052015953
000280 ff 31 84 bd d0 29 1b bd 7c 6b 06 bd f2 22 30 bd
       -0.064548485 -0.037881672 -0.03281735 -0.043002076
000290 4f 11 0d bd d5 61 9b 3b ec e4 3a 3d d9 c5 1e 3d
       -0.034440335 0.004741887 0.045628473 0.0387629
0002a0 80 6c e3 3c 8d 54 3b 3c 3d ec b9 3c e5 3e 3a bd
       0.027761698 0.011433733 0.022695655 -0.045470137
0002b0 0b 86 be 3b 88 cb 3a bb fa 9e 47 3d ff 2a 5f 3d
       0.005814319 -0.0028502662 0.048735596 0.054484364
0002c0 79 af fa bc 96 96 8e bd 2f 0a 82 3c da 53 cc bc
       -0.03060125 -0.06962316 0.015873997 -0.024942327
0002d0 29 d5 cc 3c 42 33 2b 3c 7e b1 aa 3c 20 31 3a bc
       0.025003986 0.0104492325 0.020836588 -0.011364251
0002e0 92 71 29 bd d9 e8 4f bd bf 13 a6 3c eb f3 8e bd
       -0.041368075 -0.05075917 0.020273088 -0.069801174
0002f0 25 66 f2 bc 58 93 eb bc 12 c4 cb bb ad dd 0b bd
       -0.029589722 -0.028756782 -0.0062184418 -0.034146953
000300 10 d4 4d 3d 59 c1 1c 3b 39 4d cf 39 56 e6 81 3c
       0.050251067 0.0023918955 0.00039539652 0.015856903
000310 9d 8e b0 bc 22 20 13 bc e1 74 00 bd 48 82 c3 3a
       -0.021552378 -0.008979829 -0.031361464 0.0014916146
000320 a7 e2 b7 bb b1 c3 a1 bc 28 77 6a 3d 06 1d 32 3d
       -0.005611736 -0.019746633 0.057242543 0.04348471
000330 93 3d a1 bd f9 24 04 3c 9d 25 b8 bb 3b f3 c4 bc
       -0.078730725 0.008065456 -0.005619718 -0.024041763
000340 41 2c 06 bd f1 8a 34 bc d1 b8 a0 bb 59 e1 a8 bd
       -0.032757048 -0.011019454 -0.0049048443 -0.08246107
000350 be e3 6c bd 50 57 db bc 70 04 a9 3c 34 d4 7b bb
       -0.05783438 -0.026775032 0.020631999 -0.0038426043
000360 59 95 20 bc b2 44 a6 bd 73 fd 19 bd 26 fa d6 3c
       -0.009801232 -0.08118571 -0.037595224 0.026242327
000370 0e d1 9f 3c 12 f6 1e 3d f0 9c 6a bb e2 6e 13 3d
       0.019508865 0.03880889 -0.0035799108 0.035994418
000380 3f 42 c5 bb b6 26 b4 bd 12 9b 5f bd a3 4b d1 3c
       -0.00601986 -0.08796446 -0.054591246 0.025548762
000390 b1 76 1d 3c 7a 88 00 3d b7 8c 2f bc 53 85 ef 39
       0.009610818 0.031380154 -0.010714701 0.00045684967
0003a0 20 c8 47 bd 9a 5c 03 bc a9 92 2a 3c 95 c4 34 bd
       -0.04877484 -0.008017683 0.010410943 -0.044132788
0003b0 c4 53 2b 3d d8 5d 0d 3d 03 49 8f 3c 96 f8 17 bd
       0.041827932 0.034513324 0.01749087 -0.037102304
0003c0 a4 6f c8 bd ab db 8b bd a1 3e bc 3b 63 3a 8a bd
       -0.09786919 -0.06829008 0.0057447706 -0.06749418
0003d0 f0 95 1a bc 27 6c 63 bd a0 5d c1 3c 13 c1 75 bc
       -0.009435162 -0.055523064 0.023604214 -0.014999646
0003e0 d3 23 2b 3d fe ee d1 bc 44 55 7c bd 11 b2 2e bc
       0.04178221 -0.025626656 -0.061604753 -0.0106625715
0003f0 5b 76 03 3c e4 69 72 bd 56 e4 02 3d 12 e1 d6 bb
       0.008023824 -0.059183016 0.03195604 -0.006557592

action_model._discrete_distribution.branches.1.bias f4 [10]
000000 82 1f 8b bb a8 42 0c bd c3 5a ff ba 80 7d da 3c
       -0.0042456994 -0.034243256 -0.0019482005 0.026671171
000010 87 a2 08 3d f8 9f 5f 3c 20 17 53 3d b1 7c 4d bb
       0.033358123 0.013648979 0.051535726 -0.003135484
000020 d2 8e fa bc 8d 4b 41 bd
       -0.03058568 -0.04719119

exp_avg f4 [128, 40]
000000 24 fd 85 39 a9 d8 92 39 16 57 7d b9 42 6e 67 b9
       0.0002555634 0.00028008714 -0.00024160402 -0.00022070951
000010 aa 3f 9b 39 96 30 a7 39 2b 28 94 b9 29 fc 8b b9
       0.00029611337 0.00031888922 -0.00028258687 -0.0002670002
000020 03 6f b1 39 db be c2 39 10 d7 a8 b9 e7 a0 a6 b9
       0.0003384278 0.00037144762 -0.0003220369 -0.0003178187
000030 23 aa f5 39 32 d5 d4 39 4f 4f e4 b9 2e d6 bb b9
       0.00046856803 0.00040594634 -0.00043546638 -0.00035826996
000040 07 c3 13 3a 4b 8f ef 39 9d c8 47 ba 5a 18 ea b9
       0.00056366663 0.00045692394 -0.0007621141 -0.000446501
000050 a4 f0 28 3a b7 38 ee 39 1d f1 64 ba 47 55 e1 b9
       0.00064445497 0.00045437153 -0.00087334384 -0.0004297888
000060 3d 93 34 3a 14 26 34 3a 5c f6 c2 b9 3a 1b 19 ba
       0.00068883953 0.0006872129 -0.00037186116 -0.0005840544
000070 f0 df 71 3a 7a 84 40 3a 52 ef db ba ba 8a ad b9
       0.00092267897 0.00073439593 -0.0016779697 -0.0003310049
000080 17 eb 7d 3a 15 38 7d 3a 38 d1 d7 b9 86 ea ca ba
       0.0009686215 0.0009659541 -0.00041163876 -0.001548127
000090 6f 4b 99 3a d8 07 51 3a 0e 5e c2 ba 92 57 ab b9
       0.0011695455 0.0007973886 -0.0014829056 -0.00032680907
0000a0 84 b7 08 38 b2 3b 32 38 d4 96 9a 36 d9 f5 6f b8
       3.259584e-05 4.2494103e-05 4.6071164e-06 -5.7211004e-05
0000b0 d6 2e 39 38 fe 79 34 38 d7 c0 6b b8 bb d8 13 b7
       4.4151056e-05 4.302896e-05 -5.6207962e-05 -8.812344e-06
0000c0 ed 0b 37 38 3f 5f 41 38 26 87 93 b7 34 81 88 b8
       4.3641707e-05 4.610349e-05 -1.7586699e-05 -6.509051e-05
0000d0 38 86 63 38 22 ca fa 36 bf ac 8a b8 08 6e 8d 34
       5.424602e-05 7.474112e-06 -6.612529e-05 2.6343355e-07
0000e0 a2 96 d0 37 d7 00 fd 37 55 1c 21 39 84 ea cf b8
       2.4865676e-05 3.0160341e-05 0.00015364711 -9.914211e-05
0000f0 8b a6 8e 37 a0 8b 66 b7 68 8d 02 b9 88 af 1a 39
       1.7005272e-05 -1.3741577e-05 -0.00012450444 0.00014751975
000100 db 5a ed b7 ca e7 b7 b6 65 21 ba 39 88 d1 5d 36
       -2.829491e-05 -5.480809e-06 0.00035501565 3.305353e-06
000110 85 fa 99 b7 e9 c0 ea b8 ae f3 cf 38 26 b0 87 39
       -1.8355679e-05 -0.00011193922 9.915918e-05 0.00025880447
000120 59 b5 f8 b8 51 80 25 b9 d2 28 da 39 ce 84 14 39
       -0.0001185934 -0.00015783428 0.00041610614 0.00014163853
000130 a9 af 2c b9 59 a3 03 b9 3b 4b ee 39 99 fd 0f 3a
       -0.00016468637 -0.00012553985 0.00045450949 0.0005492806
000140 dc 2e 70 38 b9 c5 de 38 51 ce 09 38 6a ea fb b8
       5.72641e-05 0.000106226136 3.2855492e-05 -0.00012012276
000150 80 34 9b 38 a2 49 e2 38 8e 5e af b8 31 91 29 b8
       7.400755e-05 0.00010790235 -8.3622625e-05 -4.042796e-05
000160 82 5f 9b 38 1d 8a d7 38 08 a8 d3 b7 62 19 19 b9
       7.408766e-05 0.000102777245 -2.5231406e-05 -0.00014600673
000170 aa 46 7f 38 8b 79 f9 38 96 01 4e 38 80 8b 17 b9
       6.086255e-05 0.000118958844 4.9115704e-05 -0.0001445245
000180 6c fe 9e 38 3c 6d f0 38 79 93 95 b8 4a 99 21 b8
       7.581417e-05 0.00011464438 -7.1323426e-05 -3.8528153e-05
000190 f0 8d ab 38 f5 14 84 38 a4 02 ac b7 f0 6f 49 b8
       8.180353e-05 6.298154e-05 -2.0505227e-05 -4.8026384e-05
0001a0 c4 23 f4 38 0f d0 f8 b7 58 aa 56 b9 10 61 d5 39
       0.000116414885 -2.9660789e-05 -0.00020472088 0.00040698843
0001b0 c1 cb fb 38 45 1b 26 b9 ba e8 9c b8 d2 6c f3 39
       0.00012006565 -0.00015841152 -7.4820084e-05 0.0004642965
0001c0 42 59 1f 39 43 43 8a b9 46 ae 70 b9 48 64 11 3a
       0.00015196673 -0.00026371525 -0.00022953106 0.0005546254
0001d0 24 63 3a 39 9c 3c 9d b9 da 64 a3 b8 f7 56 cf 39
       0.00017775275 -0.0002999053 -7.791231e-05 0.0003954691
0001e0 67 9f ce 36 d6 37 18 b7 c2 ab df b7 c8 f4 43 38
       6.1578353e-06 -9.072906e-06 -2.6663653e-05 4.6719593e-05
0001f0 c8 d4 71 b5 cc 18 64 b5 bc 69 e0 37 57 17 bf b7
       -9.0089134e-07 -8.4972703e-07 2.6752117e-05 -2.2779843e-05
000200 10 d7 04 37 59 a9 9c b6 ab 88 fd b7 76 0c da 37
       7.917886e-06 -4.668877e-06 -3.0223591e-05 2.5993428e-05
000210 f9 87 ae 36 c8 13 e8 b5 5e 92 bd b6 ad a4 09 37
       5.2014334e-06 -1.7291104e-06 -5.6496783e-06 8.204178e-06
000220 36 1c f7 36 6b 64 1f b7 a9 b0 06 b8 78 94 e5 37
       7.364458e-06 -9.500519e-06 -3.2112617e-05 2.7368063e-05
000230 e8 d9 48 35 ac c1 ce b6 f9 73 e5 37 e1 48 7e b8
       7.48229e-07 -6.161825e-06 2.7352931e-05 -6.0626193e-05
000240 6d 1b 31 37 95 00 1f b7 e7 cf 4f b8 16 87 4c 38
       1.0556408e-05 -9.477274e-06 -4.954627e-05 4.87632e-05
000250 0c c4 8f 37 da 2d a7 b7 d5 96 40 b8 cf 39 fe 37
       1.713822e-05 -1.9929303e-05 -4.591684e-05 3.0306079e-05
000260 61 03 a5 37 40 65 5d b7 58 26 8f 37 e7 05 e3 b7
       1.9671106e-05 -1.3196201e-05 1.7064784e-05 -2.7063257e-05
000270 52 56 27 38 df 64 c9 b7 ae 58 cd b8 36 55 34 37
       3.9896295e-05 -2.4008039e-05 -9.7916796e-05 1.0748676e-05
000280 a2 68 9b 39 1f bc aa 39 3e 8f 9a b9 34 42 81 b9
       0.0002964186 0.00032565088 -0.00029479893 -0.00024654123
000290 b0 d2 b2 39 bf b5 c4 39 a2 bb a7 b9 68 64 ab b9
       0.0003410778 0.00037519445 -0.0003199252 -0.0003269047
0002a0 14 cf cb 39 96 57 de 39 46 7b c9 b9 9e 87 bf b9
       0.00038873462 0.00042408396 -0.00038429553 -0.00036531402
0002b0 13 7e cf 39 9a a2 ee 39 7e bc f4 b9 96 c8 cf b9
       0.0003957605 0.00045516045 -0.00046679744 -0.00039631565
0002c0 c7 d1 d0 39 24 5f 04 3a 40 4d 59 b9 9b b8 fd b9
       0.00039829148 0.00050495774 -0.0002072351 -0.00048393462
0002d0 c2 d8 df 39 a2 92 12 3a ff b9 b6 b9 8a 05 f2 b9
       0.00042695372 0.0005591308 -0.00034852323 -0.00046161964
0002e0 cb 37 f2 39 b7 f7 17 3a e7 98 87 b9 15 83 20 ba
       0.00046199406 0.0005797105 -0.00025863128 -0.00061230484
0002f0 7f fe fa 39 6d 44 2f 3a 88 54 03 b8 78 55 1a ba
       0.0004787333 0.00066859165 -3.131156e-05 -0.00058873696
000300 79 3f 09 3a 6c 25 33 3a 23 fd e6 b9 f6 ed 9a b9
       0.00052355934 0.00068338844 -0.0004405762 -0.00029550464
000310 f3 6b 02 3a 3b b6 45 3a 5b 2e b5 39 2f a0 36 ba
       0.0004975192 0.0007542108 0.00034557548 -0.0006966618
000320 a0 ea c6 36 98 42 0c b8 4e 26 9d b8 76 d1 25 38
       5.928174e-06 -3.344062e-05 -7.493478e-05 3.953414e-05
000330 00 3f 24 b5 e8 17 f5 b7 e0 22 10 37 c0 a3 4f b7
       -6.118644e-07 -2.9217408e-05 8.591189e-06 -1.23762875e-05
000340 10 35 24 37 34 f7 33 b8 cc 6c 2c b8 d6 30 85 38
       9.787516e-06 -4.290715e-05 -4.110932e-05 6.3510306e-05
000350 00 a8 59 b5 00 c8 80 b5 a0 6c 60 37 c0 46 54 37
       -8.108327e-07 -9.594951e-07 1.3376732e-05 1.26526575e-05
000360 28 ed 11 38 30 39 b0 b7 07 03 65 b9 18 e9 ad 38
       3.4791563e-05 -2.1007465e-05 -0.0002184027 8.2927e-05
000370 c0 62 5f 38 80 1c af b6 d4 8e 3c 38 58 a1 27 b9
       5.325931e-05 -5.2187243e-06 4.4955712e-05 -0.00015986466
000380 e8 42 be 38 08 68 c7 38 d5 35 b4 b9 ae a6 c4 38
       9.072368e-05 9.508437e-05 -0.00034372383 9.377055e-05
000390 bc 4f 00 39 62 5b 14 39 9e 24 69 ba 44 79 c7 b8
       0.00012236735 0.00014148423 -0.0008893701 -9.511647e-05
0003a0 46 7b 7d 39 4f db a6 39 08 55 04 39 0a 92 52 ba
       0.00024173883 0.00031825385 0.00012620178 -0.0008032626
0003b0 21 c4 da 39 4c 37 0e 39 c1 b2 db ba 1a 64 98 b9
       0.00041726328 0.00013562775 -0.0016761647 -0.0002906628
0003c0 6e a4 ef 39 f0 9c ff 39 92 e0 e5 b9 86 e7 c8 b9
       0.00045708142 0.00048754318 -0.00043845602 -0.0003831947
0003d0 80 f0 0a 3a 7b 88 11 3a 6d 6b 05 ba 8d 69 f3 b9
       0.00053001195 0.0005551648 -0.0005089555 -0.00046427213
0003e0 c6 2e 1f 3a bd 5b 26 3a d1 5b 17 ba 11 0f 11 ba
       0.00060723384 0.00063460675 -0.00057738746 -0.0005533556
0003f0 3e ff 42 3a 56 b3 3c 3a b6 1a 3f ba ea f2 23 ba
       0.0007438547 0.0007198354 -0.0007290052 -0.00062541536
