Assets/Config/results/CheeseWorld7/CheeseWorld7/CheeseWorld7-102942.onnx (onnx, 95944 bytes, 11 tensors)

discrete_act_size_vector f4 [1, 2]
00000000: 0000 3041 0000 3041
11.0 11.0

network_body.observation_encoder.processors.0.normalizer.running_mean f4 [20]
00000000: eacb dabd e3a4 28be 1cc1 00be 730c 60be
00000010: d546 17be 61a7 8bbe 8769 32be 4322 a5be
00000020: d82d 55be 7b3b bbbe 208d 81be 4e00 ccbe
00000030: 81c9 9ebe 24ce d5be cad7 babe cda0 e0be
00000040: b9d0 d8be 857b e9be d06d f3be 477e f5be
-0.10683425 -0.1646915 -0.12573665 -0.21879749 -0.14773114 -0.27276137 -0.17423068 -0.32252702
-0.20818269 -0.36568817 -0.25302982 -0.39843982 -0.3101311 -0.41758835 -0.3649276 -0.4387268
-0.42346743 -0.4560205 -0.47544718 -0.47947904

network_body._body_endoder.seq_layers.0.weight f4 [128, 20]
00000000: 1459 dcbd e030 2cbf 08f3 623e 316c 88be
00000010: 25dc a73e 9b1c 873e 8ca3 99be 30ac 29bb
00000020: 6370 46be ddcd a23e 953d e9be 4c2a 9dbe
00000030: 9996 3fbe 4de1 693e d1d6 bbba 9989 c33e
00000040: c35b 44bd a838 4cbc b7e6 753e f676 afbe
00000050: 57b7 35be ef72 0e3e f012 df3d 47cb 68bd
00000060: 2170 a8be a202 883e 335e 3c3e 296d 8c3d
00000070: a592 ec3d 0224 82be 739b 8dbe 168e 523e
00000080: dcd3 403e 746d 843e 7f91 d23e aea7 ad3e
00000090: 3b75 133e 0716 a73b 3f1b 28bd 5afc 89be
000000a0: 4287 ba3e 3e5e 0cbb 2d9d 183f b553 533e
000000b0: 9784 163f f495 04be afdb 503e ae17 ab3e
000000c0: 8665 e1bb 1f95 55be 66f7 1b3e 935c 7abe
000000d0: 3c62 d93e a5a3 4ebe 74e4 debe 170c 53bd
000000e0: c0c4 913e 443b 69bd 8175 4c3e 9251 0abe
000000f0: a8e8 b5be 37ec 463e 20fc 313e f06d 08bf
00000100: 41cc 0bbd e827 4fbe 5d55 153f c401 98be
00000110: e8de ba3e c766 0e3b bb67 4e3e e280 bebe
00000120: a247 32bd 0eb5 2bbf 2398 5a3d f91b 2b3d
00000130: 949f 9f3d b39f 22be d7d9 ddbe 59f2 0cbf
00000140: 20c4 063e faa4 063e 2ec4 11be c986 27be
00000150: 2ca7 e8be 28f5 7c3e a387 0e3d 8d64 503e
00000160: 331b bebe 12f1 9e3e fc97 9d3e c3ba 7c3e
00000170: 9dac 91be 8af9 633e c332 7b3e a4bc 02be
00000180: 9903 803e 44b0 69be 78ef 32bd 37ff 6cbd
00000190: 8a35 713d d569 b73d 0e18 3a3f 16e4 a8bd
000001a0: b7f0 463e 121f a83d 6205 203e 02f5 a43e
000001b0: fadf a83c 06c1 0ebd 2d6c 903e 3886 d73d
000001c0: ccaa 57be 13bd e4bc f97b 083f ea0e 1b3d
000001d0: d19e d2be 1cbe 453e a5e5 383e 6695 123f
000001e0: fd8a dc3e 37be b5ba 363f 8a3e cf16 c7ba
000001f0: aaaf bc3e de6d 2a3c fd3a 223e 6d16 07bd
00000200: 67f7 a0bd 8ed2 513e 6b1a 95bd a48a 8cbd
00000210: 41b5 fabe b512 353e 790d b93b f2f0 04bc
00000220: 5e57 1fbf 1a4d ef3c 2ce2 683d 9519 75be
00000230: 41b1 07be 2699 75bd 5440 b6be a38a f4bd
00000240: 504b 00be f8d0 a1be b1ea df3b ceb3 9d3b
00000250: ea50 c33d 2a31 eb3c 6aa7 52be 594c 9c3d
00000260: b3d5 90be 648b 76bd 89a7 3f3e cf18 b4b9
00000270: 609e 903e eb91 8cbe 7b7c 98be e030 e03c
00000280: dd4d e6bb 359f 593e 9192 d23c 757e ac3e
00000290: 14d1 c1bd b2da 743d d3e9 013e ccfd 8cbd
000002a0: 7a05 033d f757 6fbc cd9e ed3d 09d8 7e3e
000002b0: e947 863c 149d 0bbd 16bd acbe ee77 a33e
000002c0: 702c 1f3d 9c93 313e de84 ff3b a2a1 a73e
000002d0: e03e f93b c887 07be 8e08 1dbe 644c 7f3d
000002e0: 3a41 c03c 8c60 c1bd 730a 36bf ac4f 3dbe
000002f0: 4e93 2abe afe4 5f3e 16bb 81bd 8d5d aa3e
00000300: 4698 41be 6359 1a3d e7ab 36be 5035 77bd
00000310: a0a5 92bc c890 bd3e 2c3d 75be f4b1 14bf
00000320: 15eb b63e 22b7 fabe aecf be3e 17c9 b7be
00000330: 0d3c e8bd 729b 233d a0a1 fbbb f325 c63e
00000340: 4acd 9cbe 8308 a43e 0d9d 41be 8496 d3be
00000350: de91 853e 282b 32be f2fa 65be c114 093f
00000360: 8c9b 23be fe6a acbd 00b3 093e d205 45be
00000370: b3ff 233e 1d41 20bf 52d3 683c 6e07 7ebe
00000380: efe0 2ebe 0af6 a13d daed 8cbe a5f7 1dbd
00000390: 4304 82be 0d7a b43e 20cf d6bd 7619 53be
000003a0: aebd 2e3e 2b4d 603e ed93 29be e7dd debe
000003b0: 93ed 65be f46d ccbd fe24 943c a94b 6cbe
000003c0: 450c 50be 7649 ecbd d3e1 21be 326d 0fbe
000003d0: 357e 2f3d a61c 47be 2a36 ddbe d4b3 74be
000003e0: 14ad 81be 0e68 96be f611 71be ce6c 91be
000003f0: 0596 94be 2456 893e 5176 f93c 5230 ff3e
-0.10759178 -0.6726208 0.22163022 -0.26645043 0.32785144 0.26389012 -0.3000759 -0.0025889985
-0.1937881 0.31797686 -0.45554796 -0.30696332 -0.18709792 0.22839852 -0.0014330988 0.38190916
-0.047939073 -0.01246468 0.24013792 -0.34270447 -0.1774572 0.13911031 0.10892284 -0.056834485
-0.32898048 0.2656451 0.18395309 0.06856758 0.11551408 -0.25418097 -0.2765766 0.20562014
0.18830818 0.25864756 0.4112663 0.33916992 0.14400189 0.0050990614 -0.04104161 -0.2695034
0.3643132 -0.0021418477 0.5961483 0.206374 0.58796066 -0.12947828 0.20396303 0.33416504
-0.0068785576 -0.20857666 0.15231094 -0.24449377 0.4245776 -0.20179613 -0.4353367 -0.0515252
0.2847042 -0.056941286 0.19966699 -0.13507679 -0.35529065 0.19426046 0.17381334 -0.5329275
-0.03413034 -0.20230067 0.5833338 -0.29688847 0.3649819 0.002172874 0.20156758 -0.37207705
-0.043525346 -0.6707314 0.053367745 0.041774724 0.07794109 -0.15881233 -0.4333026 -0.55057293
0.13160753 0.13148871 -0.14234993 -0.1636001 -0.45440042 0.24702895 0.034797322 0.20350857
-0.37130126 0.31043297 0.30780017 0.24680619 -0.28452006 0.2226316 0.24531083 -0.12767273
0.25002745 -0.22821146 -0.043685406 -0.05786058 0.05888895 0.08955733 0.72692955 -0.08246629
0.19427763 0.08209051 0.15627053 0.32218176 0.020614613 -0.03485205 0.28207532 0.10523647
-0.21061248 -0.027922189 0.5331417 0.03785602 -0.41136792 0.19310802 0.18056352 0.57259214
0.4307479 -0.0013865893 0.2700135 -0.0015189293 0.3685277 0.010402171 0.15842815 -0.03298037
-0.07859688 0.20490476 -0.072804295 -0.06862381 -0.4896641 0.17682917 0.005647358 -0.008114086
-0.62242687 0.02921157 0.05685632 -0.2393554 -0.13251211 -0.059960507 -0.35595953 -0.11940505
-0.1252873 -0.31604743 0.0068333973 0.004812694 0.095369175 0.028709967 -0.20571676 0.0763175
-0.2828804 -0.060191527 0.18716253 -0.0003435076 0.2824583 -0.27455077 -0.2978247 0.027367055
-0.007028325 0.21252139 0.025704654 0.3369023 -0.094637066 0.059778877 0.12686853 -0.068843454
0.031987645 -0.014608375 0.116025545 0.24887098 0.016391711 -0.03408535 -0.3373801 0.31927437
0.03886074 0.17341465 0.0077978214 0.32740504 0.0076063722 -0.1323539 -0.15335295 0.06232871
0.023468602 -0.09442243 -0.71109694 -0.18487424 -0.16657755 0.2186458 -0.06334512 0.332745
-0.18905744 0.037682902 -0.17839013 -0.060353577 -0.017901242 0.37024522 -0.23949116 -0.58084035
0.35726228 -0.48967844 0.37267822 -0.35895607 -0.11339579 0.039943166 -0.0076791793 0.38700828
-0.30625373 0.32037744 -0.18907566 -0.41325772 0.2608785 -0.17399275 -0.2245901 0.5354729
-0.15977305 -0.08418845 0.1344719 -0.19240502 0.1601551 -0.62599355 0.014210539 -0.24807522
-0.17077993 0.07908256 -0.27525216 -0.03856625 -0.25393876 0.35249367 -0.10488725 -0.20615181
0.17064545 0.21904437 -0.16560335 -0.43528673 -0.22453909 -0.099819094 0.018084045 -0.23075737
-0.2031718 -0.11537449 -0.15808801 -0.14006498 0.04284497 -0.19444522 -0.43205386 -0.23896724
-0.2532736 -0.29376262 -0.23542008 -0.28403324 -0.29020706 0.26823533 0.030451925 0.49841553

network_body._body_endoder.seq_layers.0.bias f4 [128]
00000000: f321 993d abd2 213d 6f0e e93d a004 cd3d
00000010: ab36 cc3d 9c45 f43d f0cd 6a3d 684c bf3d
00000020: 45be 2c3d 72a1 c53d e0a6 a83d 91e0 9f3d
00000030: 0c9d 993d df4c 743d af5c 003e ddf7 fa3c
00000040: 7d44 6c3d 2ef0 d73d 4e82 a43d e1ea eb3d
00000050: 562a ac3d bf02 153d 75d2 f53d 8101 473d
00000060: ffe6 783d 2157 583d 996e d33d 82c4 de3c
00000070: 0d84 cb3d c2bb fdbc 6cde 363d 36a8 063c
00000080: 45c2 7d3d bf96 9f3d 02d0 c33d 103a 853d
00000090: c5e1 193c cd28 bb3d d638 fdbc a4fc 923d
000000a0: 7897 823d 2c94 e73d 96d0 b13d 823c 2f3d
000000b0: 3026 dc3d 0dd6 cd3d 820d d13d 903d 083e
000000c0: d576 923c 74d8 313d 8f9f 983c 93ad 9c3d
000000d0: 9aa0 b93d ce11 af3d 8087 a63d ff42 b43c
000000e0: 6149 f23d 88f9 4f3d da90 1c3d bf68 d03c
000000f0: 3626 4b3d f802 4b3b 9b87 ae3d fecc 493d
00000100: 73d3 333d 0ab4 c03d f1bc 273d 6eda 8b3d
00000110: e929 8a3d e218 a63d 4931 db3d fa27 033d
00000120: 5101 d03d bcb9 ce3d 4e11 063e dae8 cb3d
00000130: 7557 8d3d 3302 fd3d 2c86 c13c abec 813d
00000140: 503f 413d f07f 7c3d e448 c33c 45f9 8ebc
00000150: a957 ee3d e355 423d 4806 ef3d 3679 d33d
00000160: d689 c83d fb3a 603d 7486 123d 90d9 b33d
00000170: 42df c13d a2ad 943d 2dcc 1f3d 1392 ef3d
00000180: 9800 af3d 8e14 8f3c 02d8 a23d 7d60 2a3d
00000190: 287a b73d 0503 fdbc b33f bd3d 7e86 a83d
000001a0: 5658 453d b526 353d fc45 7f3d 5405 9c3d
000001b0: 5562 8a3d bacd 9f3d cfb0 b73d f104 993d
000001c0: a286 9e3d 12f3 733d 7950 31bb 74c4 9b3d
000001d0: b39e ca3d 82a5 793d 3bbd 4e3d 8f53 963d
000001e0: 1184 533d 09c9 8d3d acb9 593d 1b94 e03d
000001f0: 0f5c 833c 3f34 783d 4057 f83d 93ba 6e3d
0.074771784 0.03950755 0.11379706 0.10010648 0.099713646 0.119273394 0.057325304 0.09340745
0.042173643 0.09649934 0.08234954 0.078065045 0.075006574 0.059643622 0.12535356 0.030635769
0.057682503 0.105438575 0.08032666 0.11519409 0.084065124 0.036379572 0.12003032 0.04858542
0.06076717 0.052817468 0.10323829 0.027193312 0.09937296 -0.030973319 0.04464571 0.008218816
0.061952848 0.077924244 0.09561159 0.06505215 0.009392207 0.091386415 -0.03091089 0.071770936
0.063765466 0.113075584 0.08682363 0.042782314 0.10749471 0.100505926 0.102076545 0.13304734
0.01787893 0.043419316 0.018630771 0.07650294 0.090638354 0.08548318 0.08131313 0.022004602
0.11830402 0.05077508 0.03822408 0.025440572 0.049596988 0.0030977111 0.085219584 0.04926776
0.043902826 0.0940934 0.040951673 0.068287715 0.06746275 0.08110215 0.1070276 0.032020546
0.10156501 0.1009402 0.13092539 0.09956522 0.06901447 0.12353935 0.023623548 0.06343969
0.04717952 0.06164545 0.023838468 -0.017452845 0.116378136 0.04744519 0.1167112 0.103258535
0.09791915 0.05474375 0.035772756 0.08781731 0.09466411 0.0725968 0.039013077 0.11697783
0.08545035 0.017465856 0.079513565 0.041595925 0.08958846 -0.030885229 0.09240665 0.08228777
0.048179947 0.044226367 0.0623226 0.07618204 0.067570366 0.07802911 0.089692704 0.074716456
0.07740523 0.05955798 -0.0027056022 0.0760583 0.09893551 0.060948856 0.050473433 0.07340156
0.05163962 0.0692311 0.053155586 0.10965749 0.016035108 0.0605967 0.121260166 0.0582834

network_body._body_endoder.seq_layers.2.weight f4 [128, 128]
00000000: 55d4 763d a847 093d 6bd0 9c3d 1c6c c13c
00000010: 3c26 29bd 8b35 11bd f035 37bd aded 373d
00000020: ac8a 05bd 937f 2d3d 1b7a 25be a9be bcbc
00000030: a05e e63d 1788 0d3e c9f8 243e 8847 553c
00000040: 5fac cc3d d3c6 393e 6547 c3bd 1963 4d3d
00000050: d90a 3a3c 52c0 af3d c0fb b63d b387 8cbc
00000060: e5a3 6e3e 5485 30bd 7f39 9c3d 497f b9bd
00000070: 5f65 803d 4e2b d83d 7f96 d73d 1d87 2a3e
00000080: ea15 103e dc5e 90bc ccca 5bbe 2e63 3f3e
00000090: 2727 cb3d 16ec 473d 46f2 703e 3cc1 133e
000000a0: 7c4e e1bd 92dd 0f3e 0633 3a3e 73b5 e6bc
000000b0: ad22 15be cc1b 54bd d1fd 5abb a5f8 983d
000000c0: 498f 87bd 4697 103c 3acc bebd 37e1 56bd
000000d0: 7ba3 393e 697c 4e3e 2df2 d33c e81b da3c
000000e0: ed08 d7bd fc5c 4039 ea4a e63c 6a54 963d
000000f0: f5ab 023d 397c 64bd 8f90 97bd 9a13 b2bd
00000100: 7014 04be b2d0 88bc 8d06 3f3d 2ec8 003e
00000110: 66b7 06bd 874e f23b 6b96 88bd 2017 33bc
00000120: 47f5 143d b046 903d 4263 64bc 85a8 04bd
00000130: ab63 dc3c fbce 893e b8a3 2e3e 17d9 5f3e
00000140: b0a2 743d df12 2c3e e041 abbd 6d09 d93c
00000150: 710d ca3d 066d 0d3e 3ebf 0ebc 7e2b e1bd
00000160: bfbe cd3c 4bf8 d03c 708a 163e 4f82 043e
00000170: ec75 963c 0dc4 543c ae52 1fbe 0f69 90bd
00000180: 7fa4 0f3e 1687 813b fd99 913d b4be bf3b
00000190: 83c8 2b3e 5e44 d23c ebfe 463c e6fa 993d
000001a0: 2b99 553d 404b 6fbc c568 2d3e 08b5 a8bc
000001b0: 1977 f33d 9d9d bdbd 2165 95bd 7b25 993c
000001c0: f61b 0a3e 4dbd 393d 2df6 37bb f084 febd
000001d0: 285e a33d 6e0f 123d 1485 1dbc 6e96 a93d
000001e0: fa80 f8bb 9d81 80bb 7924 9e3d e450 153e
000001f0: a57b 1f3e f3ff 473e 4d27 913d 4a3a 88bd
00000200: 01de 953d 6a8d 82bc 229a 68bd 57cc ce3c
00000210: 0efb 4fbd ceb3 43bc eae7 003e 6e64 27be
00000220: 586a b8bd 88f5 b03d 7015 233e 5447 24be
00000230: 6817 43bd 88e0 dbbd 62f3 e83d a640 e33d
00000240: dd56 e03d f95c 593d 3afc c13d 4d2d 19bb
00000250: 1eae b1bc 83d7 3bbc 9e5c be3d b66f be3d
00000260: 97bc 0cbd c3f5 05bd 0167 df3b b95c c2bc
00000270: e21a 9abe 6923 1c3c ac75 e5bc de1a dc3b
00000280: 8aec e2bd 1a2b 243d 04ae 993d caa3 8dbe
00000290: f006 403d 8e05 76bc 9f9b 97bd cc8b afbd
000002a0: 0d36 143c 91a7 5b3e 9fe2 923c 07df 7abe
000002b0: 6d85 b33d 1ea0 5abe c523 4b3d 4c26 063d
000002c0: dfb2 4e3d e8f2 2c3e d44f b93d c8a1 d83a
000002d0: e6bd 0cbe 4747 cfbc 8115 37be bd58 18bd
000002e0: 85a8 423d 3f29 1cbd 660b d73b 20a8 063d
000002f0: a946 423b cbea 13be 17ad 933d f0d8 b53a
00000300: 018c 2dbe 4edb afbb 022d 8ebd 1565 22bb
00000310: d012 c5bd 16b7 13bd ae44 fe3d cf59 00bc
00000320: f167 1fbe 43af 9fbd 394b dabd 9adc 3a3e
00000330: cd33 96bc 5d6c 573d de39 2abd 4da1 cd3d
00000340: 7f40 d73c a3da 563d 6fcc 61bd f500 75bc
00000350: 1d12 f73d fc7a 193e 65c7 463e e344 b0bd
00000360: e230 1dbe c008 67bb b3db ebbc 05c4 e63d
00000370: 4d33 86bd 3a1d 94bc c00c 023e ae2d 3bbc
00000380: 98a2 3c3d e497 383d ca9b cb3d 6957 a9bd
00000390: 59fc 85bd 3858 dc3c 60ee 20be 7d87 3d3e
000003a0: 4d68 e3bd 8e27 503b f2b6 e1bd 1887 b53d
000003b0: d088 d93c c211 50bd a81d ee3c de69 abbd
000003c0: 1e34 703c 73de 11bd 5948 b8bc 0194 0b3e
000003d0: 09d6 80be 19ee d7bc 9583 7f3d 81e1 f63c
000003e0: 6895 0f3e ed04 10be 5960 6c3d 8fea b3bd
000003f0: 89e7 b6bd af6e 593a 1469 363e b014 933d
0.06026109 0.033515602 0.0765694 0.02361112 -0.04129623 -0.035451453 -0.044729173 0.0449044
-0.03260295 0.042357992 -0.16159861 -0.023040133 0.11248517 0.13821445 0.16110529 0.013017543
0.09993815 0.18142252 -0.09535102 0.050143335 0.011355125 0.08581604 0.08934736 -0.01715455
0.23304708 -0.0430959 0.07628154 -0.09057481 0.06269335 0.10555135 0.10526752 0.16653104
0.1407086 -0.017623357 -0.2146408 0.18690178 0.09919577 0.048809133 0.2352992 0.14429182
-0.11001298 0.14049366 0.18183526 -0.028162694 -0.14564009 -0.05178432 -0.0033415447 0.074693
-0.06619126 0.008825129 -0.09316297 -0.052460875 0.18128769 0.20164646 0.025872314 0.026624635
-0.10499749 0.00018345186 0.028111894 0.073403195 0.031902272 -0.05578253 -0.07400619 -0.08695145
-0.12898421 -0.016701076 0.046637107 0.12576362 -0.032889746 0.007394615 -0.06669315 -0.010930806
0.036366727 0.070447326 -0.0139396805 -0.032387275 0.026902994 0.26915726 0.17054641 0.21860157
0.059725463 0.16804074 -0.08362174 0.026493752 0.09865845 0.1381112 -0.008712588 -0.109946236
0.025115369 0.02550902 0.14701247 0.12940334 0.018366776 0.012986195 -0.15558884 -0.07051288
0.14027594 0.003952871 0.07109449 0.005851591 0.16775708 0.025667366 0.012145738 0.07518558
0.052148025 -0.014605343 0.16934498 -0.020594135 0.118879505 -0.09258578 -0.072946794 0.01869463
0.13487229 0.045346547 -0.0028070316 -0.124276996 0.07976943 0.035659246 -0.009614248 0.08280645
-0.0075837346 -0.003921701 0.077218 0.14581639 0.1557451 0.1953123 0.07087574 -0.06651743
0.073177345 -0.015936572 -0.056787618 0.025243921 -0.050776534 -0.011944724 0.12588468 -0.16346905
-0.090046585 0.08640581 0.15926147 -0.16042835 -0.047629744 -0.10736185 0.113745466 0.11096315
0.10954068 0.05306718 0.094719365 -0.0023372949 -0.02168947 -0.011464956 0.09295009 0.09298651
-0.03435954 -0.03270508 0.006817699 -0.023725854 -0.30098635 0.009529927 -0.028010212 0.00671707
-0.110802725 0.040080167 0.07503894 -0.27664024 0.046881616 -0.015015973 -0.07402729 -0.08571586
0.00904609 0.2145064 0.017930327 -0.2449914 0.08765683 -0.21350142 0.04959466 0.032751366
0.050463554 0.16889536 0.09048429 0.0016527707 -0.13744316 -0.025302542 -0.17879297 -0.037194002
0.047523994 -0.038125273 0.006562638 0.03287518 0.0029644168 -0.14445035 0.07210749 0.0013873857
-0.16947939 -0.0053667193 -0.06942178 -0.0024779488 -0.09622729 -0.036063276 0.12415443 -0.007833912
-0.15566994 -0.077971004 -0.10658879 0.18248215 -0.018335247 0.052593578 -0.041559093 0.10040531
0.026275871 0.052454602 -0.055126604 -0.014953841 0.12064002 0.14988321 0.19412 -0.08606889
-0.15350679 -0.0035253018 -0.028791284 0.112678565 -0.065527536 -0.018080343 0.12700176 -0.011424465
0.0460535 0.04506673 0.09941824 -0.08268625 -0.06542272 0.026897535 -0.15715933 0.18508716
-0.11103878 0.0031761858 -0.11021222 0.08863658 0.026554495 -0.050798185 0.029066876 -0.08369802
0.014660863 -0.035612535 -0.022495436 0.13630678 -0.25163296 -0.026358651 0.062381346 0.030136826
0.14021838 -0.14064379 0.05770907 -0.08784973 -0.089308806 0.0008294386 0.17813522 0.0718168

network_body._body_endoder.seq_layers.2.bias f4 [128]
00000000: 59cd 8e3d 5101 423c 5de4 b43c d15b 523d
00000010: 8777 963d 6e7a b93c 3b5c 5dbc 4919 e5bc
00000020: 260e 2a3d b2c7 b73d 5d16 723d ec0b 823c
00000030: 5b33 bb3d 03d8 8c3d 30f3 153b 0801 673d
00000040: 337b cb3d 9b27 663d 12cf 743d bfb5 8a3d
00000050: b38b 953d 0eaa 193d 28a1 fc3c bf68 8b3d
00000060: eb7d 273d 8607 cc3d 0d0a 643d 1c16 8e3d
00000070: 324d a23d 2397 c23d b573 ac3d 6b0a 9d3d
00000080: 939d 3b3d 3289 f6bc 02bc 38bd 33a0 983d
00000090: e925 9c3d 01f4 183d c1b8 a23d 0c8f 483d
000000a0: 7958 423d c9b5 28bd 4347 593c 6869 f73c
000000b0: 929b 8e3d 7dee c63b ce44 843c 3fdb 6d3d
000000c0: fc37 793d 7d68 8e3d f11a ae3c fa64 adbc
000000d0: 0876 5c3d cb1e 753d deeb 853d 78fe ba3d
000000e0: 4bd7 673d 2cfd 833d 742c 6d3d 797b bf3d
000000f0: 165a f03c eb08 3a3d 4256 cd3d 73cd 973c
00000100: d663 5d3d 9068 2e3d f47c 703d 6507 3e3d
00000110: b3e4 ac3d 0d9e 25bb 1231 2e3d 6824 a0bc
00000120: 3301 903d bae2 3d3d b3b9 3b3d f6f0 023d
00000130: 15aa cd3c 8b7d 99bc 92e3 ac3d 451f 913d
00000140: 1b0d c43d 0b6c 073c cd95 023d 3f51 a23d
00000150: aed6 733d a242 af3d cfa3 3fbd 298f a93d
00000160: 28ae 833d ac75 a93d 35bb 9e3c 05f7 aa3d
00000170: 5ff4 043b 1beb 73bc fad1 8a3d d13b 923d
00000180: c0c0 d73d cbdf 703c 6b11 18bc 1c52 3b3d
00000190: 6eb4 da3c d7f2 483d 27af bebb 94ab 5d3d
000001a0: 342b 323d 732d a23d 25d0 103d 9bb2 b13d
000001b0: bcb6 adbc 29c1 b93d ba9f 093c df79 853d
000001c0: ef32 843d fb97 c33d a5db 163d d1fd b83d
000001d0: 54ec 623d 8846 873d ece1 ac3d aef9 9b3d
000001e0: 1a71 6e3d 01b2 033d f9ff b93d bbab 00bd
000001f0: efe0 1dba ba2b 8c3c ea73 653c 580b 933d
0.06972761 0.011841134 0.022081548 0.051357094 0.07347017 0.022641387 -0.013510759 -0.027966158
0.0415174 0.08973636 0.05910336 0.015874825 0.09140655 0.068771385 0.0022880547 0.056397468
0.09935608 0.056190114 0.05976779 0.067729466 0.07302036 0.037515692 0.030838564 0.06807088
0.04089157 0.099623725 0.055673648 0.06937811 0.0792488 0.09501483 0.08420507 0.07668003
0.04580457 -0.030094717 -0.045101173 0.074524306 0.07624418 0.037342075 0.07945395 0.048964545
0.047447655 -0.04118899 0.013261619 0.030201629 0.069632664 0.0060709105 0.01614609 0.058070417
0.060844406 0.06953523 0.021253081 -0.021166313 0.0538235 0.05984382 0.06539129 0.09130567
0.056601804 0.06444773 0.057903722 0.093497224 0.029339831 0.04541866 0.10026218 0.018530583
0.05405029 0.042580187 0.058712915 0.04639377 0.084420584 -0.0025271208 0.042527266 -0.01954861
0.07031479 0.0463588 0.045831393 0.03196808 0.025105515 -0.018736621 0.08441843 0.07086042
0.09572812 0.008265506 0.031881142 0.07925653 0.059530906 0.08557631 -0.04678708 0.08279259
0.06429702 0.08274397 0.019376377 0.083478965 0.0020287258 -0.0148875965 0.06778331 0.07140315
0.10534811 0.014701794 -0.0092814965 0.045732602 0.026697364 0.049059715 -0.0058192196 0.054118708
0.043498233 0.07918825 0.035354752 0.086766444 -0.021205299 0.090700455 0.008399898 0.06517386
0.06455027 0.09550472 0.036830563 0.09032787 0.05540116 0.0660525 0.08441529 0.07615982
0.05821333 0.03215218 0.09082026 -0.031413775 -0.00060225924 0.017110694 0.014004687 0.07179898

action_model._discrete_distribution.branches.0.weight f4 [11, 128]
00000000: 41ae a6bc f358 2cbc b4e5 113d 755e ef3c
00000010: cf38 d6bc 4118 d33c c4fb 433d ed67 48bb
00000020: 1c1b 9a3c d798 dbbc 5371 313c 6893 1d3d
00000030: bb49 54bd 1a1f 7c3c 6a97 333d 4028 5cbd
00000040: 43bf 4ebd 26c1 a53c 0acc 49bd fb69 24bd
00000050: b0a0 e1bc 4cf9 6bbd 26fb 843c 193b b6bb
00000060: 0d4e 94bb 3819 d739 0e39 25bb 11c3 37bd
00000070: 1604 4bbd a34f cf3c 6d09 5dbd 5c21 f9bc
00000080: 0670 dbbc 4457 1f3d 16a6 cd3c e8a9 cc38
00000090: f1c3 d23c e601 e7bc 11fe 3fbc b17b 5fbd
000000a0: 1595 71bc b087 293c cceb e9bb 38a9 5a3d
000000b0: c258 95bc ff8c 40bc d1f9 19bd de3b 00bd
000000c0: 8492 e5bc 2079 33bd 74af 0b3d f209 b3bb
000000d0: dce3 e93c bcc6 e13c 8569 50bd dbb3 59bc
000000e0: cb5c 7ebd 7815 e3bb 8bea 8d3a a591 99bc
000000f0: 616f 213d da11 8dbc 6f8f 113d b08f d33c
00000100: 49e2 bcbc 69f8 b93c ce80 803c 2a4b 453c
00000110: cc8d 133c 42fa 073d fe7f a8bc 19a5 b83c
00000120: 6106 98bc 7159 e1bc 18d4 52bd 6227 39bd
00000130: 3e8d e6bc 3132 133c fae7 45bb da38 05bd
00000140: 3f63 f6b9 3ae7 073c bf25 e1bb f43b 39bd
00000150: 513d 2abd 2606 12bd 059b bc3c be06 bfbb
00000160: 7ecc c4bc 1269 93bc bece 22bc 861f febc
00000170: 5e2f c6bb cdf9 803b 6215 0dbd c75b f6bc
00000180: 0ecf 653c cb81 b33b 1bc1 d93c 9c31 65bc
00000190: dc9f 8b3d 7497 d03c 50a4 8bbc 34ba 44bd
000001a0: e1ee b5bc 2f6e 03bd d425 a93c e5a8 71bd
000001b0: 32f7 e63c e249 a4b9 8c68 253c cdb7 773c
000001c0: c2bc c13a f76d 80bc 2ada c0bc fbe5 ddbb
000001d0: 05f2 24bd aee5 4abd 4e18 35bd 5a5d acbc
000001e0: 2b45 9a3c fb4f 0abd f12e 1cbd eaba 363a
000001f0: ac3f 00bc c3a6 14bd 71be 583d ea5c 5abd
00000200: c44a 093c 5b01 debb 8a5d 943c 354f 583c
00000210: d253 2c3a 3e13 c33c b02d 7239 e5ac dabc
00000220: 62da de3c eb2b 03bc 4b30 573c b49e 4a3d
00000230: 2640 f1bc 2863 4abc 9135 edbc 7841 39bd
00000240: 4382 b3bd 8e01 053c d3bf 1abd 7c74 6ebd
00000250: eca2 babc 7a3a a0bc 9af8 b3bc 0e84 b23c
00000260: 64da 79bb 9657 04bb 1b7e 80bc a1a8 37bd
00000270: 57e3 e5bc 8efb 253d 2a01 cebc ba0c 05bc
00000280: 279c efbc 8d72 9bb9 a3b0 023d abd6 103d
00000290: 72b8 df3c 6075 34bb 99dd 70bb 505b 2dbd
000002a0: f9b6 a8ba b547 033c bb28 e53b 1835 063d
000002b0: 1feb 27bd 95b7 c0bc 951a 66bc 88b6 c0bc
000002c0: b61e aabc e887 0fbd 580e 2b3d 79cd 17bd
000002d0: 402a f23c e83f cd3c d007 9cbc 2cc9 5a3a
000002e0: 6140 33bd e258 6fbb 1b63 24bd d86f 9c3c
000002f0: b47e b83b b6a5 703b 7dda a43c 52f9 fabc
00000300: 518a d2bc ae75 bbbb e3df 2c3c 9abf f73c
00000310: 3941 b33b 3ba6 7c3c 2c49 16bd d5e4 ae3c
00000320: 604d 1abd 651b a5bc 48eb c3bc 9294 63bd
00000330: e7e8 c8bc c655 95bb 2e6c 963c 3cd5 02bd
00000340: 281d a5bb 7c1b 2c3c 4045 5ebc 2275 2ebd
00000350: a455 10bd f67f f03c 3c49 893c 67eb 7f3c
00000360: 37ba 0bbd 01dc d0bb f2b3 e3b9 a0b0 493c
00000370: 19b1 3bbd 12fc 2ebb ec20 6bbc 18cf c9bb
00000380: 7a86 6f3c 5ceb 7bba 55ce 093d f2d0 063c
00000390: 6a6d ac3c 777d d13c 1707 14bc 85b5 e2bb
000003a0: d0ef 94bc 1844 ccbc 4c34 623d bb67 81bd
000003b0: a12f 093d 264c 15bc 1f6e 0b3c 208f 343c
000003c0: 4d9a 7fbc 948e 79bc 5d5f 22bd bbd3 493b
000003d0: 3ea7 1abd 0081 04bd 77ea 1fbd 4f0b 023b
000003e0: f5df b03c 4a59 83bd c369 38bd e6fd 9c3a
000003f0: 3a9d 6ebb d5ef c4bc 2fd4 613c 6518 14bd
-0.020346763 -0.010519254 0.035619453 0.029219845 -0.026150135 0.025768401 0.047847524 -0.0030579523
0.018811755 -0.026806278 0.010830241 0.038470656 -0.051828127 0.015388275 0.04384557 -0.053749323
-0.05047537 0.020233702 -0.049266852 -0.040140133 -0.027542442 -0.057610795 0.016233038 -0.005561244
-0.004525906 0.00041026785 -0.002521101 -0.044863764 -0.049564444 0.025306528 -0.053964067 -0.030411415
-0.026786815 0.038901582 0.02510361 9.7591255e-05 0.025728198 -0.028199147 -0.011718289 -0.05456132
-0.014745017 0.010347292 -0.007138705 0.053384036 -0.0182308 -0.011752366 -0.03759176 -0.031307094
-0.028023966 -0.043816686 0.034102872 -0.005463832 0.028551035 0.027560584 -0.05088188 -0.01328751
-0.062100213 -0.0069300495 0.0010827346 -0.018746207 0.03941286 -0.017220426 0.03553718 0.025825351
-0.02305712 0.022701459 0.015686419 0.012041846 0.009005975 0.03319765 -0.020568844 0.022539662
-0.01855773 -0.02750847 -0.0514718 -0.045203574 -0.028143521 0.0089841345 -0.0030198083 -0.03252492
-0.0004699472 0.008294875 -0.0068709548 -0.04522319 -0.041562382 -0.035650395 0.023023138 -0.005829661
-0.02402329 -0.017994437 -0.0099369865 -0.03102089 -0.006048127 0.0039360286 -0.03444422 -0.03007306
0.014026416 0.005478119 0.026581338 -0.013988879 0.068176 0.025462843 -0.017046124 -0.04802914
-0.022208633 -0.0320875 0.02064792 -0.05899896 0.028194044 -0.00031335565 0.010095727 0.015119505
0.0014780986 -0.015677435 -0.023541529 -0.0067718006 -0.04026987 -0.049535446 -0.044212632 -0.021040607
0.01883181 -0.03376768 -0.038130704 0.00069706014 -0.007827681 -0.03629185 0.052915994 -0.053311266
0.008379642 -0.006775064 0.01811101 0.013202478 0.00065737695 0.023812886 0.00023095938 -0.02669377
0.027203742 -0.008006076 0.013134073 0.049467757 -0.029449534 -0.012352742 -0.028956207 -0.04522845
-0.0876508 0.008118046 -0.037780594 -0.058216557 -0.022782765 -0.019559134 -0.021969128 0.021791484
-0.0038124556 -0.0020193807 -0.015685132 -0.04483855 -0.028062506 0.040523104 -0.02514704 -0.00812071
-0.029249264 -0.0002964925 0.031906735 0.035360973 0.02730963 -0.0027535781 -0.0036753176 -0.04232341
-0.0012871913 0.008012702 0.006993381 0.032765478 -0.040995713 -0.023525039 -0.014044424 -0.023524538
-0.020766597 -0.03504172 0.041761726 -0.03706119 0.029561162 0.025054887 -0.019046694 0.0008346017
-0.04376257 -0.0036521484 -0.040133577 0.0190963 0.0056303386 0.0036719865 0.020123715 -0.030636463
-0.02570072 -0.0057208156 0.010551426 0.03024273 0.0054704216 0.015420492 -0.036690876 0.02134935
-0.037671447 -0.020154664 -0.023915902 -0.05556161 -0.024525119 -0.004557344 0.018362131 -0.031941637
-0.005038876 0.0105046 -0.013566315 -0.042592175 -0.035237923 0.029357892 0.016758554 0.015620089
-0.034113135 -0.0063738828 -0.00043430884 0.012310177 -0.04582319 -0.0026700539 -0.014351111 -0.0061587207
0.014619464 -0.00096099614 0.03364404 0.008228527 0.021048266 0.025572522 -0.0090348935 -0.0069186115
-0.018180758 -0.024934813 0.055225655 -0.06318613 0.033492688 -0.0091123935 0.008510142 0.011020452
-0.015600753 -0.015231747 -0.039641727 0.0030796367 -0.03775715 -0.032349586 -0.039041962 0.0019843166
0.021591166 -0.06413515 -0.045022737 0.0011977523 -0.0036409632 -0.024040142 0.013783499 -0.036156077

action_model._discrete_distribution.branches.0.bias f4 [11]
00000000: 30f6 94bc 4df8 9dbc 85c3 89bb 2bad 49bc
00000010: 2185 803c 08e8 4b3d 6314 3e3d 3a88 9dbc
00000020: 44f8 6abc 8600 d9bc b26e 11bd
-0.018183798 -0.019283438 -0.004204216 -0.012309353 0.01568848 0.04978183 0.04640616 -0.019229997
-0.014341418 -0.026489507 -0.035505958

action_model._discrete_distribution.branches.1.weight f4 [11, 128]
00000000: 4ec4 c7bc 29ba 01bd 7591 723b ecb3 f4bb
00000010: 9633 a1bb 0d0d 1c3c 6623 843c 403f 043d
00000020: d407 36bc 7529 1dbd f693 193b 59c4 ff3b
00000030: 0b9c 6fbd dd35 bebc 09ba f9bb 7b8d f9bc
00000040: 1b22 2bbd e625 a2bb 01c8 67bd e2a9 50bd
00000050: 0c53 c4bb 5cc3 04bd 2fb5 b23c d104 75bc
00000060: 2da5 d0bc 0be9 98bb 87e5 b93c f696 48bd
00000070: 34e5 c6bc 58d3 d8bc 58f0 f3bc caa2 4abd
00000080: 65a8 45bc 7c6d 833c a9e1 ac3c c099 53bd
00000090: ef39 15bb 99a5 b2bc 1e7c 0ebd 25b8 01bd
000000a0: 34ee f1bb ea6f 623c 07b6 b3bc db19 0dbb
000000b0: 25da 9bbc c2e5 07bd b3e3 9ebc 34da 08bd
000000c0: 6d72 1f3c ae77 6bbd e247 503b fbe3 833c
000000d0: ada7 b03c 1a86 e2bc c94b 49bd eda5 0dbd
000000e0: 2796 27bd ca17 d7bc c4f9 793c 4514 19bd
000000f0: f2eb 9cbb 446e 223c 906f b1bc 1a6f 48bc
00000100: 36a6 47bd 8e58 943c d778 f8bb 71f0 34bc
00000110: a0da a1bc cded 2f3d 71fd 92bc e752 d33c
00000120: 0083 38bd b6b0 09bd e8fb 05bd 6752 8cbc
00000130: af43 98bc 80be 0b3c 5767 c9bb 4700 debc
00000140: 61fd 28bd b277 a73b 6d5c 4ebd 1b21 2fbd
00000150: 583e 8ebc 8cd1 60bb 15b0 123d 2b53 c0bc
00000160: 3608 45bd c836 c6bb e869 bcbb 181e 34bd
00000170: a5cb e3bb c68f 463c 5232 04bd beeb aebc
00000180: dc43 e7bb 0bcf 4e3c f66b 873c 39a8 dfbc
00000190: 15c0 c23c 9a71 debb 175c ccbc c06d 59bd
000001a0: 68ed 1bbd 1ecd 21bc 915d 95bc ee2b 0fbd
000001b0: 9fb2 1ebb 818d 43bc b4dc 52bc 722b 613c
000001c0: 4b41 48bc 02a3 2fbd ca94 0dbc 08d2 6abc
000001d0: 5774 21bb cf58 00bd 4f8f 91bc 4a79 e9bc
000001e0: 3e9a 03bd f334 30bd f633 3fbc 5c92 443d
000001f0: 5b41 85bc 8f31 edbc 3c05 a83c d139 81bd
00000200: cd2c 1bbc 2849 76bc 9f5c 70bc 6aaf abbb
00000210: 81c1 5e3c 1f13 42bb 001e 3d3b 1349 a13c
00000220: f902 1dbd 4cf2 eebc 27cf 39bd 8d08 063b
00000230: a305 01bd 65f9 3abb b07c 7fbb e002 24bd
00000240: 71ba 95bd 240a a7bc 47b7 15bd 09f8 0bbd
00000250: a255 91bc 782a f6bc 4d94 fb3b a23a 31bd
00000260: 809c b7bc 8bcd 2cbc e8a4 56bc c419 37bd
00000270: 41d9 0ebc 5c8d 68bc 9f6b 1ebd 2647 dcbc
00000280: cea5 e3bc feb5 843c e2ad 1f3d 9745 81bc
00000290: 8803 9fbc 64d4 11bd 88c4 56bd dceb 15bd
000002a0: c70e 90bc 6446 103d 3958 2ebc 6d39 a5bc
000002b0: c2c7 13bd d3ad 0abc 02f9 06bb c443 c7bc
000002c0: 6dd8 a1bc f012 0cbd c164 9abc edcf 1f3d
000002d0: fbde 673c 77bb adbc da36 a4bc 93fd 53bd
000002e0: 3424 e3bc 4cbe 32bd c2f7 07bb 8ecf 9fbc
000002f0: 7aaa a7bc 6d45 3bbd e875 cebc 352f f23c
00000300: 7374 14bd 3caf 153d ba13 d3ba 8172 c2bc
00000310: 2b17 28bd 90fb b13c ca96 bd3a d655 8abc
00000320: 0f93 90bc 1c9d 40bd 09a8 0bbd 74d7 b7bc
00000330: 2db8 0ebc c045 ff3a bce2 abbc 345b f4bb
00000340: 6f6a b7bc b4e1 98bc f1a9 22bd b251 11bd
00000350: 0fa5 56bd 20f0 00bd b941 533d bc0a 96bc
00000360: 72f0 a2bc 900c 2ebd 96d6 843c 6d33 4ebd
00000370: a0a8 92bc 002f 6fbc 01ba babc e72f 51bd
00000380: 1170 2ebd 0341 3e3c 461b 673b 52e0 2ebd
00000390: e66e d83c 6281 44bd 9191 d43b be7f 21bd
000003a0: a921 c4bc ac4c 0abd a5da 3dbd e268 4cbd
000003b0: d9c6 583c f24a 7bbc 2464 88bc 6564 6bbb
000003c0: 1e60 3fbd 48c8 63bd 348b f9bc 9dc8 10bd
000003d0: 6b65 22bd 4db3 3fbd d203 f4bc 1112 bebc
000003e0: dba4 64bd a53b c8bc 49f6 7fbd 5847 343d
000003f0: 3344 f6bb 426e 22bd aad8 65b9 a3a5 4fbd
-0.024385598 -0.031671677 0.0037012969 -0.0074677374 -0.0049194796 0.009524596 0.01613016 0.032286882
-0.011110265 -0.038369615 0.002343414 0.007805389 -0.058498424 -0.023219043 -0.007621054 -0.030462971
-0.041780572 -0.0049483655 -0.056587223 -0.050943263 -0.0059913453 -0.03241287 0.02181491 -0.014954762
-0.025469387 -0.0046664528 0.022692455 -0.048972093 -0.024279214 -0.026467964 -0.02977769 -0.049471654
-0.012064074 0.016043417 0.021103697 -0.0516603 -0.0022770127 -0.021807479 -0.034786336 -0.031669755
-0.0073831324 0.013820628 -0.021937383 -0.0021530304 -0.019024918 -0.0331781 -0.019395685 -0.03341122
0.009731871 -0.057487182 0.0031781127 0.01609992 0.021564329 -0.027651835 -0.04914454 -0.034582067
-0.04091468 -0.02625646 0.015257303 -0.037372846 -0.004788869 0.009913985 -0.021659642 -0.01223352
-0.048742495 0.018108632 -0.0075827646 -0.011043654 -0.019757569 0.042951394 -0.017943116 0.025796367
-0.045046806 -0.03361579 -0.03271094 -0.017129136 -0.018586962 0.008529305 -0.0061463523 -0.027099742
-0.041257266 0.0051107043 -0.050381113 -0.04275618 -0.017363712 -0.0034304587 0.035812456 -0.023477158
-0.048103534 -0.006049011 -0.0057499297 -0.043974012 -0.0069517666 0.012119239 -0.03227455 -0.021352645
-0.00705765 0.012622605 0.016530972 -0.027301895 0.023773232 -0.0067884447 -0.024946256 -0.05308318
-0.038068205 -0.009875564 -0.018233093 -0.034954004 -0.0024215353 -0.011935593 -0.012870003 0.013743268
-0.012222598 -0.042880066 -0.008641431 -0.014332302 -0.0024635994 -0.031334694 -0.01776853 -0.028500218
-0.03212952 -0.043019246 -0.011670103 0.04799114 -0.016266515 -0.028954295 0.020510308 -0.06309856
-0.009471131 -0.01503209 -0.01467052 -0.005239417 0.01359594 -0.0029613448 0.0028856993 0.019688165
-0.038332913 -0.02916827 -0.04536357 0.0020451874 -0.031499516 -0.0028529998 -0.0038984232 -0.040041804
-0.073109515 -0.020390578 -0.03655174 -0.03417209 -0.017741028 -0.030049548 0.007677591 -0.043268807
-0.022413492 -0.010547052 -0.01310084 -0.044702306 -0.00871879 -0.014193859 -0.038676854 -0.026889395
-0.027789023 0.016200062 0.038984187 -0.015780253 -0.019410864 -0.035602942 -0.05243352 -0.036601886
-0.017585171 0.03522338 -0.010641151 -0.020168984 -0.036079176 -0.0084642945 -0.0020595198 -0.024324305
-0.01975652 -0.034197748 -0.018846871 0.039016653 0.014152284 -0.021207554 -0.020045687 -0.0517555
-0.027727224 -0.043638512 -0.002074704 -0.01950815 -0.020467032 -0.045720506 -0.025202706 0.029563526
-0.036243867 0.03654407 -0.0016103901 -0.02373624 -0.04103772 0.0217264 0.0014464494 -0.016886633
-0.017648248 -0.04702483 -0.034095798 -0.022441603 -0.008710903 0.0019475743 -0.020982139 -0.0074571613
-0.022389619 -0.018662311 -0.03971285 -0.0354783 -0.052403506 -0.031479 0.05157635 -0.018315665
-0.019890044 -0.04249245 0.016215604 -0.050342012 -0.017902672 -0.014598608 -0.022793772 -0.051071074
-0.042587344 0.01161218 0.003526406 -0.042694397 0.026420068 -0.04797495 0.0064870794 -0.039428465
-0.023941832 -0.033764526 -0.046351094 -0.04990471 0.013231003 -0.015337693 -0.016649313 -0.0035917994
-0.046722524 -0.055610925 -0.030461885 -0.03534757 -0.0396475 -0.046801854 -0.029786978 -0.023201974
-0.05582128 -0.024442503 -0.062490735 0.04401335 -0.007515454 -0.03965593 -0.00021919855 -0.050695073

action_model._discrete_distribution.branches.1.bias f4 [11]
00000000: db35 0bbd e857 1ebd 4fc9 14bd 9ff2 61bb
00000010: ab83 d739 97fb ec3c 87b1 693d 8424 5bbc
00000020: d137 8cb9 f5e9 a5bb c05c 4abb
-0.033986907 -0.038658053 -0.036324795 -0.0034476889 0.00041106096 0.028928561 0.05705407 -0.013375405
-0.00026744467 -0.0050632902 -0.0030878037

onnx::Div_65 f4 [20]
00000000: 5d87 9c3e 118c bc3e 691d a73e b890 d13e
00000010: 2857 b23e ea62 e13e 362b be3e 3711 ec3e
00000020: 52f9 ca3e c678 f23e 18cf d83e 228b f53e
00000030: 69a4 e63e bbb5 f63e 50e8 ef3e deb2 f73e
00000040: d0fb f53e b610 f83e a047 f83e 3a60 f83e
0.30572024 0.36825612 0.32639626 0.40930724 0.3483212 0.44020778 0.37142342 0.46106884
0.3964334 0.47357768 0.423455 0.47957712 0.4504731 0.48185524 0.46856928 0.48378652
0.4804368 0.4845025 0.48492146 0.48510915
